TD3/saves/best_avg_actor.pth (torch, 518693 bytes, 6 tensors)

l1.weight f4 [400, 18]
00000000: a1cf 3e3f c622 80bf 57fe b33e ead5 68be
00000010: 5006 003f 7245 003e 1425 c6bf 12c7 cf3f
00000020: ab9d 26c0 2a0e 8fbf bb70 b5be 7990 0dbf
00000030: e44b d33e d590 a83f fbcf 723e cc85 50bd
00000040: b152 55be 51a4 5a3f 7c69 5f3f 6964 cb3f
00000050: 0fb8 ccbf bc69 4bbf e5e3 fcbe b734 c73c
00000060: 823b a6bf 7121 92bf 3e39 ed3f 8c9b 253f
00000070: 6914 ac3d d7a0 a33d 5983 74be 1072 1fbf
00000080: 7cd0 78bc 89bb 723e 328c 9a3f 2c49 843d
00000090: 1680 8f3e d84d 27c0 023e 883f 7705 a7bd
000000a0: 1c2e 30bf cac6 63be 4359 61bf fc8b 83bf
000000b0: 4886 693f 4a5a fd3d 658e 913e 527f b7be
000000c0: 88fa c93f c3a0 54bf 5893 153e 2cf1 f5bc
000000d0: a14e 0abf d7fb 3d3f 883e dc3f 897c 223f
000000e0: 0d57 1b3d 9810 04bf ba97 43bf 2c54 97be
000000f0: 81d4 f8bf 4d76 82bf 306e 46be ccc9 933d
00000100: 47bf ae3e f3bd 103f 651e b739 05f0 f3be
00000110: eea9 4e3e 3aba 0a3e 6f43 353f 9264 a7bf
00000120: 1b42 553f 9b24 ab3f 2834 403c 73e6 7e3e
00000130: fe43 72bd 1d2e 983e 759e 94bf 9f9f 1b3e
00000140: f213 813f 6add c5be d45e 00be 3363 d23e
00000150: 3a64 ec3f 28e7 b9be 24a4 b93e 9a5a 2fbc
00000160: 7d55 2abf 4ae6 11bf 695f 033b a90e 36bf
00000170: 0fce 2440 0e55 5abe de42 59be ee86 acbe
00000180: 98a5 c4bf dbf9 0540 5453 c63d dccb 10be
00000190: c115 d9be e8f9 283d 6994 143f cac7 c2be
000001a0: fe04 b63e 71b5 2bbe 8888 9dbf b0e7 04bf
000001b0: 7b71 303e 7fec 823e 878d 8cbf 9a3e 74bf
000001c0: 484f 26bf a70a 523e 3452 e5bf e28e 4e3f
000001d0: 8119 ad3e 71a6 cb3e 81c2 1a3f 8e90 45bf
000001e0: 062a 3ebe 9c45 59bf 97fd ddbe 6f1f f7bc
000001f0: 7a58 87be c01f bebf f969 3740 4cfa e6bc
00000200: dff2 11bf 0c1e 613e e000 b0be 4ee6 21be
00000210: 9ff7 8abf 29c0 a73e de4c 0b3f cd55 b83e
00000220: 2988 863e 21ef 8d3e 98ff 293e c3e3 0b3d
00000230: 3635 99be ccc8 4bbe 53a9 84be d474 6dbf
00000240: 8f97 eb3e f090 833f 8552 543e 418e ac3e
00000250: c938 1cbf 737b 933e 39ee a8bf 7376 e6bd
00000260: a509 acbe 292e 003f 9675 5ebf 8567 9e3e
00000270: 035e a33e 9184 8bbe f0bb a13e 3878 cd3e
00000280: 0cc9 05bf 4012 0abf 4346 b93f eb0a 25bf
00000290: b657 9fbe a165 333f 6f41 a23e 603e ffbe
000002a0: 09b3 b63e 3967 633f 8bc0 d7be 8fe8 a93e
000002b0: d5f0 a53e bd2f 1f3e 7bb7 75bf 1564 e33e
000002c0: 57ae 9b3e fc15 e53e 10a3 2abf 1b92 6ebf
000002d0: 9f81 13c0 29a6 3fc0 e83f d33f afe9 a9be
000002e0: a751 1fbf 9517 19be 988e 423f 217a b43e
000002f0: 0077 01be 48e6 f23e 3e58 863d 67d8 33b9
00000300: ece5 3f3f 10a4 903e 4566 ac3d 3fee d0bd
00000310: b010 d7bd a7a8 d73e 9515 933f aabb 113f
00000320: eb4a 12c0 50f3 c6be 0726 83be 5d79 0cbe
00000330: 58a4 83bf d94f bebf dcf1 4a3e 05b7 2fbf
00000340: 99b0 25bf 2e54 c03e a1b8 8d3e 2705 6b3e
00000350: 3442 853e f6ea 60be 27b0 54bf b275 bbbe
00000360: 1708 203f c0cf e4bf 0373 d6be 3720 ae3e
00000370: 7a50 a4be 6fcc 113e 7629 f1bf 9131 fcbd
00000380: 1846 7abd 9ca7 2abf 850f abbe e412 22be
00000390: 7978 d83f 999d 863f b33e 073f b93e 1f3e
000003a0: 2368 34bf 4d1b 0ebf 963f fd3d 3113 353e
000003b0: cb09 5abf 235f 50bc 88dd 3f3e 0b2d 033f
000003c0: b21d 01c0 7da7 d2be f1cd 843f 1ffa 123e
000003d0: 6440 0c3e 5ba4 4cbe 56c4 9d3f e896 043f
000003e0: 97b7 4a3e e95e 323e 4502 28bf 950a c9be
000003f0: ac4c 0c3f a571 123f c97f 423f e2ba 733e
0.74535567 -1.0010612 0.35154983 -0.22737852 0.5000963 0.12526491 -1.5480065 1.6232626
-2.6033733 -1.1176198 -0.3543757 -0.5529857 0.41268837 1.3169199 0.23712151 -0.05090885
-0.20832326 0.85406977 0.8727033 1.5890018 -1.599367 -0.7945821 -0.4939262 0.024317129
-1.298691 -1.1416456 1.8533094 0.6469047 0.084023304 0.07989662 -0.2387823 -0.6228342
-0.015186425 0.23704351 1.2074034 0.06459269 0.2802741 -2.6141262 1.0643923 -0.08155339
-0.6882036 -0.22243801 -0.8802683 -1.0277095 0.9122052 0.12370737 0.2842895 -0.35839325
1.5779581 -0.830578 0.14606988 -0.030022226 -0.5402623 0.742124 1.7206583 0.63471276
0.037924815 -0.5158782 -0.7640339 -0.29556406 -1.9439851 -1.0192353 -0.1937797 0.07216224
0.34130308 0.5653984 0.00034927126 -0.47644058 0.2018201 0.13547602 0.7080602 -1.3077567
0.83303994 1.3370546 0.011731185 0.24892597 -0.059146874 0.29722682 -1.1610857 0.1519761
1.0084212 -0.38645488 -0.12536174 0.41091308 1.8468087 -0.3630917 0.36258042 -0.010702753
-0.66536695 -0.5699202 0.0020045883 -0.7111612 2.5750768 -0.21321508 -0.21216914 -0.33696693
-1.5363035 2.093375 0.09683862 -0.14140266 -0.4239941 0.041253954 0.58038956 -0.38043052
0.35550684 -0.16768433 -1.2307291 -0.5191603 0.1723079 0.25571057 -1.0980691 -0.9540802
-0.64964724 0.20511876 -1.7915711 0.8068677 0.3380852 0.39775422 0.6045304 -0.771737
-0.18570718 -0.8487184 -0.43357536 -0.030166356 -0.2643469 -1.4853439 2.865843 -0.028195523
-0.57011217 0.21984118 -0.34375668 -0.1581051 -1.0856818 0.32763794 0.54414165 0.3600296
0.26275757 0.27721503 0.16601408 0.034152757 -0.2992341 -0.19900817 -0.25910434 -0.9275639
0.46014068 1.0278606 0.20734604 0.3370228 -0.6102415 0.28805122 -1.31977 -0.11253061
-0.33601108 0.50070435 -0.8689817 0.30938354 0.31907663 -0.27249578 0.31588697 0.40130782
-0.522599 -0.539341 1.4474567 -0.64469784 -0.31121606 0.7007695 0.31690547 -0.49852276
0.35683468 0.8882938 -0.42139086 0.3318524 0.32410303 0.15545554 -0.95983094 0.44412294
0.30406448 0.44743335 -0.66655064 -0.9319169 -2.3047864 -2.9945166 1.6503878 -0.331861
-0.62233967 -0.14950402 0.7599883 0.35249427 -0.12643051 0.47441316 0.065597996 -0.00017151386
0.7496021 0.2825017 0.08417944 -0.10201692 -0.1050123 0.4212086 1.1490961 0.5692698
-2.2858226 -0.38857508 -0.2561495 -0.13718171 -1.0284529 -1.4868118 0.19818825 -0.6863864
-0.6472259 0.37564224 0.27679923 0.22951184 0.2602707 -0.2196463 -0.8308129 -0.36613232
0.62512344 -1.78759 -0.41884622 0.34008953 -0.3209265 0.14238141 -1.8840778 -0.123141415
-0.061102003 -0.66662 -0.33410278 -0.15827519 1.6911765 1.0516845 0.52830046 0.1555127
-0.704714 -0.5551041 0.12365644 0.17683102 -0.8517119 -0.012717995 0.18736851 0.51240605
-2.0174375 -0.41143408 1.0375348 0.14353226 0.13696438 -0.19984572 1.2325542 0.51792765
0.19796596 0.17419018 -0.65628463 -0.39265886 0.5480449 0.5720466 0.75976235 0.23801759

l1.bias f4 [400]
00000000: 928d 22bf 380f 19bf 2b6e 6abe 07ae 7dbf
00000010: 2541 85bf 7044 39bf 03c1 34bf 6c94 93bf
00000020: dd8d 93bf 951d 72bf 5271 253f 7a52 acbf
00000030: 85a2 b6bc eafe 1fbf ae7a a7bf fa38 48bf
00000040: fc01 d7bf 7046 0cbf b787 c2bf ecd4 34bf
00000050: c9ce d3bf c916 253f a052 85bf 8f1d 013f
00000060: 9a61 64bf 171c a9bf 994f 39bf c772 a2bf
00000070: 1701 80bf eefc 2cbf 0956 c5bf 7c5e 8bbf
00000080: 2907 d2bf 5ce7 a3bf b012 0dbf c5cd 29be
00000090: 7649 58bf 5290 b4bf 6d04 edbf e41a 97bf
000000a0: fb7f 6dbf 56f7 d9bf 58d3 8cbf 1614 89bf
000000b0: 45ab 08bf 9959 6ebf 084f a5bf 3aa4 9ebf
000000c0: 99d1 c5bf 7835 81bf 2254 83bf 8485 3ebf
000000d0: abf9 19c0 8780 b3bf 1403 c1bf 1032 92bf
000000e0: e74d fa3e 9135 80bf 9111 d7bf 12bd 69bf
000000f0: 7e81 00bf 2907 213f eeff 5dbf 7d2e 54bf
00000100: b304 d6be 940c 95bf 22b5 853e 067b 43bf
00000110: cf11 a3be 8379 5bbf 2673 97bf 1638 23bf
00000120: 116a 4bbf f92c b8be 7a96 72bf c503 65bf
00000130: 881e 01c0 cb62 65bf 5817 0ebf 77ef 8ebf
00000140: fbdc bbbf 2446 92bf ec18 87bf 72eb 0bbf
00000150: 97f5 a3be 8d73 81bf 75ac 76bf 823a 9ebf
00000160: 2025 213f b8f8 4cbf ef59 c1bd 284e b3ba
00000170: 5ad1 b6bf 771a b3bf 0d5d c1be a916 a0bf
00000180: b5ca 06bf 4b1a 0fbf 470f d9bf 109c caba
00000190: d2e9 89bf 7685 0bbf 403d 81bf a17f b4bf
000001a0: 8cf5 14bf 2dcf 81bf 62c0 a6bf 0fa4 2fbe
000001b0: aa6c 9cbf 89f0 a6bf 6fa0 19bf daef 2dbf
000001c0: 3a01 46bf c1e1 a0bf 7a65 c6bd 5ef5 8dbf
000001d0: 0661 9bbe 3fae 0fc0 3363 55bf 5359 9cbf
000001e0: 428a 83bf 2c60 293e 3fc6 9ebf 4552 87bf
000001f0: 22dc 90bf 8fb9 3a3f b084 a7be 1208 cbbf
00000200: 62ba 2ebf e981 26bf 6209 d5bf f186 7fbf
00000210: 16fc c53e 5821 b6bf e70a 2cbf 0bfa d4bf
00000220: 0eda 83bf 2e52 92bf 7448 3bbf 2185 a1be
00000230: 04d3 a0bf a306 73bf bb46 97be 552e 253f
00000240: f303 38bf 583e 89be c0b5 b3bf d191 a2bf
00000250: c010 02bf a022 16bf bde9 ecbf ad28 d9bf
00000260: 6499 83bf 5154 5ebf 2db9 bdbf e2fc 51bf
00000270: 2b61 d8be f33f 26bf c572 9b3e 991f ef3d
00000280: 00da 87bf 331b b3bf 0058 83bf c5ac a5bf
00000290: 1e04 75bd 4224 8ebf 710c 8ebf f345 b7bf
000002a0: 49b0 edbe cc6a 10bf 1360 07bf 5c50 79be
000002b0: 3a54 febf 401a 9abe 8f16 46bf fcbf f5be
000002c0: c454 a4bf cb38 73bf 6524 7dbf e727 853d
000002d0: fd39 20bf 0a19 13bf 9392 92bf 2a12 61bf
000002e0: 68f5 673d 207d 5abd 0057 bcbf 7965 00bf
000002f0: cc34 8bbf bbf8 a8bf 71c6 c7be 29b2 b5bf
00000300: c506 03bf b27e 793e 93a5 e23d 190d 82bf
00000310: 8192 2cbf 6681 dd3e c8a9 a6bf 42dc aebf
00000320: bacb b3be 6ad4 49bf deb9 96bf 253d 01c0
00000330: 1572 573e df05 50bf c001 88bf 3f8c bebf
00000340: fb68 67bf 9a01 e4bf cede 8cbf b273 95bf
00000350: fa91 04c0 4eac 693e 2fb9 7dbf 5e28 2bbf
00000360: 5d1a 69be 11e3 7dbf 4b5f 1bbf 0766 8ebe
00000370: 4b46 60bf f2ae 4dbf fd54 a7bf 7a73 8abf
00000380: cd76 acbf 3381 5dbf 88bd 6cbf 16bc d0be
00000390: 03c3 93bf 733e cebf 89c6 70bf d2b7 b43e
000003a0: eb27 573f 5317 63bf f783 a6be d13e fcbf
000003b0: 1840 82bf 59c2 cb3c 00be 77bf 25fb 23bf
000003c0: cbc1 bebe 7e76 acbf 5752 6cbe d140 8abf
000003d0: 49ae a8bf 6f1b 51bf 1c35 08bf 18dd bfbe
000003e0: ea70 46bc 536e a3bf 602e adbe bf90 c0be
000003f0: 13de c0bf e2fc b7bf 56f4 0fbf ae12 50bf
-0.6349727 -0.59788847 -0.22893588 -0.9909367 -1.0410506 -0.7237005 -0.7060701 -1.152967
-1.1527668 -0.9457639 0.6462604 -1.346267 -0.022294292 -0.62498343 -1.3084314 -0.7821194
-1.679748 -0.5479498 -1.5197667 -0.70637393 -1.6547481 0.6448789 -1.041584 0.5043573
-0.8921143 -1.3211697 -0.7238708 -1.2691277 -1.0000333 -0.6757344 -1.5416881 -1.0888209
-1.6408435 -1.280498 -0.5510664 -0.16582401 -0.8448709 -1.4106543 -1.8516976 -1.1805081
-0.9277341 -1.7028606 -1.1001997 -1.0709255 -0.53386337 -0.93105465 -1.2914743 -1.2393868
-1.5454589 -1.0094442 -1.026005 -0.7442248 -2.4058635 -1.4023598 -1.5079064 -1.1421528
0.4888756 -1.0016347 -1.6802236 -0.91304123 -0.5019759 0.6290155 -0.8671864 -0.82883435
-0.4180046 -1.1644464 0.26114756 -0.76359594 -0.31849524 -0.8573229 -1.1832016 -0.63757455
-0.7945872 -0.3597181 -0.9476086 -0.89458877 -2.0174885 -0.8960387 -0.5550437 -1.1166829
-1.4676813 -1.1427655 -1.055448 -0.54656136 -0.32023308 -1.0113388 -0.963569 -1.2361605
0.62947273 -0.80067015 -0.094409816 -0.0013679909 -1.4282639 -1.3992451 -0.37766305 -1.2506915
-0.52653056 -0.55899495 -1.6957787 -0.0015457887 -1.0774481 -0.5450052 -1.0096817 -1.4101449
-0.58187175 -1.014135 -1.302746 -0.17152427 -1.2220662 -1.3042156 -0.6001043 -0.6794411
-0.7734562 -1.2568895 -0.09687324 -1.1090505 -0.3034746 -2.2450101 -0.8335449 -1.221476
-1.0276568 0.16540593 -1.240425 -1.0571982 -1.1317179 0.7293939 -0.3271842 -1.5861838
-0.6825315 -0.6504198 -1.6643488 -0.9981528 0.3866889 -1.4228926 -0.67204136 -1.6638807
-1.030092 -1.1431329 -0.7315743 -0.31546882 -1.2564397 -0.94932 -0.2954615 0.6452382
-0.71881026 -0.26805377 -1.4039841 -1.270075 -0.5080681 -0.58646584 -1.8508831 -1.6965538
-1.0281186 -0.86847407 -1.4822136 -0.82026494 -0.42261633 -0.6494133 0.30361 0.11675949
-1.0613403 -1.3992676 -1.026123 -1.294335 -0.05981838 -1.1104815 -1.1097547 -1.4318222
-0.46423557 -0.5641296 -0.5288097 -0.24347061 -1.9869454 -0.30098152 -0.7737817 -0.47998035
-1.2838368 -0.95008534 -0.9888366 0.065017514 -0.62588483 -0.5746008 -1.1450981 -0.8791834
0.056630522 -0.053341985 -1.471405 -0.50154835 -1.0875487 -1.3200907 -0.39018586 -1.4194995
-0.51182204 0.24364737 0.11066737 -1.0160247 -0.6741105 0.43262786 -1.3020563 -1.3660967
-0.3511637 -0.78839743 -1.1775472 -2.019357 0.21039613 -0.8125896 -1.0625534 -1.488655
-0.9039456 -1.7812989 -1.1005495 -1.1675932 -2.0714097 0.22819635 -0.9911069 -0.6685847
-0.22763963 -0.991746 -0.6069228 -0.27812216 -0.8760726 -0.8034507 -1.3072811 -1.0816491
-1.3473755 -0.8652527 -0.924767 -0.40768498 -1.1543888 -1.6112808 -0.9405294 0.35296494
0.84045285 -0.88707465 -0.32522556 -1.970667 -1.017581 0.024872946 -0.9677429 -0.6405509
-0.37257227 -1.3473661 -0.23078285 -1.080103 -1.3178188 -0.81682485 -0.5320604 -0.3747337
-0.012111882 -1.2768043 -0.33824444 -0.37610433 -1.5067772 -1.4374049 -0.562322 -0.812785

l2.weight f4 [300, 400]
00000000: 02b4 593e f39c 4cbf 211d 6a3e 7798 893e
00000010: 6db4 8c3f 3f17 05bf ae9a 20be caf1 49bf
00000020: 57c7 2abf 6f54 9ebe 7c9f fc3d bb41 30be
00000030: e0b3 0a3f 7677 bbbd cf27 2abf 4570 3abe
00000040: b7e7 58bc b8ee b03f c82d 313d 7422 f83e
00000050: 5c74 36be def7 ea3c 35fb 213f 660b 7ebd
00000060: 7c96 b73e 0f6a 743e 3fb1 ab3e 9819 16be
00000070: 3451 5e3d 780b 403e 41ba f8bd 147d 96be
00000080: 36a8 d13d 4f87 e1be 7dbf a6be ad64 e6bd
00000090: ccc9 34be 8895 11c0 7938 51be 700a 99be
000000a0: 7691 f3be ae00 1a3d 71e2 513e 77f3 263f
000000b0: 8c75 843e 6975 c73c d782 a4be 2d8b d3bd
000000c0: 67fc b03e 1eca f8be 49fb 963f 39fc 9abf
000000d0: ffe4 433c b8af f7be c52f 283d d94f 73be
000000e0: 7d89 9f3f 6658 b93f 3ebb 483e f7cf 51bf
000000f0: bd04 44bd a99a 59bf f112 53bf 72da 42bf
00000100: 09f7 54be 2cf4 96be 6752 5bbf 7afc 223e
00000110: ebe9 f3be 1694 963e d3f9 f5bd b5ab 56be
00000120: ca5c 95bf 940f 4abc 6fc3 3b3f 638d 0abf
00000130: 5e14 5d3f 641b 62bd 40e4 d23d d084 113e
00000140: 3f0e 49be 0ff9 863e 8978 0a3f 5d40 093e
00000150: 38d7 8cbf ede2 113f e254 bbbe e936 8d3f
00000160: 1d81 e5be 76e7 f33e 290a 343f 4d63 efbc
00000170: 5645 cbbe b390 80be 8b9f a4be beb0 92bf
00000180: 5dbc 5ebf 1a05 7f3f 5eb1 2fbe 4fb4 4d3f
00000190: 879b f33e 85be 363f 9833 b2be 5927 2cbe
000001a0: be45 42bf 42b7 7e3e 883f 10bf 00a3 ae3e
000001b0: 8619 bebe ecd9 04bf 3a1a 7cba ff3c 16bf
000001c0: 4790 363f 6c3d bd3e 9cc7 03c0 0488 2dbf
000001d0: ad36 593f d274 62bf 817b b43f b4e1 8ebe
000001e0: 38d9 92be bccd 62bd bea7 703f 0887 153d
000001f0: c7c0 85be bc6b 99bd 15b8 273e e865 dfbe
00000200: 40db 2e3d f62b 023e 23db afbe fa26 61be
00000210: 4d28 8bbe 3299 59bd 626c 14bf 688d 343d
00000220: 554e e2be d612 07bf 5475 2f3f 675a d53e
00000230: c2cc 043f 9e74 2b3c 6bf0 08bf c9fe 29be
00000240: fdb0 593d 2789 8ebf a77a 53bf 9e5e ddbe
00000250: c2e3 87be 15b9 313f 1afe bdbe 93f2 8fbe
00000260: e59e 09bf a276 8dbf 35bc 6fbf 188e 343e
00000270: b906 1cbf a5f2 b43e e3d3 0fbd c37e 123f
00000280: 937a e13e 42da d5be b114 b1be b0e8 c93d
00000290: 1711 453f ef93 b0bf 9099 a6bf 266e 8dbf
000002a0: 8662 33be b469 b4be ce2f 403e 0b47 0b3e
000002b0: 81cf a0be 3d33 253e 47c4 80bf 8889 033f
000002c0: 83d5 533d ae40 c6be 2fc3 a33e 233c 0d3f
000002d0: 7619 5c3f 995d 923e 915a b33e e080 293c
000002e0: ca09 103f 8923 95bf 3878 793e 7088 833e
000002f0: 6cff bd3e d1c9 c23e 9e5c 2d3e 653b efbd
00000300: e39b 133f a871 3e3e 632d bbbe 06a9 273b
00000310: a4e8 e13e 80ea a8be 12e9 993e de0d d53d
00000320: 230c dd3d e54c 1b3e b3d2 673e 1d0c 323f
00000330: 9506 73be 5b04 d2be b408 613f 9f31 97be
00000340: ef39 943f 3cc0 bfbe d0af a2bf 328f de3d
00000350: 258b 1dbf 95a3 99bd e9f9 14bf 7331 7bbe
00000360: 5943 8bbe 7c06 89be d650 dd3d 71ff 443e
00000370: 73a0 e33d 35a9 98bd da17 22bf e487 f23d
00000380: e381 4b3f 4219 1f3f 784f dc3e 89ee 4d3c
00000390: a657 d8be 435b 49be 6332 863e a72a 103f
000003a0: 868a 2ebe ab70 a53d fc42 d9be 16ab f1be
000003b0: 5542 873e 788c cf3e 8e1e 5c3d 08cb b2be
000003c0: 4208 20bd ed52 9a3f fd5b d03d 4191 c8be
000003d0: 1685 96be 58ca 593e 212e 1b3f 49e4 8d3f
000003e0: 6e60 27bf 6e8a 1f3f 933c 603f 87f9 073f
000003f0: 7dd7 6b3e 148a f7be b2ea 9ebe cf4d 0c3f
0.21260074 -0.79926986 0.22862674 0.26874134 1.0992562 -0.51988596 -0.15684006 -0.78884566
-0.6671042 -0.30923793 0.12335107 -0.17212574 0.5418072 -0.09153645 -0.66466993 -0.1820689
-0.013238839 1.3822851 0.04325655 0.48463786 -0.17817825 0.028682645 0.63273937 -0.06202259
0.35856998 0.23868583 0.33533666 -0.146582 0.05427666 0.18754375 -0.121449 -0.29392302
0.10237162 -0.44048545 -0.3256797 -0.11249671 -0.17655104 -2.2747517 -0.20431699 -0.29890776
-0.47571915 0.037598304 0.20496537 0.6521525 0.2587093 0.024347978 -0.32131073 -0.1032928
0.34567568 -0.48591703 1.1795436 -1.2108222 0.011956452 -0.4837625 0.04106118 -0.23760928
1.2463833 1.4480102 0.19602677 -0.81957954 -0.04785608 -0.8500162 -0.8245078 -0.7611457
-0.20797361 -0.29483163 -0.8567261 0.15916625 -0.47639403 0.29409856 -0.12010541 -0.20963939
-1.1668942 -0.012332816 0.73345083 -0.5412199 0.863592 -0.055201903 0.102974415 0.1421082
-0.1963434 0.26361892 0.5409017 0.13403459 -1.100318 0.56986886 -0.36588198 1.1032382
-0.44825068 0.47637528 0.70328003 -0.029222155 -0.39701337 -0.25110397 -0.32152972 -1.1460187
-0.8700617 0.9961716 -0.17157504 0.80353254 0.47579595 0.7138446 -0.34804988 -0.16811885
-0.7588767 0.24874595 -0.5634694 0.34108734 -0.37128848 -0.5189502 -0.0009616945 -0.5868682
0.713139 0.36960924 -2.0590582 -0.6778567 0.84849054 -0.88459504 1.410019 -0.27906573
-0.2868135 -0.055371985 0.94005954 0.03650573 -0.2612364 -0.07491252 0.16378815 -0.43632436
0.04268956 0.12712082 -0.34346876 -0.21987525 -0.27179185 -0.053124614 -0.5797788 0.044080168
-0.44200388 -0.52763116 0.68538404 0.41670534 0.51874936 0.010464815 -0.5349185 -0.16601099
0.053147305 -1.1135606 -0.8260903 -0.4323625 -0.26540953 0.6942304 -0.37107927 -0.28114757
-0.5375808 -1.1051829 -0.93646556 0.1763233 -0.6094776 0.35341373 -0.03511418 0.57224673
0.4403883 -0.4176808 -0.345861 0.09858835 0.769792 -1.3795146 -1.3015614 -1.104924
-0.17518052 -0.35236895 0.18768236 0.1360132 -0.31408313 0.16132827 -1.0059899 0.5138173
0.051717293 -0.38721222 0.3198485 0.55169886 0.8597635 0.28587034 0.35030034 0.010345668
0.56264937 -1.165147 0.24362266 0.2569003 0.37108934 0.380446 0.16929862 -0.116812505
0.5765974 0.18598044 -0.36558065 0.0025582924 0.44122803 -0.3299141 0.3006063 0.104030356
0.107933305 0.15166052 0.22638969 0.69549733 -0.2373298 -0.41018948 0.87903905 -0.29530045
1.158018 -0.3745135 -1.2709904 0.10867156 -0.6154044 -0.07501904 -0.5819383 -0.24530582
-0.2719982 -0.2676276 0.10806434 0.19238068 0.11114588 -0.07454149 -0.63317645 0.11842325
0.79495066 0.62147915 0.4302938 0.012569078 -0.4225437 -0.1966372 0.26210317 0.5631508
-0.1704503 0.0807813 -0.42433918 -0.4720084 0.26417795 0.40536857 0.053740077 -0.34920526
-0.039070375 1.2056557 0.10173795 -0.3917332 -0.29398412 0.21268594 0.6061726 1.1085292
-0.65381515 0.623206 0.8759243 0.53115124 0.23031421 -0.48347533 -0.31038433 0.54806226

l2.bias f4 [300]
00000000: 93c9 613b 9e42 00bf c61b 31bf 89b1 ab3c
00000010: 66ba acbd 57ca 78bf 5341 973e a6ca 82bd
00000020: 7160 563e 0fc2 9dbe 4444 403e 8e5d 95bc
00000030: 9b4f c9bd 4a2f 783e 72fa 02bf bccf 28bf
00000040: 7e34 7abe f756 a8bf 68fa aebe a8c2 c1bd
00000050: 52dc 883e 7345 a83e 39a0 87bf 8263 c5bc
00000060: accf 193e 98dc 70bf 05fb 2ebd 4482 2dbf
00000070: 5855 243f 1fa6 eebe 4f10 0dbf 0782 b7bc
00000080: 1439 43bc 6690 46bf cd25 bd3e 459f 6fbd
00000090: 390a 70be 7f01 edbc 7e54 f6bd 98d9 873e
000000a0: abc2 58bd dc80 36ba 9410 acbd 22e4 8abd
000000b0: c2cc 693f 1adb b1bd 6816 24bc 7657 d5be
000000c0: 8611 9ebe 5cdb 21be b3a7 5dbf b380 e4bc
000000d0: 620f 1cbe cb05 4bbc c688 7cbd f455 a8be
000000e0: a292 d4bc bc1e ae3e 88df 44bf 8a5b 25bc
000000f0: 1271 bbbc b963 83bf a99e e5bd ad25 c8bd
00000100: 1e2e 84be 40e7 9fbe fee4 c8be 1b65 5cbd
00000110: ff4b 09bd b696 a13c 3063 56bf d8d5 51bd
00000120: 8ddb 37bc f23a c0be 1422 f0be cf19 39be
00000130: 99c0 a4be 8295 90bf 0f77 36bd 74ff 9fbe
00000140: c7d4 7abe 45b3 afbe 16ff 94be b8b4 48bf
00000150: 0132 6cbe 764f 39be 0284 a0be 0ad3 97bd
00000160: e9fe a7bd f5bb 87bd 7c1d d4be 9432 b4bd
00000170: 0006 0bbf 1eef 12bd 525d 89bd 6386 02bf
00000180: df24 f2bb b49f 31bf 7b88 2a3f 293c 40bf
00000190: 3258 9dbc 6f42 48bd 6453 eebe d6ff fc3c
000001a0: 95e3 05bf c272 1fbf 8294 48bd 6ca4 afbf
000001b0: 1e15 7cbf 15ca fdbe ec04 73bd 2957 88be
000001c0: 4fbf 0bbf 55e5 c2be a9d8 16bc f808 b8bd
000001d0: e589 95bc 3c1d be3d 428c fb3d 835f 72be
000001e0: 9cd2 4ebf 3e7b e4bb 7de7 c0bd 9f77 98bf
000001f0: d791 06bf 34f9 89bf 7930 2ebc 8778 cbbe
00000200: 91f7 23bf 067f 843c 0fe2 08bf 4cdb abbe
00000210: 0618 1c3e ef95 3cbe cc43 cfbe 281c 0c3c
00000220: 4c93 47bf 8611 52bd 7575 bebe 6442 95bf
00000230: 8c2e 90bf f6e1 adbf c828 92be 3561 9fbe
00000240: 7fd0 d7be 820b dbbd a681 06bd 561f 96bc
00000250: 2fb6 90bd df78 c3bd 6a36 e1be c22a 53bf
00000260: 8bc9 323d 35fc 43be 1764 8cbd 71ff 11bd
00000270: e722 ffbd 9d59 95bd e85c 22bb 9346 54bd
00000280: 6c7d adbf 1fe1 d0bd 42d0 d2be 0b96 fcbd
00000290: 3561 0cbf 9ab9 abbc d522 f7bd 232d ed3b
000002a0: ea08 5bbf 7457 57bf 7fff 09bf 054a 773e
000002b0: 4e35 aebc 25d4 5abd c856 f9bc c9b6 69bd
000002c0: 80b9 a0bd e884 6bbf ad65 35bf d73b eabc
000002d0: d508 6bbf 0ea0 5abf c2f7 68bf a4f7 dabd
000002e0: 6233 4abf f4b3 b2bd e9ff 24bd 057c a9be
000002f0: 6d27 db3d 374e 44be 5497 58bd 524d a9be
00000300: a3c3 bd3d ad09 20bd 5185 89bd 7747 1fbf
00000310: 4c04 89bc f9cb d83c da7e c9be 20d4 60be
00000320: 0cbc 81be d83f 62be db35 b1be 29fb 04be
00000330: 6bdb 18bf 3c20 a33e 8bd3 09bf faf5 18bf
00000340: 8213 15bf 4773 b3bf ffc7 eebc b462 9ebb
00000350: 7a94 373e 4423 f4bc f5d6 b4bd 85a4 a5bd
00000360: 6f69 eabe dc8f abbe 3969 c2bc 78dc 0bbf
00000370: 7c12 57be 1732 03bd 177a 33be 54eb a3bd
00000380: 454f 35bd 49ee 97bd a045 e4be 4076 ebbe
00000390: f234 13be 8056 60bd 05c8 eabc 9467 03bd
000003a0: a889 10bf a6bb cd3e 665f 1ebd bd73 dcbd
000003b0: 7109 e5bc cb0f 113d ec2b 78be 4b73 583e
000003c0: 39da 91be 99ca 8ebe 949b 03be c67b cebe
000003d0: 0a3a 65bd f530 31bf fce0 21bf 4089 c4bd
000003e0: ada5 473f 909d bebc 01de 26bd 62f4 48be
000003f0: 89e1 9abe d61f 92bd 2292 5ebf 0836 e2bd
0.0034452423 -0.5010165 -0.69183004 0.020958679 -0.0843399 -0.97183746 0.29542026 -0.06386308
0.20935227 -0.30812117 0.18776041 -0.018233087 -0.09829637 0.2423679 -0.511634 -0.6594198
-0.24434087 -1.315154 -0.3417542 -0.09460956 0.2673059 0.32865486 -1.0595771 -0.0240953
0.15020627 -0.940866 -0.04271986 -0.67776895 0.64192724 -0.46611115 -0.5510301 -0.022400869
-0.011915464 -0.77564085 0.36942902 -0.0585015 -0.234414 -0.028931377 -0.12027834 0.26533198
-0.052920025 -0.00069619506 -0.084015995 -0.06781794 0.9132806 -0.086843684 -0.010015108 -0.4166829
-0.30872744 -0.15806335 -0.86584014 -0.0278934 -0.15240243 -0.012391518 -0.061653875 -0.32878077
-0.025948826 0.34007823 -0.7690358 -0.010092625 -0.022881065 -1.0264808 -0.11211903 -0.09772811
-0.25816435 -0.31231117 -0.39237207 -0.05380736 -0.03351974 0.019725185 -0.837451 -0.051229328
-0.011221779 -0.37544972 -0.46901 -0.18076251 -0.3217819 -1.1295626 -0.044547137 -0.31249583
-0.2449523 -0.3431646 -0.29100865 -0.78400755 -0.2306595 -0.18096718 -0.31350714 -0.074132994
-0.08202917 -0.06627647 -0.41428745 -0.087987095 -0.5430603 -0.03587257 -0.067072526 -0.5098631
-0.0073896493 -0.6938431 0.666145 -0.750918 -0.019207094 -0.04889148 -0.46547997 0.03088371
-0.5230039 -0.6228448 -0.048969753 -1.3722053 -0.9846972 -0.4956824 -0.059330866 -0.26628998
-0.5458879 -0.3806559 -0.009206929 -0.08986086 -0.01825423 0.0928292 0.122826114 -0.23669247
-0.80790114 -0.0069726994 -0.09419153 -1.1911505 -0.52566284 -1.0779176 -0.010631674 -0.39740393
-0.6404963 0.01617385 -0.5346994 -0.33565748 0.15243539 -0.1841657 -0.40481412 0.008551635
-0.7795913 -0.051286243 -0.37198988 -1.1660886 -1.1264205 -1.3584583 -0.2854674 -0.3112885
-0.42151257 -0.10695554 -0.032838486 -0.018325489 -0.07065999 -0.09544539 -0.43986827 -0.8248712
0.043649238 -0.19139178 -0.06855028 -0.035644 -0.12457829 -0.07292483 -0.0024774615 -0.051825117
-1.3553901 -0.101991884 -0.41174513 -0.12333306 -0.54835826 -0.020962525 -0.120671906 0.0072380467
-0.85560477 -0.8411782 -0.5390548 0.2414933 -0.021265652 -0.053424973 -0.030436888 -0.057059083
-0.07847881 -0.91999674 -0.7085827 -0.028592987 -0.9181035 -0.85400474 -0.9100305 -0.10691765
-0.78984654 -0.087257296 -0.040283117 -0.33102432 0.10700879 -0.19170462 -0.052878693 -0.33066803
0.0926583 -0.039071728 -0.06714881 -0.6221842 -0.016725682 0.02646445 -0.39354593 -0.2195592
-0.2533878 -0.22094667 -0.346114 -0.12986435 -0.59709805 0.3186053 -0.53838414 -0.5975033
-0.5823289 -1.4019555 -0.0291481 -0.0048335437 0.17927733 -0.029801972 -0.08830062 -0.0808802
-0.45783564 -0.33508193 -0.023731815 -0.54633284 -0.21003145 -0.03203019 -0.17527042 -0.0800387
-0.04426505 -0.07418496 -0.4458437 -0.45988655 -0.14375666 -0.054769993 -0.02865983 -0.0320812
-0.56460047 0.40182227 -0.038665198 -0.10764263 -0.027958604 0.035415452 -0.24235505 0.21137731
-0.28486803 -0.27888945 -0.12852317 -0.40328807 -0.055963553 -0.6921533 -0.63233924 -0.09596491
0.77987176 -0.023268491 -0.040739063 -0.19624475 -0.30250195 -0.071349785 -0.8694173 -0.11045462

l3.weight f4 [4, 300]
00000000: 1207 96bd 9bc3 50bf aea4 6abe cb26 98bc
00000010: c661 243d 5daa 66bf 883f 75be ab60 01bd
00000020: b846 2dbf 7640 dd3d bffe 7ebf 75b7 313b
00000030: 3212 57bd 80cf dd3d 76de b2bd aadc b5bf
00000040: 4cdf 1fbe 2e58 e2be a41b bebf e411 efbc
00000050: abeb e7be 1524 f1bd 8cf6 e83a ba18 5bbc
00000060: eea7 d93e d578 b1be ef27 073b 19a6 283f
00000070: 15e9 d13c af8a 05be 64b9 b4bb 3c02 b5bc
00000080: 312e 45bd 89df 2dbe 5abc a0bf 4a39 e63c
00000090: 9c81 71be 79a5 d9be a403 7dbb 0fd0 58be
000000a0: b3e8 0ebf 79b3 ff3c 3af5 82bc 5928 053d
000000b0: 5df0 a13d db85 a9bc cad7 a9bb 3c03 453f
000000c0: a507 d2be 3b8d b83e 4aac 06be 1fef 403d
000000d0: ea73 b63c aa85 1f3b f5e1 d5bb f3f8 9f3e
000000e0: e196 123d fbda a63e 09e6 98bf c7aa 843a
000000f0: 1c1c d73c dc9d 1b3f 7d4f b2bb 4499 e2bc
00000100: e4c3 2240 d5d7 16be 334d 10bf 8a70 f83e
00000110: 6748 563d 2728 15bd a879 e4bf 5cce c7bb
00000120: 7850 60bc c14b 9b3e 5f55 42bf 2711 e13e
00000130: 41b4 083e cf22 b73f 993f c3bc 6e25 adbe
00000140: e796 af3e 6414 05bf ade3 bbbf 215c 403f
00000150: 3a6b f2be 94b8 d2be 5f82 253e b1a1 86bc
00000160: 8ed6 e9be b118 7cbd 2556 e83d f16c 193c
00000170: b199 b5bf 1a5e 32bc 4f15 203d 9500 793f
00000180: 28b6 6fbc aaba 4b3e 31b0 fbbc 20f4 eb3e
00000190: 745e db3c 0d9f 05bd 79c3 2bbe 78bf c5bc
000001a0: e0c5 3ebe 1564 283f 0ce4 523d c841 4d3f
000001b0: 9dea 99bf ab76 8dbf 658e e13b 0f2e 6d3e
000001c0: 3f2a 883f 586c 573f 12f5 0fc0 5505 8f3c
000001d0: ce06 0fbd 873f abbf 34dd 793f 9777 5bbc
000001e0: b0e1 973f bfd6 403b ba3a a1bc 8532 4b3e
000001f0: d8f5 c2be 7bb5 1c3e 8801 163f ebd5 cfbe
00000200: b1b5 843d 9552 fdbe e076 f63e 52b0 44bf
00000210: fa94 193f 17d2 473f 8c30 1fbe ffd7 bbbb
00000220: 7148 933e fbb1 a73a 22aa bcbe 4624 d13d
00000230: 4785 90bf 71f8 933d 7afe c43f 435a f3bf
00000240: 72d5 503f 410e 253f a924 853f c9eb 0dbf
00000250: dcaf 493d 4381 bb3c 8a9b e83d e82a a73e
00000260: 2d21 d13e b399 193f b7d5 313b b5ad c33c
00000270: b95e dfbd 1e7f 92bf b525 50bc dc6b ad3c
00000280: b8a3 753e cb7c 08bd 022b e5bc 22ce 853d
00000290: 938c 1bbf c27e 97be 25d6 2d3f 4495 4d3c
000002a0: bb85 593e e466 a8be 6d93 10be 3ebb b33d
000002b0: 1233 ecbd f91d e03a 8195 db3c b868 703c
000002c0: ed9c f83a 5124 b0be bbe0 aabc e3ec 653f
000002d0: eeb8 39be 6800 2d3e 6551 0ebe 75d2 1dbd
000002e0: 0e8a 043f 3e52 283d 6e16 1c3d 3537 6dba
000002f0: 03db dc3e 4829 07be ec36 8abc bfad 57bd
00000300: 3055 d23e 64b0 aa3c 580b 01bd f204 fa3e
00000310: 6d7d 863b 2459 113e 28b8 b2bd 67b4 2c3e
00000320: 6f58 59bf e849 f43e f091 e0ba 2123 6ebc
00000330: 48b5 053f 6761 453f b713 283f 548e 0ebf
00000340: 9241 f13e 1023 a83e e14e 743b 6080 cc3b
00000350: 3c20 4b3c da50 36bd fdb8 153d dda0 8e3c
00000360: ca4f fcbf 7e8f 283f ee3c 5f3c 471b d13e
00000370: 2194 85bf fcf2 4c3d 50fe 1dbf 75c5 3b3c
00000380: f075 cd3b 775d c23b 9288 bbbe 8602 28bf
00000390: 3af1 733d 379a 713f 04b8 4fbd 4b0a ca3c
000003a0: 4df8 bd3e 4e84 bebe d3a9 073d 2c8a b6bc
000003b0: f10d b2bc 4609 e83e 74fd 4c3d ee67 9cbe
000003c0: b724 e8be e03c 0f3e 9ba6 be3c d84b e63e
000003d0: 2fe8 613c 41aa 15be f2a4 4d3e e24b 233d
000003e0: 1648 44bf 6af5 fcbc d641 7dbb 6b54 c3bf
000003f0: 34b7 1bbf ec91 b1bf 01fd 81be 885d da3b
-0.07325567 -0.8154847 -0.22914383 -0.018573185 0.040132307 -0.90103704 -0.23950016 -0.03158633
-0.67686033 0.108033106 -0.9960746 0.0027117406 -0.052507587 0.10830593 -0.08733837 -1.4207966
-0.15612525 -0.442079 -1.4852185 -0.029183336 -0.45296988 -0.1177446 0.0017773672 -0.0133725945
0.42510933 -0.346625 0.0020623168 0.65878445 0.025623837 -0.13041185 -0.0055152643 -0.022095792
-0.048139755 -0.16979803 -1.255748 0.02810349 -0.23584598 -0.42509058 -0.0038606906 -0.21173118
-0.5582382 0.031213509 -0.015986074 0.03250918 0.07907174 -0.02069371 -0.0051831948 0.7695806
-0.41021457 0.3604525 -0.1315166 0.047103044 0.022272069 0.0024341145 -0.0065271803 0.3124462
0.03578842 0.32588944 -1.1945201 0.0010121696 0.02625852 0.6078775 -0.0054416046 -0.027660973
2.5432062 -0.14730771 -0.56367797 0.4852336 0.052315142 -0.036415245 -1.7849627 -0.006097598
-0.01369106 0.30331233 -0.75911516 0.439584 0.13350011 1.4307498 -0.023834037 -0.3381762
0.34294817 -0.5198424 -1.4678856 0.7514058 -0.47347432 -0.41156447 0.16163014 -0.016434522
-0.45671505 -0.061546985 0.11344556 0.009364353 -1.4187528 -0.010886693 0.03908282 0.97266513
-0.014630832 0.19895425 -0.030723663 0.4608469 0.026778437 -0.032622386 -0.16773786 -0.024139151
-0.18630171 0.65777713 0.051487014 0.801785 -1.2024723 -1.105184 0.00688343 0.23162101
1.0637892 0.84149694 -2.249333 0.017458597 -0.0349186 -1.3378762 0.97603154 -0.013395212
1.1865749 0.0029424874 -0.019681323 0.1984349 -0.3807819 0.15303604 0.58596087 -0.40592894
0.064799674 -0.49477068 0.4813757 -0.76831543 0.59992945 0.78054947 -0.15545863 -0.005732536
0.28766206 0.0012794131 -0.3684855 0.10211997 -1.1290673 0.07225121 1.539016 -1.9011921
0.8157569 0.64474875 1.0401813 -0.55437905 0.04923998 0.022888785 0.11357792 0.32649922
0.40845624 0.6000015 0.002713544 0.02388654 -0.10906739 -1.1445043 -0.012704303 0.021169595
0.23988235 -0.033322137 -0.02797461 0.06533457 -0.60761374 -0.29588896 0.67904884 0.012547795
0.2124242 -0.32891 -0.14118738 0.08775948 -0.115331784 0.0017098776 0.026804687 0.014673404
0.0018967666 -0.34402707 -0.020859113 0.89814585 -0.18136951 0.16894686 -0.13898237 -0.038530786
0.51773155 0.041094057 0.038107328 -0.0009049059 0.43135843 -0.13199341 -0.016871892 -0.05265593
0.41080618 0.020836063 -0.03150496 0.48831898 0.0041043074 0.1419416 -0.08726531 0.16865693
-0.84900564 0.47712636 -0.0017133337 -0.014534743 0.5222974 0.7710175 0.6565508 -0.55685925
0.4712034 0.3283925 0.003727846 0.0062408894 0.012397822 -0.0445107 0.03655337 0.01741069
-1.971185 0.6584395 0.013625367 0.40841123 -1.043583 0.050036415 -0.61716175 0.011460652
0.0062701628 0.005931552 -0.36627632 -0.6562885 0.059556223 0.9437594 -0.0507126 0.024663111
0.371035 -0.37210315 0.03312094 -0.022282682 -0.021735163 0.45319575 0.0500464 -0.30548042
-0.4534051 0.13988066 0.023272803 0.4497974 0.013788267 -0.14615728 0.20082453 0.03986729
-0.76672494 -0.030878741 -0.0038643978 -1.5260137 -0.6082642 -1.3872657 -0.2538834 0.006663982

l3.bias f4 [4]
00000000: fd60 103d e511 193e 863d 07bf e29e 983e
0.035248745 0.14948232 -0.5282825 0.29808718
