TD3/saves/best_avg_actor.pth (torch, 518693 bytes, 6 tensors)

l1.weight f4 [400, 18]
000000 e3 28 17 3f cb 7b 36 bf 6a bb 79 bf fb f2 70 bd
       0.59046763 -0.71282643 -0.97551596 -0.058825474
000010 88 49 0f 3f c1 61 ee bd 2d 19 00 c0 70 7a d4 3f
       0.55971575 -0.11639739 -2.0015366 1.6599865
000020 6d 78 6d c0 83 fc cb bf 62 89 39 3f dd ac 53 bf
       -3.7104752 -1.5936435 0.72475255 -0.82685643
000030 0c bf af 3e 5e 62 e7 3f 3c fb b1 3e e0 06 19 3e
       0.34325445 1.8076894 0.3476199 0.14944029
000040 35 ee bb be 0a ca 29 3f e0 7b b8 3f a3 7d ba 3f
       -0.36705175 0.6632391 1.4412804 1.4569591
000050 a6 e1 84 bd 88 bb 10 bf 4b 86 ab be 3c 28 82 3e
       -0.064883515 -0.5653615 -0.33500895 0.2542132
000060 9f df d7 bf 4a 35 87 bf f9 18 6f 3f 0c eb 9e 3e
       -1.6865119 -1.0563138 0.9339748 0.31038702
000070 97 71 5e 3e 76 9c a4 3d 82 fd bc bf b0 ea 3e bf
       0.21723019 0.08037655 -1.4764864 -0.74576855
000080 3f f0 9c be 09 eb b4 3e de 10 c1 3f 65 aa ce be
       -0.30652043 0.35335568 1.5083272 -0.40364376
000090 2a ef 6b 3f 86 e4 71 c0 c7 5d 18 3f 5b 3d e9 bd
       0.9216181 -3.779573 0.5951809 -0.11388656
0000a0 3a f3 97 be 95 c9 22 bf 24 14 98 bf 0e 83 81 bf
       -0.29677755 -0.6358884 -1.1881146 -1.011812
0000b0 19 1f a6 3f de ef eb 3e 66 d1 cd bd 8a d8 4a bf
       1.297824 0.46081442 -0.10049705 -0.7923666
0000c0 94 26 d6 3f fd 7f 6a bf c8 7b 87 3e 14 e6 39 be
       1.6730523 -0.91601545 0.26461625 -0.18154174
0000d0 05 e8 4f bf 27 35 07 3f 54 ae 0f 40 60 4c 70 3e
       -0.8121341 0.5281548 2.2450151 0.23466635
0000e0 03 96 26 bd 79 5c 23 bf 76 d9 71 be aa 40 2c bf
       -0.040670406 -0.6381298 -0.23618111 -0.6728617
0000f0 3e e6 30 c0 40 5c 12 bf c8 1e 31 bf de 01 75 be
       -2.7640529 -0.5717201 -0.69187593 -0.23926494
000100 89 34 59 3f 2f b7 35 3f c4 38 03 be 5b fb b7 bd
       0.8484579 0.7098264 -0.12814623 -0.08983489
000110 e5 ad ea 3d 86 79 31 3e 20 4b d2 3c 2a 8a a4 bf
       0.11458949 0.17331514 0.025670588 -1.2854664
000120 74 f8 fd 3f 71 c1 c3 3e e6 f8 76 3e 5a 79 02 3f
       1.9841447 0.38233522 0.24118385 0.5096642
000130 c1 7a fd 3d 82 0c b4 3e c4 cb df bf 78 7f 62 bd
       0.12376929 0.35165793 -1.7484059 -0.055297345
000140 c4 c1 b2 3e c0 ac 64 bf 10 3e af bd b7 9e 2a 3d
       0.34913456 -0.89326096 -0.08556759 0.04165527
000150 d9 7c f8 3f a6 f7 32 bf 9b b2 2e 3c 89 39 66 3e
       1.94131 -0.6990913 0.0106627 0.22482885
000160 84 61 43 bf ba 08 4a bf e1 69 5f bc 48 43 36 bf
       -0.7632067 -0.78919566 -0.013636083 -0.71196413
000170 42 59 c4 3f 3f b2 bc 3e b2 89 09 3f 48 b9 56 bf
       1.5339739 0.3685474 0.5372573 -0.83876467
000180 40 84 01 c0 42 3d f0 3f 79 ef 71 3e 76 11 72 3e
       -2.023697 1.8768694 0.23626508 0.23639473
000190 aa f3 62 bf 1d 3c 6d 3e 79 10 02 3f d3 57 39 bf
       -0.8865305 0.23167463 0.50806385 -0.72399634
0001a0 1a 2c 8f 3e 11 d9 33 bf 16 98 a1 bf aa 64 6b bf
       0.27963334 -0.7025309 -1.2624538 -0.91950476
0001b0 17 89 2f 3f 6e a1 26 3f 8f b6 81 bf cf 92 c1 bf
       0.6856856 0.6509007 -1.0133837 -1.5122927
0001c0 80 04 80 bf a6 6e b5 3e 68 64 21 c0 d3 07 02 be
       -1.0001373 0.3543598 -2.5217533 -0.12698297
0001d0 a8 9c 85 3f 44 06 8a 3e 13 9c 2e 3e 91 1d 61 bf
       1.0438433 0.26957905 0.17051725 -0.8793574
0001e0 b7 d8 43 be 8d 43 c1 bf 58 79 36 3e b6 0e 50 be
       -0.19125639 -1.509874 0.17819726 -0.20318112
0001f0 84 57 b6 3c c4 38 b0 bf a7 eb 55 40 af fa 9b 3d
       0.022258528 -1.3767323 3.342508 0.076161735
000200 9a d0 d8 bf cb 05 0f bf 53 49 c4 be 1f 39 a7 be
       -1.693866 -0.55868214 -0.38337192 -0.32660767
000210 5e 1d c8 bf a9 90 1d 3f 2e ad 95 3e da da 75 3d
       -1.5633962 0.6154886 0.29233688 0.060023166
000220 e3 9d 09 3e 1f 0b 80 3e d3 f4 e3 be d5 77 8b 3e
       0.13439135 0.25008485 -0.44522724 0.27239862
000230 c2 a8 b4 bd 49 ee 07 bf 30 5b 55 be e9 50 53 bf
       -0.088212505 -0.5309797 -0.20835567 -0.82545334
000240 26 bc c9 3f 4e 4c 07 40 f5 9c c7 3f e4 c1 24 3f
       1.5760543 2.1140323 1.5594774 0.64358354
000250 bf 4d 50 bf 9c 0c ce 3e 57 0e d4 bf 05 3b 6b bf
       -0.8136863 0.40243995 -1.6566876 -0.9188693
000260 4f 2f 91 bf 57 5b 6f 3e 79 f1 e2 be e9 12 6b 3d
       -1.1342562 0.23374687 -0.44324854 0.05739108
000270 a0 cd 33 3f ca 60 b7 3d 6d a2 1f be d0 6c 81 3e
       0.70235634 0.08954008 -0.15589304 0.2527833
000280 4d 1e 1c bf 46 44 19 bf b9 9b 13 40 bc 27 d7 be
       -0.60983735 -0.598698 2.3063796 -0.42022502
000290 86 a0 5e bf 8d 84 71 3f b6 25 43 be b4 0d 1c be
       -0.8696369 0.9434288 -0.19057354 -0.15239602
0002a0 8d 4e 3b be a0 a9 18 3f 8f ae c6 bd 5e c0 65 3e
       -0.18291683 0.5963383 -0.09701263 0.22436664
0002b0 54 a7 3d 3e bc f8 05 3e f3 15 44 bf b6 6c 9e 3f
       0.18520862 0.13083166 -0.7659599 1.2376926
0002c0 91 85 f1 3e 69 c6 20 3e 01 65 85 bf 5d df 54 bf
       0.47172216 0.15700687 -1.0421449 -0.83153325
0002d0 e1 2d 4d c0 77 1d 7b c0 99 97 a1 3f f0 6b 98 bd
       -3.2059252 -3.9236734 1.2624389 -0.074424624
0002e0 ed 3a 1d bf 18 59 31 bc 09 2a 99 3f a7 7e 5a 3f
       -0.6141804 -0.010824464 1.1965953 0.85349506
0002f0 f7 1e 29 bf 64 62 c1 3e be b7 95 be 87 84 7c bd
       -0.66062874 0.3777038 -0.29241747 -0.061649825
000300 1a 52 64 3f be 7e 71 3f 4b 1c e7 bd b3 b8 4b be
       0.8918778 0.9433402 -0.11284693 -0.19894676
000310 1c c4 aa 3c 5b 42 37 3f ae c9 8b 3f d6 a6 8f 3e
       0.020845465 0.71585625 1.0920923 0.28056973
000320 f7 03 4f c0 47 9a 5b bf 7f ee 90 bd 37 78 23 3e
       -3.234617 -0.85782284 -0.070767395 0.15963827
000330 f0 98 a4 bf cb de e3 bf 52 87 89 3f 2c 32 f7 bd
       -1.2859173 -1.7802366 1.0744421 -0.120701164
000340 b3 a0 34 3e 14 55 30 3f 22 a4 d3 be 92 ee 95 3e
       0.17639427 0.6887982 -0.4133616 0.29283577
000350 11 0e 9d 3e aa ed aa be a6 e5 5d bf 17 22 bf be
       0.30674794 -0.33384448 -0.8667854 -0.37330696
000360 cb a2 93 3f 04 ca 2f c0 9c d4 8c bf 5b 40 85 3f
       1.1534055 -2.746705 -1.1002383 1.0410265
000370 ca 37 50 be ae 44 f0 be dd 8b 1b c0 66 fc 29 bf
       -0.20333782 -0.46927398 -2.4304116 -0.66400754
000380 57 5b 7c bf 37 27 05 bf 93 6c 00 bf 1f 75 00 bf
       -0.98576874 -0.5201296 -0.5016567 -0.5017871
000390 e5 a8 c2 3f 14 bd a8 3f 62 13 8f 3e 57 61 60 3c
       1.5207793 1.3182702 0.27944475 0.013695083
0003a0 ea 62 a9 bf de 12 76 bf b4 5a cd 3e 3d a9 8d 3f
       -1.3233311 -0.9612254 0.40108263 1.1067272
0003b0 0a c9 e5 bf 99 fb 23 3f 32 cf 0a 3f d1 1b 99 be
       -1.7951977 0.6405578 0.54222405 -0.29904035
0003c0 c5 28 19 c0 57 a0 5d 3e 50 e5 1f 3f 05 87 31 be
       -2.3931134 0.21643196 0.6245928 -0.17336662
0003d0 38 73 58 be 67 07 d1 be 70 85 79 3f 35 ee 65 3f
       -0.21137702 -0.4082596 0.97469234 0.898166
0003e0 c0 9d 24 be bb d1 c2 be 29 27 23 bf e9 36 c8 3e
       -0.16075802 -0.38050637 -0.6373163 0.39104393
0003f0 36 1c 14 3f 9b 5f d6 3d 0d c7 f4 3f 58 6d 7b 3f
       0.57855546 0.10467454 1.9123245 0.9821372

l1.bias f4 [400]
000000 c6 88 1c bf 18 f9 57 bf 78 2b 24 bf 51 d2 c0 bf
       -0.611462 -0.8436446 -0.6412883 -1.5064183
000010 38 6c c9 bf e3 67 29 bf f4 5c 97 bf 94 dd ca bf
       -1.5736151 -0.66174144 -1.1825242 -1.584887
000020 0c 2c d4 bf 81 cb c5 bf 52 e1 90 3f 29 a8 ce bf
       -1.6575942 -1.545273 1.1318762 -1.6145068
000030 3b 26 77 be 3d 5f 45 bf b5 41 b9 bf eb 74 d3 bf
       -0.24135678 -0.7709845 -1.4473177 -1.6520056
000040 27 06 03 c0 5e 3c af be 91 ec d6 bf 89 aa 49 bf
       -2.0472505 -0.34225744 -1.6790944 -0.7877584
000050 73 8a d8 bf 5d 08 ab 3f 92 01 a2 bf 42 97 87 be
       -1.6917251 1.3361927 -1.2656729 -0.26482588
000060 6a 82 c1 bf 2b 0c cb bf 87 02 8a bf 6c 8c c3 bf
       -1.5117924 -1.5863088 -1.0782021 -1.5277228
000070 2a d4 77 bf 01 9f 59 bf 6e 40 cf bf 6e 7a f0 bf
       -0.9680811 -0.85008246 -1.6191537 -1.8787363
000080 dd 94 e5 bf fb 62 8e bf 8d 53 6f bf 52 76 73 bc
       -1.7936054 -1.1123956 -0.93486863 -0.014859753
000090 84 ca 7e bf c2 dc c3 bf 17 76 d4 bf ba 55 c7 bf
       -0.99527764 -1.5301745 -1.6598538 -1.5573037
0000a0 2e 78 c6 bf 8d 7a d5 bf 3c e5 d5 bf 8c ba 8c bf
       -1.5505426 -1.6678025 -1.6710582 -1.099443
0000b0 dd af 32 bf 51 0f dc bf af 45 cc bf 33 bd 8b bf
       -0.69799596 -1.7192174 -1.5958766 -1.0917114
0000c0 ea 64 7f bf 1d cc a3 bf 5b 4f 6a bf 5b 6e 0f bf
       -0.9976336 -1.2796665 -0.91527337 -0.56027764
0000d0 34 ff 29 c0 60 69 99 bf 73 21 ea bf c0 2b e4 bf
       -2.6562014 -1.1985283 -1.8291458 -1.7825851
0000e0 06 3e 75 3f f3 6f 20 bf 17 d4 14 c0 4c 08 88 bf
       0.95797765 -0.6267082 -2.325445 -1.0627532
0000f0 c3 c4 ad be 89 44 c9 3f b5 3b 9a bf 68 af 77 be
       -0.3393918 1.572404 -1.2049471 -0.24188006
000100 ba 47 2d bf 5e e7 b4 bf 06 78 a9 3d 37 52 7b bf
       -0.6768757 -1.4133108 0.08274846 -0.98172325
000110 2d f0 21 bf 13 2c 50 bf d5 d7 23 bf 55 a7 93 bf
       -0.63257104 -0.8131725 -0.6400121 -1.1535441
000120 fd 90 a0 be 0e 1e 36 bf 50 93 13 bf c2 30 7c bf
       -0.31360617 -0.7113961 -0.57646656 -0.985119
000130 fc a9 d5 bf 0d 4a 79 bf ec ee 8e bf f0 83 ca bf
       -1.66925 -0.9737862 -1.1166663 -1.5821514
000140 0f dc f2 bf 65 11 b7 bf a2 6d 8f bf c5 34 63 bf
       -1.8973407 -1.4302183 -1.1205332 -0.88752395
000150 c2 93 8b bd b2 59 80 bf b3 a1 8d bf 38 15 99 bf
       -0.06815292 -1.0027373 -1.1064972 -1.19596
000160 ee bb 77 3f 14 18 82 bf a3 a1 e1 bd e6 07 7f bd
       0.9677113 -1.0163598 -0.11017158 -0.062263392
000170 0f 76 a8 bf 0b 3c de bf fc 48 25 bf 83 27 17 bf
       -1.3161029 -1.7362074 -0.6456449 -0.59044665
000180 e6 6b e3 be d2 26 3e bf 3c f3 c6 bf c6 33 bc 3d
       -0.44418257 -0.74277985 -1.5542979 0.091895625
000190 87 09 cf bf e4 f0 c4 bd 28 b3 b8 bf 23 c4 f4 bf
       -1.6174783 -0.09616259 -1.4429674 -1.9122356
0001a0 55 92 01 bf 7a 9e 85 bf ee a6 cf bf 9b 77 05 bf
       -0.5061391 -1.0438988 -1.6222818 -0.5213563
0001b0 e5 d0 5e bf 70 ed eb bf bb 0a 32 bf f4 c4 9a bf
       -0.870375 -1.8431835 -0.69547623 -1.2091355
0001c0 44 c8 42 3a 99 6d 0a c0 ce 57 21 3e 71 1b b9 be
       0.00074303546 -2.1629393 0.15756151 -0.3615375
0001d0 f8 4a 24 bd bd fa 2b c0 e7 79 13 bf e2 a5 91 bf
       -0.04011056 -2.6871789 -0.57607883 -1.1378748
0001e0 ba 6f 8b bf 00 07 dc bd 0a 52 b3 bf 6c 20 8b bf
       -1.0893471 -0.10743523 -1.4009411 -1.0869269
0001f0 a8 5a c3 bf 6f fe 35 3f 3e 50 00 bf 3b 9a ab bf
       -1.5262041 0.7109136 -0.5012244 -1.3406442
000200 dc 1f 8d bf 21 48 9a bf 0d 68 a5 bf e3 1c b3 bf
       -1.1025348 -1.2053262 -1.2922379 -1.399319
000210 40 98 e0 3e f5 16 fa bf 23 8b 94 be e2 59 10 c0
       0.43866158 -1.9538256 -0.29012403 -2.255486
000220 22 7b bf bf a5 ad 5c bf fa 19 95 bf 1b 5b 3b bf
       -1.4959452 -0.8620246 -1.1648552 -0.7318589
000230 b2 b8 b8 bf d1 43 39 bf 4e 13 c8 be ea f3 96 3f
       -1.4431365 -0.72369105 -0.39077228 1.1793187
000240 b5 dc 99 bf fc 7b 87 3d 47 f8 ca bf 2a 40 e1 bf
       -1.202048 0.06615445 -1.5857018 -1.7597706
000250 9b 58 0c bf a3 3c 21 bf e2 7a e0 bf 53 c1 e3 bf
       -0.548227 -0.6298315 -1.7537501 -1.7793373
000260 46 1e 6a bf fb 5d d5 be da d7 88 bf 99 4c b8 bf
       -0.91452444 -0.41673264 -1.0690873 -1.4398376
000270 81 ed f1 be a9 9d b3 bf 90 fb 49 be 71 a6 1e 3f
       -0.47251514 -1.4032489 -0.1972487 0.6197272
000280 2e 45 b9 bf e3 24 c5 bf bd a5 41 bf c5 43 ce bf
       -1.4474237 -1.5401882 -0.7564352 -1.6114432
000290 66 bc 78 bf 85 35 ab bf 6f f7 ba bf c7 37 b8 bf
       -0.97162473 -1.3375708 -1.4606761 -1.4392022
0002a0 83 76 2c bf 00 dc 39 bf c6 1d 64 bf 9d 4d 32 3e
       -0.67368335 -0.7260132 -0.8910793 0.1741242
0002b0 c3 00 18 c0 cc 46 f6 be 30 ad 99 bf c3 a4 35 bf
       -2.3750465 -0.4810089 -1.2005978 -0.7095453
0002c0 2d 8c bb bf 6e 7f 42 bf c2 d4 86 bf 62 8f d3 3e
       -1.4652153 -0.7597569 -1.0533679 0.4132033
0002d0 8c 2f ca be 14 8e 76 bf c4 85 d7 bf 47 a0 82 bf
       -0.394894 -0.96310544 -1.6837697 -1.0205163
0002e0 c6 a1 25 3f 43 17 48 bf 8a d5 d2 bf 57 98 44 bf
       0.6469997 -0.78160495 -1.6471417 -0.7679495
0002f0 38 ad 75 bf a6 7b 07 c0 72 e8 38 bd b6 5e cf bf
       -0.95967436 -2.116922 -0.045143552 -1.6200778
000300 cf d5 c4 3e d6 a9 39 3f 72 4f ea bd 4f d5 4c bf
       0.38444373 0.72524774 -0.11440934 -0.80012983
000310 8c 4d 85 bf 79 00 04 3f 31 f9 eb bf 25 c4 ca bf
       -1.041429 0.5156322 -1.8435422 -1.5841109
000320 73 82 49 bf 3d 90 d3 be 11 aa cf bf c3 1b 2d c0
       -0.78714675 -0.41320983 -1.6223775 -2.7048194
000330 4c 5c c0 3e cd 22 91 bf 35 2f 50 bf e1 40 dc bf
       0.37570417 -1.1338745 -0.8132203 -1.72073
000340 cf 30 2e bf 1b d2 cc bf b7 75 78 bf 4a b3 9e bf
       -0.68043226 -1.6001619 -0.9705462 -1.2398465
000350 69 8b 0a c0 23 0d 1e 3f 95 35 b3 bf 59 77 2d bf
       -2.164759 0.61738795 -1.4000727 -0.67760235
000360 e7 90 a5 be 84 52 98 bf 32 ad 80 bf 31 c0 ea bd
       -0.32337114 -1.1900182 -1.0052855 -0.11462439
000370 4c d5 63 bf ef 4a 24 bf 88 52 b2 bf a9 a6 a5 bf
       -0.8899734 -0.6417684 -1.3931437 -1.2941486
000380 88 bc a0 bf a1 56 e8 bf 66 2a a0 bf 42 ee d6 be
       -1.2557535 -1.8151437 -1.2512939 -0.4197865
000390 20 84 93 bf 55 1f f7 bf 52 56 86 bf 60 d7 16 3f
       -1.1524696 -1.9306437 -1.0495093 0.58922386
0003a0 1e 55 86 3f 2f d6 a1 bf ef e8 be be bf 26 02 c0
       1.0494726 -1.2643489 -0.3728709 -2.0336149
0003b0 4b 13 91 bf 89 71 cd 3e 0a da bc bf 89 68 f1 bd
       -1.1334013 0.40125683 -1.475404 -0.117875166
0003c0 be e3 9b bf b5 39 ba bf 6d 63 9e be 5e e6 82 bf
       -1.2178876 -1.4548861 -0.3093523 -1.0226552
0003d0 0f c2 a0 bf aa 31 8b bf 36 2e 71 bf 62 23 c9 be
       -1.2559222 -1.0874531 -0.9421114 -0.39284807
0003e0 4e 09 13 3f 74 62 08 c0 5e 49 72 bf 64 1c 54 be
       0.5743607 -2.131009 -0.946432 -0.20713955
0003f0 a4 75 0c c0 7f 6f e7 bf b5 a4 3d bf e6 03 88 bf
       -2.1946802 -1.8080901 -0.7407945 -1.062619

l2.weight f4 [300, 400]
000000 ad fb 17 bd 78 e1 93 bf b5 13 1b 3e bf 47 1a 3f
       -0.03710525 -1.1553183 0.15144236 0.60265726
000010 42 4b d2 3f 30 03 c6 be 16 18 f2 bd a8 ec b3 bf
       1.6429217 -0.38674307 -0.11821 -1.4056597
000020 42 d6 65 bd 85 f5 33 be d0 2e bd 3e 2f 29 4c 3e
       -0.056112535 -0.17574127 0.36949778 0.19937585
000030 ce e8 64 3f 12 3b 9e bf 2a f9 33 bf 94 40 a4 bb
       0.8941773 -1.2361777 -0.7030207 -0.005012581
000040 9e 27 9c 3e 40 b2 0e 40 ac 74 ea bd 27 55 42 3f
       0.30498976 2.2296295 -0.11448035 0.7591118
000050 ab 20 82 3f 17 d2 1d be e8 fc 62 3f 51 71 34 bf
       1.016622 -0.15412174 0.88667154 -0.7048541
000060 7a 17 08 be 98 11 58 3f db 3e 6c 3f 58 a6 0c bf
       -0.13290206 0.84401846 0.9228341 -0.5494132
000070 06 f0 ca be 1a 1e 8b be c6 6a c1 be 9c 69 2e 3d
       -0.39636248 -0.27171403 -0.37776774 0.042581186
000080 1e 67 9a 3e 9d 24 55 bf 56 1d 38 be ac b3 f1 bd
       0.30156797 -0.8325899 -0.17979941 -0.11801848
000090 16 82 5b 3f c5 31 3a c0 8f ca 02 bf 34 01 f2 be
       0.8574537 -2.9092877 -0.5109033 -0.47266543
0000a0 df 3b 3c bf d7 6b 0c bf 96 71 20 3d 46 e4 b4 3f
       -0.73528856 -0.5485205 0.039170824 1.4132164
0000b0 34 ae 93 3e 77 15 a7 be 6e 0a 18 bf 71 62 b7 be
       0.28843844 -0.32633564 -0.59390914 -0.35817292
0000c0 ea c5 90 3e 5c a5 67 bf f2 f5 cf 3f c3 40 b6 bf
       0.28275996 -0.90486693 1.6246932 -1.4238514
0000d0 56 c0 b7 be 96 15 3e bf 40 b8 c2 3e fc dd 3c bf
       -0.35888928 -0.7425169 0.38031197 -0.7377622
0000e0 6d 70 a5 3f a7 33 5b 3f 76 4a e7 bd bd e5 c4 bf
       1.2924935 0.8562569 -0.11293499 -1.538261
0000f0 79 54 fc be 65 e8 f9 bd 8c 29 68 bf c6 5b 9c bf
       -0.49283198 -0.12202529 -0.90688396 -1.2215507
000100 f2 d0 3d bf f2 87 5c 3e 50 3e 53 bf 85 77 59 be
       -0.7414695 0.21536234 -0.82516956 -0.21237
000110 8c f4 84 be bf 72 41 3f 9e 61 85 3e f3 dc 4e bf
       -0.25967824 0.75565714 0.26051039 -0.8080589
000120 41 21 88 bf 94 8c f3 3d e5 71 c4 3f 57 a5 39 be
       -1.0635148 0.118920475 1.5347258 -0.18129478
000130 9f 59 5e 3f 97 8f 99 3e 4c 6d 9f bd eb 7e 6d 3e
       0.868555 0.29992363 -0.077845186 0.23192947
000140 76 df d8 be 36 d2 34 3e 2b 34 e8 bb ae ad 0e 3f
       -0.42357987 0.17658314 -0.007086297 0.55733764
000150 74 5e 26 bf c8 02 5f 3e 9d 5a 04 bf bd 10 c3 3f
       -0.64987874 0.21778405 -0.51700765 1.5239483
000160 52 73 a0 be 82 20 ba 3e 27 c2 f3 3e 6c 54 26 3f
       -0.31337982 0.36352926 0.47609064 0.6497257
000170 eb 88 7e bf 2a d3 ca bc 1f c5 b8 bc 17 b6 28 bf
       -0.9942767 -0.024758894 -0.022554932 -0.6590285
000180 42 74 31 bf fe 57 fd 3d 7b 4c 00 3e b1 79 d9 3f
       -0.6931802 0.12370299 0.12529175 1.6990262
000190 c5 69 86 3e 92 0e c2 3e f3 d0 14 bf 38 ad 7f bd
       0.2625257 0.3790174 -0.5813133 -0.062421054
0001a0 c3 29 c7 3e ae b4 20 be 33 2c 5d bf 0b a4 c1 be
       0.3889905 -0.15693924 -0.8639557 -0.37820467
0001b0 c1 2b 3c bf 88 c4 44 bf 54 70 65 3f 29 7a 19 bf
       -0.73504263 -0.7686238 0.89624524 -0.59952027
0001c0 06 60 95 3f 2c d3 07 3f 5f 57 28 c0 45 ae 75 bf
       1.1669929 0.530566 -2.6303327 -0.9596904
0001d0 9c 4c 4b 3f ea 98 87 bf d5 da 07 40 70 89 83 bf
       0.7941377 -1.0593541 2.1227314 -1.0276318
0001e0 dc 28 94 3e 20 8f b1 be b9 04 1c 3f 4a be 36 3f
       0.28937423 -0.34679508 0.60944706 0.7138411
0001f0 69 80 ba be 40 cf 63 be 0d 74 82 3f 93 87 b1 be
       -0.36426094 -0.22247028 1.0191666 -0.34673747
000200 50 86 a5 bd 35 b5 cf 3d 34 f3 8f bf 9d fd 10 bf
       -0.08082259 0.101419844 -1.1246095 -0.56636983
000210 15 16 6e 3e 61 f3 a1 3d 6b 9c 0b bf aa d1 51 3e
       0.23250611 0.07907749 -0.5453555 0.20490137
000220 52 ad 50 bf 7a 31 31 3d 35 05 1f 3f aa 97 11 bf
       -0.81514466 0.043260075 0.6211732 -0.56872046
000230 8c 21 7c 3f d5 0a 6e bf 5f 0b 73 bf a4 6f f0 3e
       0.9848869 -0.9298528 -0.94939226 0.46960175
000240 eb 39 34 3e 36 5d 87 bf a6 d4 0b bf 50 4c c3 be
       0.17600219 -1.0575321 -0.5462135 -0.3814416
000250 51 3e cb 3d 32 31 c4 3e 78 e8 19 bf a8 5b 4a bf
       0.09923995 0.38318783 -0.60120344 -0.79046106
000260 65 e4 e1 bd 42 da 3f bf 3f 9c 26 bf fe 64 8e 3f
       -0.11029891 -0.7494241 -0.6508216 1.112457
000270 b0 d9 62 bc ca a2 42 3e 2c 14 db 3d 62 d7 ec 3e
       -0.013845846 0.19007412 0.10697207 0.46258074
000280 01 d7 74 3e 1b 34 01 bf 22 b2 6d bf 6e 85 05 3e
       0.23910142 -0.5047013 -0.92849934 0.1303918
000290 ca bd 50 3f 50 d6 e5 bf 62 6a 9b bf cf 94 31 bf
       0.81539595 -1.7956028 -1.214184 -0.6936769
0002a0 2f 4c 93 be 26 47 87 bf 39 e5 bd be 31 33 03 3f
       -0.2876906 -1.0568588 -0.37088946 0.51249987
0002b0 87 d2 40 3f 56 7f 35 3f cc 63 4c bf 0d d8 60 3e
       0.7532124 0.70897424 -0.7983978 0.21957417
0002c0 df 4a 03 3f 02 89 a8 be 16 22 87 3e 07 2f 90 3f
       0.5128612 -0.3291703 0.26393193 1.1264352
0002d0 92 79 85 3f ad 9c c7 3e cf 79 9e 3c e8 a1 dd 3d
       1.0427725 0.38986722 0.019345192 0.10821897
0002e0 83 6c 4d 3f bf 33 d4 bf ba e0 43 3f d3 4d d4 3e
       0.802437 -1.6578292 0.7651478 0.41465625
0002f0 3a 98 2e 3f 61 49 e7 3e 68 fd 6b 3e 16 1b ec be
       0.6820103 0.4517317 0.23045886 -0.46114415
000300 2a 2a 8c be f2 6d be 3e ca ed 0a bf 54 5a 02 bf
       -0.2737592 0.37193257 -0.5426909 -0.5091908
000310 bc 71 a5 3e 94 fa 10 be 2c e4 69 bd 8a 12 d4 3c
       0.32313335 -0.14158088 -0.057102367 0.025887746
000320 8e 44 69 bd e0 30 42 3f 5d be 24 3f 9b b6 3e 3f
       -0.056950144 0.7585583 0.6435297 0.74497384
000330 c3 fa bc be b9 10 c7 bf c1 1c 3c 3f 8a c3 c7 be
       -0.36910066 -1.5551978 0.73481375 -0.39016372
000340 33 db bc 3f 53 bf 31 be 1d 01 33 bf 4a d4 f7 be
       1.4754394 -0.1735814 -0.69923574 -0.4840415
000350 e1 4b d2 3d 9b 8c f5 3c 68 29 73 bf 33 09 2b be
       0.10268379 0.029974272 -0.94985056 -0.16702728
000360 e8 f7 ba bd 6c 2b 00 bf a4 8d 35 3e 33 1e 72 3f
       -0.091293156 -0.50066257 0.17729813 0.9457733
000370 d6 73 52 bf bf 4c f9 3a 3b 63 57 bf 73 62 27 be
       -0.82208 0.0019020065 -0.8413579 -0.16346149
000380 00 e8 2d 3f dc 85 77 3f bb 59 58 3f 7f 48 07 3f
       0.6793213 0.9668863 0.8451192 0.52844995
000390 c0 86 0a bf 43 b2 ed 3d 69 9c 07 3f 83 22 4f 3e
       -0.5411186 0.11606266 0.5297304 0.20228009
0003a0 6c 32 d9 be 12 be 2d 3e 86 49 b0 bf 1e 8a ab be
       -0.4242128 0.16967037 -1.3772438 -0.33503813
0003b0 74 4a c5 3e 6e 80 4e 3f d6 e1 a5 3e 36 5e 88 bc
       0.38533366 0.8066472 0.32398862 -0.016646486
0003c0 d2 6e 27 3e 18 4e 95 3f 8e ea c2 3d 6d bb 7f bc
       0.16350868 1.1664457 0.09517394 -0.015608651
0003d0 57 07 4d be cb 93 20 3f 7e 5f 76 3f 01 08 9f 3f
       -0.20022331 0.62725514 0.9623946 1.2424318
0003e0 3f cf 2f bf 76 68 cc be cd ac 4f 3f 8d 31 96 3f
       -0.6867561 -0.39923447 0.8112305 1.1733872
0003f0 e2 68 19 bf 32 75 3c bf 31 07 90 bd 0f 7d c1 3e
       -0.59925663 -0.73616326 -0.07032622 0.37790725

l2.bias f4 [300]
000000 ab 9d 17 3f 9e 42 00 bf a4 ba 49 bf 89 b1 ab 3c
       0.5922496 -0.5010165 -0.78800416 0.020958679
000010 66 ba ac bd 2b 21 b3 bf 90 9a 01 3f a6 ca 82 bd
       -0.0843399 -1.3994497 0.5062647 -0.06386308
000020 58 15 5e be b3 c3 1c bf 7f 92 22 be 8e 5d 95 bc
       -0.2168783 -0.61236113 -0.15876196 -0.018233087
000030 9b 4f c9 bd 6d ca 14 3f 6e a3 8a bf a0 b1 52 bf
       -0.09829637 0.5812138 -1.0831125 -0.82302284
000040 52 6b 8e bd 62 fe d0 bf 1a 65 04 be a8 c2 c1 bd
       -0.069540635 -1.6327631 -0.12929192 -0.09460956
000050 dc d5 39 3e 90 2c 72 3f 7d d2 9c bf 82 63 c5 bc
       0.18147987 0.94599247 -1.2251736 -0.0240953
000060 c6 4b ea 3e bd 43 88 bf 05 fb 2e bd ea 05 44 bf
       0.45760936 -1.0645672 -0.04271986 -0.76571524
000070 39 04 99 3f ef 77 b4 bd fd 4a 39 bf 07 82 b7 bc
       1.1954414 -0.08811938 -0.7238005 -0.022400869
000080 14 39 43 bc 6e db 81 bf 07 62 2f 3f 45 9f 6f bd
       -0.011915464 -1.014509 0.6850895 -0.0585015
000090 39 0a 70 be b2 c1 83 be 7e 54 f6 bd cd 32 9e bd
       -0.234414 -0.25733715 -0.12027834 -0.07724533
0000a0 4d c0 27 3e dc 80 36 ba 94 10 ac bd 22 e4 8a bd
       0.1638195 -0.00069619506 -0.084015995 -0.06781794
0000b0 04 7d 83 3f 1a db b1 bd 68 16 24 bc ca 82 a3 be
       1.0272527 -0.086843684 -0.010015108 -0.31935722
0000c0 da e0 9a 3e be c5 4e 3d 58 5d a3 bf b3 80 e4 bc
       0.30249673 0.05048155 -1.2762861 -0.0278934
0000d0 62 0f 1c be cb 05 4b bc c6 88 7c bd bb c0 78 bf
       -0.15240243 -0.012391518 -0.061653875 -0.97169083
0000e0 a2 92 d4 bc 56 1e 01 be 6e 55 8b bf 8a 5b 25 bc
       -0.025948826 -0.12609228 -1.0885446 -0.010092625
0000f0 12 71 bb bc 92 6f 3c bf a9 9e e5 bd ad 25 c8 bd
       -0.022881065 -0.7360774 -0.11211903 -0.09772811
000100 64 3f 25 be 41 14 33 bf 7c 7c ce be 26 15 9b be
       -0.16137463 -0.6995278 -0.4032935 -0.30289572
000110 ff 4b 09 bd b6 96 a1 3c 7c 0b a4 be d8 d5 51 bd
       -0.03351974 0.019725185 -0.32040012 -0.051229328
000120 8d db 37 bc 97 b3 dd 3c 3c 23 e6 be 6b ad ca bd
       -0.011221779 0.027063174 -0.44948757 -0.09896358
000130 99 c0 a4 be a0 f1 97 bf 0f 77 36 bd 40 c0 04 3e
       -0.3217819 -1.1870613 -0.044547137 0.12963963
000140 92 03 9f bd 2a 4b f0 be a2 27 a8 be 51 4d 5a bf
       -0.07764353 -0.46932346 -0.32842737 -0.85274225
000150 a0 82 27 bf 53 b5 03 3f 02 84 a0 be 0a d3 97 bd
       -0.6543369 0.51448554 -0.31350714 -0.074132994
000160 a8 e6 dd bd f5 bb 87 bd f7 90 3a bf 94 32 b4 bd
       -0.1083501 -0.06627647 -0.7287745 -0.087987095
000170 c8 ce 88 bf 1e ef 12 bd 52 5d 89 bd 0e 0a 6e bf
       -1.0688105 -0.03587257 -0.067072526 -0.9298409
000180 df 24 f2 bb b4 9f 31 bf d9 ec 03 3f c4 d6 8b bf
       -0.0073896493 -0.6938431 0.51533276 -1.0924916
000190 32 58 9d bc 6f 42 48 bd 64 53 ee be 2d 22 56 be
       -0.019207094 -0.04889148 -0.46547997 -0.20911475
0001a0 80 25 e9 be 17 3e 97 be 82 94 48 bd c1 a4 ba bf
       -0.45536423 -0.29539558 -0.048969753 -1.4581529
0001b0 9d 42 95 bf b4 b1 31 bf ec 04 73 bd ce d4 77 be
       -1.1660954 -0.6941178 -0.059330866 -0.24202272
0001c0 fa 18 bd be 84 1c 40 bf e5 e8 b7 bd f8 08 b8 bd
       -0.36933118 -0.7504351 -0.08979968 -0.08986086
0001d0 e5 89 95 bc 24 7a c2 3e 15 9c 88 bd 8e 9d c4 be
       -0.01825423 0.3798381 -0.06670395 -0.38401455
0001e0 3c 9b 23 bf 3e 7b e4 bb 7d e7 c0 bd 58 a6 95 bf
       -0.63908744 -0.0069726994 -0.09419153 -1.1691389
0001f0 69 5c 19 bf 87 19 33 bf 3a b0 64 bd 2c 5f 09 bf
       -0.5990663 -0.69960827 -0.055832125 -0.53660846
000200 0f ea 9d bf 4f ae a4 3d c9 9f 8b bf af f0 e1 be
       -1.2337054 0.08041059 -1.0908138 -0.4412894
000210 58 55 9f 3d e9 70 59 3f 0d f1 d3 bd 28 1c 0c 3c
       0.0777995 0.8493791 -0.10348711 0.008551635
000220 02 76 69 bf 86 11 52 bd e4 3f 35 bf ed 30 9b bf
       -0.9119569 -0.051286243 -0.70800614 -1.2124306
000230 68 19 c3 bf 9e 87 b4 bf f6 b8 0a bf 40 c1 4c be
       -1.5242128 -1.4103887 -0.5418848 -0.19995594
000240 1b e6 c7 bd 09 9d 09 3f 52 2e bf 3d 2c d1 c3 3e
       -0.09760686 0.5375524 0.09335007 0.38245523
000250 2f b6 90 bd df 78 c3 bd 6a 36 e1 be 1a 7f 67 bf
       -0.07065999 -0.09544539 -0.43986827 -0.90428317
000260 f0 85 a9 be e7 00 ac be 17 64 8c bd 71 ff 11 bd
       -0.3311 -0.33594438 -0.06855028 -0.035644
000270 2f ca c2 3e 66 bc 20 bf e8 5c 22 bb 00 e0 68 bd
       0.3804488 -0.62787473 -0.0024774615 -0.056854248
000280 b1 c5 ac bf 1f e1 d0 bd b3 49 b0 be 0b 96 fc bd
       -1.3497831 -0.101991884 -0.34431228 -0.12333306
000290 3c 3c 16 bf 4d 56 8a 3e ec cc 21 bf 23 2d ed 3b
       -0.5868566 0.27018967 -0.6320331 0.0072380467
0002a0 ea 08 5b bf c4 a6 61 bf 7f ff 09 bf 1b 91 cc 3e
       -0.85560477 -0.8814509 -0.5390548 0.39954457
0002b0 4e f3 67 3d 25 d4 5a bd c8 56 f9 bc c9 b6 69 bd
       0.056628518 -0.053424973 -0.030436888 -0.057059083
0002c0 80 b9 a0 bd 56 c9 a6 bf 49 86 90 bf a9 e1 6c 3e
       -0.07847881 -1.3030193 -1.129098 0.23132958
0002d0 c4 05 1a bf 06 58 9a bf 5d 5a 86 bf a4 f7 da bd
       -0.6016505 -1.2058113 -1.0496327 -0.10691765
0002e0 f6 79 b2 bf f4 b3 b2 bd e9 ff 24 bd 05 7c a9 be
       -1.394347 -0.087257296 -0.040283117 -0.33102432
0002f0 2f f3 08 3e 37 4e 44 be a2 37 92 bd c6 4a 52 3e
       0.13374017 -0.19170462 -0.07139517 0.20536336
000300 86 41 a2 3e ad 09 20 bd 51 85 89 bd 95 94 a5 bf
       0.31690615 -0.039071728 -0.06714881 -1.2935969
000310 4c 04 89 bc 58 61 ba ba da 7e c9 be ef 6d 58 3d
       -0.016725682 -0.0014219685 -0.39354593 0.052839216
000320 0e 8a a0 bd 34 86 6c be db 35 b1 be 29 fb 04 be
       -0.07838832 -0.2309807 -0.346114 -0.12986435
000330 61 98 0c bf 39 9e 41 3f 5a 81 11 bf 9d 1e 37 bf
       -0.5492001 0.75632054 -0.56838 -0.7153109
000340 1c 67 d3 be 25 5b e6 bf ff c7 ee bc b4 62 9e bb
       -0.41289604 -1.7996565 -0.0291481 -0.0048335437
000350 72 e0 34 be 44 23 f4 bc f5 d6 b4 bd 85 a4 a5 bd
       -0.17663744 -0.029801972 -0.08830062 -0.0808802
000360 61 33 43 bf 3d 98 a8 be 39 69 c2 bc 79 6d 66 be
       -0.76250273 -0.3292865 -0.023731815 -0.22502698
000370 d8 00 de be 17 32 03 bd 8d b3 e0 be 54 eb a3 bd
       -0.4336002 -0.03203019 -0.43886986 -0.0800387
000380 45 4f 35 bd 49 ee 97 bd 7b 24 57 bf 13 aa fb be
       -0.04426505 -0.07418496 -0.8404004 -0.49153194
000390 f2 34 13 be a8 30 c1 bd 05 c8 ea bc 94 67 03 bd
       -0.14375666 -0.094331086 -0.02865983 -0.0320812
0003a0 83 b2 a1 be 0c 55 a0 3b 66 5f 1e bd bd 73 dc bd
       -0.31581506 0.004892951 -0.038665198 -0.10764263
0003b0 71 09 e5 bc 4a 4b 1b 3d 27 f1 43 be d7 6c dd bc
       -0.027958604 0.037913598 -0.19134961 -0.027029438
0003c0 bb 25 0e bf c5 95 d6 be 94 9b 03 be e2 e2 4d bf
       -0.5552632 -0.4191114 -0.12852317 -0.8042432
0003d0 0a 3a 65 bd f5 30 31 bf 2f 2d 73 bf 40 89 c4 bd
       -0.055963553 -0.6921533 -0.9499082 -0.09596491
0003e0 43 fb 62 3f 90 9d be bc 01 de 26 bd a8 5f 31 be
       0.88664645 -0.023268491 -0.040739063 -0.17321646
0003f0 ba 59 1c bf 46 9b 70 be 5f 47 6a bf 08 36 e2 bd
       -0.6107441 -0.23496732 -0.91515154 -0.11045462

l3.weight f4 [4, 300]
000000 8e 24 6d be 9b c3 50 bf fa 84 28 3d cb 26 98 bc
       -0.23158476 -0.8154847 0.04114244 -0.018573185
000010 c6 61 24 3d 38 b3 ee bf 4b a5 11 3f ab 60 01 bd
       0.040132307 -1.8648443 0.5689284 -0.03158633
000020 16 2b 38 bf 19 f9 0e 3e ad 5d 2d bf 75 b7 31 3b
       -0.71940744 0.1396221 -0.6772106 0.0027117406
000030 32 12 57 bd 3e ec 47 3d 04 cf 69 bf e7 60 a2 bf
       -0.052507587 0.048809282 -0.91331506 -1.2685822
000040 4f 49 ba 3d ca 13 21 bf 4d 6d 0d c0 e4 11 ef bc
       0.09096014 -0.6292082 -2.2097962 -0.029183336
000050 70 be 16 bf c1 dc 4e bf 8d 91 8e be ba 18 5b bc
       -0.58884335 -0.80805594 -0.2784542 -0.0133725945
000060 89 9e 94 3f d5 78 b1 be ef 27 07 3b dd 6c 81 3f
       1.1610881 -0.346625 0.0020623168 1.0111347
000070 b6 a5 41 3f d0 87 1b be c2 73 09 bf 3c 02 b5 bc
       0.7564348 -0.15188527 -0.5369226 -0.022095792
000080 31 2e 45 bd c9 18 aa 3d 19 c9 89 bf 4a 39 e6 3c
       -0.048139755 0.08305509 -1.0764495 0.02810349
000090 9c 81 71 be af 6f 92 be a4 03 7d bb 9f 19 0d bf
       -0.23584598 -0.28600833 -0.0038606906 -0.5511722
0000a0 e6 a3 30 bf 79 b3 ff 3c 3a f5 82 bc 59 28 05 3d
       -0.6900009 0.031213509 -0.015986074 0.03250918
0000b0 b0 d8 f8 3c db 85 a9 bc ca d7 a9 bb 6e cd 81 3f
       0.030376762 -0.02069371 -0.0051831948 1.0140817
0000c0 11 55 32 bf f1 a3 95 bc 95 5d ed 3e 1f ef 40 3d
       -0.6966105 -0.01826665 0.4636046 0.047103044
0000d0 ea 73 b6 3c aa 85 1f 3b f5 e1 d5 bb 63 dc b8 3e
       0.022272069 0.0024341145 -0.0065271803 0.36105642
0000e0 e1 96 12 3d 93 d2 27 bd d9 b5 28 bf c7 aa 84 3a
       0.03578842 -0.040972304 -0.6590248 0.0010121696
0000f0 1c 1c d7 3c 4f f7 e5 3e 7d 4f b2 bb 44 99 e2 bc
       0.02625852 0.44915244 -0.0054416046 -0.027660973
000100 a5 de 05 40 1a ca 04 be 33 4d 10 bf f1 5e 25 3f
       2.0917141 -0.1296772 -0.56367797 0.64597994
000110 67 48 56 3d 27 28 15 bd e9 fd 1e c0 5c ce c7 bb
       0.052315142 -0.036415245 -2.4842474 -0.006097598
000120 78 50 60 bc c7 bf 0b 3f 0b 6e 8a bf 02 3d 84 3e
       -0.01369106 0.54589504 -1.0814832 0.25827795
000130 41 b4 08 3e 27 59 d9 3f 99 3f c3 bc c4 90 3b bf
       0.13350011 1.6980332 -0.023834037 -0.7326777
000140 aa ee 1f 3f 81 bd 2a bf 7d fe 50 bf 5a b5 c7 3e
       0.6247355 -0.6669541 -0.8163832 0.39005548
000150 18 37 83 bf 34 bb 1c bf 5f 82 25 3e b1 a1 86 bc
       -1.0251188 -0.6122315 0.16163014 -0.016434522
000160 65 84 38 be b1 18 7c bd 04 8b 03 3e f1 6c 19 3c
       -0.18019255 -0.061546985 0.12845999 0.009364353
000170 b5 be ed bf 1a 5e 32 bc 4f 15 20 3d 11 f0 b3 3f
       -1.8573824 -0.010886693 0.03908282 1.4057637
000180 28 b6 6f bc aa ba 4b 3e 35 a0 18 3f b3 44 31 3f
       -0.014630832 0.19895425 0.59619457 0.6924545
000190 74 5e db 3c 0d 9f 05 bd 79 c3 2b be 38 e9 b6 be
       0.026778437 -0.032622386 -0.16773786 -0.35724807
0001a0 8c 43 20 3f ea 92 46 3e 0c e4 52 3d 06 00 b9 3e
       0.6260307 0.19391981 0.051487014 0.3613283
0001b0 cd 64 a7 bf f3 28 aa bf 65 8e e1 3b 49 b0 91 3e
       -1.3077637 -1.3293747 0.00688343 0.28454807
0001c0 cd 0d a2 3e 96 03 b3 3e ce 75 32 c0 55 05 8f 3c
       0.31651154 0.34963673 -2.7884402 0.017458597
0001d0 ce 06 0f bd c1 74 d6 bf 84 a0 68 3f 07 ec 79 bd
       -0.0349186 -1.675438 0.9086993 -0.06101611
0001e0 ac b6 b6 3f bf d6 40 3b ba 3a a1 bc ef 2c 1c 3f
       1.4274497 0.0029424874 -0.019681323 0.61006063
0001f0 59 1c 1f bf 2d 68 3d 3e ca cf 04 3f 42 77 eb bd
       -0.6215263 0.18496771 0.5187956 -0.11497356
000200 dd 09 bd bd 43 16 10 bf 9f 48 28 3e ec 38 cc be
       -0.09230397 -0.5628397 0.16433953 -0.39887178
000210 87 9b 19 3f ab 21 2e 3f a5 56 77 be ff d7 bb bb
       0.6000294 0.68020123 -0.24154146 -0.005732536
000220 56 8c 3a 3f fb b1 a7 3a 73 99 8f bf 99 91 ae 3e
       0.72870386 0.0012794131 -1.1218704 0.34095457
000230 9f 6d 7c bf 5f 24 85 3f b8 1d fe 3f 9e bd 12 c0
       -0.9860477 1.0401725 1.985282 -2.2928233
000240 6b 76 32 3f 93 b7 b8 3f 05 d3 89 3f 66 18 55 bf
       0.6971194 1.4431022 1.0767523 -0.83240354
000250 dc af 49 3d 43 81 bb 3c 8a 9b e8 3d 23 8f a9 3e
       0.04923998 0.022888785 0.11357792 0.33117017
000260 32 8d ca 3e e0 17 01 3f b7 d5 31 3b b5 ad c3 3c
       0.39560848 0.50427055 0.002713544 0.02388654
000270 93 94 f9 be a0 48 b2 bf b5 25 50 bc dc 6b ad 3c
       -0.48746166 -1.3928413 -0.012704303 0.021169595
000280 35 e4 7f 3e cb 7c 08 bd 43 ef 49 bf 22 ce 85 3d
       0.24989398 -0.033322137 -0.7888071 0.06533457
000290 48 ef 6d bf 49 0e 3f bf ae 0a 0a 3f 44 95 4d 3c
       -0.9294324 -0.7463117 0.53922546 0.012547795
0002a0 bb 85 59 3e 94 fe 8b be 6d 93 10 be 28 96 1a be
       0.2124242 -0.27342665 -0.14118738 -0.15096343
0002b0 29 d1 a4 3d f9 1d e0 3a 81 95 db 3c b8 68 70 3c
       0.08047707 0.0017098776 0.026804687 0.014673404
0002c0 ed 9c f8 3a 51 cd 44 bf f2 08 24 be 8c be 98 3f
       0.0018967666 -0.7687579 -0.16019037 1.193315
0002d0 1e 05 e3 bd 03 29 0a 3f 97 ad 2f be 75 d2 1d bd
       -0.110849604 0.5396883 -0.17156063 -0.038530786
0002e0 d5 c4 18 3f 3e 52 28 3d 6e 16 1c 3d 35 37 6d ba
       0.5967534 0.041094057 0.038107328 -0.0009049059
0002f0 78 75 09 3f 48 29 07 be ec 36 8a bc ef 30 d8 bb
       0.5369487 -0.13199341 -0.016871892 -0.00659763
000300 16 87 56 3e 64 b0 aa 3c 58 0b 01 bd 55 23 d5 3e
       0.20949969 0.020836063 -0.03150496 0.4162852
000310 6d 7d 86 3b a4 29 14 3d 28 b8 b2 bd ca e7 2a 3f
       0.0041043074 0.036172524 -0.08726531 0.6675993
000320 1f 59 5f bf 8c d7 40 3e f0 91 e0 ba 21 23 6e bc
       -0.87245363 0.18832225 -0.0017133337 -0.014534743
000330 66 13 21 3e d5 fb 63 3f 72 38 98 3f fd b3 92 bf
       0.15730056 0.8905614 1.1892226 -1.1461178
000340 b4 8e 87 3e 2a 43 01 be e1 4e 74 3b 60 80 cc 3b
       0.2647606 -0.12623277 0.003727846 0.0062408894
000350 1b b0 05 bc da 50 36 bd fd b8 15 3d dd a0 8e 3c
       -0.008159663 -0.0445107 0.03655337 0.01741069
000360 d7 49 4e c0 7e 8f 28 3f ee 3c 5f 3c 1f 40 dd 3e
       -3.2232568 0.6584395 0.013625367 0.43212983
000370 f9 68 f0 be fc f2 4c 3d c4 a0 56 bf 75 c5 3b 3c
       -0.46955088 0.050036415 -0.8383906 0.011460652
000380 f0 75 cd 3b 77 5d c2 3b eb f5 bf be d9 1b c9 bf
       0.0062701628 0.005931552 -0.37492308 -1.5711623
000390 3a f1 73 3d 18 bb 8d 3f 04 b8 4f bd 4b 0a ca 3c
       0.059556223 1.1072721 -0.0507126 0.024663111
0003a0 b2 b9 9d 3e 01 4c 2b be d3 a9 07 3d 2c 8a b6 bc
       0.30805737 -0.16728212 0.03312094 -0.022282682
0003b0 f1 0d b2 bc dc e4 7e 3f 0b 19 d8 be 24 d5 54 be
       -0.021735163 0.9956796 -0.42206606 -0.20784432
0003c0 c4 0f 55 be 57 1f 74 3d 9b a6 be 3c 9e 0e 8f be
       -0.20806795 0.0596002 0.023272803 -0.2794084
0003d0 2f e8 61 3c 41 aa 15 be 13 c2 80 3e e2 4b 23 3d
       0.013788267 -0.14615728 0.25148067 0.03986729
0003e0 b4 b0 63 bf 6a f5 fc bc d6 41 7d bb 38 db e1 bf
       -0.889415 -0.030878741 -0.0038643978 -1.7645025
0003f0 39 6e 14 bf 27 5d c5 bf 55 e9 1d be 88 5d da 3b
       -0.57980686 -1.5419053 -0.1542104 0.006663982

l3.bias f4 [4]
000000 ff 92 22 3f a7 c9 ce 3e c4 c9 a0 bd 6b 3e 1e 3f
       0.6350555 0.40388224 -0.07850984 0.6181399
