TD3/saves/best_avg_actor.pth (torch, 518693 bytes, 6 tensors)

l1.weight f4 [400, 18]
0	0x3fbfb787	1.4977883
1	0xbf657de5	-0.89645225
2	0xbf4c853a	-0.7989079
3	0x3ed49fa5	0.4152805
4	0xbe21d4d1	-0.1580384
5	0xbd6c5667	-0.057699587
6	0xbf038f39	-0.51390415
7	0x3f1388b9	0.576305
8	0xbf8eac03	-1.1146244
9	0x3f64d4d2	0.8938724
10	0xbf828c8c	-1.0199142
11	0xbf1454d0	-0.57941914
12	0xbfcc0004	-1.5937505
13	0xbf2b28af	-0.66858953
14	0xbe890a85	-0.26765838
15	0xbea153df	-0.315093
16	0x3e888d80	0.26670456
17	0xbf61389d	-0.8797701
18	0x3fe056dc	1.7526507
19	0x3f0b9234	0.54519963
20	0x3996c245	0.00028754972
21	0xbe773ecf	-0.24145053
22	0x3ef46612	0.47734123
23	0xbe726340	-0.23670673
24	0xbcc36baf	-0.023855058
25	0x3f99d139	1.2016975
26	0xbf26a6a9	-0.65098053
27	0xbf852d88	-1.040452
28	0x3e1b2f8e	0.1515486
29	0x3f5c7f35	0.861316
30	0xbebbebc8	-0.36703324
31	0x3ef5360f	0.47892806
32	0x3f0949ea	0.5362841
33	0xbe0977d0	-0.13424611
34	0xbf2b43bb	-0.66900223
35	0xbf287b60	-0.65813255
36	0x3fc45ab3	1.5340179
37	0x3db65c08	0.08904272
38	0xbe4d20dc	-0.20032066
39	0x3f22f040	0.6364784
40	0x3e453a47	0.19260512
41	0xbe3983da	-0.18116704
42	0xbf66a7a1	-0.9009953
43	0x3f8dd582	1.1080782
44	0x403575b3	2.8353088
45	0x3ed7caaf	0.42146823
46	0x3d96fd59	0.07372541
47	0xbf2e3e1f	-0.6806354
48	0x3f848e09	1.0355846
49	0x3ee5092d	0.44733563
50	0x3ecde538	0.40213943
51	0x3d55d228	0.052202374
52	0x3eebd90c	0.4606403
53	0xbe4eaed1	-0.20183875
54	0x3f4e83e2	0.8066999
55	0x3f582eaf	0.84446234
56	0x3e8ead29	0.27866486
57	0xbed63cd4	-0.41843283
58	0xbf7ceece	-0.9880189
59	0x3eb947db	0.36187634
60	0xbf63b818	-0.8895278
61	0x3c4d481f	0.012529402
62	0x3fafcc3a	1.37342
63	0x3ec4a5ac	0.38407648
64	0xbecf396a	-0.4047349
65	0xbf19087a	-0.5977856
66	0x3fb78a01	1.433899
67	0xbea442f2	-0.32082325
68	0x3eb20abc	0.34773815
69	0x3d3e1a53	0.046411823
70	0x3e7ecfe5	0.24883993
71	0xbfe08a2d	-1.7542168
72	0xbe0a0cee	-0.13481495
73	0xbf0071ae	-0.5017346
74	0x40360f74	2.8446932
75	0xbf1319b7	-0.5746111
76	0x3ebbf6b8	0.3671167
77	0x3d43fceb	0.047848623
78	0xbf544d02	-0.82930005
79	0x3e871cff	0.2638931
80	0x3f6e966a	0.93198264
81	0xbdd0c484	-0.101937324
82	0x3f684230	0.90725994
83	0xbeaee463	-0.3415862
84	0x3dca9134	0.098909765
85	0xbf8d193e	-1.1023328
86	0xbe091bd3	-0.1338952
87	0xbf118708	-0.56846666
88	0xbfa9ecd5	-1.32754
89	0xbf56f8ac	-0.83973193
90	0x3f8d4ffb	1.1040033
91	0x3f2ac833	0.6671173
92	0x40171ec4	2.3612528
93	0x3f014751	0.50499445
94	0x3ee43cc8	0.44577622
95	0xbdf4bd69	-0.119501896
96	0xbf85ebd8	-1.0462599
97	0x3f829d7c	1.020431
98	0x3e00a670	0.12563491
99	0x3f236c1b	0.6383683
100	0x3da40e1a	0.08010502
101	0xbe322b65	-0.17399366
102	0xbc9bcae2	-0.01901764
103	0x3e58f717	0.21188007
104	0x3e248537	0.16066442
105	0x3f12a8e3	0.5728895
106	0xbec7e0ac	-0.390386
107	0xbe3108ae	-0.17288467
108	0x4012944e	2.2903018
109	0x3edea5b1	0.43485788
110	0xbf93d8ec	-1.1550574
111	0x3f0f2b83	0.5592577
112	0x3e06eb9b	0.13175814
113	0x3edf17c6	0.43572825
114	0xbea0c740	-0.31402016
115	0x3f1ae21b	0.6050126
116	0xc0211dc8	-2.5174427
117	0xbee8ddd3	-0.45481738
118	0xbe7b6d6c	-0.2455346
119	0xbe92a001	-0.28637698
120	0xbcd14684	-0.02554632
121	0xbeb33b9b	-0.35006413
122	0x3e12353e	0.14278123
123	0xbf0ca420	-0.54937935
124	0xbeebd767	-0.46062776
125	0x3f286e35	0.6579316
126	0x3fb44397	1.4083127
127	0xbd211a13	-0.039331507
128	0x3e126e66	0.14299926
129	0x3ebe0883	0.3711587
130	0xbe862e79	-0.2620733
131	0x3e32a8b0	0.17447162
132	0xbfa07c47	-1.2537926
133	0x3ecc86f2	0.39946705
134	0x3ebd8acd	0.3701996
135	0x3eabeed8	0.3358066
136	0xbebf579d	-0.3737153
137	0xbf3f0aa1	-0.74625593
138	0xbd79d463	-0.060993563
139	0xbf386b91	-0.72039133
140	0x3e0baeb7	0.13640867
141	0x3ea49f61	0.32152846
142	0xbee4bc4b	-0.44674906
143	0xbd6bea4b	-0.057596486
144	0x3fa71349	1.305276
145	0x3f94da0c	1.1629043
146	0x3ee6a774	0.45049632
147	0x3f0575e3	0.52133006
148	0x3e95c845	0.29254356
149	0xbcc22b85	-0.023702392
150	0xbeabb4b4	-0.33536303
151	0xbf3bb2b5	-0.7331956
152	0x40390170	2.8907127
153	0x3f424e60	0.7590084
154	0xbe6a1144	-0.22858149
155	0xbea60350	-0.32424402
156	0x3f8f6308	1.1202097
157	0xbf96c8f2	-1.1780074
158	0x3eec50cd	0.46155396
159	0x3e583f56	0.2111791
160	0x3f66a9e2	0.9010297
161	0x3e6dda44	0.23227793
162	0x3f823122	1.0171244
163	0xbf89430d	-1.0723587
164	0x3f06f3f0	0.5271597
165	0xbe803c05	-0.2504579
166	0x3ec09e58	0.37620807
167	0x3f1c76f9	0.6111904
168	0x3f3beacd	0.7340515
169	0x3f4f5296	0.8098539
170	0x408ac353	4.3363433
171	0x3f341ec3	0.7035944
172	0xbce93f6e	-0.028472628
173	0xbd2c4a4e	-0.04206305
174	0xbe53835b	-0.20655577
175	0xc0274669	-2.6136725
176	0xbe4e14c6	-0.20125112
177	0xbe0e242a	-0.13880983
178	0xbf6b340e	-0.91876304
179	0x3f0c54aa	0.5481669
180	0x3f1b6996	0.60707986
181	0xbfc39600	-1.5280151
182	0xbf333ed3	-0.7001774
183	0xbd9ddc9b	-0.07708093
184	0xbd9282f0	-0.071538806
185	0xbf07ffdf	-0.53124803
186	0xbf62c43d	-0.88580686
187	0x3fb7575b	1.4323534
188	0x3ef60036	0.48047036
189	0xbefee9cb	-0.49787745
190	0xbe6c36f5	-0.2306784
191	0x3f168dc3	0.5881006
192	0xbde741f3	-0.11291876
193	0x3fb30dc1	1.3988572
194	0xbebfbe6f	-0.37449977
195	0x3eba44fa	0.3638075
196	0xbf2adeee	-0.66746414
197	0xbf44ed01	-0.7692414
198	0x3f8dbe55	1.107371
199	0x3f0fbe97	0.5615019
200	0x3fe850df	1.814968
201	0xbe6b3a79	-0.22971524
202	0xbe84efb4	-0.2596413
203	0x3e8afb67	0.2714493
204	0xbf65a141	-0.8969918
205	0x40406239	3.005995
206	0xbf09955e	-0.5374354
207	0xbf163fa9	-0.5869089
208	0xbed2ed61	-0.4119673
209	0x3ec54316	0.38527745
210	0xbed4f482	-0.41592795
211	0x3fd35bad	1.6512352
212	0xbdb766c2	-0.08955146
213	0x3e1e50ab	0.1546046
214	0xbe8c8f17	-0.2745292
215	0xbf226b44	-0.63444924
216	0x3e0c281b	0.13687174
217	0x3e88941e	0.26675504
218	0x3fd88028	1.691411
219	0x3e0ee70f	0.1395533
220	0x3e9312c6	0.2872526
221	0x3cb53db5	0.02212415
222	0xbf41600e	-0.7553719
223	0x404c395e	3.1910014
224	0xc02d3421	-2.7063067
225	0xbf289dae	-0.658656
226	0xbf2454f4	-0.6419213
227	0xbebcdd1f	-0.36887452
228	0x3f812eaa	1.0092366
229	0x402ba804	2.6821299
230	0xbdc000cb	-0.09375151
231	0x3ea61877	0.3244054
232	0x3f822ef3	1.0170578
233	0x3f438f8f	0.7639093
234	0x3f0d0365	0.55083305
235	0x3ddb094a	0.10695131
236	0xbef62dec	-0.4808191
237	0xbf057ba0	-0.5214176
238	0xbda6a2f6	-0.08136551
239	0xbdbf038f	-0.093268506
240	0xbf8da2a4	-1.1065259
241	0x3f8feb21	1.1243631
242	0x3e9e734a	0.30947334
243	0x3e96e44d	0.29471055
244	0xbe961626	-0.29313773
245	0x3ee0c117	0.43897316
246	0x3fa4cf21	1.2875711
247	0x3f982a48	1.1887903
248	0xbdf1cace	-0.1180626
249	0xbeaa46c1	-0.33257106
250	0x3f008933	0.5020935
251	0xbfa8f256	-1.3198955
252	0x3f893e03	1.072205
253	0x3fd01f2c	1.6259513
254	0x3f6af596	0.91780984
255	0x3ea73b53	0.32662448

l1.bias f4 [400]
0	0xbd1b55ca	-0.03792361
1	0xbf866b03	-1.0501407
2	0xbe5cb354	-0.21552783
3	0xbec8724c	-0.39149702
4	0xbf599477	-0.84992164
5	0xbf0ec2e9	-0.5576616
6	0x3e59f85a	0.21286145
7	0xbfacb5db	-1.3492998
8	0x3e52a2c4	0.20569903
9	0x3c476d6e	0.012172086
10	0xbf60aa7b	-0.8776013
11	0xbf4ecbd3	-0.8077976
12	0xbd84cd08	-0.06484419
13	0xbfaf90f1	-1.3716108
14	0xbf372d4a	-0.7155348
15	0x3f06cd04	0.5265658
16	0xbf32ebd3	-0.6989109
17	0xbfc51306	-1.539643
18	0xbf7001be	-0.9375266
19	0xbf9bc7a7	-1.2170304
20	0xbe36e0de	-0.17859218
21	0xbf067721	-0.52525526
22	0xbe3c7138	-0.18402565
23	0x3ebbee7a	0.3670538
24	0xbf89802f	-1.0742244
25	0xbf7fde8b	-0.9994895
26	0xbe9e8b06	-0.3096544
27	0xbf089754	-0.5335591
28	0xbf44517c	-0.76686835
29	0xbf28845d	-0.6582697
30	0xbf125947	-0.57167476
31	0xbf1656de	-0.587263
32	0xbf4e2df2	-0.80538857
33	0xbf5c4f00	-0.86058044
34	0xbf58d2bd	-0.8469656
35	0xbf10bcfd	-0.56538373
36	0xbe4449bd	-0.19168754
37	0xbfd183b1	-1.6368314
38	0xbf83af68	-1.0287905
39	0xbf7608b0	-0.96107006
40	0xbe762d55	-0.2404073
41	0xbf86e078	-1.0537252
42	0xbf335c75	-0.70062953
43	0xbfc6e6e8	-1.5539217
44	0xbf1cd879	-0.6126781
45	0xbdbb28df	-0.09138655
46	0xbf63d4f1	-0.889968
47	0xbf55fac5	-0.8358577
48	0xbf9bfdb8	-1.2186804
49	0xbf1b696a	-0.60707724
50	0xbf5c5a6b	-0.86075467
51	0xbe03a228	-0.12854826
52	0xbfc5ac6d	-1.5443245
53	0xbf8505d3	-1.0392402
54	0xbdee50b1	-0.116364844
55	0xbf91c1fd	-1.1387326
56	0x3e04fc10	0.12986779
57	0xbf874c22	-1.0570109
58	0xbee1eba5	-0.44125095
59	0xbf8683c5	-1.0508963
60	0xbf806d55	-1.0033365
61	0x3f58f55b	0.8474938
62	0xbed84c4c	-0.4224571
63	0xbf09e5d3	-0.5386631
64	0xbebf6cc0	-0.37387657
65	0xbf6e1bc3	-0.9301111
66	0xbf5edff6	-0.8706049
67	0xbe342ff3	-0.17596416
68	0xbf78d1e1	-0.9719525
69	0xbf6d7619	-0.9275833
70	0xbed02de7	-0.4066002
71	0xbf77bb8a	-0.96770537
72	0xbf3fde4b	-0.7494857
73	0xbf59d28c	-0.85086894
74	0xbf3b36a4	-0.7313025
75	0xbf8c8150	-1.0976963
76	0xbf813e0a	-1.0097058
77	0xbf0a2708	-0.53965807
78	0xbf4167cd	-0.7554901
79	0xbf794236	-0.97366655
80	0xbf890a9f	-1.0706366
81	0xbef99a2a	-0.4875043
82	0xbe8f9d78	-0.28049827
83	0xbf6b1262	-0.91824925
84	0xbd9a0752	-0.075209275
85	0xbf9e0c60	-1.2347527
86	0xbf39beea	-0.72556937
87	0xbfa502de	-1.28915
88	0xbfa86755	-1.3156534
89	0xbf767ad8	-0.96281195
90	0xbf6afa4e	-0.91788185
91	0xbf59eb29	-0.8512445
92	0x3c8188dd	0.015812332
93	0xbf706acf	-0.93912977
94	0xbfbc08ac	-1.4690146
95	0xbf36a1ef	-0.7134084
96	0x3f1cca57	0.61246246
97	0xbf2a6e37	-0.66574425
98	0xbf4fd9a4	-0.8119147
99	0xbdf78449	-0.12085778
100	0xbf890a67	-1.07063
101	0xbef2c6e3	-0.47417364
102	0xbf82af34	-1.0209718
103	0xbeeb94fb	-0.460121
104	0xbe89052a	-0.26761752
105	0xbf784bb4	-0.96990514
106	0xbf5b6a8c	-0.8570945
107	0xbfab71d0	-1.3394108
108	0xbeef7c43	-0.46774492
109	0xbec07036	-0.3758561
110	0x3f6297c0	0.885128
111	0xbf3901ac	-0.72268176
112	0xbe17006d	-0.14746256
113	0xbfa5b52f	-1.2945918
114	0x3eb089b7	0.34480068
115	0xbed281d3	-0.41114673
116	0xbf0e1787	-0.5550465
117	0xbeae9246	-0.34095973
118	0xbf0c447f	-0.54792017
119	0xbf8dc582	-1.10759
120	0xbf0c7a2c	-0.5487392
121	0xbea449b5	-0.32087484
122	0xbed989c4	-0.4248792
123	0xbf565b08	-0.8373265
124	0xbf497ee3	-0.7870924
125	0x3db82b5c	0.08992645
126	0xbfd08dc2	-1.6293261
127	0xbf6a0dc8	-0.9142728
128	0xbf335366	-0.7004913
129	0x3e9dd7f0	0.3082881
130	0xbfd80765	-1.6877257
131	0xbfc23888	-1.5173502
132	0x3e20f93b	0.15720074
133	0xbfae5ca0	-1.3622017
134	0xbf730ab9	-0.94938236
135	0xbfb8b98c	-1.4431624
136	0xbec82685	-0.39091888
137	0xbe64c9ca	-0.22342601
138	0xbee35219	-0.44398573
139	0xbf45fa9f	-0.7733554
140	0x3d958938	0.07301563
141	0xbd6eb6e5	-0.05827989
142	0xbf8a30b5	-1.0796114
143	0xbd8499e2	-0.06474663
144	0xbf432e88	-0.76242876
145	0xbed99fa4	-0.4250461
146	0xbde0cd60	-0.10976672
147	0xbf7b9a91	-0.98282725
148	0xbe60ccd5	-0.21953137
149	0xbe4ec7ff	-0.2019348
150	0x3e5bacf2	0.21452692
151	0xbfa40f33	-1.2817138
152	0xbf0cca17	-0.54995865
153	0xbf991941	-1.1960832
154	0xbf9d1265	-1.2271239
155	0xbf9a88c4	-1.2072988
156	0xbf771fa3	-0.9653265
157	0xbfd60b50	-1.6722202
158	0x3f287c50	0.65814686
159	0xbf9db1df	-1.2319907
160	0xbf7255e4	-0.9466231
161	0xbf33e979	-0.70278126
162	0xbef78bc6	-0.48348826
163	0xbf78715f	-0.9704799
164	0x3dea70ac	0.11447272
165	0xbe859334	-0.2608887
166	0x3e52d20d	0.2058794
167	0xbf8bc8b9	-1.0920631
168	0xbf425d3e	-0.75923526
169	0x3edd06de	0.43169302
170	0xbf9e7229	-1.2378589
171	0xbf5f090f	-0.871232
172	0xbfdba074	-1.7158341
173	0xbf3b2b97	-0.7311339
174	0xbfa8f3ea	-1.3199437
175	0xbebeff35	-0.37304083
176	0xbe26a40a	-0.16273513
177	0xbfa7dd89	-1.3114482
178	0xbf4b1aca	-0.7933775
179	0x3ec376ec	0.38176668
180	0x3f0ad8a0	0.54236794
181	0xbcc5d66c	-0.024150096
182	0xbf185547	-0.5950512
183	0xbda19ec0	-0.07891607
184	0xbf9a83a0	-1.2071419
185	0xbfeab391	-1.8336049
186	0xbfa7ce8b	-1.3109907
187	0xbf6a9c64	-0.91644883
188	0xbf44f18f	-0.7693109
189	0xbe8d5ef0	-0.27611494
190	0xbf25bd0a	-0.64741576
191	0xbebfe077	-0.3747594
192	0xbf4fa908	-0.81117296
193	0xbf552cd3	-0.8327152
194	0xbefd9fe6	-0.49536055
195	0xbf5ee85d	-0.8707331
196	0xbf721044	-0.9455607
197	0xbf3a78e1	-0.72840697
198	0xbfc99b79	-1.5750571
199	0xbf9b79d5	-1.2146555
200	0xc00f2b34	-2.237012
201	0xbf82c1d1	-1.0215398
202	0xbf20abc9	-0.62762123
203	0xbfddc586	-1.7325904
204	0xbf73d084	-0.95240045
205	0xbf18b685	-0.596535
206	0xbf888bf8	-1.0667715
207	0xbfb65270	-1.4243908
208	0xbed29562	-0.41129595
209	0xbfbe6900	-1.4875793
210	0xbf3d547c	-0.7395704
211	0xbf69c851	-0.91321284
212	0xbeb2966f	-0.34880397
213	0xbf8b1dc9	-1.0868465
214	0xbf7ed88f	-0.9954919
215	0xbebd9fd4	-0.37036002
216	0xbcd5e66f	-0.026110856
217	0xbfccb6ae	-1.599325
218	0xbf71b02b	-0.94409436
219	0x3e86487e	0.26227182
220	0xbffe01a4	-1.9844251
221	0xbfb0512a	-1.3774769
222	0xbfc694aa	-1.5514119
223	0xbf829a4f	-1.0203341
224	0xbfb4bc92	-1.4120047
225	0xbe9ad075	-0.30237165
226	0xbec72187	-0.38892767
227	0xbf41617f	-0.7553939
228	0xbe9a11ce	-0.3009171
229	0xbed06218	-0.4069984
230	0xbf82097f	-1.0159148
231	0x3d4c2328	0.049838215
232	0xbf8cf851	-1.101328
233	0xbdb5a79d	-0.0886986
234	0x3e51a9aa	0.20474878
235	0xbf5f7dbf	-0.8730125
236	0xbfa4ca4e	-1.2874238
237	0xbf42edfc	-0.76144385
238	0xbf8c605c	-1.0966907
239	0xbf53d425	-0.8274558
240	0xbfcdc25f	-1.6074942
241	0xbf578c14	-0.8419812
242	0xbf79991c	-0.9749925
243	0x3e64e4c5	0.22352894
244	0xbf9cd681	-1.2252961
245	0xbfb69b0d	-1.4266068
246	0xbf69f358	-0.9138694
247	0xbfa8746c	-1.3160529
248	0xbf824dfc	-1.0180049
249	0xbf86b8f0	-1.0525188
250	0xbf251daa	-0.6449839
251	0xbd80dc63	-0.062920354
252	0xbf90edf7	-1.1322621
253	0xbef4b0df	-0.47791192
254	0xbf6e51ac	-0.9309337
255	0xbeb97e99	-0.362294

l2.weight f4 [300, 400]
0	0xbe821ad6	-0.254111
1	0xbd8e3414	-0.06943527
2	0x3e534ed8	0.20635545
3	0xbf6eb34f	-0.93242353
4	0xbf531983	-0.824608
5	0xbe260496	-0.16212687
6	0xbdbaab1b	-0.09114667
7	0x3f9e4cf7	1.2367238
8	0xbccb5643	-0.024821406
9	0xbefe4a4c	-0.4966606
10	0x3f011348	0.50420046
11	0x3e550e32	0.20806196
12	0xbecd423c	-0.40089595
13	0x3ea1f35c	0.3163098
14	0x3e8496ce	0.25896305
15	0xbfa15641	-1.2604448
16	0xbfe39d46	-1.7782371
17	0x3f7a2add	0.97721654
18	0x3ee4b0f1	0.44666246
19	0x3e93087f	0.2871742
20	0xbd7c2776	-0.06156107
21	0x3c965bc7	0.01835431
22	0xbf9b6d6e	-1.214277
23	0xbdb84e82	-0.08999349
24	0xbe9d7ed3	-0.30760822
25	0x3f575cd4	0.8412602
26	0xbde693b8	-0.11258644
27	0x3e9a06a8	0.30083203
28	0x3f32df98	0.69872427
29	0xbe650359	-0.22364558
30	0x3e2e6cd9	0.1703371
31	0x3d961150	0.07327521
32	0xbeb5a482	-0.35477072
33	0x3d34322d	0.043993164
34	0xbe4e5854	-0.20150882
35	0x3e3acd5a	0.18242398
36	0x3de81bc7	0.11333423
37	0xbee04333	-0.4380127
38	0xbeed82da	-0.46388894
39	0x3e5c409c	0.21509022
40	0x3e23a97e	0.15982625
41	0x3f3fbb61	0.7489529
42	0x3f1ca967	0.6119599
43	0xbe9f9ee6	-0.31175917
44	0x3e163dae	0.14671966
45	0xbf3b8092	-0.7324306
46	0xbe1abd12	-0.15111187
47	0x3f33b216	0.7019361
48	0x3e9d1963	0.3068343
49	0x3e2c376c	0.16818017
50	0x3cb37766	0.02190752
51	0x3e529a7f	0.20566748
52	0x3e4a7a6f	0.19773267
53	0x3e650678	0.22365749
54	0xbfbf4a49	-1.4944545
55	0xbdb9709b	-0.09054681
56	0x3ef18c63	0.4717742
57	0x3f4fd833	0.8118927
58	0xbd6e2bf1	-0.058147375
59	0xbef2b15b	-0.47400936
60	0xbd85e681	-0.06538106
61	0xbe7659d5	-0.24057706
62	0x3f106709	0.5640722
63	0x3f10da03	0.5658266
64	0xbf35d3b0	-0.71026134
65	0xbe51fad2	-0.20505837
66	0x3ec74711	0.38921407
67	0x3f20fc86	0.6288532
68	0x3f250fec	0.6447742
69	0x3c0a5f18	0.008445524
70	0x3e158751	0.146024
71	0xbc9f1889	-0.019420879
72	0xbf753d64	-0.957968
73	0xbec157bd	-0.37762251
74	0x3e060a19	0.1308979
75	0x3f46f896	0.7772306
76	0xbf961e7c	-1.1728053
77	0x3e7e1ad7	0.24814926
78	0x3fe853ee	1.8150613
79	0x3cf7ef6d	0.030265534
80	0x3f06bd14	0.5263226
81	0xbf273614	-0.6531689
82	0xbe94745c	-0.28995025
83	0x3ea58f16	0.32335728
84	0xbea5384a	-0.32269508
85	0x3ef72360	0.48269176
86	0x3d36729d	0.044542897
87	0xbf8e3c79	-1.1112205
88	0xbee29ac3	-0.442587
89	0x3dafd164	0.0858486
90	0x3f338f0f	0.70140165
91	0xbf0c0a14	-0.5470288
92	0xbe52dc68	-0.20591891
93	0x3f5b8819	0.85754544
94	0xbdf29a72	-0.11845864
95	0x3f2fefe1	0.687254
96	0x3e5173b1	0.20454289
97	0x3f8acca1	1.0843698
98	0xbe1989aa	-0.14993921
99	0xbe2b063a	-0.16701594
100	0xbe9ec21c	-0.3100747
101	0x3e291571	0.16512085
102	0x3f2d01a4	0.6758063
103	0xbf42a830	-0.76037884
104	0x3f3b3c1f	0.7313861
105	0x3e184859	0.14871348
106	0x3f056f72	0.5212318
107	0xbddb0e6e	-0.106961116
108	0x3e0627ea	0.13101164
109	0x3dd2cb11	0.10292638
110	0xbf268457	-0.65045685
111	0x3e1cee0b	0.15325181
112	0xbf52bb66	-0.823172
113	0xbee77bf6	-0.45211762
114	0x3e798b2f	0.243695
115	0x3e70258b	0.23451822
116	0xbe9cefc8	-0.3065169
117	0xbf0d58cf	-0.55213636
118	0x3f1b2492	0.60602677
119	0xbecaa63e	-0.39579958
120	0x3f0847df	0.53234667
121	0x3f775789	0.96617943
122	0x3e30a0eb	0.17248885
123	0x3e9aca02	0.30232245
124	0x3eb4d24c	0.35316694
125	0xbeae5faf	-0.34057376
126	0x3ed7e6da	0.42168313
127	0x3f07c1c2	0.53030026
128	0x3e9b14e5	0.3028938
129	0xbf04d223	-0.51883143
130	0x3e2c5cce	0.16832277
131	0xbf569956	-0.8382772
132	0xbfa80566	-1.3126647
133	0xbe6283b1	-0.22120549
134	0x3eb15da6	0.3464176
135	0xbe567f4a	-0.20946994
136	0x3ecbe03e	0.3981952
137	0xbc817db1	-0.015807005
138	0xbf150a1b	-0.58218545
139	0xbf640eef	-0.89085287
140	0xbf440de0	-0.7658367
141	0xbef8dca5	-0.48605838
142	0xbebf20bd	-0.37329665
143	0xbdff8343	-0.12476208
144	0x3e188fc3	0.1489859
145	0xbede6ca4	-0.4344226
146	0xbcff014b	-0.031128546
147	0x3e514797	0.20437466
148	0xbf0f32c0	-0.55936813
149	0x3c7a5446	0.015278881
150	0x3d9d25a1	0.07673193
151	0xbe92d1b2	-0.2867561
152	0xbf1a0d5b	-0.6017663
153	0xbfdef7ec	-1.741941
154	0xbe90baa3	-0.28267393
155	0xbd9689f6	-0.07350533
156	0xbe1e35a4	-0.1545015
157	0x3f48fe0e	0.78512657
158	0x3e831689	0.2560313
159	0xbe0a14c9	-0.13484491
160	0x3f7f1529	0.9964166
161	0x3fe58501	1.7931215
162	0x3edf4249	0.4360526
163	0xbf247b92	-0.64251053
164	0xbf16c369	-0.5889192
165	0xbf96ee3d	-1.1791455
166	0xbf77e56c	-0.96834445
167	0x3e3a1108	0.1817056
168	0xbf13e66e	-0.5777348
169	0x3f0a1f43	0.5395395
170	0xbe06622e	-0.1312339
171	0x3e8edd2b	0.27903113
172	0xbee5cf7d	-0.44884863
173	0xbe927a17	-0.28608772
174	0x3f151441	0.5823403
175	0x3e672c0f	0.22575401
176	0xbf7c9f25	-0.98680335
177	0xbbd4c0fd	-0.0064927326
178	0xbde08682	-0.10963155
179	0xbef1614f	-0.47144553
180	0x3ecd5bfd	0.40109244
181	0xbea73bf8	-0.3266294
182	0xbeed6fbd	-0.46374312
183	0xbf3f764c	-0.7478988
184	0xbf7874f3	-0.9705345
185	0xbccec075	-0.025238255
186	0xbd3ef9aa	-0.046624817
187	0xbe9f6381	-0.31130603
188	0x3ef63b0b	0.4809192
189	0x3e9efd2f	0.3105254
190	0x3f9568a5	1.167256
191	0xbeb8ef48	-0.36120057
192	0xbe840c24	-0.25790513
193	0xbe1eb062	-0.15496972
194	0x3ce9f97c	0.028561346
195	0xbe55334b	-0.20820348
196	0x3f3dca11	0.74136454
197	0xbf1b9321	-0.60771376
198	0x3f210178	0.62892866
199	0x3ee52f12	0.44762474
200	0x3e236ffe	0.1596069
201	0x3d93cb2c	0.07216486
202	0x3d999ecc	0.07500991
203	0xbf31a50e	-0.6939248
204	0xbf2517fd	-0.6448973
205	0xbef6781d	-0.48138514
206	0x3bcb1aee	0.0061982786
207	0x3f7abd44	0.97945046
208	0x3cc89a32	0.024487589
209	0xbe66035a	-0.22462216
210	0x3edf208a	0.43579513
211	0x3f3e635c	0.7437036
212	0xbea365bc	-0.31913555
213	0x3db23315	0.087011494
214	0x3eb9996a	0.36249858
215	0x3f7e9344	0.9944346
216	0x3ed03ee1	0.40672973
217	0x3f2e783e	0.68152225
218	0x3f3d10fd	0.7385405
219	0xbf55a9b0	-0.8346205
220	0x3f97ec87	1.1869057
221	0xbf8c6d67	-1.0970887
222	0xbe03c0fc	-0.12866586
223	0x3f24f3c3	0.6443445
224	0x3f3312a9	0.6995035
225	0xbee11337	-0.43959972
226	0xbef29269	-0.47377327
227	0xbd05d10f	-0.032670077
228	0x3e7f1946	0.24911985
229	0x3f36fec6	0.71482503
230	0xbf0fa683	-0.5611345
231	0x3e9b9d29	0.3039334
232	0x3ea96b58	0.3308971
233	0x3f2b495a	0.669088
234	0xbf772c65	-0.96552116
235	0x3eac7a6e	0.33687156
236	0x3e305ee8	0.17223704
237	0xbd6c70ea	-0.05772487
238	0xbf09be2f	-0.5380582
239	0x3e4aabb6	0.19792065
240	0x3f946ed5	1.1596323
241	0xbf364c4b	-0.71210164
242	0x3edfc057	0.4370143
243	0xbeb5f01b	-0.35534748
244	0xbe28487c	-0.164339
245	0xbeb57583	-0.35441217
246	0xbe063daf	-0.13109468
247	0x3ca6625d	0.020310575
248	0xbe863909	-0.2621539
249	0x3f3af61b	0.7303178
250	0xbfb33e57	-1.40034
251	0xbef61115	-0.48059908
252	0xbe0f28cc	-0.13980407
253	0xbf824e65	-1.0180174
254	0xb9b2473c	-0.0003400388
255	0x3e9456d0	0.28972483

l2.bias f4 [300]
0	0xbf92e2de	-1.1475484
1	0xbe00113a	-0.12506571
2	0xbdd48c58	-0.10378331
3	0xbc9df042	-0.019279603
4	0xbd628c3c	-0.05530952
5	0xbf3e6fdc	-0.74389434
6	0xbecfdea4	-0.4059955
7	0xbd6de3fb	-0.058078747
8	0xbf136daf	-0.5758924
9	0xbf93d4e0	-1.1549339
10	0xbbd9540e	-0.0066323346
11	0xbd55e222	-0.05221761
12	0xbd3e4296	-0.04645022
13	0xbdca3161	-0.098726995
14	0xbf10d59f	-0.5657596
15	0xbc88d56e	-0.016703334
16	0xbf26c1cf	-0.6513948
17	0xbdcf8e48	-0.1013456
18	0x3c0593a9	0.008152881
19	0xbdc5edd5	-0.096645035
20	0xbcca0f9c	-0.024665646
21	0xbd7c8ee2	-0.0616597
22	0x3b9d2958	0.0047961883
23	0xbe2304e6	-0.15919837
24	0xbdd8b15f	-0.10580706
25	0xbca6b59f	-0.020350276
26	0xbf2bc64d	-0.6709946
27	0xbf7feb1c	-0.99968123
28	0x3ec87a88	0.39155984
29	0xbe128ce0	-0.14311552
30	0xbcd1430e	-0.02554467
31	0x3c78ec25	0.01519302
32	0xbf047d60	-0.5175381
33	0xbf2de265	-0.67923576
34	0x3ef59a06	0.47969073
35	0xbd8c60d8	-0.06854409
36	0xbe5c99c8	-0.21543038
37	0xbdc706bd	-0.09718082
38	0xbd62a6b0	-0.055334747
39	0x3bcdd107	0.0062810215
40	0xbe9cdfff	-0.30639645
41	0xbe9c37e2	-0.30511385
42	0xbdb9b7b6	-0.09068243
43	0xbcdd7bb2	-0.027036522
44	0xbe01c7f9	-0.1267394
45	0x3edf2181	0.4358025
46	0xbcf9c84e	-0.03049102
47	0xbeb7b205	-0.35878006
48	0xbec0c86e	-0.37652916
49	0xbe3d0da7	-0.18462239
50	0xbe73ede9	-0.23821224
51	0x3be96a12	0.0071232403
52	0xbf08beef	-0.5341634
53	0x3bd2462b	0.006417056
54	0xbea5ae21	-0.32359412
55	0xbc1732d4	-0.009228427
56	0x3f08ca04	0.5343325
57	0xbf5cb336	-0.86210954
58	0xbf446445	-0.767155
59	0x3f340f87	0.7033619
60	0xbe8753a6	-0.26431006
61	0xbdad60c2	-0.08465721
62	0xbe9874d7	-0.29776642
63	0xbce2f68a	-0.02770545
64	0x3f40ad2a	0.7526423
65	0xbe26227d	-0.16224094
66	0xbd99ce97	-0.07510107
67	0xbc7aa595	-0.015298267
68	0xbc3b2d45	-0.011424367
69	0xbf5071ee	-0.8142384
70	0xbdc25557	-0.094889335
71	0x3eb47cae	0.35251373
72	0xbf2ebb63	-0.6825468
73	0x3db9fa20	0.09080911
74	0xbf197ed7	-0.5995917
75	0xbf9fb919	-1.2478362
76	0xbe8ddd47	-0.27707884
77	0xbdeebd4b	-0.116571985
78	0x3e2a609c	0.16638416
79	0xbfa15ca8	-1.2606401
80	0xbdceb30f	-0.100927465
81	0xbf111e00	-0.566864
82	0xbdbdd8bd	-0.09269855
83	0xbdbd45bc	-0.092418164
84	0xbd034213	-0.032045435
85	0x3e79d13c	0.24396223
86	0xbd11c78b	-0.03559069
87	0x3cb8902d	0.022529686
88	0xbd7301e9	-0.059327994
89	0x3f2c6a7e	0.67349994
90	0x3f7d3244	0.98904824
91	0xbf2a169a	-0.6644074
92	0xbd9d9bd0	-0.076957345
93	0xbd332660	-0.04373777
94	0xbd9deb1d	-0.0771086
95	0xbd2af415	-0.04173668
96	0xbd4cad10	-0.049969733
97	0xbf9834e9	-1.1891147
98	0xbdf26951	-0.11836494
99	0xbd694ded	-0.05695908
100	0xbf68e189	-0.9096914
101	0xbe39c804	-0.18142706
102	0xbd9f3864	-0.077744275
103	0xbda22159	-0.07916517
104	0x3d789676	0.060690366
105	0x3ea81686	0.32829684
106	0xbe8d81cc	-0.2763809
107	0xbda000a6	-0.07812624
108	0x3d3b1a72	0.045679517
109	0xbd980c68	-0.07424241
110	0xbd91bdb8	-0.07116264
111	0x3e67df64	0.2264381
112	0xbd942ede	-0.07235502
113	0xbd931eed	-0.07183633
114	0xbf40aa37	-0.7525973
115	0xbdc6f65a	-0.097149566
116	0xbc2fdd66	-0.010733938
117	0xbe23d58f	-0.15999435
118	0xbf554092	-0.8330165
119	0xbf33ccd0	-0.70234394
120	0x3ecee9b5	0.4041268
121	0xbb607928	-0.0034251902
122	0xbbde28e8	-0.0067797787
123	0xbd5057fb	-0.050865155
124	0xbe56c154	-0.20972186
125	0xbf902d85	-1.1263891
126	0xbf28f24a	-0.65994704
127	0xbf265c10	-0.64984226
128	0xbd5bdf36	-0.053679667
129	0xbe08e0b1	-0.13366963
130	0xbdd8e871	-0.1059121
131	0xbd4522b7	-0.04812881
132	0xbf51ea61	-0.8199826
133	0xbdb1ab31	-0.0867523
134	0xbf5f1c32	-0.871524
135	0xbf91189e	-1.1335638
136	0xbe4b8575	-0.19875129
137	0xbe83ac43	-0.25717363
138	0xbd8aa55a	-0.067698196
139	0xbec2892e	-0.37995285
140	0xbad63bff	-0.0016344785
141	0xbb9bba25	-0.0047524148
142	0x3e6732dc	0.22577995
143	0x3e0eccad	0.13945265
144	0xbf57fbd8	-0.8436866
145	0xbf523ad4	-0.82121015
146	0xbf8f3e41	-1.1190873
147	0x3d5b36e7	0.053519156
148	0xbebbea9c	-0.3670243
149	0xbd661c3e	-0.056179278
150	0xbe4f58a2	-0.20248654
151	0xbeed0991	-0.4629636
152	0xbf41e365	-0.757376
153	0x3d48d180	0.04902792
154	0xbd95bf12	-0.073118344
155	0xbd0b6b50	-0.034037888
156	0x3ef9cb02	0.48787695
157	0xbf4c35c8	-0.79769564
158	0x3d493691	0.049124304
159	0xbf530f3c	-0.8244512
160	0xbe38317c	-0.17987627
161	0x3cf68010	0.030090362
162	0xbee10af3	-0.43953666
163	0x3dbb66b2	0.09150447
164	0xbd49dec9	-0.04928473
165	0x3d5397ad	0.05165832
166	0xbe336555	-0.17519124
167	0xbd06033e	-0.032717936
168	0xbd2a5e91	-0.04159409
169	0xbf522b1b	-0.82097024
170	0xbf42088a	-0.7579428
171	0xbeb429bc	-0.3518809
172	0xbe52dcb3	-0.20592003
173	0xbed8d178	-0.42347312
174	0xbcfcb478	-0.030847773
175	0xbc137524	-0.0090000965
176	0xbd793214	-0.060838774
177	0xbf0b7228	-0.54471064
178	0xbd62dff9	-0.05538938
179	0xbf14cba4	-0.5812323
180	0xbe871bc0	-0.2638836
181	0xbf0c53a0	-0.548151
182	0x3e37a79a	0.17935029
183	0xbde9a101	-0.11407662
184	0xbe9a3fc5	-0.30126777
185	0xbdaabef7	-0.08337205
186	0xbca46153	-0.020065939
187	0xbdbbe5a3	-0.09174659
188	0xbf163aa9	-0.5868326
189	0xbd8a5fa9	-0.06756527
190	0xbd82ed4a	-0.063929155
191	0xbc430c8d	-0.011904848
192	0x3ea15bbe	0.31515306
193	0xbc8672d3	-0.016412174
194	0xbd65a38f	-0.056064185
195	0xbf553606	-0.8328556
196	0xbf1fd905	-0.6244052
197	0xbea58eb0	-0.32335424
198	0x3e384eb5	0.17998774
199	0xbe63dada	-0.22251454
200	0xbd1ae8e7	-0.03781977
201	0x3cc058a6	0.02347977
202	0xbd82ab23	-0.06380298
203	0xbda7750b	-0.08176621
204	0xbdb8c6d6	-0.090223
205	0xbe15a773	-0.14614658
206	0xbd9cd700	-0.076581955
207	0xbf446fe7	-0.7673325
208	0xbd5455ff	-0.051839825
209	0xbf0ae6a5	-0.54258186
210	0xbce09bc6	-0.027418029
211	0x3e705ff5	0.23474105
212	0xbca7c726	-0.020480704
213	0xbf574b9e	-0.8409976
214	0xbda87939	-0.082262464
215	0xbf7e6f8f	-0.99388975
216	0xbf78d66d	-0.9720219
217	0x3d83642b	0.0641559
218	0x3c15179f	0.00909987
219	0xbe1e525e	-0.15461108
220	0xbd98a0aa	-0.07452519
221	0xbeb4f1a3	-0.35340604
222	0xbcf525d5	-0.029925266
223	0x3f42ae5b	0.76047295
224	0x3f9aa749	1.2082301
225	0xbe10c99c	-0.14139408
226	0xbf54ae66	-0.8307861
227	0xbd0a7532	-0.033803172
228	0xbdbe8c77	-0.09304135
229	0xbc2a33d5	-0.010388334
230	0xbcbb58ab	-0.022869429
231	0xbe00a99a	-0.12564698
232	0xbcd16a1b	-0.02556329
233	0xbee689b7	-0.45026943
234	0xbd82c464	-0.06385115
235	0xbde85d16	-0.1134588
236	0xbccd08dd	-0.02502864
237	0xbd1d12dc	-0.038348064
238	0xbd912a39	-0.070881315
239	0xbd5c734a	-0.053820886
240	0x3e9d558b	0.30729327
241	0xbf509b11	-0.8148661
242	0xbf4b88ba	-0.79505503
243	0xbe99ff25	-0.30077472
244	0xbec3669a	-0.38164216
245	0xbdb176ac	-0.08665213
246	0x3ead3a36	0.33833474
247	0x3df49e99	0.119443126
248	0xbee7d499	-0.45279387
249	0xbf095236	-0.5364107
250	0x3e68908e	0.22711393
251	0xbde13798	-0.10996932
252	0xbf90a92b	-1.1301626
253	0xbf8f1f56	-1.1181438
254	0x3d2f93b5	0.042865474
255	0xbdbdf1f1	-0.09274662

l3.weight f4 [4, 300]
0	0x3eb808bb	0.3594416
1	0xbc9de697	-0.019274993
2	0x3b043377	0.0020172277
3	0xbc892708	-0.016742244
4	0x3d39bad6	0.045344196
5	0x3df850b2	0.121247664
6	0xbf39a8f1	-0.7252341
7	0xbedbd51f	-0.42936036
8	0xbefc5036	-0.49279946
9	0xbf35f213	-0.710725
10	0x3c03ac3b	0.008036668
11	0x3bd1475d	0.006386681
12	0xbf2d5dc8	-0.67721224
13	0xbd47f152	-0.048814125
14	0xbed8ac12	-0.4231878
15	0xbbdc0d3c	-0.006715445
16	0xbfc6653a	-1.5499642
17	0xbce31e26	-0.027724337
18	0xbc92809a	-0.017883588
19	0x3cecc74e	0.02890363
20	0xbd5507d7	-0.05200943
21	0xbd26302a	-0.040573277
22	0x3d4f54bf	0.05061793
23	0xbf6afd5b	-0.9179284
24	0xbc5d8350	-0.013520077
25	0xbc4ed8d7	-0.012624941
26	0xbe888858	-0.26666522
27	0x3ecc9cf5	0.399635
28	0x3e944da1	0.28965476
29	0xbfa13338	-1.2593756
30	0x3c4e3df1	0.01258801
31	0xbcbbde33	-0.022933101
32	0xbf346f9c	-0.704828
33	0xbed31319	-0.41225508
34	0x3f515bf7	0.8178095
35	0x3d3129b5	0.043252666
36	0xbfa42e72	-1.2826674
37	0xbbb9f6e7	-0.005675185
38	0xbd07a8db	-0.033120017
39	0xbbd1d9cb	-0.006404137
40	0x3deadbe3	0.11467721
41	0x3f493846	0.7860149
42	0xbd4a36c9	-0.049368653
43	0x3c8892c1	0.01667154
44	0xbb070cb8	-0.0020606946
45	0xbe693640	-0.22774601
46	0xbc846f8b	-0.01616647
47	0xbf406629	-0.75155884
48	0x3e153903	0.1457253
49	0x3f59827d	0.84964734
50	0xbf658f2f	-0.89671606
51	0x3ccad5bc	0.02476012
52	0xbf32a208	-0.6977849
53	0xbd457e03	-0.048215877
54	0xbe189221	-0.14899494
55	0xbd84d5eb	-0.06486114
56	0x3ec32aa5	0.38118473
57	0x3f20f6c2	0.6287652
58	0xbf0a83a2	-0.54107106
59	0x3ed25a76	0.4108464
60	0x3eb314db	0.3497685
61	0x3c873546	0.016504895
62	0x3e863478	0.26211905
63	0x3ca628f5	0.020283202
64	0x3da1a083	0.07891943
65	0xbf1a82f0	-0.60356045
66	0xbcddabd3	-0.027059471
67	0x3c482eeb	0.012218217
68	0x3d1165cf	0.035497483
69	0xbe7ee8f3	-0.2489355
70	0x3acf0ca1	0.001579661
71	0x3e7c6a4d	0.24649926
72	0xbf571025	-0.8400901
73	0xbf7ea5dd	-0.9947184
74	0xbefe07e5	-0.49615398
75	0xbe906193	-0.28199443
76	0x3ec9e1f5	0.39430204
77	0xbf76f571	-0.96468264
78	0xbfa921ff	-1.32135
79	0xbefa989d	-0.4894456
80	0xbdb69fd4	-0.089172035
81	0x3f69b0ec	0.91285586
82	0x3d7293a8	0.059222847
83	0xbcd12287	-0.02552916
84	0xbc706898	-0.014673375
85	0x3f576b5e	0.84148204
86	0xbee9e06b	-0.4567903
87	0xbe65c33e	-0.2243776
88	0x3c86c9ce	0.01645365
89	0x3f46fb1e	0.77726924
90	0x3f48b764	0.7840483
91	0x3efa8823	0.4893199
92	0xbc3658f0	-0.011129603
93	0xbc0af652	-0.008481579
94	0x3d446d9a	0.047956087
95	0xbfa2bb5c	-1.2713428
96	0xbd2171df	-0.039415237
97	0xbfc685a3	-1.5509533
98	0xbd9867e3	-0.0744169
99	0xbc8eb3f6	-0.017419796
100	0xbef77c11	-0.48336843
101	0x3f368693	0.71299094
102	0x3d7cacab	0.061688107
103	0x3cde467d	0.02713322
104	0x3e04c20c	0.12964648
105	0xbdbe94e9	-0.09305746
106	0xbec31df8	-0.38108802
107	0x3e995dea	0.29954463
108	0xbf0fcd69	-0.56172806
109	0x3cab634d	0.020921374
110	0x3c96937b	0.018380871
111	0xbf90ad80	-1.1302948
112	0x3bd84129	0.0065995646
113	0x3d748eb9	0.059706423
114	0x3d1f1a29	0.038843308
115	0xbc0cc637	-0.00859218
116	0xbce2726c	-0.027642451
117	0xbe9d58bc	-0.3073176
118	0x3e7c1562	0.24617532
119	0xbede1d3a	-0.43381673
120	0xbf1ea042	-0.61963284
121	0xbccf9455	-0.025339285
122	0xbd88de3b	-0.06683012
123	0x3ce70577	0.028200848
124	0x3ed17023	0.40905866
125	0x3e90590b	0.28192934
126	0x3f0ebf29	0.5576044
127	0xbc8da64f	-0.017291216
128	0x3be4213c	0.0069619697
129	0xbf3041b9	-0.68850285
130	0x3caa0365	0.020753572
131	0xbc528330	-0.01284866
132	0x3f1cc62f	0.61239904
133	0xbcbf60ad	-0.023361528
134	0xbe9ae47d	-0.30252448
135	0xbd9aac85	-0.07552437
136	0xbee4b16a	-0.44666606
137	0xbfe8a136	-1.8174198
138	0x3b333ad3	0.0027348294
139	0x3e11105e	0.141664
140	0xbd8bd5b8	-0.06827873
141	0xbd6558ba	-0.05599282
142	0xbf26400e	-0.6494149
143	0x3e3ac122	0.18237737
144	0x3e93edc7	0.28892347
145	0x3e8e74bf	0.27823445
146	0x3ea25978	0.31708884
147	0x3e898b17	0.2686393
148	0xbf5cd910	-0.8626871
149	0xbd0688f8	-0.032845467
150	0x3dc6ceca	0.09707411
151	0xbd074c3b	-0.033031683
152	0xbf6d0c8a	-0.9259726
153	0x3f63f544	0.8904612
154	0xbc837f8b	-0.016052028
155	0xbcf066a6	-0.029345822
156	0xbf39fd95	-0.7265256
157	0xbdad3714	-0.08457771
158	0x3e828471	0.2549167
159	0x3d09cb36	0.033641063
160	0x3f1d5841	0.6146279
161	0x3cd82d6f	0.026388852
162	0x3f8a952a	1.0826771
163	0xbf2bec91	-0.67157847
164	0xbd90f854	-0.07078615
165	0x3e665075	0.2249163
166	0xbd7aaefc	-0.061202034
167	0x3cb87af2	0.022519562
168	0xbc3e79b7	-0.011625699
169	0x3ea88723	0.329156
170	0x3e3ac8be	0.1824064
171	0xbc1eb0bc	-0.009685691
172	0x3fa952f4	1.322844
173	0xbea1abd2	-0.315764
174	0xbc036440	-0.008019507
175	0x3f76337f	0.96172327
176	0x3c8c978d	0.017162109
177	0x3f87678b	1.0578474
178	0xbd84e985	-0.06489853
179	0x3e65afa4	0.22430283
180	0x3e853440	0.26016426
181	0xbdfe1a9b	-0.12407418
182	0xbe483819	-0.1955265
183	0x3ca568c7	0.020191563
184	0x3f40a1cb	0.75246876
185	0x3d842a5a	0.064533904
186	0x3b966077	0.004589136
187	0xbc67f71a	-0.014158035
188	0xbe6cf101	-0.2313881
189	0x3d3759bd	0.044763315
190	0xbb5ad4a3	-0.0033390902
191	0xbd802b56	-0.06258266
192	0xbdc2bbeb	-0.09508499
193	0x3beff2b5	0.007322634
194	0xbc2e4307	-0.010636098
195	0x3f65b51d	0.8972948
196	0x3f4ebb49	0.80754524
197	0x3e38b687	0.18038379
198	0xbd6e2c81	-0.05814791
199	0x3e2ca354	0.1685918
200	0x3d6472e4	0.05577363
201	0x3e97f812	0.2968145
202	0xbbecf10a	-0.0072308825
203	0x3dbfce61	0.093655355
204	0x3c05297f	0.008127569
205	0x3aabf0f7	0.0013118078
206	0x3cd932ff	0.026513575
207	0x3f3fe4b5	0.74958354
208	0x3b02719c	0.0019904142
209	0x3e3c0f9a	0.18365327
210	0x3d29b87e	0.04143571
211	0x3e081c6a	0.13292089
212	0x3c566690	0.013085976
213	0xbfaf69cf	-1.3704165
214	0x3d659a2d	0.056055237
215	0xbea0cf7f	-0.31408307
216	0xbf88d4ae	-1.0689905
217	0x3f37f481	0.7185746
218	0x3d3dd4b8	0.046345443
219	0x3f19a09e	0.6001071
220	0xbd81d8e1	-0.063401945
221	0x3f369d1c	0.7133348
222	0x3c91d794	0.017802991
223	0xbfe8598c	-1.8152328
224	0x3f9cc73f	1.2248305
225	0x3ded39ca	0.11583288
226	0xbf6e26fd	-0.9302824
227	0xbc2af491	-0.010434286
228	0x3f32d7a0	0.6986027
229	0xbbb24c6c	-0.005441239
230	0xbcec37ed	-0.028835261
231	0x3f00b3d5	0.502744
232	0xbd80eb69	-0.06294901
233	0x3f030da5	0.51192695
234	0xbcb696e3	-0.022288745
235	0xbc0a04c9	-0.008423992
236	0x3b7bdae6	0.0038430034
237	0xbcb334b3	-0.021875715
238	0xbdadaf5e	-0.08480714
239	0xbba996a7	-0.00517543
240	0xbebdcd35	-0.37070623
241	0x3fb0fe5a	1.3827622
242	0x3f27a73d	0.6548956
243	0xbf7a9f38	-0.978992
244	0xbf4ebc24	-0.8075583
245	0x3b6f183c	0.003648295
246	0x3e987d76	0.2978322
247	0x3ea183c5	0.31545845
248	0xbd9606ac	-0.07325491
249	0x3f031f46	0.51219594
250	0xbf60e8e2	-0.8785535
251	0xbe276a7b	-0.16349213
252	0x3c66e618	0.014092945
253	0xbeb678f8	-0.35639167
254	0x3e16a9bf	0.1471319
255	0x3d523f90	0.05133015

l3.bias f4 [4]
0	0xbea83db8	-0.32859588
1	0x3f0808bc	0.5313833
2	0xbf577261	-0.84158903
3	0xbf169559	-0.58821636
