TD3/saves/best_avg_actor.pth (torch, 518693 bytes, 6 tensors)

l1.weight f4 [400, 18]
000000 06 11 34 3e 39 95 30 be 4f 73 3a 3e 51 b5 0a 3e
       0.17584619 -0.17244424 0.18208049 0.13545729
000010 bc 2d 33 3e 67 52 28 be 1e c6 32 be ec 59 be 3d
       0.17497915 -0.16437684 -0.17458388 0.09294495
000020 f8 19 60 be 89 33 5c 3e 86 02 39 3d d4 2a 39 3d
       -0.21884906 0.21504034 0.045168422 0.04520686
000030 02 9a 39 be 1d 32 8f 3d 7e c1 ce 3d b7 af 14 3d
       -0.18125156 0.0699198 0.100954995 0.036300387
000040 5d f8 61 3e f6 ca 83 3d 64 8c 73 be c2 7d 6b 3e
       0.220674 0.06435196 -0.23784024 0.22997192
000050 90 ed b7 3d a6 d0 b8 bd d6 d3 5e be 45 31 f2 3d
       0.08980858 -0.090241715 -0.21760496 0.11825804
000060 ab 87 81 3e b5 9f 6d be 7d 15 52 3c 24 3f 88 3d
       0.2529882 -0.23205455 0.012822506 0.06652668
000070 5e 58 dc bd 1d 29 45 bd 91 62 41 be 51 50 00 be
       -0.10759042 -0.04813491 -0.18885256 -0.12530638
000080 7e 44 65 be c5 19 d9 3b 30 21 1e 3e 06 37 06 3e
       -0.22389409 0.0066253864 0.15442348 0.13106927
000090 01 6a 62 3e bf a3 60 be bf e2 a0 bc 27 4b 58 3e
       0.2211075 -0.21937464 -0.019639371 0.21122418
0000a0 8a d5 2a 3d e3 58 8d bd ab 33 56 be c7 63 ee 3d
       0.041707553 -0.069017194 -0.20918147 0.11640125
0000b0 81 92 3b 3e 73 2e 3c 3e 5a 91 56 3e 86 4d ea 3c
       0.18317606 0.18377094 0.20953885 0.02860142
0000c0 40 f8 36 3e e5 c3 34 bd 2c b9 46 3e 1e 45 b1 bc
       0.17868137 -0.044132132 0.19406575 -0.021639403
0000d0 83 e8 50 bd 1c 63 f5 bd c6 13 fc 3d 49 c0 f5 3d
       -0.05100299 -0.11981794 0.12308459 0.11999566
0000e0 34 33 10 3e dc 40 18 be ba c2 07 be 07 e2 65 3e
       0.14082032 -0.14868492 -0.13257876 0.22449504
0000f0 61 3a 01 be e8 7c 21 be ca b3 84 bd 0b 50 be bd
       -0.12619926 -0.15770304 -0.064796045 -0.09292611
000100 c0 30 2d be 2f be 38 3e 43 9e 73 3c e7 89 a9 3d
       -0.16913128 0.180413 0.0148692755 0.08278256
000110 66 4c 3e 3e 29 2b 15 be dd a0 3c 3e 8d 46 02 be
       0.18583831 -0.14567246 0.1842074 -0.12722225
000120 cb 2a 64 bd 57 2b 43 3e 57 95 63 3e ca 0c 6e 3e
       -0.055704873 0.19059502 0.22224937 0.23247066
000130 cb 96 f6 3d 5f ed 5a 3e d6 21 73 bd c8 bc d1 bc
       0.1204048 0.21379612 -0.05935844 -0.025602713
000140 db f1 b6 bd d0 32 0b bd e7 83 54 bd c7 79 2b 3e
       -0.08932849 -0.033984005 -0.051883604 0.16745673
000150 dd 4f 18 3e af 94 40 be 82 ce 0d be 46 b3 b5 bd
       0.14874215 -0.18806718 -0.13848308 -0.08872084
000160 e1 70 f1 3c e0 b4 9c bd 7d 0e 05 be 38 c7 87 bd
       0.02947277 -0.07651687 -0.12993808 -0.06629795
000170 c3 fc f1 bd 1b 0d 19 bd 81 d9 0b be 4b 0b 93 bd
       -0.118157886 -0.037366014 -0.1365719 -0.07179888
000180 d8 39 ae bd 49 37 e8 bc 77 b0 41 3e 8c 9f 20 3e
       -0.085071266 -0.028346675 0.18914972 0.15685862
000190 7a 72 99 bd 3a e1 67 be 7f 6e 11 be 58 55 36 be
       -0.07492538 -0.22644511 -0.14202307 -0.17805994
0001a0 92 0e 4d bc 1e 07 e1 bd 7e b8 21 be b3 b1 99 3d
       -0.012515681 -0.109876856 -0.15793034 0.075045966
0001b0 37 5a 39 3d af 52 38 bd 9d 38 e8 bd 48 df 14 3e
       0.04525205 -0.04500073 -0.11338923 0.145383
0001c0 b1 62 43 be 58 14 19 bc a2 fe b8 3d 5f 68 26 3e
       -0.19080617 -0.009343229 0.09032942 0.16250752
0001d0 1f 98 47 be 28 6f 0b bc c0 ee 40 3e 4f c2 95 3c
       -0.19491623 -0.008510388 0.18841076 0.01828113
0001e0 31 00 d2 3d 8b 57 dc bd f3 f8 1a 3e 03 2c 91 bd
       0.10253943 -0.10758885 0.15134029 -0.07088473
0001f0 ce 00 0c be ab b9 44 3e d6 d9 3a 3d 5a 53 9d 3c
       -0.13672182 0.19211452 0.0456179 0.019204784
000200 44 cb 15 be e6 6d d6 bc 42 aa 40 be 30 70 35 be
       -0.14628321 -0.02617545 -0.18814948 -0.17718577
000210 56 02 a5 bc a3 97 e3 3c b6 5f 4b be b2 2c 6d 3e
       -0.020142715 0.027782267 -0.1986073 0.23161581
000220 fb 99 3f 3e e6 e9 71 be ea c1 fd 3d 48 1d 0c be
       0.18711083 -0.23624381 0.12390502 -0.13683045
000230 de c2 51 be 83 34 68 3e 7c 6f c4 bd 1a 8a 8c bd
       -0.20484492 0.22676282 -0.095915765 -0.06862278
000240 17 cc 22 3d e8 cf f6 3d b6 9c 92 3c 92 1d 98 bd
       0.039745416 0.12051374 0.017896991 -0.07427515
000250 34 87 0b 3d 75 67 01 be d8 9e 37 be 97 ac 8f 3d
       0.034064487 -0.12637122 -0.17931688 0.07015341
000260 5d 6b 62 3c 7e 9c 9d 3d 95 e9 b6 bd 18 a9 67 be
       0.013819543 0.07695864 -0.08931271 -0.22623098
000270 bd fe 4c bd be 5a 5a be 78 60 a3 bc 75 22 d4 3d
       -0.050047625 -0.21323678 -0.01994346 0.10358135
000280 54 ae 0c 3d 69 04 0d 3e 1b 80 72 3d ae 58 be 3d
       0.03434594 0.13771214 0.059204202 0.09294258
000290 2d 0d 5d 3e d4 65 59 3c 57 99 26 3d 57 01 ae bd
       0.21587057 0.013268907 0.04067358 -0.08496349
0002a0 b5 22 08 3e 1f 97 47 3e 44 71 1a be c5 3c 65 3e
       0.1329449 0.19491242 -0.1508227 0.22386463
0002b0 2c 8d 8d 3d 1f e5 72 bd c7 b5 4f be 48 67 79 be
       0.06911692 -0.05930054 -0.20284186 -0.24355805
0002c0 e1 81 2f be 71 04 4d be 79 e3 26 be 74 71 96 bd
       -0.17139389 -0.20021226 -0.16297711 -0.07345858
0002d0 5f 74 58 be 28 e9 59 be df a7 ac bc 97 e4 66 be
       -0.21138142 -0.21280348 -0.02107614 -0.22548138
0002e0 72 69 a2 bc 82 80 69 3d 7b e8 6b 3d d0 2c 1e 3e
       -0.01982567 0.05700732 0.057594758 0.15446782
0002f0 ef db 02 3e cf cc ec bd 06 a7 ae bd 3a 77 c4 bc
       0.1277921 -0.11562502 -0.08527951 -0.023982633
000300 b9 1f 3e 3e 9e dd ed 3d 35 43 fb bd 8c a3 03 bd
       0.18566789 0.11614536 -0.12268678 -0.032138392
000310 0e 1e 3e 3d aa 49 d2 3d a0 a5 b6 bd 87 ae 55 be
       0.04641538 0.102679566 -0.08918309 -0.20867358
000320 6b 5f 00 be 09 e2 cc 3c 1d 46 0e be a7 d1 2a 3d
       -0.12536399 0.025010126 -0.13893934 0.041703846
000330 91 7b 1b 3e c4 69 d9 bc 35 26 d2 3d f9 74 19 3e
       0.15183856 -0.02653969 0.10261194 0.14986028
000340 ca a5 1e 3e 44 ed 6e be 68 65 67 3e e2 3b 86 3d
       0.15492931 -0.23332697 0.22597277 0.065543905
000350 ca 4c 70 be cb eb a2 3c 9f 60 2e be 58 ab 74 3e
       -0.23466793 0.019887825 -0.17029046 0.23893487
000360 5e dc 35 3e 40 2a 26 be 7e 33 32 be 03 e5 f6 3c
       0.17759845 -0.16227055 -0.17402455 0.030138498
000370 24 3d 78 bd f4 f1 d2 3d 32 69 51 be 82 cd 2e 3e
       -0.060605183 0.10300055 -0.20450285 0.17070583
000380 e2 c7 0b 3d 1d 40 2a 3c 3a 91 1c be 7c 9f 05 3c
       0.03412617 0.010391262 -0.15289775 0.0081557
000390 52 db 24 3e ee e7 6c 3e 99 b4 23 be 17 84 c6 bd
       0.16099289 0.23135349 -0.15986861 -0.09693163
0003a0 ca b7 2d 3d 41 93 0f 3e 13 1a 6d be 66 48 01 be
       0.042411603 0.14021017 -0.23154478 -0.12625274
0003b0 7e 6f 5a be 12 ff 46 3e c6 65 cf bd 16 36 26 3e
       -0.21331593 0.19433239 -0.101268336 0.1623157
0003c0 37 74 1e 3e 9c 9d 2b 3d 5f da 88 3d 2e bb 4d 3e
       0.1547402 0.041898355 0.06682276 0.20090935
0003d0 8a 20 0b bd 6b 6f ca 3d 7b d8 4c bd 0b e9 7e 3b
       -0.03396658 0.098845325 -0.05001114 0.0038896229
0003e0 c1 0d ce 3d 72 dc 62 be 59 c9 f2 bd 0c 7d 38 be
       0.10061217 -0.22154406 -0.1185481 -0.18016452
0003f0 f3 c8 a3 bd 9e 80 06 bd bb f7 8c 3d b4 c8 6b be
       -0.079973124 -0.032837503 0.06883188 -0.23025781

l1.bias f4 [400]
000000 39 2d 8c bc e5 ea d2 3d 38 c7 1f 3d ce fd 41 3e
       -0.017111408 0.10298709 0.03900835 0.18944475
000010 6c aa cc bd 55 da 7e bd 76 94 11 3e 15 19 33 3c
       -0.09993443 -0.062219936 0.1421679 0.010931273
000020 d8 00 16 be 94 c1 66 bd 85 81 70 3d 8f 9d 11 3c
       -0.1464876 -0.056336954 0.05871727 0.008887663
000030 17 d4 8d 3d 95 cd ee 3d 03 70 76 bd e5 20 9c bd
       0.069252186 0.116603054 -0.060165416 -0.07623462
000040 1a 59 62 3e e1 45 5a 3d 44 85 59 3e f1 bf 38 3e
       0.22104302 0.053289298 0.21242243 0.1804197
000050 f6 43 57 be 53 90 1c be a8 0b 1d 3e 5a 15 0c 3e
       -0.21022019 -0.1528943 0.15336478 0.1368002
000060 76 65 4f be e0 ad 5a be 83 79 03 3e 3a 47 cc bc
       -0.20253548 -0.2135539 0.12839322 -0.024936307
000070 61 13 19 be fe 60 25 3e 6d e3 a0 3d 4e ea 3f 3e
       -0.14948799 0.16150281 0.07855878 0.18741724
000080 77 98 c1 bd 93 19 e9 bc fb 30 86 bc 96 62 08 bd
       -0.094529085 -0.028454578 -0.016380778 -0.033297144
000090 c1 f0 02 3e d5 be a3 bb 7c 3b a4 bd bc 5c 35 3b
       0.12787153 -0.004997114 -0.08019158 0.0027673682
0000a0 57 be 72 be 77 e4 e6 3b 9c ce 94 3b c9 78 b4 bd
       -0.23705421 0.007046278 0.0045412313 -0.088121004
0000b0 01 a9 7d 3e 54 43 50 3e f3 08 08 be 20 a9 d1 3d
       0.24771501 0.20338184 -0.13284664 0.10237336
0000c0 9f 03 87 be 6f a9 fb 3d 0c 23 36 3e d1 75 cb bd
       -0.2636995 0.12288176 0.17786807 -0.09934581
0000d0 2c 77 64 be 87 a5 31 be 32 e6 3e 3d a3 77 5b be
       -0.22311085 -0.173483 0.04660625 -0.21432357
0000e0 5e f3 6e 3d 09 02 f3 bd d3 ea 44 be fd 00 67 3b
       0.05833756 -0.118656226 -0.19230203 0.0035248392
0000f0 77 df 5a be c6 12 56 3e ea 31 80 3e db 43 40 be
       -0.21374308 0.20905599 0.2503808 -0.18775885
000100 a3 9b d2 3d 30 f7 0f be d3 dc c6 3d b7 b0 5f 3e
       0.102835916 -0.14059138 0.097100876 0.21844755
000110 5d e4 eb bd 5a 4b d7 3c d8 04 ff bb 04 0b 1d be
       -0.11518166 0.026281048 -0.00778256 -0.15336233
000120 80 b2 6a be 02 c2 c4 bd cc 75 6d 3e f9 46 6a 3c
       -0.22919655 -0.096073166 0.23189467 0.014299148
000130 39 f6 e4 bc 3e c7 7b be 67 76 91 3d e5 3c a6 3d
       -0.02794944 -0.24587724 0.071026616 0.081170835
000140 4a 25 c0 3d 58 f0 89 be f7 30 6c be 3e 80 88 bb
       0.09382112 -0.2694118 -0.23065554 -0.0041656783
000150 6a 73 09 3e 6c 74 07 be 97 b2 2e 3c ee 0e 05 3e
       0.13422933 -0.13228005 0.010662696 0.12993976
000160 d0 0b 7e bc 09 69 38 bd e9 40 1c 3e 84 69 a0 3d
       -0.015505746 -0.045022044 0.15259136 0.078326255
000170 78 ec b9 3c 37 5c 4c be 52 51 17 3e a6 ee df 3d
       0.022695765 -0.19957052 0.14777115 0.109341905
000180 77 0d a5 3d e6 dc 99 3d 7f 7e 93 3d a5 8b b2 bc
       0.08059209 0.07512836 0.072018616 -0.021795103
000190 e7 d7 1e 3e 87 69 d8 3a e5 21 4f 3e 1b 54 77 3e
       0.15512048 0.0016510942 0.20227773 0.24153177
0001a0 b7 66 66 3c c2 33 04 3e 15 01 b8 3d 50 18 e1 3c
       0.014062575 0.12910369 0.089845814 0.027477413
0001b0 19 58 bc bd 74 d6 87 bd 42 ab 0f 3d 40 f6 94 bd
       -0.09196491 -0.066327006 0.035075434 -0.07273531
0001c0 ad 6c 5d 3d 34 a0 d8 bd ff 6a e4 bd bb cd 2b bd
       0.05405872 -0.10577431 -0.111532204 -0.041944247
0001d0 20 76 e7 bd e3 ae 22 be cc c7 f4 3b 6c 62 1e 3e
       -0.113018274 -0.15887026 0.0074701067 0.15467232
0001e0 8b e5 14 3a 33 1e 67 bc 06 3d 0f be be a6 26 be
       0.00056799565 -0.014106321 -0.13988122 -0.16274545
0001f0 86 aa 87 3c ef a9 78 3e d7 17 d0 bd 57 11 f3 3b
       0.016560804 0.24283575 -0.10160797 0.0074178386
000200 6b f5 19 be b1 88 e1 3d 60 31 8c bc c1 93 00 be
       -0.15035026 0.110124 -0.017113388 -0.12556364
000210 0d 0d 1b 3e fd dc 71 3d 4b a1 18 be 36 f8 24 be
       0.15141697 0.05904864 -0.14905278 -0.1611031
000220 49 b1 0c 3e 1f e2 38 be 5c d7 49 3e ee 70 8f 3d
       0.13739504 -0.18055008 0.1971106 0.070039615
000230 59 c1 78 bc ba 24 9c 3d 29 8a 3b be 7a f1 8e 3d
       -0.015182816 0.076241925 -0.18314423 0.06979652
000240 44 1e 3c 3e 15 5e b5 bd 50 9f ec bc ab d0 a3 3c
       0.1837092 -0.08855835 -0.02888456 0.019996962
000250 04 d0 3c 3e c1 7f 03 3e a6 79 c4 bb 00 51 04 3e
       0.18438727 0.12841703 -0.005995947 0.12921524
000260 f1 84 1a 3d 7b 49 31 be 53 27 61 3c 85 d1 30 be
       0.03772444 -0.17313187 0.013742286 -0.17267425
000270 6b 5a 12 be fe 39 ed 3c 88 f1 3c 3e 99 83 2d bd
       -0.14292304 0.028958317 0.18451512 -0.04236183
000280 a7 32 bd bc dd be 80 3d 1f 3d 33 3d dd 2a 67 be
       -0.023095442 0.06286404 0.04375946 -0.22574945
000290 24 97 07 3e 45 d2 76 3d 98 db 8c 3d a9 c4 04 bd
       0.1324125 0.060259122 0.06877822 -0.032414112
0002a0 85 c4 7e 3d 64 ed 42 3e cb fd 79 3d 6d 2c 04 bb
       0.062199134 0.1903587 0.06103305 -0.0020168081
0002b0 f7 d7 2e bd eb 10 96 3d ee 91 47 3d 73 22 31 3e
       -0.04268643 0.073274456 0.048723154 0.17298298
0002c0 fc b2 2b bd ee 4a 46 3d 8d a4 2b be 24 93 ef bb
       -0.04191874 0.048411302 -0.1676199 -0.0073112417
0002d0 6d 73 0c 3e b2 88 5c 3e 69 4c 0a 3c e7 f7 c1 3c
       0.13715906 0.2153652 0.008441069 0.02367778
0002e0 f6 09 3d bd 18 94 13 be ef 94 bd 3c cd 23 9c 3d
       -0.046152078 -0.14411962 0.023142306 0.07624016
0002f0 ea 3e a4 bd 25 ff d1 bd f0 b9 8d 3b 04 a5 09 be
       -0.080198124 -0.10253743 0.004325144 -0.13441855
000300 16 59 7d 3c 15 e4 5d be 60 56 45 3e 2e 36 30 3d
       0.015463134 -0.21669038 0.1927123 0.04302042
000310 41 0d 02 3e 8c a2 90 bb d7 7f 4f be 54 2a 20 bd
       0.12700368 -0.0044139083 -0.20263611 -0.039102867
000320 a9 01 27 bd 69 fd 25 3e a9 97 69 3d fe 9c d1 bd
       -0.040773068 0.1620995 0.0570294 -0.10235022
000330 5d 85 98 3d b3 a4 6e 3e 60 4c 3a bc a2 f6 4a be
       0.07447312 0.23305015 -0.011370748 -0.19820645
000340 74 78 3d 3e d7 c8 b5 3b f0 83 4c 3c e8 b6 51 3d
       0.1850298 0.0055476236 0.012482628 0.051199824
000350 f0 af 46 be 2c d1 86 bd 59 31 14 be 06 4a 31 3e
       -0.19403052 -0.06582865 -0.1447195 0.17313394
000360 77 cd 25 3e 76 48 38 be 06 5c 0c be 00 eb 2f 3e
       0.1619166 -0.17996392 -0.13706979 0.17179489
000370 a4 62 08 be 8e a9 58 be 4d 90 37 be ab 67 8a bd
       -0.13318878 -0.2115843 -0.1792614 -0.06758054
000380 ac 34 6a be f8 97 47 3e 03 44 7e 3c 60 81 2d 3d
       -0.22871655 0.19491565 0.015519145 0.04235971
000390 f3 04 32 3e a2 f1 1f be ae 6d 43 be 5c d2 ad bb
       0.173847 -0.1561952 -0.19084808 -0.005304618
0003a0 06 6d d3 3d ab 4a fc bd 32 b1 68 3e 06 89 49 3c
       0.10323529 -0.12318929 0.22723845 0.012300735
0003b0 08 ae d1 bc 0e 1c d2 bd 8b e2 52 3d 6b c6 72 3c
       -0.02559568 -0.10259257 0.05148558 0.014817814
0003c0 1f 62 b8 bd 9a 98 13 be 4c 2f eb 3b 14 79 9d 3d
       -0.0900309 -0.14413682 0.007177269 0.076891094
0003d0 9f 67 3a 3d 01 15 9d bd 28 a9 5c bc 9b f4 4a be
       0.045508977 -0.07670022 -0.013468064 -0.19819872
0003e0 71 d7 0e be 98 23 d9 3c 6b 6c 61 bd 62 5d 42 be
       -0.13949372 0.02650623 -0.055035036 -0.18980935
0003f0 ef b7 58 be 95 6b bd 3d ea 0a 20 be 36 28 d1 bc
       -0.21163915 0.09249035 -0.15629163 -0.02553187

l2.weight f4 [300, 400]
000000 91 a1 6d bc 09 c3 4c 3c 2c 9b c9 3c 11 2e e3 3c
       -0.014503852 0.012497672 0.024610125 0.027731927
000010 d0 bf 79 bc 9a e3 2d 3d 18 72 d9 bc e8 7c a3 3c
       -0.015243486 0.042453386 -0.026543662 0.01995702
000020 30 30 87 ba ff 74 b8 3c 62 0a fa bc a6 ac 31 bd
       -0.0010314044 0.022516726 -0.030522529 -0.04337754
000030 fb 89 cc 3c f6 2a 5d bd 35 f6 cb bc fa f6 17 3b
       0.024968138 -0.05399605 -0.024897674 0.002318798
000040 18 91 24 3b 1b a2 c8 bc f1 33 fd 3c 4f e2 f9 bc
       0.0025110897 -0.02449136 0.030908557 -0.03050342
000050 65 84 50 bc c4 4f 83 3c b4 b5 3f 3c cb 0c 8f 3c
       -0.012726878 0.016029246 0.011701036 0.017462155
000060 02 05 0e 3d 28 8f cf ba 4e ec 8c bc 40 47 b3 bc
       0.034672745 -0.001583551 -0.017202523 -0.02188456
000070 42 96 41 3d a6 5e 16 3c 0c f6 3a bd e2 72 a8 3c
       0.047262438 0.009177839 -0.045644805 0.020562593
000080 d1 f5 e0 3c ae b8 2e bd 43 22 1b 3b aa db 4f bd
       0.027460964 -0.042656593 0.0023671545 -0.050746597
000090 0a 9b bd bc 2c 03 d2 bc 1c 68 9e bc 3c cc 42 bd
       -0.023145217 -0.025636278 -0.019336753 -0.047558054
0000a0 b9 45 22 bd 9f 40 28 bd 44 7c 80 3c e8 67 69 bc
       -0.039617274 -0.041077252 0.015684254 -0.014245965
0000b0 6c cf 3c 3c 1d 7c ca 3c b4 ee 9f 3c ad 07 c5 3c
       0.011524063 0.024717385 0.019523002 0.024051512
0000c0 97 49 37 bd 76 c7 73 bb a2 e7 a4 3c ec 5b 4a 3d
       -0.044747915 -0.0037197745 0.020129982 0.04940407
0000d0 4a 11 92 3c 7a 7b 0b bd 49 de b7 bc 60 90 b0 bb
       0.01783051 -0.034053303 -0.022444861 -0.0053883046
0000e0 26 1d ab bb b7 cb 42 3d cf 7d 91 bc b1 de d5 3c
       -0.0052219806 0.04755756 -0.017760186 0.026107164
0000f0 ba e3 29 bd 31 dc e3 bb 7e 54 13 3d 2e 93 35 3d
       -0.041476943 -0.006953739 0.03596925 0.044329815
000100 5b 57 74 bb e0 c1 0b 3d 04 78 08 bd 9f 68 2a bd
       -0.0037283513 0.03412044 -0.03331758 -0.04160368
000110 76 c1 12 bd 1b 71 5d bd ea 0c 51 bb e5 fe 81 bc
       -0.03582903 -0.054062944 -0.0031898567 -0.015868613
000120 64 24 cf bc a4 d1 28 bd 0b 8e db 3c 98 0d 5c bc
       -0.025285907 -0.041215554 0.02680113 -0.013430975
000130 fc 83 9e 3c a0 25 3a bd 05 c9 f2 bc 86 7b ab 3c
       0.019350044 -0.04544604 -0.02963687 0.020932924
000140 19 8c 4f bd 86 a6 2f bd 5d 31 5f bc 67 a6 42 3b
       -0.050670717 -0.04288342 -0.013622609 0.0029701234
000150 ef 92 50 bd aa 44 1f bd 93 7a 32 bd a4 43 b6 3a
       -0.050921377 -0.038883843 -0.043573927 0.0013905657
000160 a7 0e c7 3c 9d 97 9e bc 78 b4 36 3d a2 57 6c bc
       0.024298979 -0.019359404 0.044605702 -0.01442519
000170 2d c9 4c 3c 74 98 57 bc 41 40 2c bd 27 28 da bc
       0.012499136 -0.013158906 -0.042053465 -0.026630474
000180 0a cb 86 bb bb c7 81 3b 4b 74 5a bd 14 45 1d bd
       -0.0041135596 0.0039605773 -0.053333562 -0.038395956
000190 c5 b6 b9 3c 42 56 92 3c 83 6c 11 3d fe 5e e1 bc
       0.02267016 0.017863397 0.035503875 -0.027511116
0001a0 1e c0 e2 bc 7c 5f 2b 3d c6 15 5c bd 70 f2 7e bc
       -0.0276795 0.041839108 -0.053731702 -0.015560731
0001b0 1c d5 65 bd 4b 15 ae bc c6 fa eb bc 12 ae 9c bb
       -0.05611144 -0.021250388 -0.028806102 -0.004781493
0001c0 97 26 cf bc 46 36 92 3c b2 ea 4f bb d7 8f 59 bd
       -0.025286956 0.017848145 -0.0031725583 -0.053115692
0001d0 07 1c 2f bd 24 34 a6 3c 75 39 cb bc c8 24 06 bd
       -0.04275134 0.020288534 -0.024807671 -0.03274992
0001e0 37 57 17 bd 91 8a c4 b9 90 58 17 3d 80 3c 17 bc
       -0.03694841 -0.00037487273 0.036949694 -0.009230733
0001f0 c4 2e 54 bd 56 eb 01 bd e2 50 bf 3c 9a 03 dc bc
       -0.05180241 -0.031718574 0.023353998 -0.026857186
000200 4f e3 b4 bc 55 b3 fa 3c 74 bb bd 3c c3 cd a1 bc
       -0.022081045 0.03060309 0.023160674 -0.019751435
000210 96 33 60 bc e6 b4 ce bc 4e 92 fd 3c 5c 21 1a bd
       -0.013684174 -0.025232743 0.030953553 -0.03762947
000220 3c 41 0a bd 66 33 47 3c 2a b2 55 bd aa aa e9 3c
       -0.03375362 0.01215825 -0.052171864 0.028523762
000230 96 82 59 bc 69 b9 f2 3c 39 64 40 bd 02 1a 24 3d
       -0.013275763 0.029629426 -0.04697058 0.040063865
000240 c7 81 18 bc d0 37 57 bb 07 5f 3c 3d 10 0a 2f bd
       -0.009308285 -0.0032839663 0.045989063 -0.042734206
000250 7c 54 cb bc 2c 11 d4 3a 48 ad ea 3c ab 51 c3 bc
       -0.024820559 0.0016179434 0.02864708 -0.023842653
000260 24 e7 2c bd 17 01 4e 3c 16 6f 21 3c c8 00 90 3b
       -0.04221262 0.012573502 0.009853145 0.0043946244
000270 b4 38 1b bd 2b a0 28 bd 24 3b 66 3c f8 54 30 3d
       -0.037895873 -0.041168373 0.014052186 0.043049783
000280 34 46 0e 3c 50 82 27 3d 88 17 5b 3c d0 d2 f8 3c
       0.00868373 0.04089576 0.0133723095 0.03037396
000290 45 af c6 bc 80 42 0a bd f8 82 0d bd 07 e3 3c bd
       -0.024253497 -0.033754826 -0.03454873 -0.046114948
0002a0 de 29 c1 3b 58 2f 20 bd 30 6d 11 3c 75 c5 5e bd
       0.0058948835 -0.03910765 0.00887613 -0.05438753
0002b0 4a 95 f6 3c 14 1b 0d 3d 60 dc 8c 3a ec 4d 52 3b
       0.030100483 0.03444965 0.0010746829 0.0032089902
0002c0 60 0e cc 3a e5 a9 e5 3c 10 e9 f0 3c f3 59 e9 3c
       0.0015568249 0.028035114 0.029408008 0.028485274
0002d0 88 71 d1 bc 83 cb 3f bd 09 75 d9 3b b3 53 0e 3d
       -0.025566831 -0.046824943 0.006636266 0.03474779
0002e0 65 b7 4d bc 37 78 c9 3c 86 4c fb bc 4b 81 de 3b
       -0.012555932 0.024593456 -0.030676138 0.0067903153
0002f0 c3 07 9e bb b2 43 38 3d 6a c8 f1 3c 42 87 6d 3c
       -0.0048227026 0.044986434 0.02951451 0.01449758
000300 24 ae e8 3c b2 4c 17 3d 74 ac 19 3d ab 48 f8 3b
       0.02840335 0.036938377 0.03751798 0.007577022
000310 3b f3 a9 39 16 16 5a bd 75 4e 1a bc e1 1f 45 3c
       0.00032415413 -0.05324372 -0.00941812 0.012031526
000320 88 0b 30 bb 33 ad d1 bc 38 08 ff bc bb 29 49 3c
       -0.0026862342 -0.025595283 -0.031131849 0.012278016
000330 01 f0 22 bb ba 7c 2b bd 32 af 08 bd 78 46 3b 3d
       -0.0024862292 -0.041866995 -0.033370204 0.0457215
000340 41 6f 40 bd 15 e8 15 bd f4 b6 4b bc 2c b2 0f bd
       -0.0469811 -0.036598284 -0.012433756 -0.035082027
000350 82 a3 1b 3d bf 27 36 3d 90 03 fa 3c 68 b1 5e bd
       0.03799773 0.0444715 0.030519277 -0.054368407
000360 ce df f8 bc 62 1e 80 3c 2f 70 85 3c 48 7d 24 bd
       -0.030380156 0.015639488 0.016288845 -0.04015854
000370 33 c6 a3 3c 80 e6 2d 3b 8f 6b 36 bd 92 b5 0b 3d
       0.01999197 0.0026535094 -0.04453617 0.034108706
000380 54 fe aa bc 9f f4 d4 3c 71 e6 92 3c 7e 2a a4 3c
       -0.020873226 0.02599555 0.017932149 0.020039793
000390 95 ae 39 bc b6 29 59 3d f1 a5 23 bd aa 7a 24 bd
       -0.0113331275 0.053018294 -0.039953176 -0.040156044
0003a0 40 46 0c bc 28 d0 98 bc ee 29 f9 bc d1 f3 21 bc
       -0.008561671 -0.018653944 -0.030415501 -0.0098847905
0003b0 36 51 8b bc 65 5e 1c 3d cf 2f 2f 3d 41 df de 3c
       -0.017006498 0.03817596 0.042770203 0.027206065
0003c0 f5 8a 40 bd 9a 45 18 bd 17 2a b6 3b ab 35 14 bd
       -0.04700752 -0.037175752 0.0055592167 -0.036183994
0003d0 53 f3 99 bc dc 1a f7 3c 26 60 47 bc 47 cd 25 3c
       -0.018792784 0.030164175 -0.01216892 0.010119743
0003e0 4d 22 36 3c cd d0 49 bc 9a 0f 30 bd 43 d1 28 bd
       0.011116576 -0.012317848 -0.04298363 -0.041215193
0003f0 1a 12 91 bc f1 5d 21 bd 89 41 c8 bc b3 aa 09 3d
       -0.017708827 -0.03939623 -0.024445312 0.033610057

l2.bias f4 [300]
000000 96 56 eb 3b f0 b2 53 bd dd 8f 0b bd e5 52 c9 3b
       0.0071819527 -0.05168432 -0.034072746 0.006143915
000010 c6 09 5c bd 54 32 4d 3c 3c 7e 63 3c db 4a 86 bc
       -0.05372026 0.012524206 0.013885077 -0.016393116
000020 b1 b9 0a 3c 79 87 e2 bc 12 94 82 3c d2 57 d8 3b
       0.008467124 -0.027652489 0.015939746 0.006602266
000030 3a d4 05 bd 0d c6 4c bd 2d 9b ce 3b dc 47 1e 3d
       -0.0326731 -0.049993563 0.0063051195 0.03864275
000040 c5 0e 3c bd fa 8c 49 bd 31 d0 30 3d 20 22 4b bd
       -0.045912523 -0.04920671 0.043167297 -0.04959309
000050 bd a2 7a bc 53 48 5d bd e2 ff 29 3d 2f cb 8a 3c
       -0.015297589 -0.054024052 0.041503794 0.016942589
000060 22 05 58 bd 96 87 ee 3c 08 52 5e 3b 05 09 fd 3c
       -0.05273927 0.029117387 0.0033923406 0.03088809
000070 99 78 1e 3d 84 a4 41 bd b0 ef d8 3c d5 14 12 3d
       0.03868923 -0.047276035 0.02648148 0.0356644
000080 82 4a 78 3d 3b d0 c0 bc 7d 4c 68 bd 8c 09 1a bd
       0.06061793 -0.023536792 -0.05671357 -0.03760676
000090 9b c6 02 3d b0 61 1b bd 18 3c c5 bc 45 e7 07 3d
       0.031927686 -0.03793496 -0.024076506 0.03317954
0000a0 72 cc 5e bd f3 c1 1c 3d a2 08 5b bd e2 07 18 3d
       -0.054394193 0.038270902 -0.05347503 0.037116893
0000b0 ee df 88 bc 66 ea 45 bd 27 88 02 3d 0b 91 7a 3c
       -0.01670834 -0.048319243 0.031868126 0.01529337
0000c0 d6 6e be 3c 99 b7 92 3b 82 e7 b1 3c 3f 52 fc 3c
       0.02324621 0.004477453 0.021716837 0.030800937
0000d0 f0 cd 20 bd 73 a4 2c 3d 0e 5a 82 bc 94 64 44 3d
       -0.039258897 0.04214902 -0.015912082 0.04794748
0000e0 e4 82 04 3c 69 b8 2b bc d1 ba b3 3d 37 27 d2 3b
       0.008087847 -0.0104809785 0.08775867 0.006413366
0000f0 ec ee 28 3b 1a a5 9f bc c2 72 13 bc 30 05 08 3c
       0.0025777174 -0.019487906 -0.008999528 0.008302018
000100 54 8f f6 bb 99 c8 65 bc 4c 80 ee bc b1 65 42 3d
       -0.0075244103 -0.014024877 -0.029113911 0.04746026
000110 e9 7a 54 bc e3 c5 13 3d d7 66 11 bd 59 93 f9 bc
       -0.012968757 0.03607739 -0.035498466 -0.030465769
000120 31 d6 80 3c d5 c4 aa bc 47 1c 29 bd 77 fc 81 bc
       0.015727134 -0.02084581 -0.041286733 -0.015867455
000130 1d f9 04 3d 9e db ed bc 73 05 09 bc 9c 1b 12 bd
       0.032464135 -0.029035386 -0.008363116 -0.03567086
000140 dc ec 2a bd d5 8e d5 bc d3 a7 41 bd 45 23 0b bd
       -0.041729793 -0.026069084 -0.04727919 -0.033969183
000150 3d 3f 20 3c c3 b4 48 bd ac 6c 34 bd e8 c9 22 bc
       0.009780702 -0.049000513 -0.04404895 -0.0099358335
000160 96 d9 07 bd 76 76 72 bc 51 38 07 bd e6 2f a6 bc
       -0.03316649 -0.014798751 -0.033012692 -0.020286512
000170 5a 44 c3 bc e9 c7 c7 bb 39 fb 50 bd 3c 43 0b bd
       -0.023836304 -0.006096829 -0.051020835 -0.033999667
000180 ca 89 3b 3c 6f 85 91 3b 0e b9 2c bd 9e b2 f0 bc
       0.011446426 0.0044409554 -0.04216867 -0.029382046
000190 4b 89 3a 3c 09 e9 8b bc f5 60 85 bd 93 14 66 bd
       0.011385272 -0.017078893 -0.06512634 -0.056171965
0001a0 9f 36 f0 bc 2a 85 e3 bc 53 cf 8d bc 53 4f 16 3d
       -0.02932292 -0.027773459 -0.017310774 0.036696743
0001b0 c3 46 7e 3b 16 b6 01 bd de 47 11 bd 44 e6 86 3d
       0.0038799501 -0.03166779 -0.03546893 0.065868884
0001c0 4d 25 a1 3c 8b dc 06 bd 2d 62 06 3d 5e b7 02 bd
       0.019671107 -0.03292517 0.03280847 -0.031913154
0001d0 84 32 02 bc bc 96 1f 3d df b0 0c bc b9 d7 83 3c
       -0.007946614 0.03896211 -0.008587091 0.016094076
0001e0 41 fe 86 bc 85 bf 26 3d 53 a8 8d 3d f0 7d da bc
       -0.01647866 0.04070999 0.06916871 -0.02667138
0001f0 06 b7 5d 3d c8 3f a2 ba 4f 10 16 3d 66 17 a1 3a
       0.054129623 -0.0012378627 0.036636647 0.0012290298
000200 a7 77 2a bd 4d a7 11 bd 0e 57 93 bc cd 30 50 ba
       -0.041618016 -0.03555994 -0.017985847 -0.0007941842
000210 58 0f 51 bc 97 4c e7 bc e8 3d 06 3d 2d 50 ed 3c
       -0.012760006 -0.028234763 0.032773882 0.028968895
000220 b1 49 52 bc ea ed ca 3b 13 bd ed bc 0c 68 0c 3d
       -0.012834952 0.0061929123 -0.029020822 0.034278914
000230 ee 8b 19 3d d3 a6 94 3c 3c 1f a2 bc 52 43 1e 3d
       0.037486963 0.018145954 -0.019790284 0.03863842
000240 a8 0b 11 3d 26 38 d2 3c 3b 1d 10 bd 1b 0b 05 bd
       0.035411507 0.02566154 -0.035184126 -0.032481294
000250 ae b3 27 bd 7a 91 f7 bc 80 44 4c bb ad 30 da bc
       -0.04094284 -0.030220736 -0.003116876 -0.026634539
000260 0a 7d 31 3d f5 b6 09 bd 8e 5a 3c bd 64 07 53 bb
       0.043332137 -0.033621747 -0.045984797 -0.003220045
000270 2f 79 e2 3d f6 fe 44 bd cd 69 1d 3d ed ed 2d bc
       0.1105827 -0.048094712 0.038430978 -0.010615808
000280 67 a7 ec 3b f6 81 22 bd 7b 57 24 bd 49 13 ce bc
       0.0072221044 -0.03967472 -0.04012249 -0.02515568
000290 6b 3b ca bb bd d8 d6 3c e6 94 77 bc fb 69 f3 3c
       -0.006171634 0.026226396 -0.015111184 0.029713621
0002a0 c2 80 b8 bb 40 f9 74 bd cb e9 42 bd 1c 29 72 bc
       -0.0056305835 -0.059808016 -0.047586244 -0.014780309
0002b0 43 5c 4c bd a7 12 97 3c a8 38 27 bc 43 b9 ce bc
       -0.049892675 0.018441511 -0.010206379 -0.025234824
0002c0 99 3f 10 bd 30 d9 02 bd f8 9f 00 bd eb 24 74 3b
       -0.0352169 -0.031945407 -0.031402558 0.003725345
0002d0 16 18 d5 bc 60 23 03 3d 5f 56 6b bc 17 f2 2a bd
       -0.026012462 0.032016158 -0.014363854 -0.04173478
0002e0 03 00 a5 3c 71 a5 4e bd 1e a2 58 3c 21 38 19 bd
       0.020141607 -0.050450746 0.0132222455 -0.037407044
0002f0 1b 45 61 3d b8 79 c0 3c d8 94 1f bd ba e9 8e 3c
       0.054997545 0.02349554 -0.038960308 0.017445434
000300 c7 2a 2c bd 14 b2 44 3c 02 6e a4 bc 48 4c 1d 3d
       -0.042032983 0.012005348 -0.020071987 0.038402826
000310 38 0e 2d 3b fe c1 6d 3c 2f 87 a4 3c 39 b2 ba 3c
       0.002640618 0.014511583 0.020083992 0.022790061
000320 16 51 80 bc d5 44 a3 3b 5a 32 dc bc 46 36 3d bd
       -0.015663665 0.0049825707 -0.026879478 -0.046194337
000330 75 1c 5d bd 87 c5 1d bd 80 52 f6 bc 6a 73 73 bd
       -0.053982217 -0.038518455 -0.030068636 -0.05943624
000340 c8 9f f0 bc f8 17 11 bc fd 06 00 bc 22 e1 10 3d
       -0.029373065 -0.008855812 -0.007814166 0.035370953
000350 4f 85 95 3c fb 5a 96 3d 14 1a 56 bd a3 99 4b bd
       0.018252043 0.07341572 -0.052270964 -0.049707066
000360 b9 18 2e bd 72 26 59 bc f1 0d fc 3c be 43 96 bc
       -0.042504046 -0.013253795 0.030768367 -0.018342849
000370 cb af fa bc e1 cc 27 3c 3d e4 83 3c 9f 12 f5 bc
       -0.030601403 0.010241718 0.016100043 -0.029916106
000380 c5 de 3d bb 11 7f 1e bd 11 dc a9 3c 65 28 3d 3b
       -0.0028971892 -0.0386954 0.020734819 0.0028863188
000390 e7 c9 67 bd 2c cb 90 3c 9b d5 65 3c 2f 3f 67 bc
       -0.056589033 0.017675005 0.014027978 -0.014114185
0003a0 1e 3c ef 3b c5 77 f9 bc 78 e9 6a bc c7 28 58 bd
       0.0073008677 -0.030452618 -0.01433789 -0.052773263
0003b0 66 fa e5 3b c5 02 35 3c 5a 20 15 bd 0f 04 46 bd
       0.007018375 0.011048024 -0.036407806 -0.048343714
0003c0 5e ac 74 bd 2d 0b 64 3c 14 c2 70 bd a8 b9 f3 bc
       -0.059734695 0.01391868 -0.058778837 -0.029751614
0003d0 a6 18 6c bc 45 70 1b bd 42 73 fe 3d 67 09 56 bd
       -0.0144101735 -0.037948865 0.124243274 -0.05225506
0003e0 17 e5 4d bd 62 eb ad 3b 99 0b ba bc 7d 8b 17 bd
       -0.050267305 0.005307601 -0.022710608 -0.03699826
0003f0 dc 52 fa bb 9b 7a 23 3d 5d 19 54 bc a9 7c 5e bd
       -0.007639272 0.039911848 -0.0129455 -0.054318104

l3.weight f4 [4, 300]
000000 a1 43 5a 3d 4e a3 5b bc d3 85 05 bd d2 30 fc bc
       0.053287152 -0.013405634 -0.032598328 -0.030784998
000010 e4 64 3b 3d a1 d3 de bc 20 b7 d1 bb 63 4f 30 bd
       0.045750514 -0.027200522 -0.006400004 -0.04304446
000020 b3 f8 80 bd c4 81 13 bd 0d 20 f7 bb 3b f4 2f 3d
       -0.062974356 -0.036012426 -0.0075416625 0.042957526
000030 0b 9e 22 bd a2 e1 02 bd f4 66 22 bd 96 30 23 bd
       -0.039701503 -0.03195346 -0.039648965 -0.039841257
000040 e6 96 14 3d b2 8e 2f bd 97 7c 46 bc 4e 8a c5 3c
       0.03627672 -0.042860694 -0.0121146655 0.0241138
000050 7d a7 52 bd e7 2e 28 bc cc 17 ef 3c c8 b9 8c bc
       -0.05142926 -0.010265089 0.029186152 -0.017178431
000060 38 be 5b bc 69 6d c5 bc 32 b3 13 3b 89 69 57 3d
       -0.013412051 -0.024100022 0.0022537229 0.05259088
000070 2f 61 c3 bc 83 8b fd 3c 6c 71 a7 3c af 88 af bc
       -0.023850052 0.030950313 0.020439826 -0.02142748
000080 fd c6 84 bd 47 21 06 bd 4e af cb bc bd fb 25 3d
       -0.064832665 -0.03274658 -0.024863865 0.04052328
000090 b1 24 c4 bc 6e d2 18 bc 9d 25 05 bd 4c 01 c3 bb
       -0.023943277 -0.009327514 -0.032506574 -0.0059510823
0000a0 c2 38 40 bd e5 5b 5f 3b 79 36 42 bd c1 19 b3 3c
       -0.04692913 0.0034081873 -0.04741523 0.021862866
0000b0 d2 a1 09 bd 4b 13 ce 3b d9 ee 09 bd 69 f4 63 bc
       -0.03360159 0.006288921 -0.03367505 -0.013913252
0000c0 74 84 e4 3c 2c f0 87 3c 43 b0 86 bc c7 bf 16 3d
       0.02789519 0.016594015 -0.01644147 0.036803987
0000d0 67 f1 bb ba 47 6d 81 bd 5e 71 2e bd a1 df 8b bd
       -0.0014338911 -0.06319671 -0.042588584 -0.06829763
0000e0 bf 82 28 3d e9 4f 5d 3d 0b 0b 98 bd d9 fc da 3a
       0.041140314 0.054031286 -0.07423981 0.0016707435
0000f0 0f c7 43 3d e9 a9 f2 3c 7d 6c fe 3c dd c2 c2 3c
       0.04779726 0.029622035 0.03105759 0.023774559
000100 50 ec af bc 85 e5 b3 3c 6f 2a 85 bc 97 cb 05 3b
       -0.021474987 0.02196003 -0.016255585 0.0020415538
000110 ff 2d 2c 3d 78 c2 65 bd 9f 14 d2 bc 66 88 4e bb
       0.042036053 -0.056093663 -0.025644599 -0.0031514405
000120 51 58 b9 bc d0 77 10 3d 99 64 10 3d d1 eb 83 bc
       -0.02262512 0.035270512 0.035252187 -0.016103657
000130 31 b8 ca 3c 6c 21 f0 bc ce b4 23 3d 56 d0 c9 3b
       0.024746032 -0.029312812 0.03996735 0.006158869
000140 d5 6e 98 bc 77 cc 26 bc 5c f1 6f 3d cb fd 1b 3b
       -0.018607536 -0.010180584 0.058579788 0.0023802395
000150 51 37 43 bd 0a 51 27 bd fe 3a 4d 3c 1c 0b 84 bd
       -0.047660176 -0.04084877 0.012526272 -0.064474314
000160 c0 00 e7 bb 4f 49 e9 bc 4a a7 2d 3d fb ec 29 3d
       -0.00704965 -0.02847734 0.042395867 0.041485768
000170 a6 5e 6c bc 63 96 d9 bc bd 86 5c 3d c3 43 f2 bc
       -0.014426863 -0.026560968 0.053839434 -0.029573327
000180 f7 21 72 bc 10 14 84 bd 7d 7d 4c bd e8 2b 8e bc
       -0.014778606 -0.06449139 -0.049924362 -0.01735492
000190 c9 4e d3 3c 4d ea 25 bd 49 ef 73 3d 60 c9 9d 3c
       0.025794404 -0.04050665 0.059554372 0.019261062
0001a0 d1 1e b4 3a bd f8 63 3c 1c b8 ee 3c ae ea 49 bd
       0.0013742094 0.013914284 0.029140525 -0.049296074
0001b0 7a 5f 86 bd 14 76 1f 3d a9 61 85 3c 83 ae ac bd
       -0.065611795 0.038930967 0.01628192 -0.08431723
0001c0 c2 03 93 bc 11 96 31 3d 8f db bd bc d0 36 46 3d
       -0.017946128 0.043356005 -0.023175983 0.048392117
0001d0 03 1d 02 bd e4 6c 2d bd d4 30 36 3c 01 4a 24 3c
       -0.03176595 -0.042340174 0.01112004 0.0100274095
0001e0 d2 cc 49 3d 2f 01 d3 bc 2d 69 ac bc ab 39 b4 bb
       0.049267597 -0.0257574 -0.021046245 -0.0055000386
0001f0 3a e6 28 bd dd 32 9d bc 52 61 3d 3d 75 7f 1b 3c
       -0.041235186 -0.019189293 0.04623539 0.009490837
000200 8d 27 8b bb 32 fb b9 bc ed 51 99 3c 2b 26 1d bd
       -0.004246658 -0.022702787 0.018715823 -0.038366478
000210 ee 60 d6 3c ea 98 29 3c d2 42 8f bd b2 d5 81 bb
       0.026169267 0.010351399 -0.06995167 -0.003962242
000220 1f e2 9d bb 37 58 a3 3b 89 49 d7 bc ba b7 9a 3c
       -0.0048182155 0.0049848813 -0.026280181 0.018886436
000230 17 78 30 bd 68 77 78 bd 26 fd 85 bd a5 4b ea bc
       -0.043083277 -0.06066075 -0.06542425 -0.028600523
000240 50 5b c5 b8 fd cc 9d bc 91 4a 76 3d 95 1a dc 3c
       -9.4107e-05 -0.019262785 0.060129706 0.026868144
000250 82 6f 20 3d e6 34 c4 bb 65 49 4a 3d d4 3c 38 bd
       0.039168842 -0.0059877513 0.0493864 -0.044979885
000260 42 f3 71 bd 61 c4 4b 3c 2d ed 06 3d fb a9 95 3c
       -0.05906988 0.012436957 0.032941032 0.01826953
000270 9a f5 d3 bd 21 8b 7a bc ee f6 47 bd 74 12 87 bc
       -0.10349579 -0.01529196 -0.048819475 -0.016488291
000280 82 e5 89 bb 43 40 2f bd e4 be 5a 3a 13 81 5c 3c
       -0.0042082677 -0.042785894 0.0008344485 0.013458508
000290 a6 a2 3b bd 47 4f 3a 3d 85 61 66 3c 5f 69 0f 3d
       -0.04580941 0.04548576 0.014061336 0.0350126
0002a0 a0 9f 69 3c 98 72 d9 3c 04 8c 78 3c 4e 42 89 3b
       0.014259249 0.0265439 0.015170101 0.0041888123
0002b0 3e f4 01 3d 01 82 2c bd bd c0 00 3d c9 b6 00 3d
       0.031727068 -0.04211617 0.03143381 0.031424318
0002c0 f6 1d 57 bb d5 bf 10 bd 2b da 68 bd ce 09 e2 3b
       -0.0032824255 -0.035339195 -0.056848686 0.0068981415
0002d0 6d 2a d2 3c 09 00 e0 ba 64 64 44 bd d3 f7 df bb
       0.025654996 -0.0017089854 -0.047947302 -0.006834963
0002e0 90 ba 19 3d b9 b8 08 3d 16 e5 cf 3c b6 06 dd 3c
       0.037531435 0.03337929 0.025377791 0.02698074
0002f0 6b 05 24 bd 99 6b 15 bd 42 dc af 3c df 8a fa bc
       -0.04004423 -0.036479566 0.021467332 -0.030583797
000300 72 0e c2 3c 98 06 e9 3c 29 ad 2d bd 9f a8 36 bb
       0.023688529 0.028445527 -0.042401467 -0.0027871502
000310 e6 b3 a0 3c cb c3 12 3d 7c aa 9c 3c dc 19 e0 3c
       0.019617032 0.035831254 0.019124262 0.02735608
000320 b8 fd 01 3d ec 06 e1 bc b3 87 b1 bc 13 77 e9 3c
       0.031736106 -0.02746912 -0.021671152 0.028499162
000330 08 c6 cf 3b 1f 88 d9 bc 19 1e 27 3d 84 fe 37 3d
       0.006340746 -0.026554165 0.040800188 0.04492046
000340 5c 48 69 3b 87 75 62 bd bf f2 16 3d 5a 84 2d 3d
       0.0035596108 -0.055287864 0.036852594 0.04236255
000350 b6 c2 09 3b 7e 27 d0 bd b8 14 0b 3d 4d 7a 88 3c
       0.0021020598 -0.101637825 0.033955306 0.01665988
000360 7a 61 30 bd 5b 3e e0 3c 25 a9 4f 3d f1 04 87 3c
       -0.04306171 0.027373483 0.05069842 0.016481848
000370 3c bd 76 bd 03 7d 7e 3d 04 69 3d 3c 1a 31 e5 bb
       -0.06023906 0.06213094 0.011560682 -0.0069943788
000380 f7 a3 42 3b 66 40 39 3d a3 0c 4c bd dd 86 1a bd
       0.0029699781 0.04522743 -0.04981674 -0.037726272
000390 a7 b2 19 3c 9a b5 e9 bb d3 31 38 bd 04 e8 49 3d
       0.009380973 -0.0071322443 -0.04496939 0.049293533
0003a0 34 a2 29 3c 78 a1 20 bd 6e c5 0e 3d e9 b9 1f bd
       0.010353614 -0.03921649 0.034856252 -0.038995657
0003b0 b3 3c b6 bc ea 8a c2 bc 11 d9 38 bd 35 15 37 3c
       -0.02224574 -0.02374788 -0.045128886 0.01117449
0003c0 67 7d 17 bd c4 4b 86 bc 7d 07 b2 3a aa c5 71 bc
       -0.036984827 -0.01639355 0.0013582554 -0.014756599
0003d0 f2 ad 60 3c 0e 5a 05 bd 3a 95 31 bd 89 7f 95 3b
       0.013713347 -0.032556586 -0.043355204 0.0045623225
0003e0 04 f6 9f bb b3 fe 9d bc 87 59 a0 bb 81 10 6b bd
       -0.0048816223 -0.01928649 -0.004893485 -0.057388786
0003f0 6a a3 07 bd 57 0f c0 bc 50 67 5d bc c8 ce 8c 3c
       -0.03311483 -0.023444815 -0.013513401 0.017188445

l3.bias f4 [4]
000000 41 0f ed 3c 7e 33 0f bd 68 a4 b1 ba 62 5c 8b 3d
       0.028937938 -0.034961216 -0.0013553025 0.0680473
