TD3/saves/best_avg_actor.pth (torch, 518693 bytes, 6 tensors)

l1.weight f4 [400, 18]
000000 4e f5 18 40 db 59 23 3f 9b 61 06 bf 52 b6 78 bd
       2.3899722 0.63808984 -0.52492684 -0.06072075
000010 85 26 e5 be a2 1d 7d 3d cf 94 ca be 22 aa 78 bf
       -0.4475595 0.06179584 -0.39566657 -0.971346
000020 b3 e8 4c be 71 f0 71 be 25 79 15 3f ae 7d 01 3f
       -0.20010643 -0.23626877 0.58387977 0.50582397
000030 15 a8 31 bf 8d 3e 04 3e d1 a1 a9 bd 52 ec 49 3f
       -0.693971 0.12914486 -0.08282817 0.7887622
000040 68 97 0f bf d2 59 97 bf 14 57 83 bf 6d e7 21 c0
       -0.560904 -1.1824286 -1.0260949 -2.52975
000050 bc e8 15 40 c0 50 4e bf 80 cf c9 be 49 84 d2 be
       2.34233 -0.80591965 -0.39416122 -0.4111655
000060 5a a1 f0 bf 21 b1 8a bf da 38 36 bf 8d 56 9d 3e
       -1.879924 -1.0835305 -0.711805 0.30730096
000070 84 9d 62 3e dc 19 97 3e 60 74 ca be 63 6f bf ba
       0.221304 0.29511917 -0.39541912 -0.0014605339
000080 42 39 72 3d be db 72 be e5 b1 ff 3e da ae 4b be
       0.059136637 -0.23716637 0.4994041 -0.1989092
000090 51 2b c6 bf bc 20 93 be 77 c3 89 bf e3 94 db be
       -1.5481969 -0.28735912 -1.0762776 -0.4288703
0000a0 dd aa 0b be 06 e4 f9 be 87 29 1d 3f 21 f4 ab 3d
       -0.13639398 -0.4880678 0.6139149 0.08396173
0000b0 28 ea cb 3d d5 74 d2 bd cb 4f cc be 9f c1 21 3e
       0.09956771 -0.1027619 -0.39904627 0.15796517
0000c0 fd 62 a6 3f 0c 61 3d 3f 96 2c ee bc db b3 82 3b
       1.2998959 0.73976207 -0.029073995 0.0039887256
0000d0 13 66 53 3f 6e ff 94 bf 1a c9 bd 3f 3c 99 37 bf
       0.8257763 -1.1640451 1.4826996 -0.7171819
0000e0 a4 98 7a 3f 8a a0 22 3e 97 45 c2 be 17 e0 71 bd
       0.9788916 0.15881553 -0.37943718 -0.0590516
0000f0 a1 80 6e bf 8d 1e 32 3f 39 4a dd bf 47 18 30 bf
       -0.9316502 0.69577867 -1.7288276 -0.68787044
000100 0e 99 9f 3d 3f f7 ae be c2 94 a0 3e 90 5e 25 40
       0.07792865 -0.3417301 0.31363493 2.5838966
000110 4a da 8b 3e fd 1d 12 3e 99 23 cc bf 50 f4 c3 3e
       0.2731498 0.14269252 -1.5948364 0.38272333
000120 02 35 d9 3f 93 ac 53 3e 7c d2 41 3f a5 29 33 bf
       1.6969302 0.206713 0.757118 -0.6998542
000130 ef 27 f7 3e 26 0a bd bc d9 4c a6 bf 78 26 88 be
       0.48272654 -0.023076128 -1.2992202 -0.2659185
000140 60 23 7c be 21 27 95 3e ac ca 0a bf fe 63 25 3f
       -0.2462287 0.29131415 -0.542155 0.646057
000150 5f 1d e5 be 90 21 58 bf b0 0b a9 be b2 1f da 3d
       -0.4474897 -0.8442621 -0.3301673 0.10650577
000160 91 37 ad be 50 66 45 bf 5c 2d 7b 3f 55 64 8c 3f
       -0.33831456 -0.7710924 0.9811609 1.0968119
000170 4e 60 54 3f 50 07 f4 3e 71 09 89 be 9d 44 8e bd
       0.8295945 0.4766183 -0.26765016 -0.06946681
000180 34 95 36 bf 24 13 1d bf 2b b3 59 3f a3 a7 c4 bd
       -0.71321416 -0.6135733 0.85039014 -0.09602287
000190 c0 7a c5 3e 13 cd 60 bf 75 85 63 3e 48 5c f5 be
       0.38570213 -0.8781292 0.22218879 -0.47921968
0001a0 7d 00 5c be 8d 53 72 3e 91 53 b1 bf 2b 9c ac bf
       -0.21484561 0.23664685 -1.3853627 -1.3485159
0001b0 eb 07 59 bf 43 63 19 3f 28 4c 93 bf f0 e9 f8 bd
       -0.84777707 0.59917086 -1.1507616 -0.12153995
0001c0 c0 2e 86 be 71 28 a7 3e 2c 9c 1f be 4b de d7 be
       -0.26207542 0.32648042 -0.15586919 -0.42161784
0001d0 3d 45 c2 be fc 9d c5 be 6d c6 99 bd 75 25 14 3e
       -0.3794345 -0.38597095 -0.0750855 0.14467414
0001e0 f6 7c 0f 40 11 39 1e c0 45 e4 88 3c 61 bb 30 3d
       2.242002 -2.472233 0.01671041 0.04314745
0001f0 de 69 8a bf 25 4f 18 bf e5 5c a9 3f 20 dc 0d 40
       -1.0813558 -0.59495765 1.3231474 2.2165604
000200 19 46 bb 3f 60 0f e6 be c6 ff 8a 3e dc 8b 8f be
       1.4630767 -0.44933605 0.27148265 -0.28036392
000210 91 ef c5 bf e1 63 a9 bf f6 17 09 bf 8e 5d 7e be
       -1.5463735 -1.3233606 -0.53552186 -0.24840376
000220 8d 86 13 be 7d 33 95 3e 71 f3 89 3f 8e 84 82 3e
       -0.14406796 0.29140845 1.0777417 0.25491756
000230 16 ae 96 3e 7c 21 a5 bd 75 46 ab 3e 61 c5 18 bf
       0.29429692 -0.08063027 0.33452192 -0.59676176
000240 1d 9f c1 3f 99 db 08 bf 16 ca 20 bf b0 b6 b4 3e
       1.5126683 -0.5346008 -0.6280836 0.3529563
000250 eb 76 0a 3f 8c d1 0c be da 5d d6 bf 5a 4c 31 bf
       0.54087704 -0.13751811 -1.6747391 -0.6925713
000260 6f c6 83 3f 3e 65 d6 be 05 0c 62 bd da 88 03 3e
       1.0294932 -0.41874117 -0.055187244 0.12845173
000270 5b 17 b4 be 63 05 5d bf db 31 55 bd 4d 84 54 be
       -0.3517407 -0.86336344 -0.0520495 -0.20753594
000280 6c 90 ce 3d 07 74 e8 be a2 3f 27 bf 65 2b d5 bf
       0.1008614 -0.45401022 -0.6533147 -1.6653868
000290 65 2f bd bf 7e 23 1a bd f0 12 5b 3e ea 11 04 3d
       -1.4780089 -0.037631504 0.21393943 0.032243647
0002a0 70 96 4b bf 3c 34 c1 bf 24 e6 2d 40 d5 76 47 3e
       -0.79526424 -1.5094066 2.7171717 0.19478925
0002b0 6c d8 b8 3d cc 18 81 bd b4 ae 4a 3f 09 d9 ae 3f
       0.09025654 -0.06303558 0.79172826 1.3659984
0002c0 b2 8a 9e be 7f 89 f2 be 12 8c 78 bf 16 9a 69 bf
       -0.3096519 -0.47370526 -0.9708873 -0.9125074
0002d0 9c b6 1b 3f 25 27 8b 3f 2b 37 66 bf 6c 05 af be
       0.60825515 1.0871321 -0.8992793 -0.34183824
0002e0 2f 2e ef 3e fd 0d cb 3e ed 7c 3e bf fb 94 fc bf
       0.46714923 0.3965911 -0.7440937 -1.9732965
0002f0 33 ab 16 bf d7 59 e0 be 54 34 cb be fb bc 9c be
       -0.5885498 -0.43818542 -0.3968836 -0.3061293
000300 66 8c 11 bf aa 9f ef bd bb b6 f2 3e 56 92 72 be
       -0.56854856 -0.117003754 0.47405037 -0.23688635
000310 ef c2 26 3f 28 6a 6e bf de 6e 21 40 4b 67 0a c0
       0.65141195 -0.9313073 2.5223918 -2.1625545
000320 4e 8d b7 3e bd a4 c4 3d 4b eb 34 be 0c 7f 8a 3d
       0.35849994 0.09601734 -0.17667882 0.067625135
000330 de 73 ef be 46 b8 c6 3f f6 fb ca bf 53 01 7c 3e
       -0.46768087 1.5524986 -1.5858142 0.2460988
000340 2a 1d a9 3e 49 36 0c bf 35 77 8c bf c4 8e 86 be
       0.33030063 -0.5477033 -1.0973879 -0.26280797
000350 04 d2 f5 3c dd cf 9e 3e b8 f4 a2 3e 99 52 18 3f
       0.03000737 0.31017962 0.3182733 0.59501034
000360 5a 00 83 3f d3 5c cf 3d 0e fa 3b be e4 14 bf 3e
       1.0234482 0.10125127 -0.18357107 0.37320626
000370 dd ce 16 be 62 05 01 3e 7e da eb bf a9 18 13 3f
       -0.1472735 0.1259971 -1.8426054 0.57459503
000380 0d 4b 70 bf 8f 9f fb be ee 35 10 bf 69 8b 83 be
       -0.9386452 -0.4914517 -0.5633229 -0.256923
000390 e4 7c 5e bf 5e 4e 8b bf 2c f2 63 3e ec cc 31 be
       -0.8690932 -1.0883291 0.2226035 -0.17363328
0003a0 1c fb 7d 3e eb 78 ad bf 7f b8 78 3f 34 b3 20 3e
       0.24802822 -1.3552526 0.9715652 0.1569336
0003b0 e4 60 98 be fc 6d 7d be 77 f6 c8 be 08 12 04 bd
       -0.29761422 -0.24748987 -0.39250538 -0.03224376
0003c0 1c b6 5e bf 1c 8b 7c be 4f ea bf 3c 86 1d be be
       -0.86996627 -0.24662441 0.023427157 -0.371319
0003d0 ae 82 5e bf d9 99 b8 be b1 b3 0a 40 16 25 f3 3e
       -0.8691815 -0.36054876 2.1672175 0.47489232
0003e0 6e 90 0e bf 18 ce 10 3f 60 ba 4e bf 76 bf 46 bf
       -0.5568913 0.56564474 -0.80753136 -0.77635896
0003f0 5b 41 e2 3e e4 88 0a bf 7c ca 95 bf 9b 2a 6e bf
       0.44190487 -0.5411513 -1.1702418 -0.9303376

l1.bias f4 [400]
000000 8e de 30 bf 18 56 06 3f 84 21 ef 3e 61 0d 61 bf
       -0.6908959 0.5247512 0.46705258 -0.8791104
000010 08 c8 50 bf a1 55 8d bf 95 fd a8 bf f4 bf d6 3d
       -0.81555223 -1.1041757 -1.3202387 0.10485831
000020 01 23 d3 bf b0 22 0b bf 24 92 9e bf 08 83 19 3f
       -1.6495057 -0.54349804 -1.2388349 0.5996556
000030 27 b0 ea bf 86 31 7a bf fa f0 bd bf b2 13 c4 bf
       -1.8335007 -0.97731817 -1.4839165 -1.531851
000040 3f 48 83 bf 15 06 c9 bf df bf 36 bf 73 51 06 bf
       -1.0256423 -1.5704981 -0.7138652 -0.5246803
000050 c3 a2 00 c0 8a 8f 35 bf c7 81 d4 bf 77 ac cb bf
       -2.0099342 -0.7092215 -1.6602105 -1.5912007
000060 f0 9d c2 bf 5d dd 25 bf a0 27 28 bf 9b 59 5d bf
       -1.5204449 -0.647909 -0.6568546 -0.8646485
000070 ab cd b4 3f b1 01 37 3f 10 7b b3 bf 00 25 ce be
       1.4125265 0.71486956 -1.4021931 -0.40262604
000080 e5 38 77 bf 4f c0 c0 3e 15 7c 2c bf e2 64 76 bf
       -0.9657119 0.3764672 -0.67376834 -0.96247685
000090 db 98 cd bf 75 01 32 bf dd 4d e2 be 21 84 be bf
       -1.6062273 -0.69533473 -0.4420003 -1.4884073
0000a0 b3 16 86 be b8 e2 f0 3e e4 46 b0 bd 6e 01 21 bd
       -0.26189193 0.47047973 -0.08607271 -0.039308004
0000b0 fa 99 15 3f cc 22 94 bf c5 bd 38 bf b0 6c 13 c0
       0.58438075 -1.1573119 -0.72164565 -2.3035088
0000c0 90 ce 30 bf 28 86 c8 bf 88 7b 50 3f 9f 6b 6e bf
       -0.6906519 -1.5665941 0.81438494 -0.93132967
0000d0 d9 bf 50 be 74 22 b2 bf 44 21 1c bf bc 22 b6 be
       -0.20385684 -1.3916764 -0.6098826 -0.35573375
0000e0 0b b5 52 bf 19 43 0c c0 8b 9f ae bf 89 b5 0e be
       -0.823075 -2.1915953 -1.3642439 -0.13936438
0000f0 39 78 79 bf ca 44 b5 bf a1 6e 9a bf c2 4a b1 bf
       -0.9744907 -1.4161618 -1.2065011 -1.3850939
000100 f8 22 de bf 6f a5 a6 bf dd 49 32 3e 0f f5 9f bf
       -1.7354422 -1.3019236 0.17410989 -1.2496661
000110 b9 5d fc bf ed 0c bf bf 73 04 98 bf 8d 2d 63 bf
       -1.9716102 -1.492582 -1.1876358 -0.8874138
000120 28 9e d1 bf 8f 40 b2 bf 52 b3 9d bf 9c 16 0c bf
       -1.637639 -1.3925952 -1.2320349 -0.54722
000130 ca 2d 38 be f9 f6 c2 bf c6 38 94 bf 5c 9d bb bf
       -0.17986217 -1.523162 -1.1579826 -1.4657397
000140 a0 a5 a6 bf ce c2 18 c0 ca 03 e3 be 27 68 ba bf
       -1.3019295 -2.38689 -0.44338828 -1.4563035
000150 b3 92 7f be 1d 87 be bf 0e ff e1 bf cb de f6 be
       -0.24958305 -1.4884983 -1.7655962 -0.48216853
000160 1b be d4 bf e6 ca 51 3f 77 f3 2a bf 7b c2 62 bd
       -1.6620516 0.81950223 -0.6677775 -0.055361252
000170 71 df 14 be 88 2e f6 be 73 c9 ce 3f 4b a9 a0 bf
       -0.14538361 -0.48082376 1.6155227 -1.2551664
000180 e0 2f 35 bf 18 fb 93 bf 08 87 aa 3e 33 26 7f be
       -0.70776176 -1.1561003 0.33306146 -0.24916916
000190 37 f8 07 bf 8e ab be bf 19 01 a9 bf 81 b6 f3 bf
       -0.5311312 -1.4896104 -1.320346 -1.9040071
0001a0 5a f8 3f bf 4a a4 c9 bf c6 2c e1 bf 63 4d bb be
       -0.7498833 -1.5753262 -1.7591789 -0.3658248
0001b0 00 dd 8e bf c6 fc 95 bf f5 bb 0e bf 41 c9 a1 bf
       -1.1161194 -1.1717765 -0.5575555 -1.2639543
0001c0 a7 ee 18 bf c4 c7 25 bf cb a8 83 bf 17 64 8e bf
       -0.59739155 -0.64757943 -1.0285887 -1.1124295
0001d0 c3 00 88 bf b2 1c 15 c0 27 2a 44 3e 38 0a b1 bf
       -1.0625232 -2.3298764 0.19156705 -1.3831244
0001e0 a7 cb bb bf 48 2e 80 be a9 67 f3 bf 80 8c 6f bf
       -1.4671525 -0.2503531 -1.901601 -0.9357376
0001f0 e3 2a c6 bf 19 4e db bf 97 a6 11 bf df 18 6b bf
       -1.5481838 -1.7133209 -0.5689482 -0.91834825
000200 05 61 18 3f c4 9b 91 be 84 3b 3b bf a5 87 2d bf
       0.5952304 -0.28439152 -0.7313769 -0.677851
000210 82 26 b7 bf 00 92 94 be 12 8f 18 c0 98 f6 4e bf
       -1.4308627 -0.2901764 -2.3837323 -0.8084502
000220 40 9e 03 c0 7d 77 fe 3f 5f 40 a9 3e 2b c7 b8 bf
       -2.0565338 1.9880215 0.33056924 -1.4435781
000230 03 58 b7 3e d8 8a a8 bf 3e 04 af bf 7f 2f 90 bc
       0.35809335 -1.3167372 -1.367317 -0.017600773
000240 e4 1d aa 3e 78 4a 86 bf 87 1b e3 bf 07 cb a8 bf
       0.3322593 -1.0491476 -1.7742776 -1.3186959
000250 35 72 0d bf 9f bd b6 bf 0d b4 95 bf 00 00 4d be
       -0.5525239 -1.4276618 -1.1695572 -0.20019531
000260 8d 88 eb bf ca 70 98 bf 59 38 a3 bf 8a 6c ca bf
       -1.8401047 -1.190942 -1.2751571 -1.5814373
000270 6c 1c 56 bf 32 67 ec bf 36 b9 64 bf 4a b0 56 bf
       -0.8363712 -1.8468993 -0.8934511 -0.83862746
000280 5d f4 c5 bf 64 ed 96 3d 6f e9 29 bf 5d f1 73 bf
       -1.5465199 0.073694974 -0.66371816 -0.95290166
000290 f5 52 c3 bd 7c 49 64 3e 5c 27 c0 bc 33 0f e6 be
       -0.09537307 0.22293657 -0.023456268 -0.4493347
0002a0 78 23 10 bf b4 d2 63 bf d4 24 75 bf ad 42 c7 bf
       -0.5630412 -0.8899338 -0.9575932 -1.5567223
0002b0 77 7c d4 bf 3b 73 92 bf 06 5d 40 bc 3b 9c da bf
       -1.6600484 -1.1441416 -0.0117409285 -1.7078928
0002c0 ea e0 54 bf 95 60 f6 bf 5e 37 b5 bf 5f 83 d5 bf
       -0.8315569 -1.9248224 -1.4157522 -1.6680716
0002d0 ee f7 f7 bf 22 9f 05 c0 eb 72 89 bf 2c 5b 25 bf
       -1.9372537 -2.0878377 -1.0738195 -0.6459224
0002e0 e5 a9 5a bf 7e 83 8b bf 93 c8 03 3f dc 33 c5 bf
       -0.8541549 -1.0899503 0.51477927 -1.5406451
0002f0 99 7c 77 bf 61 b7 bb 3d 9f ae 4b bd 06 d4 72 bf
       -0.96674496 0.09165836 -0.04972708 -0.9485477
000300 01 27 05 c0 25 29 07 c0 58 91 c6 bf 77 98 24 be
       -2.0805056 -2.1118863 -1.5513105 -0.16073786
000310 93 c4 04 bf 3c 6f 0a c0 d9 0b 14 bf 3e 62 da bf
       -0.5186245 -2.1630392 -0.5783058 -1.7061231
000320 2b 0a 19 3f 1d ef fe bf 02 d3 8c bf 8b 8e d4 bf
       0.5978114 -1.9916722 -1.1001894 -1.6606001
000330 73 fa e2 be 95 b0 11 bf f5 93 1a bf 10 f7 81 bf
       -0.44331703 -0.5691007 -0.60382015 -1.0153522
000340 9b f4 a5 bf 4e 0f 2d bd d5 bd 24 40 8a b3 dd bf
       -1.2965273 -0.042250924 2.5740864 -1.7320416
000350 4f 48 ae bf 57 a0 7c bf d1 4f d1 be f4 0a bb bf
       -1.3615817 -0.9868216 -0.40881208 -1.4612718
000360 93 17 c7 bf 4f 03 4e be da 9f c2 be c8 d3 4f be
       -1.5554069 -0.2011845 -0.38012582 -0.20295632
000370 42 4e ad bf 97 f4 49 bf 7d 83 83 be e7 2e 0c bf
       -1.3539507 -0.7888884 -0.25686255 -0.5475907
000380 c5 63 9e be cc e5 6e 3f e3 e2 37 bf 90 a5 90 bf
       -0.30935493 0.9331939 -0.71830577 -1.1300526
000390 16 78 9e bf 56 e2 92 bf cc 10 89 bf db e6 b7 bf
       -1.2380397 -1.1475322 -1.0708251 -1.4367326
0003a0 5b dd 9d bf 11 4f 06 c0 51 1d e7 bf a6 e1 d0 be
       -1.2333177 -2.0985758 -1.8055822 -0.40797156
0003b0 cb ed 7a bf 58 46 71 bf 28 d6 52 bf 75 46 c2 bf
       -0.98019093 -0.9424796 -0.82358027 -1.5177752
0003c0 4d 8f 32 bf 57 cf e2 bf 21 02 0b c0 df b0 e4 bf
       -0.6974991 -1.7719525 -2.172005 -1.7866477
0003d0 62 19 91 bf 45 b3 1d c0 89 56 b1 bf c5 d8 f3 bd
       -1.1335871 -2.4640667 -1.3854533 -0.1190658
0003e0 36 e2 98 bf 55 71 92 bf f7 1b 97 bf 83 db bd 3e
       -1.1944034 -1.1440836 -1.1805409 0.37081537
0003f0 e1 20 73 bf 6c 53 ee bf 73 0f ed be 47 8d 31 c0
       -0.94972044 -1.8619208 -0.4630085 -2.774248

l2.weight f4 [300, 400]
000000 b8 dc d7 be a2 ba a2 3f 2b dc 41 3f f4 1c 29 be
       -0.42160583 1.2713206 0.75726575 -0.16514951
000010 c3 4f 3f 3f 7b 42 6c bd e1 a8 09 be d1 11 08 3f
       0.7473108 -0.05768059 -0.13443328 0.53152186
000020 01 9d af 3e b4 cb 62 be ef 82 48 3f fa de 02 be
       0.34299472 -0.22148019 0.7832479 -0.12780371
000030 0b fc 95 3c e2 66 5d 3e d4 26 6a 3e d4 61 49 be
       0.01830866 0.21621278 0.22866374 -0.19666225
000040 c6 7c 48 be f4 ca d4 be eb b6 23 3f 5a 68 1c 3b
       -0.19578847 -0.4156109 0.63950986 0.002386591
000050 17 bb f4 3e 54 b2 a6 be 01 18 ae 3f e1 26 81 be
       0.47798988 -0.3255793 1.3601075 -0.25224975
000060 3e 35 ab 3c 42 a5 13 3e 05 1d 9b be 9d 67 3a 3f
       0.020899411 0.1441851 -0.30295578 0.7281435
000070 47 f3 62 bf 9a 86 4b 3e dd 17 cb 3e 7e de 8e be
       -0.8865246 0.19875565 0.39666644 -0.27904123
000080 5b 1a 85 3f 46 71 08 3f b5 a6 52 3f d4 f3 9d 3f
       1.0398668 0.5329784 0.82285625 1.2340035
000090 00 d6 32 bb a2 46 02 bf 1b 7f b8 3f 4a ae 1b be
       -0.0027288198 -0.5088903 1.441379 -0.15203205
0000a0 74 5c 74 3f fa bc 5b bf ae 4f 7e 3e b1 77 3d bf
       0.9545357 -0.8583523 0.24835083 -0.7401076
0000b0 78 e2 82 bf 26 50 40 3e cd 61 8f 3e fa 29 ba bd
       -1.0225363 0.18780574 0.28004304 -0.09090038
0000c0 41 f1 a7 3f 44 ec d4 bc fc c7 9d be 8d 34 4e be
       1.31205 -0.025991566 -0.30816638 -0.20137234
0000d0 e6 6d 66 bd 65 b7 cc be bc e3 36 3e bb f6 d4 3e
       -0.05625715 -0.3998367 0.17860311 0.4159449
0000e0 a2 76 49 bd 97 95 0c 3f 65 39 04 bf 13 39 81 be
       -0.049185403 0.54915756 -0.5165008 -0.25238857
0000f0 e7 80 1f bf 2a 46 6e bf 7c 02 82 3a a6 07 c4 be
       -0.62306064 -0.9307581 0.0009918953 -0.38287085
000100 14 88 c8 bd 6b a9 44 3f df ce 82 bf af 39 59 3f
       -0.0979158 0.7682101 -1.0219382 0.84853643
000110 89 4e 54 3f c9 21 ac 3f 43 86 10 3f 6c ae cc 3f
       0.82932335 1.344781 0.5645487 1.5990729
000120 f7 ee e6 be ab 62 d5 bf 64 ab 10 be e4 52 8e be
       -0.4510419 -1.6670736 -0.1412788 -0.27797616
000130 07 cb c0 3e a9 82 ca 3e a3 6e 00 bf 97 8f f7 3e
       0.37654898 0.3955281 -0.5016882 0.48351738
000140 5e c7 4d bf ac d2 2b 3f 66 92 a7 3e 50 17 b8 3e
       -0.80382335 0.67118335 0.3272888 0.35955286
000150 5e cd 42 bf 40 ec 89 bf 42 0e 32 3f b3 70 82 3e
       -0.76094615 -1.0775223 0.69553006 0.25476608
000160 53 8b 4d bf 8c 00 d4 3e a1 f4 1a be 54 c9 21 3e
       -0.80290717 0.41406667 -0.15132381 0.15799457
000170 9d 44 03 3f 88 3a 22 bf ee 12 f0 be ad 80 8c 3e
       0.5127657 -0.6337056 -0.46889442 0.27441922
000180 71 b7 1c 3f 00 25 67 bf 27 ed f1 bc 29 03 38 bf
       0.6121741 -0.9029083 -0.029532028 -0.7187982
000190 37 8e e2 3e 1e 61 0e 3f 94 77 96 bf 44 ae 16 3d
       0.44249126 0.5561694 -1.1755242 0.036787286
0001a0 6c ce 00 bf 56 59 fb 3e e7 ef c6 3d e3 90 62 be
       -0.50314975 0.49091595 0.097137265 -0.22125582
0001b0 75 14 89 3f d0 28 60 3e 10 d3 0e 3f fa da 78 be
       1.0709368 0.21890569 0.55790806 -0.24302283
0001c0 c8 1f 2f bb 45 ce 18 bf 89 71 0b 3f 10 02 61 3f
       -0.0026721824 -0.5968974 0.54470116 0.8789377
0001d0 b4 5d 29 3f 5a 9a 1f 3f 27 27 98 be 9b 86 f8 bd
       0.66158605 0.62344897 -0.2971737 -0.12135049
0001e0 ee 0b ce 3e a5 97 39 3f b6 04 7e be 99 c0 64 bf
       0.40243477 0.72497016 -0.24806485 -0.8935638
0001f0 24 6c c5 bd ba 8f bb be 2c 00 83 3d 68 23 9d 3d
       -0.09639767 -0.36633092 0.06396517 0.07672769
000200 46 87 6e bf 37 9c 88 be fc fd b8 be bf 26 81 bf
       -0.9317516 -0.26681682 -0.36131275 -1.0089949
000210 af 67 aa 3f 7b c2 e5 be 7c d1 d3 bd 19 0e a2 bd
       1.3312892 -0.4487494 -0.1034269 -0.07912845
000220 1e 4d e4 3c e3 72 2f 3e 92 9f 64 bd b2 b3 5c bf
       0.027868804 0.1713367 -0.05581624 -0.86211693
000230 34 83 ff 3d b7 f4 ec be a5 6d e3 3e fd b6 40 3f
       0.12476197 -0.46280453 0.4441959 0.7527922
000240 56 71 08 3f 8f 57 9b be 23 e2 b2 3e e8 dd 81 3f
       0.53297937 -0.3034024 0.34938154 1.0145845
000250 c2 ff 04 3f ab da 31 3d 45 5c 8b 3f 2d fa 26 c0
       0.51952755 0.04342143 1.0887533 -2.6090195
000260 3e 21 86 3e 1c 35 21 3f 55 6d c4 be 44 e0 30 3f
       0.26197237 0.62971663 -0.38364664 0.690922
000270 b3 5c 4d bd 3f 27 c9 3d c6 97 51 be f6 b6 e5 3c
       -0.050137233 0.09821939 -0.20468053 0.028041344
000280 4d 81 69 bf 12 3a 52 bf 1d e5 49 3f d6 a1 30 be
       -0.9121292 -0.8211986 0.78865224 -0.17249236
000290 97 9e 8c 3f 4e a7 b6 bf 0a ca 5a bf 65 b7 da 3e
       1.0985898 -1.4269807 -0.8546454 0.42718044
0002a0 4b 53 a9 3f 98 41 0e 3e c7 ef 49 3f 4b 38 20 bf
       1.3228544 0.1389221 0.78881496 -0.62585896
0002b0 c2 4c 89 3d 8c 4d 9c 3e d9 c9 af be a9 84 f5 3e
       0.067040935 0.30527914 -0.34333685 0.47952774
0002c0 1c 7a a3 bd b5 1d 5b 3f f6 ba f4 3f 9c 29 1b 3f
       -0.07982275 0.85592204 1.9119556 0.60610366
0002d0 68 15 c2 bd 33 b9 8d 3f 4b 89 37 bf 8b 31 e2 3e
       -0.09476739 1.1072143 -0.7169387 0.44178423
0002e0 ee ca da be 66 1d cb 3e df df 01 bf 50 8f 21 3f
       -0.42732948 0.39670867 -0.50732225 0.631093
0002f0 b4 4e 0e 3f 85 07 b7 bf 0c 55 e4 bd 04 87 14 3f
       0.5558884 -1.429917 -0.11149034 0.5801852
000300 8c 51 d7 be 4a b7 29 be 5e 5f 07 be 0e 60 8a be
       -0.42054403 -0.16573825 -0.13219973 -0.2702641
000310 b2 f6 a5 3e 7e 95 81 3f 7b bc 2d bf f2 b7 d7 3e
       0.32414776 1.0123746 -0.67865723 0.42132527
000320 51 63 70 3e 91 02 43 3f c6 d3 4b 3f fb 8f 2e 3f
       0.23475386 0.7617579 0.79620016 0.68188447
000330 77 58 3a 3f b7 ca 08 be 88 86 b8 3d 71 ac eb 3e
       0.72791237 -0.1335858 0.09010035 0.4603
000340 c1 e7 3a bf a4 ba 5f bf d7 cc 71 3e 5b d2 38 3f
       -0.7300988 -0.87394166 0.23613296 0.72195977
000350 02 8e fe be 83 1f 09 3f c5 fe ff 3e b4 3b 1b bf
       -0.49717718 0.5356371 0.4999906 -0.60637975
000360 c2 ee 0a 3f 5e 85 56 bd 46 cb 13 3f e3 19 06 3f
       0.54270566 -0.052373283 0.57732046 0.5238325
000370 d8 aa 4e 3d 88 d6 31 3e 60 8f 90 3f 0b 4e ed 3e
       0.050455898 0.17366993 1.1293755 0.46348605
000380 db ba 7b 3e e4 27 48 bd 26 7a 00 3f 8a d6 ac 3e
       0.24582998 -0.048866168 0.50186384 0.3375743
000390 b9 9a b3 be 32 0f 5b 3e ba 5a 0b 3f 3a 50 8c 3f
       -0.35078982 0.21392515 0.5443531 1.0961983
0003a0 bc 6e f8 bd c3 ed bd bf e2 04 3f 3f 4a 23 1f c0
       -0.12130496 -1.4838184 0.74616826 -2.4865289
0003b0 db de a1 be 56 a1 08 bf 9d 29 7d 3f a4 f2 10 3e
       -0.31615338 -0.5337118 0.9889162 0.1415506
0003c0 9e 80 f6 3e a3 03 3d bf bc ee e1 3e 50 8a 6b 3e
       0.48145002 -0.73833674 0.44127452 0.23001981
0003d0 59 03 45 3f d0 57 91 3e dc 93 cf 3d 37 27 16 3f
       0.76958233 0.28387308 0.10135624 0.5865359
0003e0 81 00 52 bf 3d df 0a bf 2b 12 3f 3e 92 5e 1f be
       -0.8203202 -0.54246885 0.18659274 -0.1556342
0003f0 81 1a c8 3e 7c 2b 47 be c5 cd 03 bf cb 7e 13 be
       0.3908272 -0.19450182 -0.51485854 -0.14403836

l2.bias f4 [300]
000000 44 4e 6b 3f 43 04 48 bf 7c 49 d9 3e df 15 a1 bf
       0.919163 -0.781315 0.42438877 -1.25848
000010 ee 5c 54 bf f2 20 88 3e d5 15 1e 3e 82 b9 a7 bd
       -0.829543 0.26587635 0.15438016 -0.0818968
000020 cb ed c9 be 51 d3 2e be e4 b9 bc be 1d a6 4f bf
       -0.39439234 -0.17072798 -0.36860573 -0.81112844
000030 49 1e 0a bf 6a af 2d bf d8 9b 4d 3f 48 4c 44 be
       -0.5395246 -0.67845786 0.80315924 -0.19169724
000040 94 6b 9c bf 2a be 24 bf d7 50 4c bd 88 1c 9d bd
       -1.222033 -0.6435267 -0.049881782 -0.076714575
000050 4d b2 8e 3e 71 2c d0 3d a7 b5 87 bd c3 b8 7d 3e
       0.27870408 0.101647265 -0.06626444 0.24777512
000060 e1 28 83 bf ac f3 a3 bd 32 c7 11 bf c3 70 0f bf
       -1.024685 -0.08005461 -0.5694457 -0.56031436
000070 36 5e 64 3e d8 01 ae be 12 4a 65 bf db 53 99 be
       0.22301564 -0.33985782 -0.8956615 -0.2994679
000080 01 94 71 be 7a 02 31 bd e0 a5 63 3f 50 7c 52 be
       -0.23591615 -0.043215252 0.8892498 -0.20555234
000090 6d b0 b6 bd 64 4b eb bd 8a 67 44 3f 7b e8 84 bf
       -0.08920369 -0.11488989 0.7672049 -1.0383447
0000a0 29 d8 ed bd 4b a5 b9 bd ad 00 c8 be 0d bd b2 bd
       -0.11613495 -0.0906473 -0.39063016 -0.08727465
0000b0 f5 59 b4 bf f5 59 27 bf 98 6a 8b bf 18 28 e1 bc
       -1.4089953 -0.6537164 -1.0891905 -0.027484939
0000c0 a8 58 0a bf 00 2a ba 3f f3 3b 8f bf a9 c3 a9 bf
       -0.5404153 1.4544067 -1.119017 -1.3262836
0000d0 b0 f3 9c 3c 67 05 8d 3f 49 a2 9f be 6f 68 6b be
       0.019159168 1.1017274 -0.311785 -0.22989057
0000e0 25 e9 3a bf 66 7c 38 be cb 22 9d be da ad d8 3d
       -0.73012 -0.18016204 -0.30690607 0.105800346
0000f0 e4 ac b2 3d d9 c8 8e bd 41 7f 0a be 9e 7d 40 bf
       0.087243825 -0.069719024 -0.13525106 -0.75191677
000100 9a 6d 8f bf 09 c9 3c 3e 52 96 50 3e b7 ae a3 be
       -1.1205323 0.18436064 0.20369843 -0.31969234
000110 65 67 e9 bd af 5c b1 3e 5c 41 ef 3e e0 a4 47 bf
       -0.11396674 0.34641024 0.46729553 -0.77985954
000120 d1 9f 82 bd bd fc 1d 3f 95 db 42 bf ea 43 c9 bf
       -0.06378139 0.61713773 -0.76116306 -1.5723851
000130 a7 fb 17 3f 23 40 2c 3d 66 b9 f1 bd 16 cc 9b bf
       0.59368366 0.042053353 -0.1180294 -1.2171657
000140 d8 51 f4 be 8d a4 d0 be 46 06 22 3f 64 39 19 bf
       -0.47718692 -0.40750542 0.6329082 -0.59853196
000150 91 ac 58 bd af 20 47 bf 85 c7 d4 bd 56 01 2e bf
       -0.052898947 -0.77784246 -0.10389618 -0.6797079
000160 9a 14 d9 bd 7b 66 25 3e 62 c3 a6 bd aa b6 d9 bd
       -0.105996326 0.16152374 -0.08142735 -0.106305435
000170 f4 4b d2 be 5e 8f 85 be b0 a5 f3 bc c5 fb 37 be
       -0.41073573 -0.26085943 -0.029742092 -0.17967136
000180 50 61 9d be d3 94 51 bf 45 64 13 bf 5d b3 c3 39
       -0.30738306 -0.8186771 -0.57574874 0.00037326934
000190 30 74 1f bf b6 f7 e4 bc 51 05 0f be be c2 be bf
       -0.62286663 -0.027950149 -0.13966872 -1.4903181
0001a0 c2 77 e7 bd d7 98 48 bf 18 58 9d be 43 78 e4 3e
       -0.11302139 -0.78358215 -0.30731273 0.44623002
0001b0 49 17 46 3f 31 9d c1 bd 65 a2 78 bf 59 be 01 bf
       0.7737928 -0.0945381 -0.97122794 -0.5068107
0001c0 ba 54 2d bf e7 97 58 bf 80 16 28 bf ad ab 9d bf
       -0.6770741 -0.84606785 -0.6565933 -1.2318016
0001d0 45 ca 21 3e 4e 57 90 3f 5e 9a c2 be d8 28 99 3d
       0.15799816 1.1276643 -0.38008398 0.074784935
0001e0 78 4a fb bd f8 8f a5 3e e9 2a 9b be 79 cd 6d 3f
       -0.12270063 0.32336402 -0.30306175 0.9289165
0001f0 0a 9f e0 bc ce 77 fb be e8 35 00 3f 85 72 01 be
       -0.027419586 -0.4911484 0.50082254 -0.12641342
000200 30 82 0c bd 6b c5 57 be d6 c7 08 c0 1e 57 dd 3d
       -0.034303844 -0.21071403 -2.137197 0.10807632
000210 59 40 06 3c 22 ef 1e be e3 55 bd bf e2 0b fe 3e
       0.008194053 -0.1552091 -1.4791836 0.4961844
000220 93 de b0 bf 4e dc 9e bd 4e db a0 bd 1b bf 0e bf
       -1.3817924 -0.077568635 -0.07854329 -0.55760354
000230 f8 89 1c bf e1 3c dd be ce 3b dd bd 39 ed 80 bd
       -0.61148024 -0.4321051 -0.108024225 -0.06295247
000240 2d 1f 9c 3f aa 0d 7a 3f 96 96 47 bf a3 bb 7a bf
       1.2197014 0.976771 -0.7796415 -0.9794256
000250 b8 00 26 bf e2 69 d9 bd 84 f8 47 bd f3 48 75 3e
       -0.64844847 -0.10615899 -0.048820987 0.23953609
000260 06 dc 8b bd 17 fe 81 bf c3 57 f3 be 6c b0 5f bf
       -0.068290755 -1.0155667 -0.47527894 -0.87378573
000270 a6 8b e1 3e 31 f3 6a bf 97 85 ad be c1 d6 fa bd
       0.44051856 -0.9177733 -0.33890983 -0.12247992
000280 a7 c0 32 bd fb 2f a6 3d 87 ef 7f 3f c6 09 83 bd
       -0.04364076 0.0811462 0.99974865 -0.063983485
000290 71 74 b6 bf fe 1a 96 bd 8b 1f 85 bf 63 38 40 3c
       -1.4254285 -0.07329367 -1.0400251 0.011732194
0002a0 3d 50 94 bd e3 bd 00 be 2d c9 62 bf f0 46 8b bf
       -0.07241867 -0.12572436 -0.8858822 -1.0881023
0002b0 90 ee cb bd 65 72 73 bf 7a 8d 09 3f e7 a1 e8 3e
       -0.099576116 -0.9509643 0.537315 0.45436022
0002c0 c6 56 d9 be f2 89 9b bf 8a d5 59 bf 27 b5 e9 bd
       -0.42449015 -1.2151473 -0.8509146 -0.11411505
0002d0 2c b3 9c 3f f8 98 a7 bf 21 3c 33 be d4 0c 96 bf
       1.2242179 -1.3093557 -0.17503406 -1.1722665
0002e0 0e 98 98 3e 63 7c 9e bf 78 a1 83 bf dc 03 5c be
       0.2980351 -1.238171 -1.0283651 -0.21485847
0002f0 5e e7 b6 be 93 61 99 bf 09 5e b5 be 43 99 6d bd
       -0.35723394 -1.1982902 -0.35423306 -0.05800749
000300 7e 21 a5 3e c9 27 2a bf a0 76 84 be 58 b2 a3 bc
       0.32252115 -0.6646696 -0.25871754 -0.019982502
000310 f8 73 48 3f 24 e2 6e 3e 1e 81 19 bf f4 4e 87 be
       0.78301954 0.23328453 -0.5996264 -0.26427424
000320 16 e2 3a bf 10 87 5f bd 0b 8f f5 be ec 8b 2a 3f
       -0.7300123 -0.054572165 -0.47960696 0.66619754
000330 b7 f5 a4 bd c4 ea 06 bf 44 e9 22 bf 0b 7a 43 3f
       -0.08054679 -0.52701974 -0.63637185 0.763581
000340 10 4f d4 be 06 24 fd 3d 7c 6f 35 bf ed 56 3e bf
       -0.4146657 0.123603866 -0.70873237 -0.7435139
000350 51 d1 7e bf e3 45 04 be a8 6b 81 bf f3 e1 e3 bd
       -0.9953814 -0.12917285 -1.0110979 -0.11127081
000360 a8 85 30 bd e5 74 cf 3e 3b 7d 4b bd d2 6b 63 bf
       -0.043096215 0.4051887 -0.049679976 -0.88836396
000370 87 46 31 bf ec 3f 86 be 01 a6 ec bc b8 e7 8c 3e
       -0.6924824 -0.26220644 -0.02888775 0.27520537
000380 ec 28 e3 be fb d8 46 bf b3 4b ff be e4 a5 c7 be
       -0.44367158 -0.77674836 -0.4986244 -0.38993752
000390 ee e5 5d bf ae 81 4f bf 94 95 30 3e fa fc f1 bd
       -0.8667897 -0.8105725 0.1724456 -0.118158296
0003a0 9c 9d 9b bd 48 20 ff be 07 d1 ba 3e d7 c8 08 bf
       -0.07598421 -0.49829316 0.364876 -0.5343146
0003b0 f8 47 75 be c9 23 8a be 6b ee 96 be 78 3c 23 bf
       -0.23953235 -0.26980427 -0.29478773 -0.63764143
0003c0 65 25 6f bf bf 85 e1 3e 24 e5 d7 be 7a 6b 21 bf
       -0.93416435 0.44047353 -0.42167008 -0.6305462
0003d0 ef 47 97 3e 79 bf 13 3e 6b 87 25 bf 13 fb 79 bf
       0.29547068 0.1442851 -0.64659756 -0.97648734
0003e0 13 e3 b6 bf a9 5c 8b bd 9b d2 0c be 3b 20 91 bf
       -1.4288048 -0.06804783 -0.13752215 -1.1337961
0003f0 78 f8 6d bf 17 9b dd bf cc bf 62 bf 04 d9 4d 3f
       -0.9295726 -1.7312955 -0.8857391 0.80409265

l3.weight f4 [4, 300]
000000 8f 19 9c 3e af 83 6b be 9a b1 04 bf c5 21 80 bc
       0.3048825 -0.22999452 -0.518335 -0.015641103
000010 2d 14 b7 bc 84 bb 9e 3f c4 db de bd ba 38 37 ba
       -0.022348488 1.2400975 -0.10881761 -0.0006989349
000020 58 ca 32 3f 47 1b 64 be 7a f4 38 bf 83 9d 10 bf
       0.6984 -0.2227603 -0.7224804 -0.56490344
000030 fa 5a df be 70 30 a7 3e 91 05 ae 3e b7 f8 03 3c
       -0.43624097 0.32654142 0.33988622 0.008054904
000040 21 d9 ef bd ce 3b a9 3e cd c8 e4 3c 5f ce 1d bf
       -0.11711336 0.3305344 0.02792778 -0.6164302
000050 65 e2 81 3e 51 06 ec bd c9 d7 4f bd a5 ae e5 3e
       0.25368038 -0.11524642 -0.050742898 0.44859806
000060 8d e7 2e 3d 1b 65 f1 ba 2e 44 54 be cb e4 c9 3d
       0.042701293 -0.0018416973 -0.20729133 0.09858092
000070 5c a1 0d bf 7d e8 9e 3d 83 e0 11 3f 51 39 94 3e
       -0.5532434 0.07759187 0.569832 0.2894998
000080 1d 32 4c 3f 68 3b 9b 3d 9c b8 ad bc 40 fa 0e 3e
       0.79763967 0.0757969 -0.021206193 0.1396265
000090 23 3f 9d 3c 64 3b 68 3f 05 40 45 be 32 a1 88 3e
       0.019195145 0.9071562 -0.19262703 0.26685482
0000a0 a6 f0 39 bc 85 9d 10 bd 60 79 d3 bf 65 c4 46 bd
       -0.011348879 -0.035306472 -1.6521416 -0.04852714
0000b0 45 23 ca be 67 aa bb 3e 10 c7 a8 3e 83 d0 19 bd
       -0.39480034 0.36653444 0.32964373 -0.037552368
0000c0 e2 e5 23 3f 9b ca 32 3f 12 70 52 3f 05 4d bb 3e
       0.6402265 0.698404 0.82202256 0.365822
0000d0 e1 b2 ce 3f db aa b5 3f 23 2a 52 bd a6 fe df be
       1.614834 1.4192766 -0.051309716 -0.4374897
0000e0 88 b2 1e bf f8 a6 ab bc a8 27 c7 bf 2c 50 00 bf
       -0.6199117 -0.02095364 -1.5558977 -0.5012233
0000f0 8e ed e3 3e 13 45 87 3b dd 14 24 3d ce 2a 06 3f
       0.44517177 0.0041281073 0.04005896 0.52409065
000100 8c 5b 54 3e 87 82 70 3d 18 d1 02 bf 13 99 5f bd
       0.20738047 0.05871823 -0.511003 -0.054589342
000110 6a fa f4 be ff 37 29 3f d0 27 46 bf 6b 63 e2 3e
       -0.478473 0.6610107 -0.774045 0.44216475
000120 1b 04 be 3c d0 0c 7f 3f 0f 34 57 bf 1e 23 d2 3e
       0.023195317 0.99628925 -0.8406381 0.41042417
000130 76 5f a0 bf 83 00 a0 3f ea a5 9f be 4d 7c e2 3e
       -1.2529132 1.2500156 -0.3118127 0.4423546
000140 0c a7 cc ba e6 d2 a8 3e 16 39 3e bf 7c 8d a3 3e
       -0.0015613749 0.32973403 -0.74305856 0.31943882
000150 c0 ad ad 3c be 5d 7a bf 6c 87 57 3c 3a fa b5 be
       0.021201015 -0.9779929 0.013154846 -0.3554247
000160 5b c6 c7 ba 19 fa 22 be 2a a0 4c bd bc fe fa 3a
       -0.001524161 -0.15915717 -0.04995743 0.0019149403
000170 a3 f7 31 bf 0e 9a 0c 3f f2 d2 bf bb 28 0b dc 3c
       -0.6951849 0.5492257 -0.005854004 0.026860788
000180 78 49 f8 bc f8 b7 c7 3e 1c f5 b5 3f 1f 27 0f 3d
       -0.03030847 0.39007545 1.4215426 0.03494942
000190 7d 37 86 bd 72 94 41 bd 98 1b 67 3e ac ee 16 bd
       -0.06553552 -0.04726071 0.2256912 -0.03684871
0001a0 7b 38 c6 bd b3 b2 e6 be c5 01 77 3f 2f 1a 30 be
       -0.096787415 -0.45058212 0.96487075 -0.17197488
0001b0 7f db 9e 3e bc 35 58 bc 47 55 9a bd 8d 1d 45 3e
       0.31026837 -0.013196405 -0.075357966 0.19249554
0001c0 18 e1 80 bf 6b 73 83 bf 4a 98 5c bf c4 3a 79 3f
       -1.0068693 -1.0269598 -0.86169875 0.97355294
0001d0 ac 3b d9 be 3b dc d1 be 21 1a 04 bf 07 9b 75 bf
       -0.4242834 -0.40988335 -0.5160237 -0.9593968
0001e0 f4 cb d2 bc 1d 41 d2 3e 5a 12 18 bf fa 25 16 3f
       -0.025732018 0.41065302 -0.59403 0.586517
0001f0 be 9b 80 3f 21 fe c5 be 7f 62 5f 3f e8 95 a3 3f
       1.0047529 -0.38670447 0.8725967 1.2780123
000200 d5 1e 96 3c 49 fe 45 be 4d 29 06 3f 85 90 76 be
       0.018325249 -0.19335283 0.5240677 -0.24078567
000210 44 64 df bc ef f7 76 bf 8b d7 e1 3e 3b 2c 8c 3f
       -0.02726949 -0.96472067 0.4410976 1.0950998
000220 c1 87 5d 3f 95 18 65 bb 94 85 6c bc 95 d5 f0 3e
       0.8653527 -0.003495728 -0.014436144 0.4703795
000230 e5 91 a0 bd 8a fb 93 3d 8c 77 88 3d be e2 70 3c
       -0.07840327 0.07225712 0.06663427 0.014702497
000240 6f 7f 5c 3f 43 4c e3 bf d9 8b ec be 91 a7 84 3f
       0.8613195 -1.7757648 -0.46200445 1.0363637
000250 a4 9b c2 be e1 3f c9 bc ce 24 c7 3c e5 59 25 be
       -0.3800937 -0.024566593 0.024309542 -0.16147573
000260 a9 55 65 3b 94 50 96 be 00 e9 fe 3d 36 c5 8e bd
       0.0034993684 -0.2935835 0.12446785 -0.06971209
000270 a7 28 9c bf 22 39 ad 3d 27 c8 cf bd 9a 81 7c 3d
       -1.2199906 0.08458163 -0.10145598 0.061647035
000280 0a 5e e6 bb b2 c3 9d 3e be 04 85 3f f5 0a 85 3c
       -0.0070302533 0.30813366 1.0392072 0.016240576
000290 ed d4 5f 3e 14 bf 19 3b 3d 8e d5 3b 1d 99 69 be
       0.21858568 0.0023459839 0.0065172003 -0.22812314
0002a0 34 22 85 bc cb f7 be 3e 03 11 2f 3e bf b3 b7 bd
       -0.01625166 0.37298426 0.17096333 -0.08969831
0002b0 3d b2 2b 3d 65 6f e1 be a5 52 17 bf 41 51 e4 bf
       0.04191803 -0.440303 -0.5911048 -1.7837297
0002c0 82 ab 40 3e 0c 9b 14 bd c3 86 4f bd 1f bd c0 3e
       0.18815425 -0.036280677 -0.05066563 0.37644288
0002d0 b8 63 0d bf d9 4a b9 bc ea 65 75 3d 63 f1 ba bf
       -0.55230284 -0.022618698 0.059911646 -1.4604915
0002e0 39 3b cc bf f1 3c b9 be 0c 92 06 be df 33 7d 3f
       -1.5955573 -0.36179307 -0.1314165 0.98907274
0002f0 81 3e 36 3f ba 89 dd 3d 67 cb a1 be e6 67 97 3d
       0.71189123 0.10817285 -0.31600496 0.07392864
000300 9b be e1 3e b3 d3 c7 be 7b a4 52 bf 7a 15 13 3d
       0.44090733 -0.390287 -0.8228223 0.035909154
000310 84 1c 55 bf 4f dd 17 3d c6 43 16 3f 84 ad e0 3d
       -0.83246636 0.03707629 0.58697164 0.109705955
000320 28 25 bb be 1c 46 44 39 60 dd 2d 3e 1c b6 9a 3f
       -0.36551785 0.00018718134 0.16978979 1.2086825
000330 07 80 05 bd ec ba 38 3e 98 df 40 3f 31 c5 8b bf
       -0.0325928 0.18040055 0.75341177 -1.0919553
000340 c5 88 f0 3d 73 03 a3 be 57 c7 70 bf c4 45 8c 3d
       0.11744837 -0.3183857 -0.9405417 0.06849244
000350 05 3f 36 3c 2d ea 94 3d a9 a5 c9 be be e8 33 3c
       0.011123423 0.07271228 -0.393842 0.010980783
000360 2f 3c 35 3d 7d 3c 81 3e a7 69 60 3c a7 24 b7 3c
       0.04424685 0.2524146 0.0136970645 0.022356344
000370 1f ed 2e bf a9 08 20 3f 11 61 b4 3c 4b e3 63 3e
       -0.6833057 0.62513214 0.022018941 0.22254674
000380 5b f1 ad bc 0b 62 42 3e 64 d1 b4 bf 1e 37 95 3e
       -0.021233251 0.18982713 -1.4126401 0.29143614
000390 fc ee 05 3f 29 e8 bc bd 51 1a 05 3f ca 8f 9d bc
       0.52317786 -0.092239685 0.5199328 -0.019233603
0003a0 02 9b 3b 3d b1 3c b6 be 83 33 72 3f a9 01 89 3e
       0.045802124 -0.3559318 0.9460985 0.2675908
0003b0 87 a4 b2 be 89 8f 6c 3d 52 b5 55 3e 01 73 23 3f
       -0.3489115 0.057754073 0.2086995 0.6384736
0003c0 7d 81 2f bf b5 9a 1c 3e 15 b4 3c bf cc bd 2d bf
       -0.6855696 0.15293391 -0.73712283 -0.6786773
0003d0 31 85 76 3e 45 ca c0 3e 1b be 48 bc 5d a9 bd be
       0.24074246 0.3765432 -0.012252356 -0.37043276
0003e0 67 fd 5f 3f d6 23 6a 3d e5 e6 56 bf d0 b2 05 3f
       0.87496036 0.057163082 -0.8394607 0.5222597
0003f0 e6 50 52 3e 3f 6e b4 be c7 6a b1 3d c6 e3 e6 be
       0.20538673 -0.3524036 0.08662944 -0.45095652

l3.bias f4 [4]
000000 37 2d fd 3d d0 55 98 bf ac 32 85 3e a0 16 7d be
       0.1236214 -1.1901188 0.26015222 -0.24715662
