TD3/saves/best_avg_actor.pth (torch, 491045 bytes, 5 tensors)

l1.weight f4 [400, 3]
00000000: 403c a73c 519e 3fbf 7b25 4bbe 13c7 34bf
00000010: 051d e13e dabc 573e c461 8ebd 5431 e93d
00000020: 79ed 033c 1b1d 323f cd2d 08bf c6a2 9cbe
00000030: a0a0 45bf d85f 89bf 3818 c6bd 57d7 ab3d
00000040: 4b76 873f 8c03 363f 9e94 1fbf 449e 2b3f
00000050: 4538 613e 9a71 413e fb4d e73e dbbe 703e
00000060: f5d5 8bbd 8b94 7d3f 7c2f 163e 802a 2abf
00000070: 9eb1 12bf ec68 e93d 108a a1be ac03 23be
00000080: 0f50 19be 18d3 9bbe 452b bfbf a1ea 8ebe
00000090: 660d c2be af5e b63f de53 983e f3d2 7b3f
000000a0: 8c0d 02bf e9cb c0be 4e9f 333f 1ef1 24bf
000000b0: 086a debe c775 debe 0326 893f ce32 903e
000000c0: 205e 93be 5974 8f3f e436 f03e bfbb 143f
000000d0: 9bfa 8a3d ec58 d6bd f05f 1d3e 4866 ee3c
000000e0: 4f12 bf3e ea2a e73d 40de b0bf 6c80 353d
000000f0: b4f6 473f c3a7 fdbe 57ea 39be 5429 323e
00000100: aa23 243f 5f72 72be 8601 e3bd 703a c33f
00000110: 6338 ad3e c1e7 183f 8e86 a8bf 64f3 abbe
00000120: 2dc8 16be 3c03 fc3f 2900 eb3e 091c d53d
00000130: 3665 88bf c481 99be a4b7 c1be b3da bcbf
00000140: a826 91be a8c8 93bc 51c4 a8bd dac6 b0be
00000150: ae4a bc3c 6840 ffbe bc60 ab3d c110 91be
00000160: c7d4 89bf d921 d5bc dd10 ce3e 3a73 a83f
00000170: 4a60 d13d 78d0 55bc 653c 58bf 26e2 6abd
00000180: ffcd 4e3f 67e9 d3bd 2c1a ccbe 3a4c fabe
00000190: 5009 a33f 1003 893e 3469 a9be 4033 8abf
000001a0: be8c 27be 6543 3abe 4d60 c7bf 8840 72be
000001b0: 19f2 e3bd 0939 d2be 729d ea3d 1e22 de3e
000001c0: 7d05 9abe d846 a13e 8fb0 483e baec 8cbf
000001d0: 6a70 c23d dd8f 183f 307c c93e 1c80 933e
000001e0: 5f15 fb3e 60f9 acbe b660 bebe e652 603e
000001f0: 3a6c afbf 0267 5bbe 7a1c 9dbc 5c9a 6fbf
00000200: eccb 033e 8f58 febe c729 323f ea12 aa3e
00000210: 179d e9be 8ebe 603f b0d3 643e d21a 73bd
00000220: 9272 833c d102 4cbd 56aa 203f 3574 1a3d
00000230: d814 343f 6ddc 08bd 7490 953f 24b2 833e
00000240: 76c7 bebe a07e 1f3c cf24 1b3f f2cc 5ebe
00000250: b040 94bf 2b7e 54be 29b7 afbe e459 60bf
00000260: 2480 743e a4fc 823e 5f18 29bf ffda 9ebe
00000270: 4eb0 113e 5b5b 87bf 785d b33e 4182 0cbf
00000280: f623 d93e 0058 9c3e 7c91 90be 95e1 1dbf
00000290: 2050 d23a dd44 86be 6430 ecbd 395b a23d
000002a0: 98d6 44bf c1da 653f b09a a43e c67b f0be
000002b0: cd10 823f 3af7 8f3e 4e1b 81bf a51a a83e
000002c0: 422c 0f3e f20d 17bf 73ca eb3e 03a5 a6bc
000002d0: 8be7 3d3f 208d ca3e 5c66 b23e c793 1f3f
000002e0: 06ab 7d3f e53f 23bd cf38 d43d 8391 0ebf
000002f0: 25b6 b9bd f6cf 443f d03e 533f 0501 ba3e
00000300: 204c 29bf baf0 28bf 3099 46be 0773 36be
00000310: e471 b23e 9559 d23e b746 79bf 8042 bd3e
00000320: 10c9 e43d c516 9c3e 6ae1 bbbf 54cf 93be
00000330: 19fb 58bf 525d 023f fb50 a73d 5cb0 2e3e
00000340: 94b1 87be 856c 73be 724b dc3e b3ad 853e
00000350: fb48 473e ee33 b4be 9282 da3e 3bc8 9c3d
00000360: 6fd3 18bf b0c7 253f 2a40 1a3f 4c9e 21bf
00000370: 0e9d 5b3f 2c41 a83e 17b4 243f 08e3 83bf
00000380: c09f aebe b9a8 153e b47b bbbf db1f c73d
00000390: b119 613e f1c6 ebbe c148 a7bd bba2 f53e
000003a0: 5f0f b03f 3539 613e 8cd4 423d 5b33 b2bd
000003b0: e71f 373e e15e 31bf 8b58 d23e 2c45 113e
000003c0: f71d 1f3e 9b53 143f 4e3b a0be 28af f3bd
000003d0: 95ba 5cbf ddc4 94bd 6414 943d 2253 b5bf
000003e0: 1eb2 f63d c460 053e c673 36bf 744f 233e
000003f0: d830 a73e e844 9ebf 8918 40be 2a31 afbe
0.020414472 -0.74850947 -0.19838516 -0.70616263 0.43967453 0.21068135 -0.06952241 0.11386362
0.008052223 0.6957566 -0.53194886 -0.30592936 -0.7719822 -1.0732374 -0.09672588 0.08390682
1.0582975 0.7109916 -0.62336147 0.6703837 0.21994121 0.18890992 0.45176682 0.23510306
-0.068279184 0.99054784 0.14666551 -0.664711 -0.5730227 0.113969654 -0.31550646 -0.1591937
-0.14971946 -0.3043449 -1.493508 -0.27913383 -0.37900847 1.4247645 0.29751486 0.9836876
-0.5080192 -0.3765557 0.70164955 -0.64430416 -0.4344027 -0.43449232 1.0714725 0.2816376
-0.2878275 1.1207381 0.46916878 0.5809898 0.067860804 -0.10466179 0.15368629 0.029101506
0.37318656 0.11287482 -1.3817825 0.044311926 0.78110814 -0.49542055 -0.181558 0.17398578
0.6411692 -0.23676442 -0.11084275 1.5252209 0.33832082 0.5972863 -1.3166063 -0.3358413
-0.14724799 1.9688487 0.4589856 0.10405738 -1.0655887 -0.29981816 -0.3783542 -1.4754242
-0.28349805 -0.018040016 -0.082405694 -0.34526712 0.022984829 -0.49853826 0.0836806 -0.28333095
-1.076806 -0.026017116 0.4024724 1.3160164 0.10223444 -0.013050191 -0.84467155 -0.05734458
0.80783075 -0.10347252 -0.39863718 -0.4888628 1.2737217 0.2676015 -0.33088076 -1.079689
-0.16362283 -0.18189771 -1.5576264 -0.23657429 -0.11130161 -0.4105914 0.114558116 0.43385404
-0.30082312 0.31499362 0.19598602 -1.1009743 0.094940975 0.5959452 0.3935256 0.28808677
0.49039742 -0.33784008 -0.3718316 0.21906623 -1.3704903 -0.21426013 -0.019178618 -0.9359491
0.12870759 -0.4967694 0.69595 0.33217555 -0.45627663 0.87790763 0.22346377 -0.05935175
0.016045842 -0.049807373 0.6275991 0.03770848 0.70344305 -0.03341334 1.1684709 0.25721848
-0.37261552 0.00973478 0.6060304 -0.21757868 -1.1582241 -0.20751254 -0.34319428 -0.8763716
0.23877007 0.25583375 -0.6605281 -0.31026456 0.14227411 -1.0574754 0.35032248 -0.5488625
0.4241025 0.3053589 -0.28235996 -0.61672336 0.0016045608 -0.26224414 -0.11532667 0.079275556
-0.76889944 0.89786917 0.32149267 -0.46969432 1.0161377 0.28118306 -1.0086458 0.32832828
0.13981727 -0.59005654 0.46052894 -0.020342356 0.7418143 0.39560795 0.3484372 0.62334865
0.99089086 -0.039855856 0.10362398 -0.55690783 -0.090679444 0.76879823 0.8251772 0.36328903
-0.6613178 -0.6599232 -0.19394374 -0.17817317 0.34852517 0.4108397 -0.9737353 0.36964798
0.11171162 0.30486122 -1.4678166 -0.28869116 -0.84758145 0.50923645 0.08169743 0.17059463
-0.2650267 -0.23771866 0.4302631 0.26109084 0.19461434 -0.3519587 0.42677742 0.076553784
-0.5969762 0.64757824 0.60254157 -0.63132167 0.8578652 0.32862222 0.64337295 -1.030366
-0.34106255 0.14615144 -1.4647126 0.09722873 0.21982457 -0.46050218 -0.081681736 0.47975716
1.3754691 0.21994479 0.04756598 -0.087012015 0.17883264 -0.692854 0.41083178 0.14186543
0.15538774 0.5794007 -0.31295246 -0.11898643 -0.862222 -0.07264111 0.07230452 -1.4165995
0.12045692 0.13025194 -0.71270406 0.15948278 0.32654452 -1.2364779 -0.1875936 -0.34217197

l1.bias f4 [400]
00000000: e03f aebd 8ed4 a73e 640a 52be c760 3cbf
00000010: b3a3 b4be 79db 073e 6fa2 d5be 91fd 25be
00000020: 0662 9dbe edee 25bf 4e8b dcbe 9fe0 a5be
00000030: a1cf e53b 2ad6 71bf 4641 9dbf 08b6 11bf
00000040: 9419 9f3d 1565 173e edc8 10bf 00b3 c03d
00000050: 151e 243e 1161 6bbe c3c0 acbe 748b e1bd
00000060: 91e6 f0be 6100 203c 71fd 5fbe cb97 ebbd
00000070: da51 0cbe d521 d8be 71e7 86bb 865e 14be
00000080: 74f1 40bf aecb a2bd dd01 09be 8104 e1be
00000090: a65f 86be 6f6a b2be 93d7 d1bd 6ad7 79bf
000000a0: e31b 9cbf d1b2 a03d ba84 7bbe d031 22bf
000000b0: a5fe 04bf 403c 07bf 973d 2ebf 437c 88be
000000c0: 8382 3e3e 9305 95be 89e8 873d 4c12 243e
000000d0: 6355 a8be 3c3d efbe 2c58 133b 73b8 2f3d
000000e0: 5f93 a03e 6ad0 0bbf 88e1 6b3e cd58 733d
000000f0: bede 97bf 598e 2ebe 199a 69be 3040 83bf
00000100: bb36 a13e e08a 6a3d 3c57 fb3d eb23 ef3d
00000110: d81c 81ba dcf2 ea3e aa65 2fbf 698d 73be
00000120: 51a2 35bf e975 b3be 04ce 06bf b039 083d
00000130: 830b 38be d107 01bd aac3 6cbd 9fc3 753e
00000140: c66d 09bf af90 71be 217c dabc a915 9cbd
00000150: 2856 d5bd 9707 11be 0798 0dbe e980 6a3c
00000160: 9bf9 01bf c995 4abf 7285 42bd 0b93 21be
00000170: e683 a5bc 1171 63bf c208 2cbf adf5 2dbf
00000180: ea58 7abd 1709 63bd 8ab0 003e bf34 08bf
00000190: c4da 103e 1beb 40be 54e8 b7be 4c74 12be
000001a0: 7f64 453d d8d4 b73e 427f 1cbf 627d 14bf
000001b0: 87e1 6bbf 1eb2 47be df93 933e 923d d0bd
000001c0: 96b3 dabe 110f 48bf 3406 d2be 24b5 853d
000001d0: 59e8 3cbf b920 1dbf ff97 03be 8b5b dfbc
000001e0: ab44 87be a6e5 19be d768 22be 51d3 ddbe
000001f0: 06c1 24bf 10dc 933e 5890 29bf 95fc 88be
00000200: affa 96be c1a7 27bf 00b4 f2be 8da2 12bf
00000210: d63d f3bd 0649 44bc 5f8b 1ebe 8114 adbd
00000220: d638 b53d 3c53 a7be e173 7d3e dbc2 cabe
00000230: eec6 5fbe 71aa 2abe ee56 eebb d4e5 263e
00000240: 49fc 3abf 634e 8bbe 2979 203e ef3e 01bf
00000250: 3355 42be 34fb e33d e8bb 53bf 9ded d1bd
00000260: 9681 48bb 1914 4abe f151 55bd 4617 003e
00000270: c246 a2be 9498 94be f574 873b 071d 2ebe
00000280: 0eae 82bc e813 b63e cacf c3be f38c 4dbd
00000290: 1092 92be 431a f6bc f4b9 22be 4e12 48bf
000002a0: 569d 52bf 12ba a4bd 3af6 31be 8032 a2bc
000002b0: b7bf f0be f140 653d 988c 10be 1c49 63be
000002c0: 38a3 84be ffaa 1bbd ca71 493e 4b25 9dbe
000002d0: 9f0a c0bd 256f 1dbf c92a 75bd 16c9 a2be
000002e0: 47f5 e83e 54ef 79be 8dcc 7abe f776 11be
000002f0: 874e 10bf 3cdb 243e 1a53 d8be 5c5b 883e
00000300: 8ee4 d13d d34f bbbd 4716 bd3d 3279 19bf
00000310: 7a2b 61be a6da 37be 6ac1 fd3d 8341 dcbe
00000320: 8693 383d 3b29 2fbf 14db 70bf 5350 41bd
00000330: 8b59 cfbe 0028 58bd e55c c13c ee34 25bf
00000340: 7415 d93d 65c5 2dbf 68cb 5fbe 640a 0ebf
00000350: 4500 4b3d 0225 e8bd 579d 623e 9181 97be
00000360: b297 8c3e 4c45 0cbf b5e3 cdbe f258 d1be
00000370: 6c87 afbd 1da5 13bf 27da d9be d0d4 9abd
00000380: b067 80bf 6e05 763d 5cc1 b4be 6236 78bb
00000390: 39f6 adbd e097 30bf e527 43bf 2b9e 18bf
000003a0: bf92 72bd 86c4 0cbf a395 663d b8b0 c8be
000003b0: 07e9 9fbe 41fc f6be 69b6 18bf 783b 923e
000003c0: 1fc6 ebbd a9c0 d9bd 77cb acbe a629 18bf
000003d0: 7693 8bbe 2a0b e2bd d3fe d7be 3592 cbbe
000003e0: ae58 08ba f275 f2be 7243 943e 2d8b 5c3e
000003f0: cd9b f3bd 7040 adbd c473 2ebc a1ab 24bf
-0.08508277 0.32779354 -0.20511776 -0.7358517 -0.35281143 0.13267316 -0.4172549 -0.16210009
-0.30738848 -0.64817697 -0.4307503 -0.32397935 0.0070132767 -0.94467413 -1.2285545 -0.5691838
0.077685505 0.14784653 -0.5655659 0.094091415 0.160271 -0.22986247 -0.33740816 -0.11012927
-0.47050908 0.009765715 -0.21874024 -0.115035616 -0.13703099 -0.42213312 -0.0041169454 -0.14489183
-0.7536843 -0.07949005 -0.13379617 -0.4394875 -0.2624485 -0.34846827 -0.10246196 -0.9759432
-1.219601 0.078466065 -0.2456235 -0.6335726 -0.51951057 -0.5282631 -0.6806273 -0.26657304
0.18604474 -0.29105815 0.066361494 0.16022605 -0.32877645 -0.46726406 0.0022482974 0.042900514
0.31362435 -0.5461489 0.23035252 0.05941086 -1.186485 -0.17046489 -0.2281269 -1.0253963
0.3148707 0.057261348 0.12272498 0.11676773 -0.0009850515 0.45888412 -0.685145 -0.23784412
-0.709508 -0.35050896 -0.52658105 0.03325814 -0.17973141 -0.031501595 -0.057803787 0.24000405
-0.53683126 -0.23590349 -0.026670517 -0.07621319 -0.104168236 -0.14163052 -0.13827525 0.014312961
-0.5077149 -0.79134804 -0.047490545 -0.15778749 -0.020204496 -0.888444 -0.67200863 -0.67952996
-0.06111995 -0.05542859 0.12567344 -0.53205484 0.14145952 -0.18839686 -0.3591944 -0.14302176
0.048191544 0.35904574 -0.6113168 -0.5800382 -0.92141 -0.1950154 0.28823754 -0.101679936
-0.42715138 -0.7814799 -0.41020358 0.065286905 -0.73792034 -0.61378056 -0.1285095 -0.02726533
-0.26419577 -0.1502901 -0.15860306 -0.43325284 -0.6435703 0.28878832 -0.66235876 -0.26755205
-0.2948813 -0.6549035 -0.47402954 -0.5727928 -0.11877029 -0.011980301 -0.15482853 -0.084511764
0.08848731 -0.3268069 0.24751236 -0.39601788 -0.2185323 -0.1666658 -0.0072735464 0.1629861
-0.73041207 -0.27208242 0.15671219 -0.50486654 -0.18977813 0.111318976 -0.827086 -0.10250399
-0.0030594817 -0.19734229 -0.0520801 0.12508878 -0.3169461 -0.29022658 0.0041338154 -0.1700326
-0.015952136 0.35562062 -0.38244468 -0.050183248 -0.28627062 -0.03004182 -0.15891248 -0.7815293
-0.82271326 -0.080433026 -0.17379084 -0.01979947 -0.47021267 0.055970136 -0.14116132 -0.22195858
-0.25905776 -0.03800487 0.19672313 -0.30692515 -0.09377026 -0.6149772 -0.059855256 -0.3179404
0.45499632 -0.24407703 -0.24492092 -0.14205538 -0.56369823 0.16099256 -0.422509 0.26632202
0.102486715 -0.09146085 0.09232765 -0.59950554 -0.21989241 -0.17954502 0.123904064 -0.4301873
0.045062564 -0.6842229 -0.94084287 -0.047195744 -0.40498003 -0.052772522 0.023603866 -0.6453389
0.10599795 -0.67879325 -0.21854937 -0.55484605 0.049560804 -0.11335184 0.22130333 -0.2959104
0.27459484 -0.5479324 -0.4021279 -0.40888172 -0.085707515 -0.5767382 -0.4254925 -0.07560122
-1.0031643 0.060063772 -0.35303771 -0.0037874212 -0.08494229 -0.6898174 -0.7623275 -0.59616345
-0.05922198 -0.5498737 0.05629505 -0.39197326 -0.31232473 -0.4823933 -0.59653336 0.28560996
-0.11512398 -0.1063245 -0.3374898 -0.5943855 -0.2726094 -0.110372856 -0.42186603 -0.39759985
-0.00052012026 -0.4735561 0.28957707 0.21537466 -0.11894951 -0.08459556 -0.010647718 -0.64324385

l2.weight f4 [300, 400]
00000000: 271d f23c 65cc 1f3e 848f 453d 9c53 04c0
00000010: 963e b8be da53 bc3d ed77 d0bf 4001 473d
00000020: 0dc2 05be 8c1f 04bf ef50 023f 25c1 fcbe
00000030: 9ccc 9bbb 1078 a4bf b2a6 aebf 78b5 05bf
00000040: 773e eabc 2046 00be f3e3 13be d7fb 3f3f
00000050: 9201 b1be 7220 b6bc b0b4 493c 0fb0 19bf
00000060: 5dbe 083e 1b91 acbd 09dc 9bbe 95ab 51bc
00000070: 0776 3ebd d03b 57bd e1df 523d 7d3c 9e3b
00000080: dcb5 2bbf df20 a23d 581f b63e 5bfa c9be
00000090: 0aaa 4d3d 418b 643e 7c87 ccbd 18df 193f
000000a0: fb95 a0bf a57e cebe 8285 543f 8c39 17c0
000000b0: fbbc c5bf 0034 edb9 4db6 a9be ff1f 163d
000000c0: d511 6fbe ff90 b5be 481c a13d 47d5 44bc
000000d0: 065a 533d 1e15 0cc0 d748 593e 2876 94bc
000000e0: 00bd ed3c df44 49bf 6205 b03e 03a7 083e
000000f0: b173 6f3f 3e2b b53d 7972 693e 29d7 d03e
00000100: ee9f 653e 5131 26be 98f6 49bf bd7d 79be
00000110: caa2 1a3e 64fe 36bc f1c8 9e3e 2f1e b33d
00000120: 1bd2 10c0 8df5 8bbf 0df9 cabf 2bfb 01bf
00000130: 7d84 803e d0e9 213b bec1 a6be f07c 63b9
00000140: c0bc 963d 42df 84be 4e85 95bc 0cd0 da3d
00000150: f516 c5be 8f33 1d3f 132c c8bd 2f7d cf3d
00000160: 5c39 b8bf 08bc 0d3f 7151 98bd 1f82 0bbc
00000170: 7ac2 2dbf 038e 93bf 74a6 f73e a90b 313f
00000180: 5b7d 0b3f 9255 863e 0cf1 babe 167f b9be
00000190: cee0 a43e 2874 36bf 0d46 fe3d a6c9 8ebe
000001a0: d897 dcbd 1b13 28be 71a0 0c3f 321a 30be
000001b0: 7f58 b13e 79ea febd 2a9b 0cbe ee84 e43d
000001c0: c3aa 073e 5cfa c4bf 63cc d43b 50de 5d3c
000001d0: 667d 8c3d 377a de3e 4b43 393e ae75 c0bd
000001e0: c97d 93bd 3e17 9a3d 4a3f 57bf 27ec 84bf
000001f0: 3258 a5bc 2a03 5f3d 622f 903e a132 f9b9
00000200: 7734 313e 8373 333e 63ef c0bf 7166 5abf
00000210: 7b45 64be 263b 5c3d 0bdf b23d 660c 8c3d
00000220: c3c4 553e f150 123e 64f1 8b3c f5d6 f83d
00000230: 329a cdbe 2d5d 0ebe 1378 833f c418 9cbe
00000240: 1791 0ac0 07af dabe b514 84be 2c6c d8bf
00000250: bb65 db3e e965 38bd bc8a a53e a102 033c
00000260: c54c c73d ba42 1a3e f674 5f3e adc6 25be
00000270: 50ae 93bf 5b8b b7bc 551e 33bf 1602 58bd
00000280: fd4f 0a3f ec48 87bc 5dd4 e63d 06db e13e
00000290: 79fc 803e f381 9abe 73b7 99bc 8d51 fc3e
000002a0: 2de2 b43e e469 b5bd e544 cc3e df15 94bb
000002b0: 2ce5 96bf f9d3 2bbf f1a9 1dbf 6c60 373e
000002c0: b91b 0fbf 9077 e2be 6f09 23bf c02b febf
000002d0: 4c72 14bf b25b 06bf 7f16 103f 300e 83bf
000002e0: b117 78bd 6e6b d53c 8e65 0ebf 8c34 c3bd
000002f0: 7144 c43e 3e29 923d 1f84 53bc ce0a 123c
00000300: 4cb5 a3bd 0ccf 52be 8088 fa3d 4496 98bf
00000310: 7337 253d 2a19 64bf 9e56 f5bc 6e12 0c3e
00000320: a5eb e53e d9b1 46bf 87f1 c3bf bf28 2ebe
00000330: f863 963e be74 c03d cfd3 48bd 7241 6cbf
00000340: a934 89be 5373 ac3e 948d b1bc c8ec d6be
00000350: 4fae 2fbe 75f7 c0bd fb13 f5bd 21e2 bdbd
00000360: 634a 703c d2c5 aa3e 5d9e 21c0 fe57 803e
00000370: 0044 fabd 414b b0bf 06d2 b13e 06e0 7bbe
00000380: 956c 853e 9171 52be 2f64 903e 9493 32bf
00000390: 0155 873c 0df7 93bf 19b6 363f 61e1 b9bf
000003a0: e9fb afbe 4e6c 303f b835 1f3f 183f 2b3e
000003b0: e1eb ae3e 2ef7 1fbe 3eaf 9f3e 86d1 803d
000003c0: e76c 7cbe 9fb9 8ebf 3583 b9be 3ce9 d8bf
000003d0: 30c5 9abd dedb 31be 8aba cbbf 31df 4e3d
000003e0: 0284 3d3e 16ab 64bf db66 e13c 5ab9 57be
000003f0: 807d ce3d 8f08 abbc 61f0 5d3e ed90 c1bf
0.029554917 0.15605314 0.04823257 -2.067603 -0.3598525 0.09195681 -1.6286598 0.048585176
-0.13062306 -0.51610637 0.50904745 -0.49366108 -0.004754616 -1.284914 -1.3644621 -0.52230024
-0.028594239 -0.1252675 -0.14442424 0.7499365 -0.3457151 -0.022232268 0.012311146 -0.6003427
0.13353868 -0.08426114 -0.3044131 -0.012797256 -0.04649928 -0.052547276 0.05148304 0.004828988
-0.6707437 0.07916426 0.35570788 -0.3944882 0.05021099 0.22318746 -0.09986779 0.6010604
-1.254577 -0.40330997 0.83016217 -2.3628874 -1.5448297 -0.00045242906 -0.33146897 0.036651608
-0.23346646 -0.35462186 0.07866722 -0.01201374 0.051599525 -2.188789 0.21219192 -0.018122748
0.029020786 -0.78620714 0.34379107 0.1334496 0.93535906 0.088461384 0.22797574 0.40789154
0.2242429 -0.1622975 -0.788919 -0.24364372 0.15101162 -0.01116905 0.3101268 0.087459914
-2.2628238 -1.0934311 -1.5857254 -0.50773877 0.2510108 0.0024706014 -0.3256969 -0.0002169495
0.0736022 -0.25951582 -0.018252041 0.10684213 -0.38494077 0.614068 -0.097740315 0.10131299
-1.4392505 0.5536504 -0.07437409 -0.00851491 -0.6787487 -1.1527714 0.4836918 0.69158417
0.5448815 0.2623716 -0.3651203 -0.3622977 0.32202762 -0.7127099 0.12415705 -0.2788822
-0.107711494 -0.16413538 0.54932314 -0.17197493 0.3463783 -0.12447066 -0.13731065 0.11158167
0.13248734 -1.5388904 0.0064940914 0.013541773 0.06859855 0.43452618 0.18092076 -0.093974456
-0.07201726 0.07523964 -0.84080946 -1.0384568 -0.020183656 0.054446377 0.2816115 -0.00047530702
0.1730517 0.17524533 -1.5073055 -0.85312563 -0.2229213 0.053767346 0.08733948 0.06838302
0.2087584 0.14288689 0.017082877 0.12150375 -0.40156704 -0.13902731 1.0271019 -0.30487645
-2.1651056 -0.4271166 -0.25797048 -1.6908011 0.42851052 -0.045019064 0.32332408 0.007996232
0.097314395 0.15064517 0.21821961 -0.1618907 -1.1537571 -0.022405317 -0.6996816 -0.052736364
0.540283 -0.016514264 0.11270974 0.44112414 0.2519262 -0.30177268 -0.018764233 0.49280968
0.35328808 -0.08858088 0.39896312 -0.004519209 -1.1788688 -0.6712032 -0.61587435 0.17907876
-0.55901676 -0.44231844 -0.6368627 -1.9857101 -0.57986903 -0.52483666 0.56284326 -1.0238705
-0.06056947 0.026052203 -0.5562371 -0.09531507 0.38333467 0.071367726 -0.012909918 0.008913709
-0.07993564 -0.20586795 0.122330666 -1.1920857 0.040336084 -0.891009 -0.029948529 0.13678905
0.44906345 -0.77615124 -1.5308083 -0.17007731 0.29373145 0.09397267 -0.04903012 -0.9228736
-0.2679799 0.33681735 -0.021673955 -0.41977525 -0.17156337 -0.09422199 -0.119667016 -0.09271646
0.014666173 0.3335405 -2.5252907 0.25067133 -0.12220001 -1.3772966 0.34730548 -0.24597177
0.26059404 -0.20551135 0.28201434 -0.69756436 0.016520025 -1.1559769 0.7137161 -1.4521905
-0.3437188 0.6891526 0.62191343 0.16723287 0.34164336 -0.15621635 0.31188387 0.062899634
-0.24650918 -1.1150397 -0.36232916 -1.6946177 -0.07557142 -0.17369029 -1.5916302 0.05050582
0.18507388 -0.89323556 0.027514866 -0.210668 0.10082531 -0.020878104 0.21673729 -1.5122353

l2.bias f4 [300]
00000000: f62d 75bd 747d 563d dd62 093c cbd7 9dbd
00000010: 7e7b 64bd 234d 7cbc 5ac0 023d 9732 58bd
00000020: 0433 30bd 6db8 cfba 3469 45bd 5adb e33c
00000030: d9a4 ef3c 0d2b 683c 7903 1abc 9a1c cc3c
00000040: 7e4a 15bd 84c4 00be d06f 163d 8a1d 83bb
00000050: c1ec e3bc 5886 b53c 1f0f b43c 47e2 83bd
00000060: 23db b8bd e75c 263d b1cf 44be 518f 5abd
00000070: 48f5 11bd 9e93 0bba fa1f 393e 290c d3bb
00000080: 1ea9 243d cb32 67bd b013 78bd 8464 a3bd
00000090: 7dae 90bd c035 e3bd d64d d7bc 123d 043d
000000a0: 7899 0ebe 7866 d8bc 43f3 c2bc 708c 3ebd
000000b0: 14f3 503c effd 28bd 9487 04bd 9e74 c93d
000000c0: 3682 dcbc 5885 44bc 0387 a53b 39d0 c33d
000000d0: 9dc8 93bd 5c8b 20bd 836c 44bd 1c57 363c
000000e0: e1f6 113d c366 7fbc 5404 483c a383 a23d
000000f0: f2c7 e3bc 4921 5ebd 19d6 183d 492a 91bd
00000100: 0f7c b13d 78b2 b2bd d5f1 20be 2d41 1abd
00000110: ab61 adbd d8d3 b7bd 1c16 673d 5e78 7f39
00000120: 3086 47bd 68cd 013b 4b08 233e 34ce 713b
00000130: db75 9c3c 27d4 6b3d 331e 12bf c59a 873c
00000140: 419b 99bc 94c2 a73d 8e6a f33b b03c d03c
00000150: c85e 1cbd fbcd a53c a7b5 82bc a214 aa3c
00000160: de9e b7bd 6547 2fbe 9a60 8ebd 8990 39bd
00000170: e65a b5bd 9711 a4bc 48fb bcbd 5f95 03bd
00000180: 9137 0abd b93c b3bd 8282 0abd 7a34 143d
00000190: fcd2 30bd e763 b33d 7432 bebd d5b8 e9bd
000001a0: c053 3dbd c267 58bc f1e9 7dbd f590 31bd
000001b0: 66c3 163d f305 fd3a 5631 f03b 6d1d 5ebd
000001c0: f6b8 e2bc bdc2 bebc 370f 94b9 7c30 2abc
000001d0: 6101 dc3b 98ab 1d3d ea4a 113c 7597 2d3d
000001e0: 9ab0 053e 8643 cb3c a1f9 e6bc 8eb8 d3bc
000001f0: d4c1 a3bb 4ac6 5fbd 479d d4bd fe3e c83c
00000200: 3434 8cbd e4c0 35bd 73e0 b23d 3f08 c33c
00000210: 9280 25bc 80a4 a7bc 5bbd 87bb e564 3cbe
00000220: bebe 13bd 743b 10bd 84e6 eebc 02e3 0cbd
00000230: 53b3 303b 388f 91bc 02c1 9f3b 4c92 f93c
00000240: 2010 a3bd 42b6 c13b 2e1d 48bd a5bf 42bd
00000250: 0a16 82bc b87a 883c 728c 1fbd 4532 1ebd
00000260: 61ee 7e3b cffe e8bc 7373 25bc fc6a 0cbd
00000270: ebec 3a3c ba30 953b ebc3 11bc a285 bd3c
00000280: ba11 1fbd cfe5 2fbd 9bb6 c93c 9d0e 7abc
00000290: 0078 f53b 117b 313c 5079 b0bb e62d c43c
000002a0: 5d52 4cbd 4b73 31bd aed1 9abd 836a c3bb
000002b0: 8b9d 20bd 9a26 1b3d 4f75 053d 06c0 343b
000002c0: d4ed 893c bf98 ae3d ab78 a0bc d946 8bbd
000002d0: 9f1b 0abc 59b0 afbd cb95 5fbd 6f64 1cbd
000002e0: f587 16be 6db1 d93d f65b 5abd 0804 41bc
000002f0: 1737 f7bc aca0 963b a8e0 3dbc 52af 8dbc
00000300: fb53 06bd 43a0 b9bc f96d 61bd eca9 083d
00000310: 38f8 96bc 7a49 96bd 0237 543c 5a05 553d
00000320: e246 ed3c cde4 87bd 107f 53bd a7ce 29bb
00000330: 83c1 ffbe a234 dabc fb42 cb3d 6a79 18bd
00000340: ab41 683c dba0 41bc b31f 3cbd 7128 2bbd
00000350: 391a ec3d 7470 9abc a938 39bc cced 283d
00000360: afbb abbc 18a4 3ebe 5840 83bb a7be 80bd
00000370: 6993 8dbb a0ba 00bf 2638 043e 70cb 783b
00000380: f3d8 debb e16e 823c afa7 89bd 50e3 843c
00000390: 4983 6fbd 5142 85bd 0101 7dbc 9d9b f5bc
000003a0: 215b 033d 1a58 19bd 42a6 343c 4e18 7dbb
000003b0: 8ac6 27bc 2215 92bd 0f72 bebc ea98 7fbc
000003c0: a875 8bbc b2fd 1e3d 1fa2 0e3d 753d 45bd
000003d0: f668 62bd 9f1f 8ebd 17cf e6bc f8e3 99bd
000003e0: 091f 2e3e 29dc c33c 9d81 783d ff27 30bd
000003f0: 621b 05bd dfa0 1ebd 2416 f63c 5527 1ebd
-0.059858285 0.052365735 0.008385387 -0.07707175 -0.055781834 -0.01539925 0.031921722 -0.05278262
-0.043017402 -0.001584781 -0.048196033 0.027814556 0.02925341 0.01417042 -0.009400242 0.024915982
-0.036447994 -0.12574965 0.036727726 -0.004001324 -0.027822854 0.022158787 0.021979867 -0.06439643
-0.09026172 0.040615942 -0.19219853 -0.053359333 -0.03563431 -0.0005324426 0.18078604 -0.0064406586
0.040200345 -0.056444924 -0.06056565 -0.07978156 -0.07064531 -0.110942364 -0.026282232 0.032284804
-0.13925731 -0.026416048 -0.023797637 -0.04652065 0.012753267 -0.041257795 -0.03235586 0.09836696
-0.026917558 -0.011994682 0.005051495 0.095612 -0.07215998 -0.039195403 -0.047955047 0.011129167
0.035635833 -0.015588465 0.012208063 0.07935264 -0.027805302 -0.054230962 0.037313554 -0.070881434
0.086662404 -0.087254465 -0.15717252 -0.037659813 -0.08465894 -0.08975953 0.05641757 0.00024363535
-0.048711956 0.001980627 0.15921132 0.0036896588 0.019099167 0.05757537 -0.5707733 0.016553292
-0.018750789 0.0819141 0.007428474 0.025419563 -0.038176328 0.02023982 -0.01595576 0.020761792
-0.089658484 -0.17117079 -0.06952019 -0.045303855 -0.08855228 -0.020027919 -0.092276156 -0.032124873
-0.0337444 -0.08751816 -0.03381587 0.036182858 -0.04316996 0.08759289 -0.09286967 -0.11412207
-0.04622245 -0.013208332 -0.061990682 -0.043351132 0.03680744 0.0019304141 0.0073301 -0.05422728
-0.027676087 -0.023286218 -0.00028240096 -0.010387536 0.0067140316 0.038493723 0.008867959 0.04238077
0.1305565 0.024812471 -0.028195204 -0.025844838 -0.0049974713 -0.054632463 -0.10381561 0.0244441
-0.068458945 -0.044373408 0.087342165 0.023807643 -0.010101454 -0.020464182 -0.004142446 -0.18397863
-0.036070578 -0.03521295 -0.029162653 -0.03439618 0.0026962354 -0.017768487 0.0048753032 0.030465268
-0.0796206 0.0059116194 -0.048855953 -0.047546048 -0.01587965 0.01666008 -0.0389523 -0.03862216
0.003889941 -0.028441815 -0.010098326 -0.034281716 0.011409025 0.004552928 -0.008896808 0.02313501
-0.038835265 -0.042943772 0.024623206 -0.015262273 0.0074911118 0.010832564 -0.0053855553 0.023947667
-0.049883235 -0.043322843 -0.075595245 -0.005963625 -0.039212745 0.03787861 0.032582577 0.0027580275
0.016837038 0.08525228 -0.019588789 -0.068006225 -0.008429437 -0.085785575 -0.054586213 -0.03818172
-0.14700301 0.106295444 -0.053310357 -0.011780746 -0.030177636 0.0045967903 -0.011589207 -0.017295513
-0.032794934 -0.022659427 -0.05503652 0.033365175 -0.018428907 -0.07338233 0.012952568 0.052007057
0.028964464 -0.06635437 -0.051634848 -0.0025910528 -0.49952325 -0.026636425 0.09924885 -0.037225164
0.014175813 -0.011818136 -0.04592867 -0.041786615 0.11528439 -0.01885245 -0.011305013 0.041242406
-0.020963518 -0.18617284 -0.004005473 -0.06286364 -0.004320551 -0.5028477 0.12912044 0.0037963055
-0.0068007647 0.015922012 -0.06721436 0.016221672 -0.058474813 -0.065067895 -0.015442134 -0.029981429
0.03206933 -0.037437536 0.011025967 -0.0038619223 -0.0102402065 -0.07132937 -0.023247747 -0.015600422
-0.017023876 0.03881616 0.03482258 -0.048154313 -0.05527588 -0.06939625 -0.02817492 -0.07514185
0.17004026 0.023908691 0.060670484 -0.043006893 -0.032496817 -0.038727637 0.030039854 -0.03861173

l3.weight f4 [1, 300]
00000000: aec2 f93d 89ab bdbf 1ea3 fa3c b168 bc3b
00000010: d723 10bd a9f4 2dbc 4e44 cd3b a607 613c
00000020: 93b3 11bd 942b 563b d8da b4bb 82ee 98bc
00000030: a9cd 55bc ea0a 743c 25a9 b8bc c802 d8ba
00000040: 0fac b53b ddb3 3a3d 2491 023d ee84 25c0
00000050: ba8e 45bb 921b 263d 8fed b73c 611f efbc
00000060: b1f7 933c da1c 0a3d 0773 1dbe 182d 2ebc
00000070: 23d0 08bf 95ce 52bd 5f37 37be e2a0 cc3c
00000080: 7f2d a6bc d4a1 b43b 5dec a13c c0f6 08bd
00000090: 14ec 88ba acea b33c 353c 5cbb b3c4 dd3c
000000a0: 6458 14bc 0d23 1dbf 6b98 7bbd 4dcd 93be
000000b0: 7cac 9eb9 2ff3 2f3d baf1 0a3b 27ce 80be
000000c0: 4d6e 51bf 4137 86ba 50c4 15bd c1a6 ae3f
000000d0: fa49 05bc 8c8b 0b3c ef95 06bd 7f78 803c
000000e0: 5b7b 313d 40b9 88be ae1f d0bc 5186 4e3f
000000f0: 1e6c ab3c c063 02bc 853b b53c 3c11 59bc
00000100: 678c af3f c99a 79bc 1f11 83bd f635 783c
00000110: 2a1e 283d f63f 9cbe f065 07bf 3cbf 323d
00000120: 9c6c d9ba 7cc2 b3bb 5d84 2fbf 057d b13c
00000130: 9707 323d c903 023f 3e22 a1be 9d1d 343b
00000140: 9728 0ab9 de44 543f 00e4 833a 3290 0a3d
00000150: 9d55 803c 28a3 d6bc 859e ab3b 6f88 2d3d
00000160: eda3 ed3c c51e ecbe c45c c63c c01a 96bc
00000170: 3c49 0240 2d6c c43b 4726 d2bc 5bc4 c43f
00000180: fabe 96bb 736a 13bc d427 823b 52d2 d83c
00000190: e54d 023d 66fb a83f ecd9 0e3c 0958 49bf
000001a0: 9589 ea3c a19f c7be 56bd 073d 9b23 353b
000001b0: 707e d73c 1e6a cfbe 947a d8bb 973c 76bc
000001c0: 6bfe 793c 1ed1 03bc 8368 88be ec77 863c
000001d0: b12b 5d39 a351 dbbc 1825 29bd 8a87 3bbc
000001e0: eeec 0fbf 2aff b13c 35f4 943b addb b43b
000001f0: 3967 11be 5044 3abd 7a93 d9bc 0605 4bba
00000200: 253c eabe 4a57 383d c962 f0be db78 e3be
00000210: e7c0 02bf a33c 9dbc 7692 d8bd 3d67 693f
00000220: 4e36 eb3b c52d 03bc ecf5 39bc 0708 7cbc
00000230: 97ee e2bc 5dbe 28bd 6894 f63c b4a4 bebf
00000240: e75f af3c 9394 f73c d051 0bbc d74e a0bb
00000250: 714c eaba 13b7 4e3c cebb dd3b 7365 10bd
00000260: 2f54 283d 627a ea3c 6da4 663c d512 58ba
00000270: 5d83 0b3d cd1b 65bc b91e 853b 2111 6dbe
00000280: e589 1bbc 7ba9 30bc b4fb fc3b 3e94 cf3e
00000290: f54a 00c0 35c4 0dbd f42b 9f3c 951c 3dbd
000002a0: 7a7e afbc d570 3fbd 3a8f aa3c 7f76 36ba
000002b0: cd3c cc3c 6deb cabc f81e 103d ec12 6fbb
000002c0: 6e9f 103d 1cb7 06bf 1f4d 61bb 3057 14bd
000002d0: 20ea faba 15b9 af3c 78cb c6bc ea94 58bd
000002e0: 6fbd 61be 80a0 b93e 5763 063a 1e7c 1e3d
000002f0: 4f61 83bc a388 f9bf 70e4 163b 3982 e2bc
00000300: 72eb 17bd 539e 1bbc 8337 263b bbaf 863c
00000310: 981e 153d 2a41 80be 8a92 cebc 8a01 543d
00000320: d939 f5bc d4c0 28bd fd1b f8bc 3dfa 3cbd
00000330: 6fe3 153e cf39 883c 7dc2 ae3f 3da9 873c
00000340: b642 dfbc 8872 00bb 8066 9c3b 8618 72b9
00000350: 4ab9 fcbf d502 8dbc 1361 d03b 408e ac3a
00000360: d446 5dbb 9ce3 7fbb 0da6 8f3a b6a5 4cbd
00000370: 0573 263c cd2f ae3d 57aa 893f 1c3c c7b9
00000380: ee5a ba3c b64b 073d 8893 513c afeb 57be
00000390: 4fd6 0f3c 59ba 37bd dfae 2d3d 0746 d6bc
000003a0: d7bf 30bd 6902 20bd d938 533b 327c a7bc
000003b0: 79b5 053d 9b4e 3b3c 19cb c7bc d2e7 2abc
000003c0: 6cec d7bc 4430 013d c29c 29bb daf5 923b
000003d0: 02db 813b e21b 7abc 1253 24bc 15bb d6be
000003e0: b424 dd3d 43fe 153d 6092 b03f 911b efbe
000003f0: 05a5 76bc 2915 f5bc adee 2fbd b197 b8bb
0.12195335 -1.4817973 0.030595358 0.005749785 -0.03519043 -0.010617414 0.006264246 0.013734734
-0.035571646 0.0032679783 -0.0055192523 -0.018668417 -0.0130495215 0.01489518 -0.022541592 -0.0016480321
0.0055441926 0.045581687 0.031876698 -2.5862384 -0.0030144886 0.040553637 0.022452144 -0.029189767
0.018062444 0.03371892 -0.1537591 -0.010630868 -0.5344259 -0.051466543 -0.17892216 0.024979059
-0.020285366 0.0055124555 0.019766027 -0.033438444 -0.0010446333 0.021962486 -0.0033605222 0.027071333
-0.009054277 -0.6138161 -0.061424654 -0.2886757 -0.0003026462 0.042956527 0.002120121 -0.25157282
-0.8180893 -0.0010239856 -0.03656417 1.3644639 -0.008135313 0.008517157 -0.03285783 0.015682457
0.04333053 -0.26703835 -0.025405731 0.806737 0.020925578 -0.007958353 0.022123108 -0.013248738
1.3714722 -0.015234658 -0.0639975 0.015149584 0.04104439 -0.30517548 -0.5288992 0.043639407
-0.0016588154 -0.005485831 -0.68561345 0.02166606 0.04346427 0.50787026 -0.31471437 0.0027483471
-0.00013175826 0.82917583 0.0010062456 0.03382892 0.015665824 -0.026200846 0.005237403 0.04236644
0.02900883 -0.46117225 0.024214156 -0.018323302 2.0357199 0.005994341 -0.025653018 1.5372423
-0.004600403 -0.008997547 0.003972033 0.026467476 0.031812567 1.3201721 0.008718949 -0.78649956
0.028630057 -0.38988975 0.03313955 0.002763963 0.026305407 -0.40510648 -0.0066064093 -0.015029094
0.015258412 -0.008045463 -0.26642236 0.016414605 0.00021092479 -0.026772326 -0.04129514 -0.011445889
-0.562209 0.021728117 0.0045457133 0.0055193515 -0.14199533 -0.045475304 -0.02655958 -0.0007744584
-0.45749012 0.04500512 -0.46950367 -0.44428143 -0.51075596 -0.019193953 -0.1057481 0.91173154
0.0071781045 -0.008006518 -0.011350136 -0.015382773 -0.02770166 -0.04119717 0.030100062 -1.4894013
0.021408034 0.030222213 -0.008503392 -0.004892211 -0.0017875565 0.0126168905 0.006766773 -0.035253
0.04109591 0.02862281 0.014077288 -0.0008242552 0.034060825 -0.013983679 0.0040625003 -0.23151065
-0.009493326 -0.010782595 0.007720435 0.40542787 -2.004575 -0.034610946 0.019430138 -0.046169836
-0.021422613 -0.046738464 0.020820249 -0.00069604063 0.024931336 -0.024770463 0.035185784 -0.0036479784
0.035308294 -0.5262315 -0.0034378243 -0.03621596 -0.0019143261 0.021450559 -0.024266943 -0.05287639
-0.2204492 0.36255264 0.0005126497 0.038692586 -0.016037611 -1.9494823 0.0023024343 -0.027649986
-0.037089773 -0.009498197 0.0025362677 0.016441217 0.03640613 -0.25049716 -0.02521636 0.05175928
-0.02993481 -0.04119952 -0.030286783 -0.046137083 0.1463754 0.016629128 1.3653103 0.016560191
-0.02725349 -0.0019599516 0.004772961 -0.00023088054 -1.9744046 -0.017213264 0.0063592284 0.0013164952
-0.003376414 -0.0039045578 0.0010959521 -0.04996272 0.010159259 0.08505211 1.0755109 -0.00038001023
0.022748437 0.033031188 0.012791522 -0.21086 0.0087791225 -0.04485545 0.0424031 -0.026156439
-0.043151703 -0.0390648 0.0032229929 -0.020444963 0.03264377 0.011432315 -0.024388837 -0.010431247
-0.026357852 0.03154017 -0.0025880788 0.004484874 0.0039628753 -0.015265437 -0.010029571 -0.41939607
0.10798016 0.036619436 1.379467 -0.4670072 -0.015053992 -0.029917317 -0.04295223 -0.0056333174
