TD3/saves/best_avg_actor.pth (torch, 518693 bytes, 6 tensors)

l1.weight f4 [400, 18]
0	0x3f0b9821	0.54529005
1	0xbf3f16d2	-0.74644196
2	0xbf996120	-1.1982765
3	0xbe8c5399	-0.2740753
4	0x3ee4fd4a	0.44724494
5	0xbd5bc10d	-0.053650904
6	0xbfea92de	-1.832607
7	0x3fce8ebf	1.6137313
8	0xc05b8a01	-3.430298
9	0xbfe8c14e	-1.8183992
10	0x3eefded2	0.46849686
11	0xbf25bd92	-0.64742386
12	0x3e536ea6	0.20647678
13	0x3fd0a022	1.6298869
14	0x3e4fdf74	0.20300084
15	0x3dc40a79	0.0957231
16	0xbe96f0aa	-0.29480487
17	0x3f63e5ca	0.89022505
18	0x3fa55b35	1.2918459
19	0x3fbe4197	1.4863766
20	0xbeef0556	-0.46683758
21	0xbf1dd3c1	-0.61651236
22	0xbf16c15d	-0.588888
23	0x3e7d4d30	0.24736476
24	0xbfdb12fc	-1.7115169
25	0xbf79c080	-0.97559357
26	0x3f9aa86b	1.2082647
27	0x3e94d1af	0.29066226
28	0x3f07638b	0.52886266
29	0x3db2f880	0.08738804
30	0xbf8da9a9	-1.1067401
31	0xbf37203a	-0.7153355
32	0xbea06013	-0.313233
33	0x3e155c00	0.14585876
34	0x3fc84667	1.5646485
35	0xbe95da35	-0.2926804
36	0x3f45c787	0.7725758
37	0xc074ab09	-3.8229392
38	0x3f0f9e7c	0.561012
39	0xbdd8da7a	-0.10588546
40	0xbeb5ee4c	-0.3553337
41	0xbedb9ed9	-0.4289463
42	0xbf8d2966	-1.1028259
43	0xbf7e7251	-0.99393183
44	0x3f90272c	1.1261954
45	0x3f407b1b	0.75187844
46	0xbea24dfb	-0.3170012
47	0xbf3f9035	-0.7482942
48	0x3fcd0548	1.6017237
49	0xbf81aa11	-1.0130025
50	0x3edc0704	0.42974102
51	0xbe761f1f	-0.2403531
52	0xbf2fc3e6	-0.6865829
53	0x3ee92e44	0.4554311
54	0x400cb0da	2.1982942
55	0x3ec69bbd	0.38790694
56	0xbd8924de	-0.06696485
57	0xbf550276	-0.8320688
58	0xbe6a4831	-0.22879101
59	0xbf2011d8	-0.6252723
60	0xc02b32fa	-2.6749864
61	0xbef0067b	-0.46879944
62	0xbf3e7ac4	-0.74406075
63	0xbe5bf6b6	-0.21480832
64	0x3f71ad32	0.944049
65	0x3f220cc8	0.6330075
66	0xbd707902	-0.058709152
67	0x3d01369d	0.031546224
68	0x3ddca14d	0.10772953
69	0x3e1d7d1f	0.15379761
70	0x3c93bc1a	0.01803403
71	0xbfa37bef	-1.2772197
72	0x3fe35005	1.7758795
73	0x3eddedba	0.43345433
74	0x3e128015	0.14306672
75	0x3f3de059	0.7417045
76	0x3e2252b8	0.15851867
77	0x3ed91a82	0.42403036
78	0xbfd23f5b	-1.6425585
79	0x3dff03cd	0.12451897
80	0x3f27d0b7	0.6555285
81	0xbf5a1afa	-0.8519741
82	0xbe28341b	-0.16426127
83	0xbe96f710	-0.2948537
84	0x3fd8c4f3	1.6935104
85	0xbf14b2cd	-0.5808533
86	0x3e290871	0.16507126
87	0x3e4ca6e1	0.19985534
88	0xbf436184	-0.7632067
89	0xbf4a08ba	-0.78919566
90	0x3e23e862	0.16006616
91	0xbf36f03e	-0.7146033
92	0x3fe71174	1.8052201
93	0x3e5c8f64	0.21539074
94	0x3ecc0132	0.39844662
95	0xbf50b711	-0.8152934
96	0xc00736e2	-2.1127248
97	0x3fef9c61	1.8719598
98	0x3e58477a	0.21121016
99	0xbddc6e73	-0.10763254
100	0xbf01cab5	-0.5069993
101	0x3eca9e06	0.39573687
102	0x3f0cf9b8	0.5506854
103	0xbf051330	-0.519824
104	0x3eda2fc1	0.42614558
105	0xbed9f06b	-0.42566237
106	0xbfa5a8ef	-1.294218
107	0xbf5eea1f	-0.8707599
108	0x3f0df3cc	0.5545013
109	0x3f084ca4	0.53241944
110	0xbf8786f1	-1.0588056
111	0xbfd5894c	-1.6682525
112	0xbf67c12f	-0.9052915
113	0x3f00b7b2	0.50280297
114	0xc016ef1c	-2.358344
115	0xbe6c614e	-0.23083994
116	0x3f5aa66c	0.8541019
117	0x3e8f0c9d	0.2793931
118	0x3e65d231	0.22443463
119	0xbf67e3c3	-0.9058191
120	0x3d10eda7	0.035382893
121	0xbfc2b381	-1.521103
122	0x3e0caf24	0.13738686
123	0x3a58ad3e	0.0008265561
124	0xbc0e1adf	-0.008673399
125	0xbfa36fe9	-1.2768527
126	0x4044c5c3	3.0745704
127	0xbdcc1711	-0.09965337
128	0xbfb21241	-1.3911821
129	0xbe82e9ee	-0.255691
130	0xbe9dd542	-0.30826765
131	0xbebda766	-0.37041777
132	0xbfa116e3	-1.258511
133	0x3f7703ac	0.9648998
134	0x3e767c5e	0.2407088
135	0x3e9cfe6f	0.30662867
136	0x3e0e9e12	0.13927487
137	0x3ef7386c	0.48285234
138	0xbe4c134d	-0.19929238
139	0x3e9533ce	0.29141086
140	0xbecadcef	-0.39621684
141	0xbf459b17	-0.77189773
142	0xbe5e31a2	-0.21698621
143	0xbf60b0b3	-0.8776962
144	0x3f95126a	1.1646245
145	0x3ff11b2a	1.8836415
146	0x3faba469	1.3409549
147	0x3f1f695b	0.62270135
148	0xbf693e44	-0.91110635
149	0x3f020d4f	0.5080156
150	0xbfb11bc2	-1.3836596
151	0xbf75f8a2	-0.9608251
152	0xbf8b6113	-1.0889
153	0x3e977e08	0.29588342
154	0xbeff4831	-0.49859765
155	0x3d258c65	0.040417094
156	0x3f33d76d	0.7025059
157	0xbe8a4eaf	-0.27013156
158	0xbeabfe38	-0.3359239
159	0x3f09a223	0.53763026
160	0xbf1c1e4d	-0.60983735
161	0xbf13c466	-0.57721555
162	0x400bc960	2.184166
163	0xbea49df5	-0.32151762
164	0xbf107485	-0.56427795
165	0x3f676a9f	0.90397066
166	0xbd0a5dbf	-0.03378081
167	0xbac9f6ae	-0.0015408599
168	0xbe9a7091	-0.30164006
169	0x3f165fda	0.5874001
170	0xbec21822	-0.37909037
171	0x3e2e3e79	0.17016019
172	0x3dd9e0f0	0.106386065
173	0x3e2bb3a1	0.16767742
174	0xbf8d52b2	-1.1040862
175	0x3f93eaec	1.1556067
176	0x3e42cc6b	0.19023292
177	0x3e745514	0.2386058
178	0xbf7d9ae4	-0.9906447
179	0xbf50721d	-0.81424123
180	0xc0407b98	-3.0075436
181	0xc0828e19	-4.079846
182	0x3f9e253a	1.2355111
183	0xbdc35229	-0.09537155
184	0xbf12f0db	-0.57398766
185	0x3e80d84b	0.25165018
186	0x3f77f300	0.96855164
187	0x3f4a1e48	0.78952456
188	0xbf24a195	-0.64309055
189	0x3f0ab2d4	0.5417912
190	0xbe946ff4	-0.28991663
191	0xbdcdd29e	-0.10049938
192	0x3f4d07cc	0.8009002
193	0x3f35fef8	0.71092176
194	0xbe01df6b	-0.12682883
195	0xbdae33b0	-0.08505952
196	0xbd91a5d1	-0.07111705
197	0x3f187c57	0.5956473
198	0x3f89819b	1.0742677
199	0x3ebafd19	0.36521223
200	0xc0436ab3	-3.0533874
201	0xbf327175	-0.6970437
202	0xbe8d313c	-0.27576625
203	0xbc9258f8	-0.01786469
204	0xbf99069a	-1.195514
205	0xbfdf4123	-1.7441753
206	0x3f642c58	0.89130163
207	0xbe31ce3d	-0.1736383
208	0xbd889739	-0.066694684
209	0x3f46e957	0.776998
210	0xbe7a2521	-0.24428226
211	0x3e92a0a6	0.2863819
212	0x3eef71f8	0.4676664
213	0xbeeb8368	-0.45998693
214	0xbf74e0b3	-0.95655364
215	0xbe93b67e	-0.28850168
216	0x3fa9c10e	1.3262041
217	0xc015c5f3	-2.3402069
218	0xbf4dcce6	-0.80390775
219	0x3f81f5be	1.015312
220	0xbead4969	-0.3384507
221	0xbe93bf56	-0.28856915
222	0xc02d85a4	-2.7112818
223	0xbf22e29c	-0.6362703
224	0xbf503c41	-0.8134194
225	0xbedc4512	-0.43021446
226	0xbf1d51f5	-0.6145318
227	0xbe92044f	-0.28518912
228	0x3f999cb1	1.2000943
229	0x3f96a528	1.1769152
230	0x3e36f1a2	0.17865613
231	0xbc123ebe	-0.008926092
232	0xbf937f22	-1.1523173
233	0xbf661668	-0.8987794
234	0x3de3f9bc	0.111316174
235	0x3f995c19	1.1981231
236	0xbfac587e	-1.3464506
237	0x3f70ffe5	0.94140464
238	0x3f35a60e	0.70956504
239	0x3cac7f98	0.021056935
240	0xc00ee210	-2.2325478
241	0x3eb8c742	0.36089522
242	0x3f0ae4e2	0.542555
243	0xbe6999f9	-0.22812642
244	0xbe944189	-0.2895625
245	0xbf041998	-0.5160155
246	0x3f885a2f	1.0652522
247	0x3f8892cc	1.0669799
248	0xbcc347e6	-0.023837995
249	0xbeb3ab18	-0.35091472
250	0xbf232729	-0.6373163
251	0x3eb48062	0.35254198
252	0x3f317ca9	0.6933084
253	0x3de869df	0.11348318
254	0x3fa768af	1.3078822
255	0x3f3c9aae	0.7367352

l1.bias f4 [400]
0	0xbf084c51	-0.5324145
1	0xbf4a9328	-0.7913079
2	0xbeda256c	-0.42606676
3	0xbfb9a21f	-1.45026
4	0xbfbd2834	-1.4777894
5	0xbf464ff5	-0.77465755
6	0xbf85e383	-1.0460056
7	0xbfa42577	-1.2823933
8	0xbfad1873	-1.3523086
9	0xbfd4048a	-1.6563885
10	0x3f80507b	1.0024561
11	0xbfbe831e	-1.4883764
12	0xbef5b519	-0.4798973
13	0xbf1864d2	-0.5952884
14	0xbfc2f8e3	-1.5232204
15	0xbf97f6e8	-1.1872225
16	0xc0114b7e	-2.2702327
17	0xbe9c991f	-0.30585572
18	0xbfe45198	-1.78374
19	0xbf53684d	-0.82581025
20	0xbfce84c9	-1.6134273
21	0x3fa23765	1.2673155
22	0xbf8ee597	-1.1163815
23	0xbe5f8f5d	-0.21832033
24	0xbfa77425	-1.308232
25	0xbfb852cd	-1.4400269
26	0xbf565a51	-0.8373156
27	0xbfe60fc9	-1.7973567
28	0xbf942c7a	-1.1576073
29	0xbf7deadd	-0.991865
30	0xbfbccb6b	-1.4749578
31	0xbfd0ce81	-1.631302
32	0xbfd0ffbe	-1.6328046
33	0xbf910855	-1.1330668
34	0xbf5e5280	-0.86844635
35	0x3e9a8465	0.30179134
36	0xbf8bed2e	-1.0931756
37	0xbfc84215	-1.5645167
38	0xbfde43b2	-1.7364409
39	0xbfdeb9cc	-1.7400451
40	0xbfab0c1f	-1.3363074
41	0xbfcdb7bc	-1.6071696
42	0xbfc551b4	-1.5415559
43	0xbf66ee72	-0.9020759
44	0xbf16a9a7	-0.5885262
45	0xbfbd9e50	-1.4813938
46	0xbfd3047f	-1.6485747
47	0xbf78c33c	-0.97172904
48	0xbf9ca4a7	-1.2237748
49	0xbfa55f4d	-1.2919708
50	0xbf7abaa1	-0.97941023
51	0xbf4b87f8	-0.79504347
52	0xc01387ba	-2.305159
53	0xbf9f74a3	-1.245747
54	0xc00640e0	-2.0977097
55	0xbfd7e35d	-1.6866261
56	0x3f50ecae	0.81611145
57	0xbf354f54	-0.7082417
58	0xc017c54f	-2.3714178
59	0xbf801033	-1.0004944
60	0xbeb060e5	-0.34448925
61	0x3fbcce99	1.4750549
62	0xbf721391	-0.94561106
63	0xbe7f56b2	-0.24935415
64	0xbf0cee0d	-0.55050737
65	0xbfc10803	-1.508057
66	0x3e8dfde5	0.2773277
67	0xbf59e878	-0.85120344
68	0xbf403f83	-0.7509691
69	0xbf8b1696	-1.0866268
70	0xbf6312a3	-0.8870031
71	0xbf8ef313	-1.116793
72	0xbea61cba	-0.32443792
73	0xbee37dca	-0.44431907
74	0xbf2bcc2d	-0.6710842
75	0xbf821d00	-1.01651
76	0xbff98733	-1.9494385
77	0xbf74723d	-0.95486814
78	0xbf9336f9	-1.1501151
79	0xbfcf48fc	-1.6194148
80	0xbff76445	-1.9327475
81	0xbfa1e1b7	-1.2647008
82	0xbf908d18	-1.1293058
83	0xbf30ef27	-0.6911492
84	0xbdef9902	-0.11699106
85	0xbf983bb9	-1.1893226
86	0xbf4a9ac1	-0.79142386
87	0xbfa5a5f3	-1.2941269
88	0x3f6238c3	0.8836786
89	0xbf86291c	-1.0481296
90	0x3b327742	0.0027231728
91	0xbe5b9cb9	-0.21446504
92	0xbfb609e1	-1.4221765
93	0xbfdfe2d8	-1.7491102
94	0xbf1c3c1f	-0.6102924
95	0xbf11b487	-0.5691609
96	0xbeab6b26	-0.33480185
97	0xbf46e408	-0.776917
98	0xbfd73b44	-1.6814961
99	0x3cdfdb9e	0.027326401
100	0xbfc899dc	-1.5671954
101	0xbe6d09b0	-0.23148227
102	0xbfac564d	-1.3463837
103	0xbff18cf0	-1.8871136
104	0xbf1f34ea	-0.62190115
105	0xbfa2a091	-1.2705251
106	0xbfb27ea0	-1.3944893
107	0xbf2b47a8	-0.66906214
108	0xbf555b1e	-0.8334216
109	0xbfd569cb	-1.667291
110	0xbf2cd574	-0.67513204
111	0xbf7b248e	-0.98102653
112	0xbe4acb74	-0.19804174
113	0xbff83c83	-1.9393467
114	0x3d1de213	0.03854568
115	0xbe1a62e9	-0.15076794
116	0xbe13b141	-0.14423086
117	0xc031768d	-2.7728608
118	0xbf2207c0	-0.63293076
119	0xbf9e8920	-1.2385597
120	0xbf84ef10	-1.0385456
121	0xbda84dfa	-0.08217998
122	0xbf8d9af1	-1.1062909
123	0xbf827dc5	-1.0194632
124	0xbfa46591	-1.2843496
125	0x3f15e2ff	0.58549494
126	0xbeca074f	-0.394587
127	0xbfa2249e	-1.2667425
128	0xbf9e2bd5	-1.2357126
129	0xbf9b14aa	-1.2115681
130	0xbf869d51	-1.0516759
131	0xbfbeca1e	-1.4905431
132	0x3ef58a33	0.47957
133	0xbffaf608	-1.9606333
134	0xbe247a06	-0.16062173
135	0xc003a3ac	-2.0568647
136	0xbf9439f4	-1.1580186
137	0xbf828ce3	-1.0199245
138	0xbf6760c2	-0.90382016
139	0xbf31aaa1	-0.69400984
140	0xbfaa6e53	-1.3314918
141	0xbf34d97f	-0.7064437
142	0xbf049d5f	-0.5180263
143	0x3f9b6391	1.213976
144	0xbf9d9367	-1.2310609
145	0x3e256a78	0.16153896
146	0xbfe28240	-1.7695999
147	0xbfee83ec	-1.8634009
148	0xbf140f7d	-0.57836133
149	0xbf602a5d	-0.8756464
150	0xbfe95913	-1.8230308
151	0xbfe8c063	-1.8183712
152	0xbf80ca4b	-1.0061735
153	0xbefc756d	-0.4930834
154	0xbf849f23	-1.0361065
155	0xbf88f96b	-1.0701116
156	0xbe641fed	-0.22277804
157	0xbfb94224	-1.447331
158	0xbcf46521	-0.029833378
159	0x3f19c875	0.600715
160	0xbfb3c94d	-1.4045807
161	0xbfc10477	-1.5079488
162	0xbf6f4020	-0.9345722
163	0xbff66a71	-1.9251233
164	0xbf45fbd5	-0.7733739
165	0xbf934b1b	-1.1507295
166	0xbfb33538	-1.4000616
167	0xbfb5c23e	-1.4199903
168	0xbf532801	-0.82482916
169	0xbf4ea96d	-0.80727273
170	0xbf554284	-0.8330462
171	0x3ecdba5e	0.4018125
172	0xc01cba1c	-2.4488592
173	0xbeec90de	-0.46204275
174	0xbf982453	-1.1886085
175	0xbf2ba402	-0.6704713
176	0xbfb86dfa	-1.4408562
177	0xbf6a1fc0	-0.91454697
178	0xbf6a133f	-0.9143562
179	0x3eb3c916	0.35114354
180	0xbf22503d	-0.63403684
181	0xbf805236	-1.0025089
182	0xbfdf68ee	-1.7453897
183	0xbf88fa44	-1.0701375
184	0x3ecf1268	0.4044373
185	0xbf3fd46e	-0.74933517
186	0xbfcfa5d0	-1.6222477
187	0xbf1b21aa	-0.6059824
188	0xbf5e09b3	-0.8673355
189	0xbff6708d	-1.9253098
190	0x3e65f863	0.22458033
191	0xbfba9068	-1.4575319
192	0x3ddb94ac	0.10721716
193	0x3f467526	0.77522504
194	0xbc95dd8c	-0.018294118
195	0xbf1e2bb9	-0.61785465
196	0xbf61b98a	-0.88173735
197	0x3f198f62	0.5998441
198	0xbfac9e5a	-1.3485825
199	0xbfb29686	-1.3952186
200	0xbf7cbe61	-0.98727995
201	0xbf0a99d7	-0.5414099
202	0xbfd73f73	-1.6816238
203	0xc029d461	-2.6535876
204	0x3ec68e33	0.38780364
205	0xbf913200	-1.1343384
206	0xbf715b6a	-0.9428011
207	0xbfe7994c	-1.8093657
208	0xbf43f4b9	-0.7654529
209	0xbfd1ec78	-1.640029
210	0xbf8a430f	-1.0801715
211	0xbf9f131a	-1.2427704
212	0xc00b28ea	-2.1743722
213	0x3f074c9b	0.52851266
214	0xbf99203c	-1.1962962
215	0xbf3dd06d	-0.7414616
216	0xbef4bec3	-0.4780179
217	0xbfad7804	-1.3552251
218	0xbf4e537e	-0.8059615
219	0xbe3a84ca	-0.18214718
220	0xbf8423cc	-1.0323424
221	0xbf4a9139	-0.7912784
222	0xbf9cba43	-1.2244343
223	0xbf957f4d	-1.1679474
224	0xbfa3d142	-1.2798235
225	0xbfe7f602	-1.8121951
226	0xbfadb4a1	-1.3570749
227	0xbeb66c5b	-0.35629544
228	0xbf8790c8	-1.0591059
229	0xbffa7ecb	-1.9569944
230	0xbf1ba696	-0.60801065
231	0x3eaeac02	0.34115607
232	0x3f7df163	0.9919645
233	0xbf8d5f61	-1.1044732
234	0xbe8f20c7	-0.27954695
235	0xbfe7fd6f	-1.8124217
236	0xbfa3d3f9	-1.2799064
237	0x3eda38ae	0.42621368
238	0xbfc73c29	-1.5565234
239	0xbe593956	-0.21213278
240	0xbf5c6270	-0.86087704
241	0xbfa6ab20	-1.3020973
242	0xbea23c8a	-0.31686813
243	0xbf8d3467	-1.1031617
244	0xbf8933c0	-1.0718918
245	0xbf848f94	-1.0356317
246	0xbf931349	-1.149026
247	0xbee6d115	-0.45081392
248	0x3ea2b307	0.31777212
249	0xbfeb50a0	-1.838398
250	0xbf390efb	-0.72288483
251	0xbe9d28f2	-0.306953
252	0xc00c7994	-2.1949205
253	0xbff53282	-1.9156039
254	0xbf198a39	-0.59976536
255	0xbf9b1336	-1.2115238

l2.weight f4 [300, 400]
0	0x3d3cadae	0.04606407
1	0xbfa55890	-1.2917652
2	0x3e26f080	0.16302681
3	0x3eb9df7b	0.36303315
4	0x3fce181d	1.6101109
5	0xbf24ea83	-0.64420336
6	0xbdb70f67	-0.08938485
7	0xbfb97442	-1.4488604
8	0xbe9c2824	-0.30499375
9	0xbe532b63	-0.2062202
10	0x3e5eb756	0.21749625
11	0x3e49b372	0.19697359
12	0x3f37266a	0.7154299
13	0xbf67cc6b	-0.9054629
14	0xbf2bbbc0	-0.6708336
15	0x3de377ad	0.11106811
16	0x3ebe9059	0.37219504
17	0x3ffd3d17	1.9784268
18	0xbe43aaf4	-0.19108182
19	0x3f63314e	0.8874711
20	0x3f5b42db	0.8564889
21	0xbe522a29	-0.20523895
22	0x3f462534	0.7740052
23	0xbf2e69c1	-0.6813012
24	0xbdea530d	-0.11441622
25	0x3f6a105c	0.9143121
26	0x3f6e85a3	0.93172663
27	0xbf153817	-0.5828871
28	0xbe997e13	-0.29979
29	0xbe96bf6e	-0.29442924
30	0xbead1f26	-0.33812827
31	0xbe627854	-0.22116214
32	0x3ed420c7	0.41431257
33	0xbf3c5dcb	-0.73580617
34	0xbe129686	-0.14315233
35	0xbe3da415	-0.18519624
36	0x3f4a6cb2	0.79072106
37	0xc0359a26	-2.8375335
38	0xbf103d17	-0.56343216
39	0xbf34c79e	-0.7061709
40	0xbf627bbf	-0.8847007
41	0xbf088b4c	-0.5333755
42	0xbdbb6807	-0.09150701
43	0x3f8c09c6	1.0940483
44	0x3ec72324	0.38893998
45	0xbe9b16ac	-0.30290735
46	0xbf27dfa5	-0.6557563
47	0xbf0b0167	-0.54299015
48	0x3c516c38	0.012782149
49	0xbf651c4f	-0.8949632
50	0x3fa8ecc0	1.319725
51	0xbfaea87a	-1.3645165
52	0xbf0dc265	-0.5537475
53	0xbf3a094f	-0.72670454
54	0x3bbb39f3	0.005713695
55	0xbf1b0750	-0.60558033
56	0x3fb44972	1.4084914
57	0x3f45a6bf	0.7720756
58	0x3e0c63d0	0.1370995
59	0xbfa31246	-1.2739952
60	0xbed752a8	-0.4205525
61	0xbee34842	-0.44391066
62	0xbf4ce933	-0.80043334
63	0xbf971ab7	-1.1805028
64	0xbf319a99	-0.6937652
65	0x3ea75b18	0.32686687
66	0xbf5eace0	-0.86982536
67	0xbdc564e7	-0.09638386
68	0xbe8ea6c1	-0.27861598
69	0x3f37ccbd	0.7179678
70	0x3dbd5872	0.09245385
71	0xbf35c9aa	-0.7101084
72	0xbf867481	-1.0504304
73	0xbcc7cb12	-0.024388824
74	0x3fb873a9	1.4410297
75	0xbe86c44a	-0.26321632
76	0x3f5d8682	0.8653337
77	0xbcf9ed0e	-0.030508544
78	0xbd89bf42	-0.06725933
79	0x3e150c01	0.1455536
80	0xbf0679d7	-0.5252966
81	0x3dcf65da	0.101268485
82	0xbd749067	-0.059708025
83	0x3ec8579e	0.39129347
84	0xbf56c59a	-0.83895266
85	0x3e7681a1	0.24072887
86	0xbf071865	-0.527716
87	0x3fce6a72	1.6126235
88	0xbee68792	-0.45025307
89	0x3ee76138	0.4519136
90	0x3f000223	0.5000326
91	0x3ecf194e	0.40448993
92	0xbf739d85	-0.9516223
93	0xbe09464e	-0.13405725
94	0x3d2827af	0.04105347
95	0xbf5d3652	-0.8641101
96	0xbf7047dd	-0.93859655
97	0x3ea56294	0.32301772
98	0x3cc02c69	0.023458676
99	0x3fdd021b	1.7266268
100	0x3e9138f5	0.28363767
101	0x3ec16ae1	0.37776855
102	0xbf00999a	-0.5023438
103	0xbe0556f6	-0.13021454
104	0x3dd232bd	0.10263584
105	0xbe8ce7ce	-0.27520603
106	0xbf6d0dec	-0.9259937
107	0xbeae9193	-0.3409544
108	0xbf52efbd	-0.8239706
109	0xbf444be8	-0.76678324
110	0x3f1f1896	0.6214689
111	0xbf197949	-0.5995069
112	0x3f841fb0	1.032217
113	0x3e97a23b	0.2961596
114	0xc02352fb	-2.5519397
115	0xbf73d838	-0.952518
116	0x3f4b0a36	0.79312456
117	0xbf923d45	-1.1424948
118	0x40040399	2.0627196
119	0xbf41fb82	-0.75774395
120	0x3eb56c07	0.3543398
121	0xbdc58dd9	-0.09646196
122	0x3ee05c18	0.43820262
123	0x3ecbd11c	0.39807975
124	0xbed7a31a	-0.42116624
125	0xbe18ac5c	-0.149095
126	0x3f6ccdf7	0.9250178
127	0xbedd3de0	-0.4321127
128	0xbe3a3b18	-0.18186605
129	0x3e540156	0.20703635
130	0xbfa59459	-1.2935897
131	0xbf38a813	-0.7213146
132	0x3eafab49	0.34310368
133	0x3ca562bd	0.020188684
134	0xbf1964b2	-0.59919274
135	0x3d907516	0.07053582
136	0xbf5bdb7d	-0.8588179
137	0xbde19fa7	-0.110167794
138	0x3f4deaa8	0.8043618
139	0xbf1361bb	-0.57571
140	0x3f871b4a	1.0555203
141	0xbf61e3aa	-0.8823801
142	0xbf1fc803	-0.6241457
143	0x3ead9a10	0.33906603
144	0x3ea766ed	0.32695714
145	0xbf90bdec	-1.130796
146	0xbf237588	-0.63851213
147	0xbf04a186	-0.51808965
148	0x3d6d14dc	0.05788122
149	0x3e738ca7	0.23784123
150	0xbf3aeddf	-0.7301921
151	0xbf3add65	-0.7299407
152	0xbec0108f	-0.37512633
153	0xbf60056b	-0.8750827
154	0xbf34aee6	-0.70579374
155	0x3f9f4533	1.2442993
156	0x3df8ffdd	0.12158177
157	0x3e59c804	0.21267706
158	0xbe0d6391	-0.13807513
159	0x3ed81ace	0.4220795
160	0x3ec3f4de	0.38272756
161	0xbf0b4204	-0.54397607
162	0xbf896fc7	-1.0737237
163	0xbd2267df	-0.03964984
164	0x3f536c1b	0.8258683
165	0xbfe7e4de	-1.811672
166	0xbfb047e8	-1.3771944
167	0xbf0387f0	-0.513793
168	0xbeec1cf8	-0.4611585
169	0xbf7d557a	-0.9895855
170	0xbe82e3ea	-0.2556451
171	0x3e8eab39	0.27865008
172	0x3f390720	0.72276497
173	0x3f328667	0.6973633
174	0xbf485ec6	-0.7826961
175	0x3cbc3b6b	0.022977551
176	0x3ef22032	0.47290188
177	0xbe545441	-0.20735265
178	0x3e97ee32	0.29673916
179	0x3f72b378	0.948051
180	0x3f723fa3	0.9462835
181	0x3eb4bf4b	0.35302195
182	0xbc6e2d31	-0.014537142
183	0x3d9706e1	0.07374359
184	0x3ef171e2	0.47157198
185	0xbfe0ac88	-1.7552652
186	0x3f360482	0.7110063
187	0x3e97ffc7	0.2968733
188	0x3ef75da1	0.4831362
189	0x3eaf71cb	0.34266505
190	0x3dfd103b	0.12356611
191	0xbeb168b1	-0.34650186
192	0xbf0039b4	-0.5008805
193	0x3f09e59c	0.5386598
194	0xbf3aa182	-0.7290269
195	0xbf363e98	-0.7118926
196	0x3e9aa7d8	0.3020618
197	0x3d1f6b27	0.038920548
198	0x3d3529f8	0.044229478
199	0xbe6eef7c	-0.23333544
200	0xbdf4cc4c	-0.11953029
201	0x3f1c1baa	0.6097971
202	0x3f28a2b5	0.6587327
203	0x3f04e194	0.51906705
204	0xbeb6ddd5	-0.3571612
205	0xbfd9b43e	-1.700813
206	0x3f551048	0.8322797
207	0xbf119d23	-0.56880397
208	0x3f91a9f7	1.1379994
209	0xbeb000f2	-0.3437572
210	0xbf383013	-0.71948355
211	0xbeb59b75	-0.35470167
212	0xbead4724	-0.33843338
213	0xbc9588fb	-0.018253794
214	0xbf93dd75	-1.1551958
215	0xbe375758	-0.17904413
216	0xbdc30232	-0.09521903
217	0xbf1e3661	-0.61801726
218	0x3dc764a8	0.097359955
219	0x3f53fadb	0.8280465
220	0xbf0a76e6	-0.54087675
221	0x3d2081e9	0.039186392
222	0xbf35ac6f	-0.7096624
223	0xbee81357	-0.45327255
224	0x3f27b98c	0.655175
225	0x3f7a0651	0.9766589
226	0x3f3e0de6	0.7423996
227	0x3e73c23e	0.23804566
228	0xbecd6a9d	-0.40120402
229	0x3b30bad2	0.0026966822
230	0x3efb9e44	0.49144185
231	0x3e4dd8ba	0.20102206
232	0xbebfda7c	-0.37471378
233	0xbe15895e	-0.14603183
234	0xbfb1bf2c	-1.3886466
235	0xbf01e8d8	-0.50745916
236	0x3e2770c8	0.16351616
237	0x3f3a264c	0.72714686
238	0x3df25add	0.11833737
239	0xbe823640	-0.25432014
240	0x3e43d71e	0.1912503
241	0x3f8e3b6d	1.1111885
242	0x3d68a868	0.05680123
243	0x3dacef5f	0.08444094
244	0xbe6c40ac	-0.23071545
245	0x3ee2dc12	0.44308525
246	0x3f48b14a	0.7839552
247	0x3f88703b	1.065925
248	0xbf2c1a45	-0.67227584
249	0xbe8903a3	-0.26760587
250	0x3f0b734f	0.5447282
251	0x3f9c5b06	1.2215278
252	0xbe988200	-0.29786682
253	0xbf3d9a0e	-0.74063194
254	0xbe8e63a0	-0.27810383
255	0x3e97376b	0.29534468

l2.bias f4 [300]
0	0x3eaf4ad0	0.34236765
1	0xbf00429e	-0.5010165
2	0xbf4099da	-0.7523476
3	0x3cabb189	0.020958679
4	0xbdacba66	-0.0843399
5	0xbfbda479	-1.4815818
6	0x3f12da6f	0.57364553
7	0xbd82caa6	-0.06386308
8	0xbe417806	-0.18893442
9	0xbf1bad14	-0.6081097
10	0xbe22927f	-0.15876196
11	0xbc955d8e	-0.018233087
12	0xbdc94f9b	-0.09829637
13	0x3f2b079a	0.66808474
14	0xbf59f150	-0.8513384
15	0xbf3037a3	-0.68834895
16	0xbd9bff09	-0.076170035
17	0xbfd89fad	-1.6923729
18	0xbecf9194	-0.40540755
19	0xbdc1c2a8	-0.09460956
20	0x3e86f397	0.2635772
21	0x3f846b57	1.0345258
22	0xbf9fb826	-1.2478073
23	0xbcc56382	-0.0240953
24	0x3f0c956a	0.5491549
25	0xbf8843bd	-1.0645672
26	0xbd2efb05	-0.04271986
27	0xbefd3563	-0.49454793
28	0x3fa2d1b7	1.272025
29	0xbe2de1da	-0.16980687
30	0xbf49bb55	-0.7880147
31	0xbcb78207	-0.022400869
32	0xbc433914	-0.011915464
33	0xbf81abe6	-1.0130584
34	0x3f095e2b	0.53659314
35	0xbd6f9f45	-0.0585015
36	0xbe700a39	-0.234414
37	0xbe83c1b2	-0.25733715
38	0xbdf6547e	-0.12027834
39	0x3e03d1ce	0.12873003
40	0x3ef8a1ba	0.48560888
41	0xba3680dc	-0.00069619506
42	0xbdac1094	-0.084015995
43	0xbd8ae422	-0.06781794
44	0x3f92dc3c	1.147346
45	0xbdb1db1a	-0.086843684
46	0xbc241668	-0.010015108
47	0xbe9aabca	-0.3020919
48	0x3eae23e1	0.34011748
49	0x3dba23dd	0.09088872
50	0xbf938eab	-1.1527914
51	0xbce480b3	-0.0278934
52	0xbe1c0f62	-0.15240243
53	0xbc4b05cb	-0.012391518
54	0xbd7c88c6	-0.061653875
55	0xbf3fb72b	-0.7488887
56	0xbcd492a2	-0.025948826
57	0x3d36d361	0.04463518
58	0xbf96ee4d	-1.1791474
59	0xbc255b8a	-0.010092625
60	0xbcbb7112	-0.022881065
61	0xbf6b18af	-0.9183454
62	0xbde59ea9	-0.11211903
63	0xbdc825ad	-0.09772811
64	0xbd8e9c1d	-0.0696337
65	0xbf1c17cf	-0.6097383
66	0xbece7c7c	-0.4032935
67	0xbe8099a4	-0.25117218
68	0xbd094bff	-0.03351974
69	0x3ca196b6	0.019725185
70	0xbe9d0cea	-0.30673915
71	0xbd51d5d8	-0.051229328
72	0xbc37db8d	-0.011221779
73	0xbd91f752	-0.07127251
74	0xbf0bf712	-0.54673874
75	0xbc41d326	-0.011830127
76	0xbea4c099	-0.3217819
77	0xbf9bb4f6	-1.21646
78	0xbd36770f	-0.044547137
79	0x3e703de7	0.23461114
80	0xbe1ea643	-0.15493111
81	0xbee5f74f	-0.44915244
82	0xbe6938c0	-0.22775555
83	0xbf5a4d51	-0.85274225
84	0xbefb4f0f	-0.49083754
85	0x3e175fe7	0.14782678
86	0xbea08402	-0.31350714
87	0xbd97d30a	-0.074132994
88	0xbe2aedc4	-0.16692263
89	0xbd87bbf5	-0.06627647
90	0xbf057d06	-0.52143896
91	0xbdb43294	-0.087987095
92	0xbf648683	-0.8926775
93	0xbd12ef1e	-0.03587257
94	0xbd895d52	-0.067072526
95	0xbf597014	-0.8493664
96	0xbbf224df	-0.0073896493
97	0xbf319fb4	-0.6938431
98	0x3e9565db	0.29179272
99	0xbf8a153b	-1.0787729
100	0xbc9d5832	-0.019207094
101	0xbd48426f	-0.04889148
102	0xbeee5364	-0.46547997
103	0xbe8c8e75	-0.27452436
104	0xbf225f38	-0.6342654
105	0xbeea2e60	-0.45738506
106	0xbd489482	-0.048969753
107	0xbfa91a22	-1.32111
108	0xbf9d4549	-1.2286769
109	0xbf21518f	-0.63015074
110	0xbd7304ec	-0.059330866
111	0xbd84f5d0	-0.064921975
112	0xbe258748	-0.16164887
113	0xbf524a8b	-0.82144994
114	0xbca78e64	-0.02045364
115	0xbdb808f8	-0.08986086
116	0xbc9589e5	-0.01825423
117	0x3e698f7a	0.22808638
118	0xbd1fa945	-0.038979787
119	0xbe9f0a59	-0.31062582
120	0xbf1edb48	-0.62053347
121	0xbbe47b3e	-0.0069726994
122	0xbdc0e77d	-0.09419153
123	0xbfafb810	-1.3728046
124	0xbf34b43d	-0.7058752
125	0xbf4663fe	-0.77496326
126	0xbd64b03a	-0.055832125
127	0xbeea220a	-0.45729095
128	0xbf8cf988	-1.1013651
129	0x3ccbfcfa	0.024900902
130	0xbf9094ed	-1.1295449
131	0xbec1f81b	-0.37884602
132	0x3de4bb79	0.1116857
133	0x3f3fb7df	0.7488994
134	0x3d46bd66	0.04852047
135	0x3c0c1c28	0.008551635
136	0xbf827fac	-1.0195212
137	0xbd521186	-0.051286243
138	0xbf58fc89	-0.8476034
139	0xbfa2dd65	-1.2723814
140	0xbfc09e9f	-1.5048407
141	0xbfb439be	-1.4080122
142	0xbeb7231c	-0.35768974
143	0xbe5fd351	-0.21857955
144	0xbd8491d6	-0.064731285
145	0x3f1196d1	0.5687075
146	0x3d599d31	0.053128425
147	0x3edeb900	0.4350052
148	0xbd90b62f	-0.07065999
149	0xbdc378df	-0.09544539
150	0xbee1366a	-0.43986827
151	0xbf677f1a	-0.90428317
152	0xbe984aff	-0.29744717
153	0xbeac00e7	-0.33594438
154	0xbd8c6417	-0.06855028
155	0xbd11ff71	-0.035644
156	0x3e81fbb4	0.25387347
157	0xbf4b9491	-0.7952357
158	0xbb225ce8	-0.0024774615
159	0xbd68e000	-0.056854248
160	0xbfacc5b1	-1.3497831
161	0xbdd0e11f	-0.101991884
162	0xbe0f3fb4	-0.13989145
163	0xbdfc960b	-0.12333306
164	0xbf2b998e	-0.6703118
165	0x3c2cc652	0.01054533
166	0xbf1d305b	-0.6140191
167	0x3bed2d23	0.0072380467
168	0xbf5b08ea	-0.85560477
169	0xbf59a786	-0.85021245
170	0xbf09ff7f	-0.5390548
171	0x3f09bbc2	0.5380212
172	0x3c95f5a4	0.018305607
173	0xbd5ad425	-0.053424973
174	0xbcf956c8	-0.030436888
175	0xbd69b6c9	-0.057059083
176	0xbda0b980	-0.07847881
177	0xbf97e1aa	-1.1865742
178	0xbf5bfe5f	-0.85935014
179	0x3e74928f	0.23884033
180	0xbeccb223	-0.39979658
181	0xbf9a5806	-1.2058113
182	0xbf9c02d3	-1.2188362
183	0xbddaf7a4	-0.10691765
184	0xbfadfcd7	-1.3592786
185	0xbdb2b3f4	-0.087257296
186	0xbd24ffe9	-0.040283117
187	0xbea97c05	-0.33102432
188	0xbc727ae7	-0.01479981
189	0xbe444e37	-0.19170462
190	0xbd9237a2	-0.07139517
191	0x3c9a1af3	0.018811679
192	0x3e3769b8	0.17911422
193	0xbd2009ad	-0.039071728
194	0xbd898551	-0.06714881
195	0xbf823bf0	-1.0174541
196	0xbc89044c	-0.016725682
197	0xbe0a7602	-0.13521579
198	0xbec97eda	-0.39354593
199	0x3dfad6d0	0.122480035
200	0xbe563197	-0.20917355
201	0xbd441663	-0.047872912
202	0xbeb135db	-0.346114
203	0xbe04fb29	-0.12986435
204	0xbf24d362	-0.64385045
205	0x3ee83733	0.45354614
206	0xbf254fb6	-0.64574754
207	0xbf4ea393	-0.80718344
208	0xbed525b0	-0.41630316
209	0xbfe65b25	-1.7996565
210	0xbceec7ff	-0.0291481
211	0xbb9e62b4	-0.0048335437
212	0xbdc52da0	-0.09627843
213	0xbcf42344	-0.029801972
214	0xbdb4d6f5	-0.08830062
215	0xbda5a485	-0.0808802
216	0xbf4d3890	-0.8016443
217	0xbea8983d	-0.3292865
218	0xbcc26939	-0.023731815
219	0xbdc8a0fe	-0.09796332
220	0xbe8bf6cd	-0.27336732
221	0xbd033217	-0.03203019
222	0xbe5cf363	-0.2157722
223	0xbda3eb54	-0.0800387
224	0xbd354f45	-0.04426505
225	0xbd97ee49	-0.07418496
226	0xbf57247b	-0.8404004
227	0xbeaa6180	-0.33277512
228	0xbe1334f2	-0.14375666
229	0xbe06d789	-0.13168158
230	0xbceac805	-0.02865983
231	0xbd036794	-0.0320812
232	0xbebd4738	-0.36968398
233	0x3e397991	0.1811278
234	0xbd1e5f66	-0.038665198
235	0xbddc73bd	-0.10764263
236	0xbce50971	-0.027958604
237	0x3dd1f867	0.10252457
238	0xbe5ec8a1	-0.21756221
239	0xbe1604fb	-0.14650337
240	0xbf4c8395	-0.7988828
241	0xbeed9299	-0.46400908
242	0xbe039b94	-0.12852317
243	0xbf69ace0	-0.9127941
244	0xbd653a0a	-0.055963553
245	0xbf3130f5	-0.6921533
246	0xbf854565	-1.0411803
247	0xbdc48940	-0.09596491
248	0x3f5e1768	0.86754465
249	0xbcbe9d90	-0.023268491
250	0xbd26de01	-0.040739063
251	0xbe1ee241	-0.15515997
252	0xbf0d3f5f	-0.5517482
253	0xbdcab3ff	-0.09897613
254	0xbf834704	-1.0256047
255	0xbde23608	-0.11045462

l3.weight f4 [4, 300]
0	0xbe4d47ee	-0.2004697
1	0xbf50c39b	-0.8154847
2	0x3e2f7f8e	0.17138502
3	0xbc9826cb	-0.018573185
4	0x3d2461c6	0.040132307
5	0xbffcbf22	-1.9745829
6	0x3ded126b	0.115757786
7	0xbd0160ab	-0.03158633
8	0xbf149abd	-0.5804861
9	0x3e0ef919	0.1396221
10	0xbf2d5dad	-0.6772106
11	0x3b31b775	0.0027117406
12	0xbd571232	-0.052507587
13	0x3e0e0a9f	0.13871239
14	0xbf6c2fa4	-0.92260194
15	0xbfab440e	-1.3380144
16	0xbe5750a3	-0.21026854
17	0xbf122314	-0.57084775
18	0xbfe7cfbf	-1.8110274
19	0xbcef11e4	-0.029183336
20	0xbf11ec88	-0.57001543
21	0xbf1f9c46	-0.6234783
22	0x3da41382	0.08011533
23	0xbc5b18ba	-0.0133725945
24	0x3f88f71a	1.070041
25	0xbeb178d5	-0.346625
26	0x3b0727ef	0.0020623168
27	0x3f9d9016	1.2309597
28	0x3f1bbc25	0.6083396
29	0x3cfdda93	0.030988013
30	0xbee695df	-0.45036218
31	0xbcb5023c	-0.022095792
32	0xbd452e31	-0.048139755
33	0x3daa18c9	0.08305509
34	0xbf74997f	-0.95546716
35	0x3ce6394a	0.02810349
36	0xbe71819c	-0.23584598
37	0xbe926faf	-0.28600833
38	0xbb7d03a4	-0.0038606906
39	0xbf1077cd	-0.564328
40	0xbf1cee7f	-0.61301416
41	0x3cffb379	0.031213509
42	0xbc82f53a	-0.015986074
43	0x3d052859	0.03250918
44	0x3e2a481a	0.16629067
45	0xbca985db	-0.02069371
46	0xbba9d7ca	-0.0051831948
47	0x3f9624e1	1.1730005
48	0xbf47edc8	-0.780972
49	0xbc206bc9	-0.009791323
50	0x3f18045f	0.5938167
51	0x3d40ef1f	0.047103044
52	0x3cb673ea	0.022272069
53	0x3b1f85aa	0.0024341145
54	0xbbd5e1f5	-0.0065271803
55	0x3e9c460f	0.305222
56	0x3d1296e1	0.03578842
57	0x3df0f783	0.11765959
58	0xbf29418d	-0.6611565
59	0x3a84aac7	0.0010121696
60	0x3cd71c1c	0.02625852
61	0x3f289cd1	0.6586428
62	0xbbb24f7d	-0.0054416046
63	0xbce29944	-0.027660973
64	0x400bd53e	2.1848903
65	0xbe794f77	-0.2434672
66	0xbf104d33	-0.56367797
67	0x3f2e2a0c	0.6803291
68	0x3d564867	0.052315142
69	0xbd152827	-0.036415245
70	0xc0172a48	-2.3619556
71	0xbbc7ce5c	-0.006097598
72	0xbc605078	-0.01369106
73	0x3f153197	0.58278793
74	0xbf86e1a0	-1.0537605
75	0x3ee651bf	0.44984242
76	0x3e08b441	0.13350011
77	0x3fd73cf6	1.6815479
78	0xbcc33f99	-0.023834037
79	0xbf31e9e4	-0.69497514
80	0x3f3eb851	0.74499995
81	0xbf1bca63	-0.6085569
82	0xbf853734	-1.0407472
83	0x3ec7b55a	0.39005548
84	0xbfa485a2	-1.2853281
85	0xbf219e8d	-0.63132554
86	0x3e25825f	0.16163014
87	0xbc86a1b1	-0.016434522
88	0xbeb67016	-0.3563239
89	0xbd7c18b1	-0.061546985
90	0x3ddfbf7a	0.10925193
91	0x3c196cf1	0.009364353
92	0xbff843df	-1.9395713
93	0xbc325e1a	-0.010886693
94	0x3d20154f	0.03908282
95	0x3fa8702b	1.3159231
96	0xbc6fb628	-0.014630832
97	0x3e4bbaaa	0.19895425
98	0x3ee4b627	0.4467022
99	0x3f141993	0.57851523
100	0x3cdb5e74	0.026778437
101	0xbd059f0d	-0.032622386
102	0xbe2bc379	-0.16773786
103	0xbda0c367	-0.0784977
104	0x3f387f3a	0.7206913
105	0x3e70fb35	0.23533328
106	0x3d52e40c	0.051487014
107	0x3ed1ae6f	0.40953395
108	0xbf9d6e2a	-1.2299244
109	0xbfb5c95f	-1.4202079
110	0x3be18e65	0.00688343
111	0x3e307497	0.17231975
112	0x3f032db2	0.512416
113	0x3eb46d74	0.35239756
114	0xc022fa33	-2.546521
115	0x3c8f0555	0.017458597
116	0xbd0f06ce	-0.0349186
117	0xbfcc5965	-1.5964781
118	0x3f63a164	0.8891814
119	0xbd9ceaf7	-0.076620035
120	0x3fc7174e	1.5553987
121	0x3b40d6bf	0.0029424874
122	0xbca13aba	-0.019681323
123	0x3f088d63	0.5334074
124	0xbea979b9	-0.3310068
125	0x3eab238d	0.3342556
126	0x3f04cfca	0.5187956
127	0xbe8b7230	-0.27235556
128	0xbe2a48e6	-0.16629371
129	0xbefe50ea	-0.49671108
130	0x3e76361b	0.24044077
131	0xbf13780c	-0.5760505
132	0x3f3d1114	0.73854184
133	0x3f4ebd4b	0.8075759
134	0xbe7690fa	-0.24078742
135	0xbbbbd7ff	-0.005732536
136	0x3f6bb0a5	0.92066413
137	0x3aa7b1fb	0.0012794131
138	0xbf65e511	-0.8980265
139	0x3effbaf3	0.49947318
140	0xbf7a1138	-0.97682524
141	0x3f05815e	0.52150524
142	0x3fdc3134	1.7202516
143	0xc0117fcf	-2.2734258
144	0x3f4a2829	0.7896753
145	0x3fac4899	1.3459655
146	0x3f8a5268	1.0806398
147	0xbf3cca22	-0.7374593
148	0x3d49afdc	0.04923998
149	0x3cbb8143	0.022888785
150	0x3de89b8a	0.11357792
151	0x3ea98f23	0.33117017
152	0x3eeb8bc0	0.46005058
153	0x3f0117e0	0.50427055
154	0x3b31d5b7	0.002713544
155	0x3cc3adb5	0.02388654
156	0xbeacabbd	-0.33724776
157	0xbfa1c07d	-1.2636868
158	0xbc5025b5	-0.012704303
159	0x3cad6bdc	0.021169595
160	0x3e7fe435	0.24989398
161	0xbd087ccb	-0.033322137
162	0xbf32dfc6	-0.698727
163	0x3d85ce22	0.06533457
164	0xbf4c9440	-0.7991371
165	0xbf1d07a1	-0.61339766
166	0x3f1db2eb	0.6160113
167	0x3c4d9544	0.012547795
168	0x3e5985bb	0.2124242
169	0xbe484f9a	-0.19561616
170	0xbe10936d	-0.14118738
171	0x3de5bd02	0.11217691
172	0x3e372e19	0.17888679
173	0x3ae01df9	0.0017098776
174	0x3cdb9581	0.026804687
175	0x3c7068b8	0.014673404
176	0x3af89ced	0.0018967666
177	0xbf49c0b9	-0.78809696
178	0x3c210f07	0.009830243
179	0x3fa14fca	1.2602475
180	0xbd40823b	-0.046999197
181	0x3f0a2903	0.5396883
182	0xbdbf45e6	-0.09339504
183	0xbd1dd275	-0.038530786
184	0x3f1d5d37	0.6147036
185	0x3d28523e	0.041094057
186	0x3d1c166e	0.038107328
187	0xba6d3735	-0.0009049059
188	0x3f1b41d6	0.6064733
189	0xbe072948	-0.13199341
190	0xbc8a36ec	-0.016871892
191	0xbd036d4b	-0.03208665
192	0x3e9471c8	0.28993058
193	0x3caab064	0.020836063
194	0xbd010b58	-0.03150496
195	0x3f46c84b	0.7764937
196	0x3b867d6d	0.0041043074
197	0x3de75fed	0.11297593
198	0xbdb2b828	-0.08726531
199	0x3f10145a	0.56281054
200	0xbf522ed7	-0.8210272
201	0x3eda7555	0.42667642
202	0xbae091f0	-0.0017133337
203	0xbc6e2321	-0.014534743
204	0x3e81c78f	0.25347564
205	0x3f684c0c	0.9074104
206	0x3fa14efe	1.2602232
207	0xbf7d6b52	-0.9899188
208	0x3ed6760c	0.41886938
209	0xbe01432a	-0.12623277
210	0x3b744ee1	0.003727846
211	0x3bcc8060	0.0062408894
212	0xbe2ef2b4	-0.17084771
213	0xbd3650da	-0.0445107
214	0x3d15b8fd	0.03655337
215	0x3c8ea0dd	0.01741069
216	0xc045f0b5	-3.0928166
217	0x3f288f7e	0.6584395
218	0x3c5f3cee	0.013625367
219	0x3f22e262	0.6362668
220	0xbf0cc11c	-0.5498216
221	0x3d4cf2fc	0.050036415
222	0xbf7b2cd8	-0.981153
223	0x3c3bc575	0.011460652
224	0x3bcd75f0	0.0062701628
225	0x3bc25d77	0.005931552
226	0xbebff5eb	-0.37492308
227	0xbfb30e2b	-1.3988699
228	0x3d73f13a	0.059556223
229	0x3f9f9ba2	1.246937
230	0xbd4fb804	-0.0507126
231	0x3cca0a4b	0.024663111
232	0x3ec2522f	0.37953326
233	0xbe16d332	-0.14729002
234	0x3d07a9d3	0.03312094
235	0xbcb68a2c	-0.022282682
236	0xbcb20df1	-0.021735163
237	0x3f4729ed	0.7779835
238	0xbebe6836	-0.37188882
239	0x3b78c34f	0.003795821
240	0xbeecbe5e	-0.4623899
241	0x3e4111d8	0.18854463
242	0x3cbea69b	0.023272803
243	0xbdbcd08b	-0.09219464
244	0x3c61e82f	0.013788267
245	0xbe15aa41	-0.14615728
246	0x3eace653	0.33769473
247	0x3d234be2	0.03986729
248	0xbf8b58ad	-1.0886437
249	0xbcfcf56a	-0.030878741
250	0xbb7d41d6	-0.0038643978
251	0xbfeb7710	-1.839571
252	0xbf1280f3	-0.5722801
253	0xbfdaec8d	-1.710344
254	0xbe5c70e3	-0.21527438
255	0x3bda5d88	0.006663982

l3.bias f4 [4]
0	0x3f28c9ae	0.6593274
1	0x3ea100c5	0.314459
2	0xbe2e5919	-0.17026176
3	0x3edae478	0.42752433
