TD3/saves/best_avg_actor.pth (torch, 518693 bytes, 6 tensors)

l1.weight f4 [400, 18]
0	0x3fa19b2f	1.2625483
1	0x3edfdcdc	0.4372319
2	0x3ec6369d	0.38713542
3	0x3e027386	0.12739381
4	0xbf3025a3	-0.6880743
5	0xbd0c6fe2	-0.034286387
6	0xbf69e0d3	-0.9135868
7	0xbeb70e84	-0.35753262
8	0x400b2593	2.1741683
9	0x3ea601ed	0.32423344
10	0xbf049774	-0.517936
11	0x3e32c116	0.17456469
12	0x3e9e0da2	0.30869776
13	0xbf4afa69	-0.79288346
14	0xbd8d71d4	-0.069064766
15	0x3eca6036	0.39526528
16	0xbede50ed	-0.43421116
17	0x3eb94284	0.3618356
18	0x3ef45649	0.4772208
19	0xbe8e0cbf	-0.277441
20	0x3e38dac3	0.18052201
21	0xbd92a4f1	-0.07160366
22	0x3f20c2c9	0.6279722
23	0x3e510587	0.20412265
24	0xbf0830a1	-0.531992
25	0xbf1abd33	-0.60444945
26	0x3f71cf14	0.944566
27	0xbf4aeaa2	-0.7926427
28	0x3e99dd92	0.30051857
29	0x3e0304ab	0.1279475
30	0xbdcd63f6	-0.10028832
31	0x3f289263	0.6584837
32	0x3dd7577a	0.10514732
33	0xbb6becfb	-0.0035999406
34	0x3de3d698	0.11124915
35	0xbe55015d	-0.20801301
36	0x3eed7e84	0.46385586
37	0x3e3ca23e	0.18421265
38	0xbee513ef	-0.4474177
39	0x3efa768d	0.48918572
40	0x3e1ed691	0.15511538
41	0x3dd3775f	0.103255026
42	0xbf7327c1	-0.94982535
43	0x3fb00637	1.3751897
44	0xbebe2701	-0.37139133
45	0xbd2205a8	-0.039556175
46	0x3f8f47de	1.1193807
47	0xbe7e08b4	-0.24808007
48	0x3ebe1f1c	0.3713311
49	0x3faf832c	1.3711905
50	0x3de3b4cb	0.11118468
51	0xbea7ef23	-0.32799634
52	0x3e25418c	0.16138285
53	0xbe814187	-0.25245306
54	0x3f41c378	0.75688887
55	0x3efbdf9e	0.49194044
56	0x3e102be5	0.14079244
57	0xbf171bb9	-0.59026676
58	0x3d8fc85e	0.07020639
59	0x3e04f9ac	0.12985867
60	0xbf168537	-0.5879702
61	0x3dd10978	0.10206884
62	0xbf28990f	-0.6585855
63	0x3f2dda95	0.67911655
64	0xbed24deb	-0.41075072
65	0xbdbe36f0	-0.09287822
66	0x3e94ac5c	0.2903775
67	0xbf98b650	-1.1930637
68	0xbd9d3297	-0.07675665
69	0xbd355bd7	-0.04427704
70	0xbf2fd253	-0.68680304
71	0x3e60aec3	0.21941666
72	0x3f9abcd8	1.208888
73	0xbe210c42	-0.15727332
74	0xbd6b633b	-0.05746768
75	0x3e8ea039	0.27856615
76	0xbc83e531	-0.016100498
77	0x3dc4dc85	0.09612373
78	0xbf4e2d16	-0.80537546
79	0xbf64c51c	-0.89363265
80	0xbe80b089	-0.25134686
81	0x3f039ab4	0.51407933
82	0x3f069d01	0.5258332
83	0xbe17876a	-0.1479775
84	0x3dbe65cd	0.09296761
85	0xbe8f756d	-0.28019276
86	0xbe2c4c6f	-0.16826032
87	0xbc2b92a0	-0.01047197
88	0x3e918a21	0.28425696
89	0xbf032df0	-0.5124197
90	0x3fa9bb08	1.3260202
91	0x3e94535f	0.28969857
92	0x3f896899	1.0735046
93	0x3decfcc5	0.115716495
94	0xbf3504cf	-0.7071046
95	0xbe2c8c3f	-0.16850375
96	0xbee90fc7	-0.4551985
97	0xbed50629	-0.41606262
98	0x3e8c04b1	0.2734733
99	0xbe918ac4	-0.28426182
100	0xbe9c6f15	-0.305535
101	0x3f2edbac	0.6830394
102	0x3ef1cac2	0.47225004
103	0xbf865245	-1.0493857
104	0xbdb3ebf6	-0.0878524
105	0xbe4a6fab	-0.1976916
106	0x3ced9b77	0.029004795
107	0xbdd81a61	-0.105519064
108	0x3eacde9c	0.33763587
109	0x3f1d225f	0.6138057
110	0xbe23a682	-0.15981486
111	0x3ec49ce2	0.38400942
112	0xbcef5ef1	-0.029220076
113	0xbda6a689	-0.08137233
114	0xbbc60899	-0.0060435054
115	0xbf9cc441	-1.2247392
116	0xbfe5f4bd	-1.7965313
117	0xbe17ab95	-0.14811547
118	0x3f64baef	0.8934774
119	0xbe362dc3	-0.17790894
120	0x3f88c38d	1.0684677
121	0x3c883bad	0.016630018
122	0x3db3b288	0.087742865
123	0x3d044017	0.032287683
124	0xbf0cb77f	-0.5496749
125	0xbf6419f2	-0.8910209
126	0xbd8f5612	-0.069988385
127	0xbd0cad7e	-0.034345143
128	0x3febf3f6	1.8433826
129	0xbf223bb2	-0.6337234
130	0xbe7630a7	-0.24041997
131	0x3d9a5b6b	0.07536968
132	0xbf3e3bdf	-0.74310106
133	0x40145008	2.3173847
134	0x3e95a71b	0.29229054
135	0xbeaa3c91	-0.33249334
136	0xbf383c25	-0.71966773
137	0x3eded4dd	0.43521777
138	0x3e829c0d	0.25509682
139	0x3f8eff51	1.1171666
140	0x3e1bfb41	0.15232565
141	0xbd8ab53a	-0.067728475
142	0xbeafccbc	-0.34335887
143	0x3eb38148	0.3505957
144	0xbe903b1f	-0.28170106
145	0xbf71a590	-0.94393253
146	0x3fa21d82	1.2665255
147	0x3ed78d21	0.4209986
148	0xbea4206f	-0.32055995
149	0xbc4af0f8	-0.012386553
150	0xbf1529f7	-0.5826716
151	0xbf2f43c3	-0.6846277
152	0x3f32cb60	0.69841576
153	0xbe885021	-0.26623634
154	0x3f9fa8c8	1.2473383
155	0xbe1da090	-0.15393281
156	0x3ea59e4a	0.32347327
157	0xbf719f33	-0.94383544
158	0x3e3289c1	0.17435361
159	0xbe4a7457	-0.19770943
160	0xbf4d88f1	-0.8028708
161	0xbe1d180e	-0.15341207
162	0xbe4d34d9	-0.20039691
163	0xbf3fc0e0	-0.7490368
164	0x3f9d06d8	1.2267714
165	0xbdeceb9c	-0.115683764
166	0x3df17ab8	0.11790985
167	0xbe497d7c	-0.19676775
168	0xbe20809e	-0.15674064
169	0x3d8f5e44	0.070004016
170	0xbfd328cd	-1.6496826
171	0xbd710e1c	-0.058851346
172	0x3dcc4f37	0.099760465
173	0xbe5e95ec	-0.21736878
174	0xbf87f1db	-1.0620683
175	0x3f95941c	1.1685824
176	0x3df7d728	0.12101585
177	0xbf0e67e8	-0.556273
178	0x3e16c423	0.14723258
179	0xbf0667e1	-0.52502257
180	0x3fb0c502	1.3810122
181	0x3f5d45ce	0.8643464
182	0x3f4247ce	0.75890815
183	0xbea5b71a	-0.32366258
184	0x3ca0e832	0.01964197
185	0x3e2c629d	0.16834493
186	0xbee6a715	-0.45049348
187	0xbf4b29fd	-0.79360944
188	0xbeaa3508	-0.33243585
189	0xbe1a10ee	-0.1504552
190	0x3e994451	0.29934934
191	0xbe0455a1	-0.1292329
192	0xbf547ee3	-0.83006114
193	0xbeafc634	-0.34330904
194	0xbbb19609	-0.005419497
195	0x3ebd6cb3	0.36996993
196	0xbedf1acb	-0.4357513
197	0x3f52c097	0.8232512
198	0x3f1f560e	0.62240684
199	0xbf15feb8	-0.58591795
200	0xbea32d62	-0.31870562
201	0x3f2ca494	0.67438626
202	0x3ef8e92c	0.48615396
203	0x3b7029ef	0.0036646088
204	0xbf7dfab1	-0.9921065
205	0x3eb91038	0.36145186
206	0x3f02a61c	0.5103471
207	0xbeb74eb5	-0.35802236
208	0xbe7f9609	-0.24959578
209	0xbe50360f	-0.20333122
210	0x3f0b73d8	0.5447364
211	0xbf09bbcb	-0.53802174
212	0x3de2e739	0.110792585
213	0xbdc5db51	-0.09660972
214	0x3e5b37a7	0.21407948
215	0xbf8bfcb5	-1.0936495
216	0x3f0400ce	0.5156373
217	0xbe888f6c	-0.26671922
218	0x3f8e8e55	1.1137186
219	0x3d9c529d	0.07632945
220	0xbe260d2c	-0.16215962
221	0x3ee8a70a	0.4543994
222	0xbdabdeae	-0.08392082
223	0xbdb72408	-0.08942419
224	0xbe4867b2	-0.19570807
225	0x3ef3c4d4	0.47611105
226	0xbe7fe60f	-0.24990104
227	0x3f017001	0.5056153
228	0x3da7e1ef	0.0819739
229	0x3ea40c86	0.32040805
230	0x3eacbfba	0.33740026
231	0x3f176a0b	0.59146184
232	0xbf3ef611	-0.7459422
233	0xbe73b868	-0.23800814
234	0x3f9cf143	1.2261127
235	0xbe8ebdfc	-0.27879322
236	0x3f9d23a3	1.22765
237	0x3e26ccd4	0.16289073
238	0x3efd1815	0.49432436
239	0xbdd60483	-0.10450079
240	0xbe8bff97	-0.27343437
241	0x3ed929a2	0.42414576
242	0xbe6ec2f8	-0.23316562
243	0xbe123203	-0.1427689
244	0x3ec80bd0	0.39071512
245	0xbe17c490	-0.14821076
246	0x3f4cfeed	0.80076486
247	0x3ed5a597	0.41727898
248	0xbde0140f	-0.10941326
249	0xbe7c5bc7	-0.24644385
250	0xbecd2ae2	-0.4007178
251	0xbdd1c276	-0.102421686
252	0x3f857dc8	1.042901
253	0xbedd74c0	-0.43253136
254	0xbe212575	-0.15736945
255	0x3eff56a4	0.4987079

l1.bias f4 [400]
0	0xbf4787e4	-0.7794173
1	0xbf586e47	-0.8454327
2	0xbeb06f5c	-0.3445996
3	0xbf3a18ab	-0.7269389
4	0xbf728b75	-0.94744045
5	0xbf57d565	-0.8430999
6	0xbf4be66d	-0.79648477
7	0x3de08b18	0.1096403
8	0xbeee9f67	-0.4660599
9	0xbba05737	-0.0048932093
10	0xbf05ec09	-0.52313286
11	0xbea21b07	-0.31661245
12	0xbf5e7a34	-0.8690522
13	0xbf629d95	-0.885217
14	0xbf45aae9	-0.77213913
15	0xbf4edeea	-0.8080889
16	0xbf9667a0	-1.1750374
17	0xbf75f0ec	-0.9607074
18	0x3d23d2f4	0.039996102
19	0xbec20bbd	-0.3789958
20	0xbf823f3d	-1.0175549
21	0xbf7617d2	-0.96130097
22	0xbf4f2a4b	-0.8092391
23	0xbf8cf26d	-1.1011482
24	0x3ec39fa0	0.38207722
25	0xbf317875	-0.6932443
26	0xbf6c030a	-0.9219214
27	0xbf3d3702	-0.7391206
28	0xbf6e5657	-0.93100494
29	0xbf7602f7	-0.96098274
30	0xbf4cc967	-0.79994816
31	0xbf3a0340	-0.7266121
32	0xbee8f4dc	-0.45499313
33	0xbf4fe3fb	-0.81207246
34	0xbe95d6f2	-0.29265553
35	0xbf49ac17	-0.78778213
36	0x3f31174c	0.69176173
37	0xbf74a088	-0.9555745
38	0xbf851ba7	-1.0399064
39	0xbe5e1a37	-0.21689688
40	0xbf885f69	-1.0654117
41	0xbeac41ee	-0.3364405
42	0xbe8b20b3	-0.27173385
43	0xbe8a9ac3	-0.270712
44	0x3cef3610	0.029200584
45	0xbf30e77f	-0.69103235
46	0xbf101aca	-0.56290877
47	0xbf25fdce	-0.648404
48	0xbf6c20ab	-0.9223735
49	0xbf6e2348	-0.93022585
50	0x3c70047a	0.014649505
51	0xbf12751e	-0.57209957
52	0xbe602427	-0.21888791
53	0xbe36fdc2	-0.17870238
54	0xbf14035f	-0.57817644
55	0xbf069a7d	-0.5257948
56	0xbeca0053	-0.39453372
57	0xbf21052e	-0.6289853
58	0xbedcb24b	-0.43104777
59	0xbf6f6f9e	-0.9352969
60	0xbf368c89	-0.7130819
61	0xbe7893f0	-0.24275184
62	0xbeed022a	-0.46290714
63	0xbf8d6fe0	-1.1049767
64	0xbf814006	-1.0097663
65	0xbeddf189	-0.4334834
66	0xbea2c7d6	-0.31793088
67	0xbf262073	-0.64893264
68	0xbf6d71f3	-0.92752
69	0xbf60e21a	-0.87845004
70	0xbfa531bc	-1.2905803
71	0xbf94e000	-1.1630859
72	0xbf3900e7	-0.72267
73	0xbf123169	-0.57106644
74	0xbf2cd8b2	-0.6751815
75	0xbf18775a	-0.59557116
76	0xbf46c0d0	-0.7763796
77	0xbe90298a	-0.28156692
78	0xbf5cc7a1	-0.8624211
79	0xbd381766	-0.04494419
80	0xbf886750	-1.0656528
81	0xbf22f052	-0.6364795
82	0xbe8d0913	-0.27545986
83	0xbf925bad	-1.1434227
84	0xbfaf2ff9	-1.3686515
85	0xbee9d8f6	-0.4567334
86	0xbf856f45	-1.0424582
87	0xbf0b3321	-0.5437489
88	0xbea8bf35	-0.3295838
89	0xbecfd78a	-0.4059413
90	0xbf8362b6	-1.0264499
91	0xbeb43dec	-0.35203493
92	0xbf210ef4	-0.6291344
93	0x3e95935d	0.29213992
94	0xbef8f700	-0.48625946
95	0xbfb7d251	-1.4361058
96	0xbef3b638	-0.4759996
97	0xbf9674ca	-1.1754391
98	0xbf138bdb	-0.5763528
99	0xbf348c3f	-0.705265
100	0xbf1d6c3a	-0.61493266
101	0xbe87e9c9	-0.2654555
102	0xbf73125a	-0.9494988
103	0xbf3c1e07	-0.7348332
104	0xbf7d206d	-0.988776
105	0xbeec13ed	-0.46108952
106	0xbf666373	-0.899955
107	0xbf715257	-0.94266266
108	0xbf8884a8	-1.0665483
109	0xbfb8fd38	-1.4452276
110	0xbf317ddb	-0.69332665
111	0xbf918246	-1.1367881
112	0xbe9198c4	-0.28436863
113	0xbf1f8ba0	-0.62322426
114	0xbf4ce3e1	-0.80035216
115	0xbf8e556f	-1.1119822
116	0xbec61075	-0.3868443
117	0xbf0a0aa9	-0.53922516
118	0xbf3c65af	-0.73592657
119	0xbf365549	-0.71223885
120	0xbf9ca852	-1.2238867
121	0xbf871313	-1.0552696
122	0xbf7a2224	-0.97708344
123	0xbf830f13	-1.0238975
124	0xbf08166c	-0.53159213
125	0xbf4fc066	-0.8115295
126	0xbf8d4132	-1.1035521
127	0xbf8422f1	-1.0323163
128	0xbe9bc943	-0.30426988
129	0xbe64ec1c	-0.22355694
130	0xbf1f8515	-0.6231244
131	0x3ed1b4ed	0.40958348
132	0xbf83de87	-1.0302285
133	0xbdbb294b	-0.091387354
134	0xbe7c61a3	-0.2464662
135	0xbee332ab	-0.44374594
136	0xbfa18322	-1.2618144
137	0xbed98b94	-0.42489302
138	0xbf1ee680	-0.62070465
139	0xbda57f7a	-0.08080955
140	0xbf6652c6	-0.8997005
141	0xbf5d3169	-0.8640352
142	0xbf55d218	-0.835237
143	0xbe4e7ed3	-0.20165567
144	0xbe841528	-0.2579739
145	0xbf58ee17	-0.84738296
146	0xbf983cbc	-1.1893535
147	0xbf46288e	-0.7740563
148	0xbf38fda8	-0.7226205
149	0x3cd7e250	0.026353031
150	0xbea4c5f1	-0.32182267
151	0xbf1f277d	-0.6216963
152	0xbf0793ee	-0.529601
153	0xbf502d4c	-0.8131912
154	0xbf5cc3f0	-0.86236477
155	0xbeb90094	-0.36133254
156	0xbf1702d0	-0.58988667
157	0xbf5fccf7	-0.87422127
158	0xbee68821	-0.45025733
159	0xbee4c799	-0.4468353
160	0xbf5329fa	-0.82485926
161	0xbf353a9e	-0.7079257
162	0xbf16852e	-0.58796966
163	0xbf3ff495	-0.7498258
164	0xbf45fe47	-0.7734112
165	0xbf844961	-1.0334893
166	0xbf457ac7	-0.7714047
167	0xbf6eed08	-0.9333043
168	0xbf063422	-0.524233
169	0xbf56ef8a	-0.8395926
170	0xbf9986e5	-1.1994292
171	0xbf11672d	-0.5679806
172	0xbf5a6aba	-0.853191
173	0xbf9b0345	-1.2110373
174	0xbf9e9822	-1.2390177
175	0xbfb16e09	-1.3861705
176	0xbf72aacb	-0.9479186
177	0xbf68b978	-0.90908
178	0xbf8267f6	-1.0187976
179	0xbf5ee747	-0.8707165
180	0xbeb9da03	-0.36299142
181	0xbf9d0898	-1.2268248
182	0x3ef0924c	0.46986616
183	0xbef1f9bd	-0.47260848
184	0xbf5d4e0e	-0.86447227
185	0xbf72d297	-0.94852585
186	0xbf2ecb2d	-0.6827877
187	0xbf8cdc2b	-1.100469
188	0xbede8059	-0.43457296
189	0xbeaccc80	-0.3374977
190	0xbf0a9f96	-0.5414976
191	0x3d54cb1c	0.051951513
192	0xbf9ddacf	-1.23324
193	0xbf8a1a5a	-1.0789292
194	0xbe9676d6	-0.2938754
195	0xbf05a4bc	-0.5220449
196	0xbea83d3b	-0.32859215
197	0xbf31dd16	-0.69477975
198	0xbeb3cd61	-0.3511763
199	0xbf5e2d3d	-0.8678778
200	0xbf56cfb3	-0.83910674
201	0xbf73cf8c	-0.95238566
202	0x3d4602c4	0.04834248
203	0xbf069db8	-0.5258441
204	0xbf64e239	-0.8940769
205	0x3ea42820	0.32061863
206	0xbf7c43ed	-0.98541147
207	0xbf35faa9	-0.710856
208	0xbf7bdc7c	-0.9838331
209	0xbf67c477	-0.90534157
210	0x3e4b754c	0.19868964
211	0xbe4357d5	-0.19076474
212	0xbd3736ce	-0.04473
213	0xbf0d723c	-0.5525243
214	0xbecb6f86	-0.39733523
215	0xbf5dba54	-0.8661244
216	0xbf2d49ed	-0.67690927
217	0xbf14974b	-0.58043355
218	0xbf63f5f8	-0.89047194
219	0xbed36851	-0.41290525
220	0x3ee73f20	0.45165348
221	0xbecc5549	-0.39908817
222	0xbf284cd6	-0.6574224
223	0x3d8d9fd7	0.06915253
224	0xbec7731a	-0.38955003
225	0xbf6ecf0e	-0.9328469
226	0xbebf040d	-0.37307778
227	0xbeaeaf2f	-0.3411803
228	0x3dee9c15	0.11650864
229	0xbf46d868	-0.7767396
230	0xbf8f81eb	-1.1211523
231	0xbf100ede	-0.56272686
232	0xbf070482	-0.52741253
233	0xbf4cee22	-0.8005086
234	0xbf8e2839	-1.1106025
235	0x3f2d7c1b	0.67767495
236	0xbf9cc4a2	-1.2247508
237	0xbf8926da	-1.0714982
238	0xbf5235f4	-0.82113576
239	0xbf2abd46	-0.6669506
240	0xbf2de60e	-0.6792916
241	0xbf0b9c22	-0.54535115
242	0xbf355746	-0.70836294
243	0x3e98d664	0.29851067
244	0xbf30cba2	-0.6906072
245	0xbfa0d30f	-1.256441
246	0xbef36a83	-0.475422
247	0xbee9c046	-0.45654505
248	0xbf88dd87	-1.0692605
249	0xbf56cdcf	-0.8390779
250	0xbf847ccd	-1.0350586
251	0xbf873dfd	-1.0565792
252	0xbf4b915d	-0.7951868
253	0xbf5d97d3	-0.8655979
254	0xbeac6225	-0.33668628
255	0xbf034a51	-0.5128527

l2.weight f4 [300, 400]
0	0x3bdb7193	0.0066968887
1	0xbd666164	-0.056245223
2	0xbd0ce2e0	-0.034396052
3	0xbce2cb70	-0.027684897
4	0xbd1c5969	-0.038171206
5	0xbcb5cf93	-0.022193706
6	0xbdad418b	-0.08459767
7	0xbdb99749	-0.090620585
8	0xbba02221	-0.004886881
9	0x3d30284a	0.043007173
10	0xbd262012	-0.04055793
11	0xbc6bee6e	-0.014400108
12	0xbdb7f36e	-0.089819774
13	0x3cc3f150	0.023918778
14	0xbd6e124f	-0.05812293
15	0xbbdcac3b	-0.0067343987
16	0xbd950235	-0.072758116
17	0xbce4a88a	-0.027912397
18	0xbb31ec84	-0.002714903
19	0xbcdf97e0	-0.0272941
20	0x3c8bee45	0.01708139
21	0xbd445940	-0.047936678
22	0xbd5b69be	-0.05356764
23	0xbcece210	-0.028916389
24	0xbd924a6f	-0.07143103
25	0xbd24db4f	-0.04024821
26	0xbcb78ba3	-0.022405451
27	0xbd45de59	-0.04830775
28	0xbd5154ac	-0.05110614
29	0xbd0fd30e	-0.035113387
30	0xbdbde1c9	-0.09271581
31	0x3c07e73f	0.008294879
32	0xbd8e00dd	-0.069337584
33	0x3cdeb7bf	0.027187226
34	0xbd085aa9	-0.033289585
35	0xbdb93af9	-0.09044451
36	0xbcd0a21f	-0.02546793
37	0xbce52a83	-0.027974373
38	0xbda4d641	-0.08048678
39	0x37f88917	2.9627741e-05
40	0xbcddf6ea	-0.027095277
41	0x3c50cd44	0.012744252
42	0xbd0f2b39	-0.03495333
43	0xbc4da18a	-0.012550721
44	0xbd6ef002	-0.058334358
45	0xbd2283a8	-0.03967634
46	0xbd61f569	-0.055165682
47	0xbda72467	-0.0816124
48	0xbd19cd4d	-0.037549306
49	0xbd3bacce	-0.045819096
50	0xbd9b402a	-0.07580598
51	0xbd26a6f7	-0.040686574
52	0xbc12b6ce	-0.008954717
53	0xbd9bb803	-0.07603457
54	0xbcf24f83	-0.02957893
55	0xbc15853e	-0.009126006
56	0xbd5317a3	-0.051536214
57	0xbda5f4d7	-0.0810334
58	0xbb707ca4	-0.0036695385
59	0xbd8d6139	-0.069033094
60	0x3d416a2a	0.047220387
61	0xbcd7cec0	-0.026343703
62	0xbd5d7e17	-0.054075327
63	0x3d1137c6	0.03545358
64	0xbbdb8191	-0.006698795
65	0xbda5c8f2	-0.08094968
66	0xbdac9066	-0.08425979
67	0xbd9a4029	-0.07531769
68	0xbd40e465	-0.047092814
69	0x3c26afd4	0.010173757
70	0x3c8099d6	0.015698355
71	0x3ca8f1e8	0.020623162
72	0xbd64f78d	-0.055900145
73	0xbc375b29	-0.011191168
74	0x3d0f5964	0.03499736
75	0xbc08a424	-0.008339915
76	0xbd90df52	-0.07073845
77	0xbd85b722	-0.065290704
78	0x3c78e775	0.015191902
79	0xbd025f16	-0.031828962
80	0xbb64253a	-0.0034812228
81	0xbc059d9a	-0.008155251
82	0x3c9dcaf4	0.019261815
83	0xbddd20b4	-0.10797253
84	0x3d0058d2	0.031334706
85	0xbd76ace1	-0.060223464
86	0x3d0085da	0.03137765
87	0xbd57add3	-0.052656006
88	0xbd536d14	-0.051617697
89	0x3c0a0693	0.008424419
90	0xbd342538	-0.043980807
91	0xbc817632	-0.01580343
92	0xbd46fe9f	-0.04858267
93	0x3b4f9b58	0.0031678285
94	0xbd0a9065	-0.03382911
95	0xbd030162	-0.03198374
96	0x3d2af2ea	0.041735567
97	0x3d0153f7	0.031574216
98	0xbdac5805	-0.08415226
99	0xbce6819f	-0.02813798
100	0xbd930d61	-0.07180286
101	0xbcae5fa7	-0.021285845
102	0xbd91eae4	-0.0712488
103	0xbcd38b2d	-0.0258232
104	0x3bc28911	0.0059367497
105	0xbd724872	-0.05915112
106	0xbcebc226	-0.0287791
107	0xbd8fae3c	-0.070156544
108	0xbdb075b3	-0.08616199
109	0xbd743c98	-0.0596281
110	0xbc8b5d9a	-0.017012406
111	0xbd902211	-0.07037748
112	0xbd8c27ee	-0.068435535
113	0xbc5794e7	-0.01315806
114	0xbcf13857	-0.02944581
115	0xbccbce79	-0.024878727
116	0xbd6e54ef	-0.058186468
117	0xbd222cb2	-0.039593406
118	0xbd65f083	-0.056137573
119	0x3d146131	0.0362255
120	0xbdd6e683	-0.10493185
121	0xbd642642	-0.055700548
122	0xbd7cdf65	-0.061736483
123	0xbd5ec670	-0.054388463
124	0xbb3b7195	-0.0028601636
125	0x3c305112	0.010761516
126	0x3cc7f869	0.024410443
127	0xbda0ec68	-0.07857591
128	0xbd0b812c	-0.034058735
129	0x3c514400	0.01277256
130	0x3a9d621f	0.0012007392
131	0xbdb211e6	-0.0869482
132	0xbca59c98	-0.020216271
133	0x39f091cb	0.0004588499
134	0xbbd85cf4	-0.0066028778
135	0xbd195139	-0.037430976
136	0xbc88d3a6	-0.016702484
137	0xbd8f5c7c	-0.07000062
138	0xbcbc4b0e	-0.022985008
139	0xbd07ca9c	-0.033152208
140	0xbcedd4dc	-0.029032163
141	0xbd098feb	-0.033584516
142	0xbc8f1053	-0.017463839
143	0xbd7badd0	-0.061445057
144	0xba3fff50	-0.00073241163
145	0xbdabf37e	-0.08396052
146	0xbda8d91f	-0.082445376
147	0xbba107d8	-0.004914265
148	0xbd155c6d	-0.036465097
149	0xbdd53540	-0.10410547
150	0xbcfc3f62	-0.030791942
151	0xbc9c83b0	-0.019105762
152	0xbd64d68d	-0.055868674
153	0xbd494d2e	-0.04914587
154	0x3c8d514b	0.017250678
155	0xbca11dd5	-0.019667545
156	0x3ce9f817	0.028560681
157	0xbd59b711	-0.0531531
158	0xb9d9f42c	-0.00041571388
159	0xbcf53e72	-0.029937003
160	0x3c2341e8	0.009964444
161	0xbca5d0a2	-0.020241085
162	0xbdc54bf8	-0.096336305
163	0x3d143b32	0.036189266
164	0xbd5d3504	-0.054005638
165	0xbdfdd383	-0.12393858
166	0xbcd3ceb9	-0.025855409
167	0xbd057550	-0.03258258
168	0xbd99158e	-0.07474814
169	0x3c5cb824	0.013471637
170	0xbce90540	-0.028444886
171	0xbca5aa13	-0.0202227
172	0x3d0b707a	0.034042813
173	0x3bc5fbb6	0.006041969
174	0xbd1e4a27	-0.038644936
175	0xbd560332	-0.05224914
176	0xbd5feb33	-0.054667663
177	0xbd1a9672	-0.037741132
178	0x3cab0818	0.020877883
179	0xbcb1ee77	-0.021720154
180	0xbd868453	-0.065682076
181	0xbc7259d5	-0.014791925
182	0xbd809933	-0.062792204
183	0xbda45370	-0.08023727
184	0xbc8ea6f3	-0.017413592
185	0xbd62d2ad	-0.055376697
186	0x3c4521cc	0.012031984
187	0x3c84ef95	0.016227523
188	0x3cdb76c8	0.026790038
189	0x3d3627ee	0.044471674
190	0xbd6cb502	-0.05778981
191	0xbd33e068	-0.043915182
192	0xbdc5bfc5	-0.09655718
193	0xbd007fb9	-0.031371806
194	0x3ca0d59e	0.01963311
195	0x3c0efdca	0.0087275
196	0xbb5474b4	-0.0032418193
197	0xbafd04d5	-0.0019303808
198	0xbc06d96f	-0.008230551
199	0xbd9841d9	-0.074344344
200	0x3d118274	0.0355248
201	0x3c97e3b6	0.018541198
202	0xbd3a8650	-0.045538247
203	0x3beb84f1	0.0071874787
204	0xbc236e34	-0.009975005
205	0xb8261baa	-3.960325e-05
206	0x3c51571d	0.012777117
207	0xbda73eac	-0.081662506
208	0xbcf7c1df	-0.030243812
209	0x3d18e5f5	0.03732868
210	0xbd1c9890	-0.038231432
211	0xbdbd295d	-0.09236405
212	0x3d11fab8	0.035639495
213	0x3d8b61d1	0.068057664
214	0x3c759c8f	0.01499094
215	0xbd34116e	-0.043961935
216	0xbb384f11	-0.00281233
217	0xbcef4d30	-0.02921161
218	0xbd8a904f	-0.06765806
219	0xbcde6131	-0.027145954
220	0xbd4cfdf0	-0.05004686
221	0xbd65dafb	-0.05611704
222	0xbd076c83	-0.03306247
223	0xbb93df89	-0.0045127315
224	0x3bea1dc5	0.007144662
225	0xbca74391	-0.02041796
226	0xbcbea555	-0.023272196
227	0xbc968c6c	-0.018377505
228	0xbc386b9f	-0.011256128
229	0x3be38fa8	0.0069446154
230	0xbcffb5ce	-0.03121462
231	0xbda065f5	-0.07831947
232	0x3c8964a8	0.01677163
233	0xbd0d2eeb	-0.034468573
234	0xbd9c4cd1	-0.07631839
235	0x3c4e52f0	0.012593016
236	0x3bfbc9b4	0.007683957
237	0xbd459613	-0.048238825
238	0x3c43c966	0.011949873
239	0xbbb5e18b	-0.0055505685
240	0xbd0e3059	-0.034714077
241	0xbc6b2648	-0.014352389
242	0xbd295592	-0.04134137
243	0xbdb7b2a1	-0.08969618
244	0xbd408a46	-0.047006868
245	0xbd383a0f	-0.044977244
246	0xbc8725c1	-0.016497495
247	0x3cd736f4	0.02627132
248	0x3cace642	0.02110589
249	0x3c1ca51d	0.00956085
250	0xbc89d4ba	-0.016825069
251	0xbd918269	-0.07104952
252	0xbd5b9111	-0.053605143
253	0xbcd85732	-0.026408765
254	0xbd3b62ef	-0.045748647
255	0xbc038295	-0.008026739

l2.bias f4 [300]
0	0xbd90f660	-0.07078242
1	0xbed7bd77	-0.42136738
2	0xbefe7f27	-0.49706385
3	0xbe909297	-0.2823684
4	0xbd9e1373	-0.077185534
5	0xbecacfa8	-0.39611554
6	0xbef50fb0	-0.4786353
7	0xbeae8d98	-0.34092402
8	0xbeb8097c	-0.35944736
9	0x3c0cf6e1	0.008603782
10	0xbf50af64	-0.81517625
11	0xbd227c7a	-0.03966949
12	0xbca89e90	-0.020583421
13	0xbd356e3d	-0.044294585
14	0xbdedd662	-0.11613156
15	0xbeb3f75c	-0.35149658
16	0xbe84c504	-0.2593156
17	0x3e1de3d8	0.15418947
18	0x3e9a7128	0.30164456
19	0xbe9c07f3	-0.30474815
20	0xbeb34566	-0.35013884
21	0xbe84c72b	-0.25933203
22	0x3cd861e0	0.026413858
23	0xbf3d3d38	-0.7392154
24	0xbe7fabe9	-0.24967922
25	0xbdae6265	-0.08514861
26	0xbd950253	-0.07275834
27	0xbd29e677	-0.041479554
28	0xbd91ef99	-0.07125778
29	0xbbea571c	-0.0071514975
30	0x3ec95ecb	0.39330134
31	0xbde35be7	-0.11101513
32	0xbe1f2522	-0.15541509
33	0xbf499b58	-0.7875266
34	0xbebab810	-0.36468554
35	0xbedb05ac	-0.42777765
36	0xbd85d55e	-0.06534837
37	0xbe1a4e41	-0.15068914
38	0xbf18ddee	-0.5971364
39	0xbf0b977a	-0.5452801
40	0xbcbdf4de	-0.02318805
41	0xbd6be96c	-0.057595655
42	0xbd9be815	-0.076126255
43	0xbeab3f5f	-0.33446786
44	0xbd4bc2e4	-0.04974641
45	0xbef56222	-0.47926432
46	0xbe926572	-0.28593022
47	0xbcc42110	-0.023941547
48	0xbdfb6d9c	-0.12276766
49	0x3e88d8d2	0.2672792
50	0xbf0138e0	-0.5047741
51	0xbefcfac2	-0.49410063
52	0xbebf2864	-0.37335503
53	0xbe75f207	-0.24018107
54	0xbe17f92c	-0.14841145
55	0xbdcea864	-0.10090712
56	0xbf131021	-0.57446486
57	0xbe802411	-0.25027516
58	0x3d713743	0.058890592
59	0x3e3f6f73	0.18694858
60	0xbc1790fc	-0.009250876
61	0xbea135c3	-0.3148633
62	0xbecd8829	-0.40142944
63	0xbef39700	-0.4757614
64	0xbcf915bb	-0.03040587
65	0x3eb8ce33	0.36094818
66	0xbf3e626c	-0.7436893
67	0xbdb39c84	-0.08770087
68	0x3de1209f	0.1099255
69	0xbe44f396	-0.19233546
70	0xbe9b196d	-0.30292836
71	0xbcb6c9e0	-0.022313058
72	0xbf464759	-0.7745262
73	0xbf12a79d	-0.5728701
74	0xbd977678	-0.07395643
75	0xbf5a2ea5	-0.85227424
76	0xbf061d4b	-0.5238845
77	0xbe7c79a4	-0.24655777
78	0xbdb67c4b	-0.08910426
79	0xbf057650	-0.52133656
80	0xbef4d4eb	-0.47818694
81	0xbf2b070b	-0.6680762
82	0xbe1968cf	-0.14981388
83	0xbec7c8b6	-0.39020318
84	0xbdce762e	-0.10081135
85	0xbe5c958c	-0.21541423
86	0xbd717d16	-0.058957182
87	0x3ebe0353	0.3711191
88	0xbda42b9a	-0.08016129
89	0xbe28a310	-0.16468453
90	0xbe10b69e	-0.14132163
91	0xbdd0292c	-0.10164103
92	0xbea6236f	-0.3244891
93	0xbf5f9b3b	-0.8734624
94	0xbe20fa04	-0.15720373
95	0xbf190eb2	-0.5978805
96	0xbf149b9c	-0.5804994
97	0xbde45b2d	-0.11150203
98	0x3d552c52	0.05204422
99	0xbe7d9388	-0.2476331
100	0xbeb4c812	-0.35308892
101	0xbe7ab1fc	-0.24481958
102	0xbe0ae4ad	-0.13563795
103	0xbdceb902	-0.10093881
104	0xbe5874a5	-0.21138246
105	0xbdbf3afb	-0.093374215
106	0xbe75fb7a	-0.24021712
107	0xbdf5cfd8	-0.12002534
108	0xbd707cda	-0.058712818
109	0xbd68b103	-0.056809437
110	0xbeab0627	-0.3340313
111	0x3b494138	0.003070904
112	0xbe5f36f5	-0.21798308
113	0xbedbff87	-0.4296839
114	0xbf02f405	-0.51153594
115	0xbf1e6d1f	-0.61885256
116	0x3d2fda6c	0.042932913
117	0xbf542069	-0.82861954
118	0xbe0db43b	-0.13838284
119	0xbee17516	-0.44034642
120	0xbeffc6a8	-0.4995625
121	0xbdd5c71a	-0.10438366
122	0xbd9ef5a8	-0.07761699
123	0xbae2f56d	-0.0017315574
124	0xbeca5fe7	-0.39526293
125	0x3d4d65f9	0.050146077
126	0xbf12886d	-0.5723942
127	0xbd7f1455	-0.06227525
128	0xbe19a851	-0.15005614
129	0xbe811a6d	-0.25215474
130	0xbce99fdc	-0.02851861
131	0xbd994081	-0.07483006
132	0xbe78a12f	-0.24280237
133	0xbd3383a5	-0.043826718
134	0x3bcf5a15	0.0063278773
135	0x3d1a1b00	0.037623405
136	0xbeb4f949	-0.3534644
137	0xbe55d9dc	-0.20883888
138	0xbebb4a81	-0.3658028
139	0xbd9e39b0	-0.07725847
140	0x3aa63623	0.0012680929
141	0xbcbb499c	-0.022862248
142	0xbe136cc3	-0.14396958
143	0x3dfb8f9b	0.1228325
144	0x3b725316	0.0036975793
145	0xbe3a50ac	-0.18194836
146	0xbd6e0712	-0.05811221
147	0xbe302d51	-0.17204787
148	0xbf2fe9b5	-0.68715984
149	0xbdb96eca	-0.090543345
150	0xbe18a0e6	-0.14905128
151	0xbe0247c3	-0.12722687
152	0xbe5eed48	-0.21770203
153	0x3d9344f0	0.07190883
154	0x3de85dc5	0.1134601
155	0xbe9ebbf7	-0.3100278
156	0x3e44d4cc	0.192218
157	0x3ca70365	0.02038736
158	0x3edc69eb	0.4304956
159	0xbe91c3ad	-0.284696
160	0xbd556121	-0.052094582
161	0x3e383891	0.17990328
162	0x3e1330ee	0.14374134
163	0xbe82fa4a	-0.2558158
164	0xbf11f83f	-0.5701942
165	0xbd699d41	-0.057034735
166	0xbecc9b70	-0.3996234
167	0xbddd94fa	-0.10819431
168	0xbdc5610c	-0.09637651
169	0xbeac2d66	-0.33628386
170	0x3e1e47df	0.15457104
171	0xbf0f97b4	-0.56090856
172	0xbdc84071	-0.09777916
173	0x3d10eeea	0.035384096
174	0xbdc05785	-0.09391693
175	0xbec5df51	-0.3864694
176	0xbeaf2bfe	-0.3421325
177	0xbf23301f	-0.637453
178	0xbf3c7c9f	-0.73627657
179	0xbf57ca4e	-0.8429307
180	0xbea8c4f0	-0.3296275
181	0x3bdb03e7	0.006683815
182	0xbf7214ba	-0.94562876
183	0xbe379a38	-0.17929924
184	0xbdd01578	-0.10160345
185	0xbdce73fd	-0.10080717
186	0xbf86c4d2	-1.0528815
187	0xbce2a443	-0.027666217
188	0xbf380b56	-0.718923
189	0x3d350893	0.04419763
190	0xbf028982	-0.5099107
191	0x3e87441f	0.2641916
192	0xbe91ea59	-0.28499106
193	0xbee6c6c1	-0.45073512
194	0xbeb2cf8e	-0.34923977
195	0x3e33ed6e	0.17571041
196	0xbde92ed7	-0.11385887
197	0x3d9b67ff	0.07588195
198	0xbf458619	-0.7715774
199	0xbf2bd945	-0.671284
200	0x3d984069	0.0743416
201	0xbd73a9d1	-0.05948812
202	0xbeb3c574	-0.35111582
203	0xbdda19b3	-0.10649433
204	0xbeb8e0c8	-0.36108994
205	0xbf295369	-0.661429
206	0xbd01d45a	-0.031696655
207	0xbe0f08d5	-0.13968213
208	0xbe80ccda	-0.2515629
209	0x3e2bdd04	0.1678353
210	0xbd57f34f	-0.05272227
211	0xbd632b5b	-0.05546127
212	0xbe68455f	-0.22682713
213	0xbcea30c6	-0.02858771
214	0xbec737ac	-0.38909662
215	0xbdd8cfeb	-0.10586532
216	0xbf637701	-0.8885346
217	0xbded618b	-0.115908705
218	0xbf91a5fb	-1.1378778
219	0xbeef964a	-0.4679435
220	0xbdb67836	-0.08909647
221	0xbee36642	-0.44413954
222	0xbe3ba97a	-0.18326369
223	0xbd6e8375	-0.058230836
224	0xbed063d7	-0.40701172
225	0xbea3d0ed	-0.31995335
226	0xbec51a28	-0.38496518
227	0xbe0cc0a4	-0.13745362
228	0xbdbaac1b	-0.09114858
229	0xbd5435ed	-0.05180924
230	0x3d9b2306	0.075750396
231	0xbd87a6de	-0.06623624
232	0xbee800e8	-0.4531319
233	0x3d33f230	0.04393214
234	0xbc96e730	-0.018420786
235	0xbdcd1fe6	-0.1001585
236	0xbd5e8508	-0.054326087
237	0xbe688995	-0.22708733
238	0xbda44296	-0.08020513
239	0xbe935512	-0.2877584
240	0xbf12ff46	-0.57420766
241	0xbdabb2f2	-0.083837405
242	0xbeb9c502	-0.36283118
243	0xbe2ae472	-0.16688707
244	0x3d1dc8f8	0.038521737
245	0xbdb92b23	-0.09041431
246	0xbf443005	-0.7663577
247	0x3c9c7866	0.01910038
248	0xbda6bbca	-0.08141287
249	0xbd4b9aa8	-0.04970804
250	0xbe4105d7	-0.18849884
251	0xbc20b7bb	-0.00980943
252	0xbe5e3f7b	-0.21703903
253	0xbecead8c	-0.4036678
254	0xbe7da09b	-0.24768297
255	0xbd224c83	-0.03962375

l3.weight f4 [4, 300]
0	0xbca19f1b	-0.019729188
1	0x3ebe4fe4	0.37170327
2	0x3e182814	0.14859039
3	0xbf6d5ea0	-0.9272251
4	0x3c34809a	0.011016989
5	0xbd0f0b08	-0.03492263
6	0xbd5dfe16	-0.054197393
7	0x3e45ea55	0.19327672
8	0xbee669ed	-0.4500269
9	0xbe8551ff	-0.2603912
10	0x3ede3dee	0.43406624
11	0xbcb9ff7a	-0.022704829
12	0x3d3c8a1f	0.04603016
13	0x3f68a60a	0.90878356
14	0x3be67f04	0.0070341844
15	0x3d35c0b3	0.044373225
16	0x3e1cc502	0.15309528
17	0x3ed66d26	0.4188015
18	0x3dae22f0	0.085027575
19	0xbdb7be0e	-0.08971797
20	0xbd836417	-0.06415575
21	0x3c29cf3e	0.010364352
22	0x3c9b7032	0.018974397
23	0x3da01faa	0.078185394
24	0xbe17c398	-0.14820707
25	0xbda6ce1a	-0.081447795
26	0xbd1a6c66	-0.037701033
27	0x3bdea76e	0.0067948615
28	0xbdc82bb1	-0.097739585
29	0x3f0c492f	0.5479917
30	0xbeec108d	-0.46106377
31	0xbd399609	-0.0453091
32	0x3f535262	0.8254758
33	0x3e849a18	0.25898814
34	0xbe41c124	-0.18921334
35	0x3fbe5d4a	1.487222
36	0x3d22a361	0.03970659
37	0x3e5bdf7d	0.21471973
38	0xbefa4e7d	-0.48888007
39	0x3f213cf8	0.62983656
40	0xbea3dca6	-0.3200428
41	0xbd1a5e72	-0.037687726
42	0x3f03d5a9	0.51497895
43	0x3e596807	0.2123109
44	0x3f949b3e	1.1609876
45	0x3d82ec68	0.06392747
46	0x3e66fcd4	0.22557384
47	0xbaab4496	-0.0013066705
48	0x3c4e13e0	0.012577981
49	0xbec0d7cf	-0.3766465
50	0x3e89aeae	0.26891083
51	0x3e8c7678	0.27434134
52	0x3f1687e1	0.58801085
53	0xbe91cea4	-0.28477967
54	0x3e241e7d	0.16027255
55	0x3d2e0a74	0.042490438
56	0x3d48dde7	0.049039748
57	0xbf9c917e	-1.2231901
58	0xbde4dbe8	-0.11174756
59	0xbeaab3ee	-0.333404
60	0x3e8c9980	0.2746086
61	0xbeaa2a37	-0.33235332
62	0x3e972fc9	0.29528645
63	0xbe79a989	-0.24381079
64	0xbc5a2c09	-0.013316163
65	0xbe6da732	-0.23208311
66	0x3f02839c	0.5098207
67	0x3c499154	0.012302715
68	0xbf049d3d	-0.51802427
69	0xbf601f40	-0.87547684
70	0x3d1fbee9	0.039000425
71	0x3ee3c7e4	0.44488442
72	0x3f4397ac	0.7640331
73	0xbe90fc9b	-0.28317723
74	0x3cc0b218	0.023522422
75	0xbe4bb2ef	-0.19892476
76	0xbf38671f	-0.7203235
77	0x3eaca989	0.33723095
78	0x3c31575e	0.010824053
79	0xbea1a2d0	-0.3156953
80	0x3e3ce9d0	0.18448567
81	0xbe9f787c	-0.3114661
82	0xbe8961c5	-0.26832405
83	0xbe065ae6	-0.13120613
84	0xbc5988d7	-0.013277254
85	0x3ee8a83f	0.45440862
86	0xbcd33276	-0.025780898
87	0x3f0a6438	0.5405917
88	0x3d002efb	0.031294804
89	0xbcb2cad2	-0.021825228
90	0xbe120bb6	-0.1426228
91	0x3ccbd809	0.024883287
92	0x3d3c8309	0.046023402
93	0xbef8f2b5	-0.4862267
94	0xbb3014fc	-0.0026867976
95	0x3db95c8d	0.09050856
96	0x3ec22f95	0.37926927
97	0x3f1ae720	0.6050892
98	0x3e8dd635	0.2770249
99	0x3e0a7924	0.13522774
100	0x3df0154f	0.11722814
101	0xbe8b9896	-0.2726485
102	0x3d4fb755	0.05071195
103	0xbcd95461	-0.026529493
104	0x3f1e61ed	0.6186817
105	0x3d9c3e43	0.07629063
106	0x3dcd4485	0.10022835
107	0xbbcd8da6	-0.0062729893
108	0xbc3c3a12	-0.011488454
109	0xbd0c7e1e	-0.034299962
110	0xbf92084e	-1.1408784
111	0x3f4244e6	0.7588638
112	0xbf0bc966	-0.54604185
113	0x3eae2a16	0.34016484
114	0xbef207da	-0.47271615
115	0xbe614fb0	-0.22003055
116	0xbe824481	-0.2544289
117	0x3f26e57e	0.6519393
118	0x3a41b9b6	0.0007390039
119	0x3cf79ab6	0.03022514
120	0x3f540d92	0.82833207
121	0x3ad9b2a4	0.0016609025
122	0xbe796d26	-0.24358043
123	0x3f0cbaf4	0.5497277
124	0xbe087f88	-0.133299
125	0xbf3e55bd	-0.74349576
126	0xbe5e8bf7	-0.2173308
127	0x3d2bf99e	0.0419861
128	0x3e8064e3	0.2507697
129	0xbd147ab2	-0.036249824
130	0xbcb1576c	-0.021648131
131	0x3c985e04	0.018599518
132	0x3da3bf79	0.07995505
133	0xbce48d61	-0.027899446
134	0x3cff108a	0.031135816
135	0x3eb9ef5f	0.36315438
136	0x3e43f874	0.19137746
137	0x3f82b2dd	1.0210835
138	0xbe98db09	-0.2985461
139	0x3d2f3450	0.0427745
140	0xbf396dbb	-0.7243306
141	0xbc9a2566	-0.018816661
142	0x3eef6e6b	0.4676393
143	0x3eced31a	0.40395433
144	0x3d186487	0.037205245
145	0xbefc80ff	-0.49317166
146	0xbc6f3070	-0.014598951
147	0xbec93f9e	-0.3930635
148	0x3e062723	0.13100867
149	0xbd06dc6c	-0.032925054
150	0x3e6b7f92	0.22997883
151	0xbd32030a	-0.04345993
152	0x3f056fe9	0.52123886
153	0xbeda1ee3	-0.4260169
154	0x3e998035	0.29980627
155	0xbf1d79cc	-0.6151397
156	0x3e1b2f03	0.15154652
157	0xbe7c04d4	-0.24611217
158	0x3e3bb34e	0.18330118
159	0xbd68b367	-0.056811716
160	0x3d660bad	0.05616348
161	0xbe65e161	-0.22449256
162	0xbe861ee5	-0.26195446
163	0xbeae7fb7	-0.34081814
164	0x3f2dd2a2	0.67899525
165	0xbc6f4b3e	-0.0146053415
166	0x3e6ee088	0.2332784
167	0xbcecfad2	-0.028928194
168	0x3d543ae3	0.05181397
169	0x3ed22ba5	0.41048923
170	0x3ee5c61e	0.44877714
171	0x3d8b4bed	0.06801591
172	0x39903cac	0.00027511024
173	0xbf2e91b6	-0.6819109
174	0xbc596610	-0.0132689625
175	0x3f006a1d	0.50161916
176	0x3f08b748	0.53404665
177	0xbed20194	-0.4101683
178	0xbeb193bb	-0.34683022
179	0x3e89e32f	0.2693114
180	0x3f2fef28	0.687243
181	0xbf14f14d	-0.58180696
182	0xbdbb1781	-0.091353424
183	0x3c67ebb8	0.014155321
184	0x3bc6ae61	0.006063268
185	0xbc0bc88e	-0.008531703
186	0xbe9e2113	-0.3088461
187	0x3cb1fb94	0.021726407
188	0xbf11f990	-0.5702143
189	0xbf5fe662	-0.8746091
190	0x3e3fdf65	0.18737562
191	0x3e1a1e1d	0.1505055
192	0x3eea44d6	0.45755643
193	0x3ec234ea	0.37930995
194	0xbe884411	-0.2661443
195	0x3f07e056	0.53076684
196	0xbe17dadb	-0.1482958
197	0xbf295a68	-0.66153574
198	0xbc6ed5e0	-0.014577359
199	0xbe8da0cd	-0.27661744
200	0x3f51b266	0.8191284
201	0x3d6a72a3	0.057238232
202	0xbea0f60e	-0.31437725
203	0xbeb969c4	-0.36213505
204	0xbfa37e97	-1.2773007
205	0xbe68af07	-0.22723018
206	0xbdfeeb26	-0.12447195
207	0x3c4fb3f7	0.012677184
208	0x3e0e9413	0.13923673
209	0x3f3b0984	0.73061395
210	0x3e845d33	0.25852355
211	0xbd0c8137	-0.034302916
212	0x3e66938e	0.22517225
213	0x3b46030a	0.0030214214
214	0x3ebb62bf	0.36598775
215	0xbd4dcfe3	-0.050247084
216	0xbe37ee2b	-0.17961948
217	0x3e10d270	0.14142776
218	0xbe8c6287	-0.2741892
219	0xbd9d83d3	-0.07691159
220	0x3d3631c8	0.04448107
221	0x3e127eae	0.14306137
222	0x3d435a6a	0.047693647
223	0xbd1a74ae	-0.03770893
224	0xbe52dbd8	-0.20591676
225	0xbdd01d3e	-0.101618275
226	0xbd9c5e98	-0.0763523
227	0x3ecd0ba8	0.40047956
228	0xbd225504	-0.03963186
229	0xbd8559b1	-0.06511248
230	0xbce88629	-0.028384285
231	0xbcedb038	-0.029014692
232	0xbda644c9	-0.081185885
233	0x3f087f53	0.5331928
234	0x3d691517	0.05690488
235	0x3cbe3f1b	0.02322345
236	0xbd405ea6	-0.046965264
237	0xbf1718ec	-0.590224
238	0xbd0f8ff1	-0.035049383
239	0xbf41e2af	-0.75736517
240	0xbeeb14e8	-0.45914388
241	0xbcc5801e	-0.024108943
242	0x3dd15652	0.102215424
243	0x3e0c5b36	0.13706669
244	0xbcb763fe	-0.022386547
245	0x3cc007bf	0.023441194
246	0xbf190935	-0.59779674
247	0xbec97456	-0.3934657
248	0x3d101652	0.035177536
249	0x3d26092b	0.040536087
250	0x3ea218e6	0.3165962
251	0x3cbafc96	0.02282552
252	0xbf0ff22e	-0.5622891
253	0xbbc74b3f	-0.006081968
254	0xbd871e97	-0.065976314
255	0x3cf6bf70	0.030120581

l3.bias f4 [4]
0	0x3d2dd301	0.042437557
1	0xbdab5abb	-0.08366915
2	0x3ef14a32	0.4712692
3	0x3d890e41	0.06692172
