TD3/saves/best_avg_actor.pth (torch, 518693 bytes, 6 tensors)

l1.weight f4 [400, 18]
0.1678936 -0.16104382 0.18891974 0.14674339 0.2036293 -0.17432249 -0.16861087 0.10424407
-0.23128787 0.24198478 0.05735453 0.03172202 -0.18976915 0.06730257 0.096945 0.03140514
0.22621985 0.06971286 -0.21041527 0.19242014 0.06555545 -0.10422908 -0.23926999 0.12652196
0.22760789 -0.19010395 0.025297403 0.07967219 -0.10575097 -0.030117296 -0.15964928 -0.10815938
-0.2234733 0.00032755127 0.16286686 0.10653002 0.21196418 -0.21615061 -0.019095603 0.23938103
0.03208656 -0.07752701 -0.20861286 0.08250044 0.21005362 0.1923791 0.20563157 0.05156606
0.16566546 -0.059233166 0.19429688 -0.025287803 -0.055627137 -0.1212552 0.119854115 0.13610733
0.14393447 -0.16818602 -0.124406375 0.22446999 -0.12389684 -0.11335931 -0.08173616 -0.0792615
-0.16789341 0.1812962 0.018947532 0.11134819 0.18330744 -0.14929597 0.15508896 -0.10974396
-0.033771355 0.17912745 0.20144808 0.2077643 0.11520562 0.21120265 -0.08938841 -0.01506913
-0.065055385 -0.008348048 -0.023261633 0.14737335 0.15483159 -0.17137516 -0.13447578 -0.06952168
0.053608015 -0.10522346 -0.1439581 -0.03877681 -0.11587937 -0.015085247 -0.15486388 -0.050578617
-0.09144944 -0.041271586 0.16302648 0.16869658 -0.081669785 -0.22501475 -0.16906819 -0.19244038
-0.01948624 -0.110993266 -0.17781897 0.06930159 0.017199934 -0.021057293 -0.07989734 0.20455526
-0.24802811 0.019891588 0.10652826 0.19813006 -0.20092815 -0.036919355 0.19031057 0.041696075
0.06464009 -0.099433005 0.15554242 -0.0831875 -0.11277873 0.21119994 0.05837001 -0.009590509
-0.17368093 -0.038558606 -0.17074338 -0.16582808 -0.028040314 0.04938229 -0.19476588 0.22467649
0.18043858 -0.22276512 0.14473166 -0.12871166 -0.19910204 0.22898588 -0.093473084 -0.08373932
0.024361514 0.13017593 0.024445212 -0.04843717 0.036772687 -0.13032185 -0.16490148 0.053864796
0.026928958 0.1113454 -0.09403793 -0.23493294 -0.057287924 -0.23530988 -0.024300197 0.12365424
0.03520883 0.13848187 0.04289161 0.10000552 0.22275335 0.017143404 0.039216492 -0.088041104
0.1353204 0.18772809 -0.15753882 0.21040522 0.044380054 -0.057848927 -0.24093965 -0.25215778
-0.1761919 -0.19182386 -0.18311971 -0.0688038 -0.20657535 -0.20368846 -0.009881413 -0.21244061
-0.014476354 0.054703243 0.051597416 0.1487342 0.12200051 -0.13911009 -0.10076756 -0.006417612
0.1902257 0.11342553 -0.13211736 -0.020596625 0.022832487 0.09377263 -0.087420195 -0.19865197
-0.16347024 0.017200565 -0.16422592 0.051142804 0.15622069 -0.009408396 0.121314995 0.13866834
0.15671359 -0.2155976 0.22377373 0.060794793 -0.24092788 0.06578821 -0.16236167 0.2030704
0.20067257 -0.15679304 -0.1817702 0.018286996 -0.06833957 0.083693035 -0.22958592 0.17072672
0.019063676 0.0046224906 -0.1571399 0.011666944 0.15444717 0.2348116 -0.15270337 -0.09072292
0.05096056 0.12698372 -0.20199758 -0.101145536 -0.1886216 0.20629375 -0.071536906 0.15472426
0.11484599 0.014123734 0.056058742 0.1704543 -0.030832537 0.100897275 -0.04211661 -0.001975707
0.09665105 -0.20895875 -0.13239443 -0.19733937 -0.07752784 0.0033392806 0.10245557 -0.2158864
00000000: 4dec 2b3e ace8 24be 2d74 413e e643 163e
00000010: 3384 503e 9881 32be 54a8 2cbe ea7d d53d
00000020: bad6 6cbe dcca 773e 95ec 6a3d f3ee 013d
00000030: d852 42be eed5 893d 1a8b c63d ada2 003d
00000040: 2da6 673e 9ec5 8e3d 1a77 57be c909 453e
00000050: f041 863d 0e76 d5bd 3103 75be f98e 013e
00000060: 0b12 693e 9caa 42be 803c cf3c 2c2b a33d
00000070: f793 d8bd 8cb8 f6bc 1a7b 23be aa82 ddbd
00000080: 2fd6 64be 30bb ab39 92c6 263e 692c da3d
00000090: 230d 593e 9656 5dbe 626e 9cbc 4d20 753e
000000a0: 326d 033d 7bc6 9ebd 9c9e 55be fef5 a83d
000000b0: 4c18 573e 07ff 443e 1591 523e ef36 533d
000000c0: 35a4 293e 7a9e 72bd c3f5 463e 5e28 cfbc
000000d0: 48d9 63bd a554 f8bd 1376 f53d b85f 0b3e
000000e0: 8f63 133e f538 2cbe c5c8 febd 76db 653e
000000f0: a0bd fdbd ed28 e8bd 4a65 a7bd da53 a2bd
00000100: 40ec 2bbe b6a5 393e db37 9b3c 850a e43d
00000110: f2b4 3b3e 0be1 18be a4cf 1e3e 71c1 e0bd
00000120: d553 0abd 306d 373e 6848 4e3e 2ac0 543e
00000130: edf0 eb3d 8245 583e 4511 b7bd 83e4 76bc
00000140: c23b 85bd 40c6 08bc 2e8f bebc 0ae9 163e
00000150: 2c8c 1e3e f87c 2fbe 05b4 09be 6261 8ebd
00000160: 1494 5b3d 667f d7bd c169 13be 6fd4 1ebd
00000170: 2a52 edbd 1d28 77bc a394 1ebe 862b 4fbd
00000180: d849 bbbd 650c 29bd 6af0 263e ccbe 2c3e
00000190: 7d42 a7bd 446a 66be 3620 2dbe 170f 45be
000001a0: 9ba1 9fbc 7050 e3bd 2d16 36be feed 8d3d
000001b0: e0e6 8c3c 5880 acbc 37a1 a3bd ef76 513e
000001c0: 15fb 7dbe aff3 a23c 7d2b da3d 9be2 4a3e
000001d0: 1cc0 4dbe c038 17bd c6e0 423e 81c9 2a3d
000001e0: 0662 843d 88a3 cbbd 8346 1f3e 355e aabd
000001f0: 89f8 e6bd cc44 583e 6415 6f3d 8321 1dbc
00000200: 6ad9 31be a1ef 1dbd 5ad7 2ebe d6ce 29be
00000210: cdb4 e5bc 1645 4a3d b570 47be 9811 663e
00000220: e4c4 383e 8a1c 64be 8934 143e fdcc 03be
00000230: 68e1 4bbe 467b 6a3e d16e bfbd 857f abbd
00000240: cc91 c73c d74c 053e 5341 c83c 0e66 46bd
00000250: f59e 163d 1773 05be efdb 28be 55a1 5c3d
00000260: 1e9a dc3c 0f09 e43d f596 c0bd 4392 70be
00000270: bea6 6abd 13f5 70be 3511 c7bc 6f3e fd3d
00000280: 2237 103d 31ce 0d3e 1daf 2f3d b2cf cc3d
00000290: 7419 643e 5370 8c3c 79a1 203d e54e b4bd
000002a0: 6e91 0a3e cb3b 403e db51 21be 7774 573e
000002b0: dcc7 353d fff2 6cbd e2b8 76be d31a 81be
000002c0: a66b 34be 796d 44be bc83 3bbe 02e9 8cbd
000002d0: 7d88 53be b593 50be a6e5 21bc 088a 59be
000002e0: 3b2e 6dbc 8210 603d d057 533d c74d 183e
000002f0: 67db f93d e072 0ebe 395f cebd d54a d2bb
00000300: 87ca 423e a54b e83d c649 07be 41ba a8bc
00000310: 320b bb3c dd0b c03d 5c09 b3bd 6c6b 4bbe
00000320: be64 27be 33e8 8c3c d72a 28be 1e7b 513d
00000330: 51f8 1f3e ac25 1abc ff73 f83d 13ff 0d3e
00000340: 8779 203e 9ec5 5cbe f124 653e f603 793d
00000350: ccb5 76be f8bb 863d 2342 26be b0f1 4f3e
00000360: 1c7d 4d3e 5b8e 20be f821 3abe 9cce 953c
00000370: 9ef5 8bbd 4167 ab3d 9218 6bbe fcd2 2e3e
00000380: 6d2b 9c3c 4378 973b 48e9 20be b626 3f3c
00000390: 6627 1e3e 7472 703e 465e 1cbe f0cc b9bd
000003a0: 05bc 503d 0508 023e 74d8 4ebe 6425 cfbd
000003b0: 0526 41be ab3e 533e f181 92bd 0970 1e3e
000003c0: 6034 eb3d 3c67 673c da9d 653d 928b 2e3e
000003d0: 8494 fcbc 3ba3 ce3d 7782 2cbd dd7a 01bb
000003e0: fcf0 c53d 48f9 55be 6892 07be 5513 4abe
000003f0: ebc6 9ebd d5d7 5a3b 3ad4 d13d 5311 5dbe

l1.bias f4 [400]
-0.008311607 0.07322316 0.052612122 0.19618067 -0.1243171 -0.039909035 0.16722576 -0.0025140042
-0.13362087 -0.030980038 0.053513482 0.0049450514 0.044378594 0.09650444 -0.053158533 -0.036588572
0.20567045 0.08155238 0.20420377 0.22216897 -0.20183475 -0.12700571 0.11516071 0.15029538
-0.2180297 -0.19836463 0.12145092 -0.062246848 -0.14511888 0.1666557 0.110008985 0.19802514
-0.09916412 0.009959411 0.030420352 -0.021164874 0.098109834 0.00683181 -0.050522115 0.018587733
-0.2362991 0.038277406 0.025276989 -0.06645702 0.22624741 0.2080542 -0.08990396 0.08303573
-0.2240882 0.13223939 0.13459477 -0.11580938 -0.2092205 -0.17014807 0.061284866 -0.22269064
0.1011206 -0.101295084 -0.20836216 0.0026752374 -0.21982665 0.20985653 0.20667297 -0.18590781
0.13180201 -0.17089319 0.12861528 0.2323601 -0.06621146 0.009680868 -0.02863556 -0.17773996
-0.22275968 -0.08571785 0.21888433 0.065527774 -0.032017678 -0.24313244 0.08491714 0.13004453
0.088296376 -0.23645672 -0.223013 -0.036574557 0.17350385 -0.12851977 -0.022451486 0.11001133
-0.010767077 -0.10439773 0.14449592 0.06390989 0.05148104 -0.176532 0.10803869 0.11938842
0.04469391 0.1084221 0.067442246 -0.0383412 0.18979034 0.033739112 0.20180728 0.24093753
0.004426967 0.12405787 0.11731738 0.012602236 -0.11647064 -0.055638604 0.031417828 -0.04418199
0.068443745 -0.1452468 -0.09260328 -0.049003232 -0.123011015 -0.13559338 -0.0023310203 0.15333192
0.019165546 -0.032703668 -0.13885297 -0.18046077 0.03341209 0.20782466 -0.11145099 0.023648389
-0.11115304 0.14243437 -0.042578083 -0.16061974 0.17410897 0.048427727 -0.19365138 -0.17428055
0.14100523 -0.15755582 0.20214975 0.10333329 -0.014627424 0.061582837 -0.16575187 0.059034243
0.180702 -0.12870607 0.0046072006 0.045563728 0.2034349 0.10690941 -0.007816052 0.07413085
0.010098274 -0.19281158 -0.006741312 -0.15090504 -0.12742732 0.065282375 0.19895138 0.0027320164
0.010873532 0.028025953 0.045872174 -0.20639959 0.14483567 0.08543573 0.032744076 -0.019555798
0.06862127 0.21691762 0.013703543 -0.015642304 -0.06989522 0.07773756 0.06167069 0.15228516
-0.04382439 0.05196016 -0.14094968 -0.028261537 0.14739107 0.16244444 0.015256829 0.041312266
-0.035275716 -0.13909368 0.018804485 0.1256135 -0.1328779 -0.123147726 0.042515773 -0.12225198
0.007064664 -0.19403453 0.20152503 0.049017273 0.16251773 0.0020999124 -0.20521554 -0.03066627
-0.05549928 0.16050154 0.043624893 -0.12296905 0.065030634 0.20372723 -0.07188731 -0.18676418
0.18108355 0.006425789 0.04139521 0.06336304 -0.19750322 -0.056080814 -0.13476023 0.22058983
0.19675176 -0.17389978 -0.10723586 0.21519212 -0.11577709 -0.22122586 -0.18940754 -0.11346872
-0.18313508 0.17721978 0.023506496 0.061009083 0.17884633 -0.14453952 -0.21394654 -0.00804516
0.12027114 -0.123350464 0.23534693 0.0054667923 -0.027866805 -0.112670965 0.05197072 0.067240275
-0.091500364 -0.14066568 0.011942263 0.068052694 0.0692974 -0.08591273 -0.0043874327 -0.1858659
-0.107721135 0.018309312 -0.053988874 -0.2266815 -0.1816995 0.0946806 -0.13904586 0.009998498
00000000: 682d 08bc 06f6 953d cf7f 573d 96e3 483e
00000010: f799 febd a877 23bd 3b3d 2b3e fec1 24bb
00000020: e9d3 08be d9c9 fdbc f430 5b3d 190a a23b
00000030: 54c6 353d 1fa4 c53d c3bc 59bd e6dd 15bd
00000040: 469b 523e ef04 a73d cb1a 513e 4380 633e
00000050: c5ad 4ebe c90d 02be 61d9 eb3d 08e7 193e
00000060: 2d43 5fbe 1920 4bbe 43bb f83d 8df6 7ebd
00000070: 0b9a 14be cba7 2a3e 644c e13d 1ac7 4a3e
00000080: 8f16 cbbd cc2c 233c 1a34 f93c f561 adbc
00000090: cfed c83d 60dd df3b 47f0 4ebd 4d45 983c
000000a0: 64f8 71be c5c8 1c3d b011 cf3c 9e1a 88bd
000000b0: 67ad 673e 290c 553e 911f b8bd a30e aa3d
000000c0: 6177 65be c369 073e 36d3 093e 782d edbd
000000d0: e63d 56be 4c3b 2ebe d705 7b3d 0409 64be
000000e0: 5118 cf3d cc73 cfbd e45c 55be 0953 2f3b
000000f0: 3d1a 61be a1e4 563e 14a2 533e 9e5e 3ebe
00000100: 1bf7 063e a0fe 2ebe b9b3 033e ceef 6d3e
00000110: e099 87bd 819c 1e3c 1f95 eabc 7701 36be
00000120: 1d1b 64be d78c afbd 3723 603e 6d33 863d
00000130: f824 03bd b6f7 78be 0ae9 ad3d 652a 053e
00000140: bbd4 b43d b621 72be 855d 64be 34cf 15bd
00000150: feaa 313e b09a 03be 2eec b7bc 9f4d e13d
00000160: 6568 30bc 7ace d5bd bdf6 133e 30e3 823d
00000170: c8dd 523d cec4 34be 6443 dd3d ea81 f43d
00000180: f610 373d 680c de3d 291f 8a3d aa0b 1dbd
00000190: 6658 423e 0632 0a3d 91a6 4e3e 54b8 763e
000001a0: 1710 913b 0d12 fe3d 1844 f03d 9c79 4e3c
000001b0: 2988 eebd 4ee5 63bd fbaf 003d 2df8 34bd
000001c0: 3c2c 8c3d 94bb 14be caa6 bdbd 9db7 48bd
000001d0: 33ed fbbd fed8 0abe 08c4 18bb 0b03 1d3e
000001e0: 1001 9d3c 48f4 05bd 792f 0ebe b5ca 38be
000001f0: 1edb 083d fdcf 543e 6b40 e4bd 44ba c13c
00000200: 34a4 e3bd 51da 113e 5b66 2ebd 8079 24be
00000210: 9f49 323e 275c 463d 8c4c 46be 9a76 32be
00000220: ad63 103e 5056 21be 5800 4f3e 67a0 d33d
00000230: dda7 6fbc 493e 7c3d dcba 29be e4cd 713d
00000240: f209 393e 86cb 03be 00f8 963b 08a1 3a3d
00000250: 3d51 503e 52f3 da3d e60e 00bc ead1 973d
00000260: 3b73 253c 6670 45be 39e6 dcbb da86 1abe
00000270: 4f7c 02be c4b2 853d e9b9 4b3e a10b 333b
00000280: e626 323c af96 e53c 76e4 3b3d 6a5a 53be
00000290: cd4f 143e eef8 ae3d a71e 063d 7b33 a0bc
000002a0: 4f89 8c3d a71f 5e3e d384 603c 4a24 80bc
000002b0: 3a25 8fbd df34 9f3d 689a 7c3d a4f0 1b3e
000002c0: 3481 33bd 2dd4 543d 1d55 10be bd84 e7bc
000002d0: afed 163e d657 263e c7f7 793c 0d37 293d
000002e0: 457d 10bd 936e 0ebe dd0b 9a3c d3a0 003e
000002f0: 2511 08be e034 fcbd 0525 2e3d 3f5f fabd
00000300: b27e e73b fdb0 46be 945c 4e3e 56c6 483d
00000310: 0c6b 263e af9e 093b 0624 52be d437 fbbc
00000320: 3753 63bd 845a 243e 04b0 323d 33d7 fbbd
00000330: c82e 853d df9d 503e a739 93bd 1c3f 3fbe
00000340: f76d 393e 6d8f d23b 068e 293d 7bc4 813d
00000350: 493e 4abe ffb4 65bd 96fe 09be 4de2 613e
00000360: 4b79 493e c912 32be 799e dbbd 535b 5c3e
00000370: 8a1c edbd 0889 62be 0df4 41be 4a62 e8bd
00000380: c387 3bbe 1a79 353e b290 c03c a9e4 793d
00000390: 7e23 373e 2b02 14be cd14 5bbe d9cf 03bc
000003a0: b750 f63d 2b9f fcbd c9fe 703e c722 b33b
000003b0: ed48 e4bc 09c0 e6bd 40df 543d 45b5 893d
000003c0: 8b64 bbbd aa0a 10be 7ba9 433c 365f 8b3d
000003d0: cceb 8d3d 03f3 afbd 74c4 8fbb a153 3ebe
000003e0: e69c dcbd 69fd 953c 7023 5dbd 321f 68be
000003f0: 6f0f 3abe e7e7 c13d 0a62 0ebe bdd0 233c

l2.weight f4 [300, 400]
-0.011940241 0.02196686 0.038237125 0.05062906 -0.021126894 0.0529337 -0.016721899 0.025551995
0.01638398 0.037299003 -0.029253341 -0.040468402 0.013852743 -0.051484786 -0.009917451 0.01851612
0.007746189 -0.008375607 0.042557143 -0.013967843 -0.0016133742 0.028816856 0.02714934 0.026590094
0.05363623 -0.015771065 -0.019200133 -0.02772038 0.08074951 0.02738746 -0.04043012 0.031679653
0.03738963 -0.0557992 0.0089183925 -0.04065281 -0.01194778 -0.00917999 -0.033586092 -0.062555894
-0.020940159 -0.027070213 0.021694329 -0.008446081 0.021147616 0.041279208 0.03559906 0.027697844
-0.020468377 -0.004728294 0.02711761 0.033272613 0.02043563 -0.02442176 -0.0024276846 -0.0022316226
0.0015379308 0.05630399 -0.0033634256 0.033119407 -0.034961447 0.017439894 0.028125763 0.06439894
0.013965482 0.0442192 -0.029981988 -0.02713154 -0.016710436 -0.03577463 0.008249407 -0.012693772
-0.015261401 -0.02948072 0.044189323 -0.008277686 0.026151024 -0.03956972 -0.014209116 0.025035694
-0.02790887 -0.031993933 -0.005766759 0.011215354 -0.037346717 -0.029566549 -0.058171846 -0.001917765
-0.00051657384 -0.018603818 0.050542127 -0.023753483 0.030270994 0.00012869298 -0.037151583 -0.018303601
0.0010799816 0.011296498 -0.04278617 -0.020731507 0.031824097 0.040868085 0.050192945 -0.01978364
-0.016829949 0.05306208 -0.032007154 -0.0091455085 -0.034007587 -0.0033868859 -0.011810837 -0.00011027721
-0.01417796 0.02660342 0.01380826 -0.039718956 -0.0343435 0.03908779 -0.0168563 -0.021268228
-0.029165417 0.03092373 0.047773115 -0.007415314 -0.04168556 -0.02200084 0.025359696 -0.011993171
-0.0046374546 0.041667216 0.016931513 -0.012184786 -0.0062036803 -0.014643942 0.028774127 -0.033134367
-0.03654906 0.032393828 -0.031842362 0.03674495 -0.0055876733 0.03448663 -0.035579957 0.034148593
0.006285609 0.021092337 0.05043448 -0.015912527 -0.01908365 -0.0016979654 0.03004964 -0.023122162
-0.020422636 0.013927955 0.027438259 0.0095000835 -0.0339364 -0.04367411 0.029996838 0.050022177
0.02224506 0.050284043 0.0337575 0.041177027 -0.014243752 -0.006920074 -0.027957335 -0.033756245
0.01699506 -0.016932962 0.019867834 -0.04430289 0.033204246 0.016991898 0.0033177754 0.01584205
0.013691893 0.032789927 0.055517465 0.05276915 -0.013739477 -0.03138387 0.027738146 0.031661708
-0.019596186 0.04086141 -0.030175159 0.0064420914 -0.0023113822 0.05290174 0.035708807 0.019267902
0.035911296 0.041369587 0.047548402 0.01566047 0.021981686 -0.050688576 -0.003999585 0.022713041
0.012946871 -0.020484658 -0.024951234 0.010310087 0.017060576 -0.01868285 -0.03592883 0.059891336
-0.03144937 -0.017590156 -0.00033915328 -0.00774839 0.044162814 0.05576491 0.046265017 -0.041427523
-0.011625874 0.025279008 0.012989287 -0.03278849 0.03032958 0.024420645 -0.04692484 0.04062239
-0.006582728 0.05116918 0.02652758 0.031464003 -0.0014297069 0.044338573 -0.025579317 -0.04514083
0.0015373544 -0.012495499 -0.020989265 -0.013498857 -0.02555312 0.044413336 0.05270835 0.039224286
-0.03800581 -0.0031092528 0.00853629 -0.021975098 -0.023000475 0.045807905 -0.0015537494 0.016018601
0.025413837 -0.013185859 -0.040827822 -0.036879957 -0.00726652 -0.036913846 -0.014392248 0.042389836
00000000: 00a1 43bc d8f3 b33c 889e 1c3d 6b60 4f3d
00000010: 4f12 adbc 02d1 583d 5dfc 88bc 6b52 d13c
00000020: b237 863c d7c6 183d b4a4 efbc 32c2 25bd
00000030: 9ef6 623c b6e1 52bd ce7c 22bc 1eaf 973c
00000040: bed3 fd3b d839 09bc 6650 2e3d 61d9 64bc
00000050: db77 d3ba 5411 ec3c 4b68 de3c 78d3 d93c
00000060: aab1 5b3d 5232 81bc 9949 9dbc da15 e3bc
00000070: 0060 a53d ab5b e03c 0e9a 25bd 86c2 013d
00000080: de25 193d b48d 64bd 731e 123c 9083 26bd
00000090: 9fc0 43bc ab67 16bc 9291 09bd 4e1d 80bd
000000a0: b28a abbc 5ac2 ddbc 4eb8 b13c 6e61 0abc
000000b0: c43d ad3c 6314 293d 52d0 113d 97e6 e23c
000000c0: 4cad a7bc ceef 9abb c025 de3c dd48 083d
000000d0: 9f68 a73c 2510 c8bc ca19 1fbb 6a40 12bb
000000e0: 6594 c93a 039f 663d eb6c 5cbb 37a8 073d
000000f0: bc33 0fbd 1cde 8e3c 0068 e63c 97e3 833d
00000100: 7acf 643c 311f 353d c99c f5bc f742 debc
00000110: 53e4 88bc 6b88 12bd 8528 073c 8af9 4fbc
00000120: f50a 7abc 8d81 f1bc ddff 343d 229f 07bc
00000130: ac3a d63c dc13 22bd 5acd 68bc a817 cd3c
00000140: 24a1 e4bc 120c 03bd 15f7 bcbb 9bc0 373c
00000150: dff8 18bd 8c35 f2bc 9a45 6ebd 845d fbba
00000160: af6a 07ba 0967 98bc 4305 4f3d aa96 c2bc
00000170: e0fa f73c c2f1 0639 422c 18bd 6ff1 95bc
00000180: 2b8e 8d3a f214 393c 8d40 2fbd 1fd5 a9bc
00000190: fc59 023d 4b65 273d 1e97 4d3d 4d11 a2bc
000001a0: f6de 89bc a057 593d ef19 03bd 0bd7 15bc
000001b0: 8a4b 0bbd 84f6 5dbb 3e82 41bc a044 e7b8
000001c0: ad4a 68bc 6aef d93c 0a3c 623c 58b0 22bd
000001d0: c5ab 0cbd 851a 203d 3916 8abc b53a aebc
000001e0: 50ec eebc c353 fd3c bead 433d 2afc f2bb
000001f0: 7abe 2abd 1b3b b4bc 23bf cf3c 017f 44bc
00000200: caf5 97bb 3eab 2a3d f5b3 8a3c b2a2 47bc
00000210: 3e48 cbbb 25ed 6fbc b8b7 eb3c e7b7 07bd
00000220: 78b4 15bd 64af 043d 236d 02bd df81 163d
00000230: cd18 b7bb da41 0d3d 4abc 11bd 65df 0b3d
00000240: 83f7 cd3b d6c9 ac3c 6394 4e3d fd5a 82bc
00000250: 5155 9cbc 448e deba aa2a f63c b06a bdbc
00000260: 5f4d a7bc 1432 643c 33c6 e03c 3da6 1b3c
00000270: e500 0bbd a0e3 32bd eebb f53c 0ee4 4c3d
00000280: 463b b63c a4f6 4d3d 4e45 0a3d 3ea9 283d
00000290: a05e 69bc cac1 e2bb c806 e5bc fd43 0abd
000002a0: 3939 8b3c ffb6 8abc dec1 a23c f276 35bd
000002b0: 2d01 083d 9832 8b3c 096f 593b 30c7 813c
000002c0: f653 603c bb4e 063d 4866 633d 7724 583d
000002d0: 8b1b 61bc 5f8c 00bd 1c3b e33c b5af 013d
000002e0: 2e88 a0bc 4b5e 273d e531 f7bc 2e18 d33b
000002f0: 8f7a 17bb 7faf 583d 6643 123d b8d7 9d3c
00000300: b917 133d 2873 293d 1dc2 423d 634a 803c
00000310: f012 b43c d39e 4fbd f30e 83bb b310 ba3c
00000320: 1d1f 543c 71cf a7bc 8866 ccbc a4eb 283c
00000330: 9fc2 8b3c c70c 99bc 1c2a 13bd 9e50 753d
00000340: 0ed1 00bd 3b19 90bc 62d0 b1b9 35e6 fdbb
00000350: 11e4 343d bf69 643d 6380 3d3d e8af 29bd
00000360: 737a 3ebc ec15 cf3c 05d1 543c 394d 06bd
00000370: bd75 f83c ce0d c83c 4334 40bd aa63 263d
00000380: edb3 d7bb c696 513d 5e50 d93c 66e0 003d
00000390: 0165 bbba 5d9c 353d b78b d1bc 97e5 38bd
000003a0: 0e81 c93a ecb9 4cbc aef1 abbc 4f2a 5dbc
000003b0: c754 d1bc c2ea 353d b6e4 573d a5a9 203d
000003c0: fbab 1bbd 9bc4 4bbb ccdb 0b3c 1f05 b4bc
000003d0: 7e6b bcbc 12a1 3b3d 2ea7 cbba 7139 833c
000003e0: ae30 d03c 8009 58bc 133b 27bd 700f 17bd
000003f0: fd1b eebb f932 17bd 77cd 6bbc f7a0 2d3d

l2.bias f4 [300]
0.023378465 -0.05340626 -0.023748878 0.04566466 -0.052863035 0.011416198 0.030953376 -0.0018194723
0.010323377 -0.020232635 0.032464772 0.021517303 -0.016138462 -0.028240094 -0.01810041 0.044764794
-0.020826133 -0.04762173 0.056692615 -0.034871686 0.002940833 -0.040453397 0.05723579 0.02032456
-0.05337661 0.036684655 0.00045029324 0.029861381 0.051785264 -0.048746638 0.04160473 0.036084864
0.026140027 -0.028481917 -0.05907092 -0.025420316 0.044441145 -0.038975257 -0.024380043 0.034469895
-0.033496078 0.057049092 -0.05262154 0.056054518 -0.009132075 -0.0388552 0.031242112 0.044395123
0.029606894 0.008825889 0.02183441 0.042562984 -0.01900995 0.04488538 -0.017959746 0.044454075
0.019001242 0.0076117953 0.0074365516 0.02789768 0.016057037 -3.5978173e-06 0.0062558027 0.013100625
0.010653373 0.008610852 -0.027126351 0.048027 -0.005659748 0.03660947 -0.038355365 -0.026209861
0.018613758 -0.0049826666 -0.024948983 0.011210689 0.033974774 -0.02364056 0.0077780676 -0.006990086
-0.021101749 0.003300013 -0.045039732 -0.012894137 0.01163233 -0.048706464 -0.022780454 -0.027208235
-0.01426916 -0.015932074 -0.028708303 -0.006578596 -0.023266444 -0.00077028846 -0.03317226 -0.0035427231
0.013037783 0.014842999 -0.041273743 -0.030957863 0.01953337 -0.015164566 -0.052505616 -0.05030882
-0.024887618 -0.02219382 -0.0005690778 0.050265916 0.017233659 -0.031306755 -0.009398071 0.03169929
0.015772987 -0.016883653 0.04192568 -0.025527174 0.00298364 0.019717798 -0.008851965 0.020400366
-0.0031830766 0.041125383 0.03611629 -0.026348624 0.023787376 0.017084705 0.046727654 0.008839485
-0.024187839 -0.030737573 -0.017839905 0.009999446 0.0015763405 -0.028570637 -0.015101495 0.02917731
-0.013178868 0.007847738 -0.011789507 0.04625495 0.046565037 0.026348235 -0.02017121 0.038464528
0.05177152 0.050540715 -0.035037212 -0.018771507 -0.023008479 -0.015990676 -0.0015174712 -0.016670184
-0.008258505 -0.03281306 -0.046065245 -0.0032837926 0.0755451 -0.047953214 0.030517086 -0.012406535
0.0074623562 -0.02904539 -0.0310685 -0.0057657277 0.025378939 0.03747178 0.00019696678 0.03390906
-0.0001825743 -0.04764098 -0.036885116 -0.0103973355 -0.039035574 0.02228517 -0.007807489 -0.025227621
-0.025936563 -0.05222695 -0.0055413414 0.024979364 -0.026734095 0.043250766 -0.03404726 -0.028943598
0.023064697 -0.040258568 0.030161258 -0.02261479 -0.009757119 0.02286772 -0.01348688 0.039681036
-0.013622683 0.031755697 -0.019692205 0.04277048 0.011682062 0.029652597 0.026672326 0.04404075
-0.0053591058 0.0051197405 -0.0070035835 -0.027607167 -0.05064123 -0.03628422 -0.02425866 -0.043101173
-0.027664753 0.0047240853 -0.0018846694 0.037164774 0.027990334 -0.0031137317 -0.03706812 -0.038296845
-0.033695478 -0.005453421 0.031892303 -0.017997585 -0.028819596 0.012591816 0.030913893 -0.014958253
-0.0024625012 -0.041690525 -0.01850542 0.003532632 -0.048423305 0.027607169 0.029068463 0.0086694565
0.006973854 -0.028123282 -0.013155196 -0.05068195 0.01147391 0.019780872 -0.011572953 -0.049109947
-0.042712837 0.013482244 -0.05079296 -0.008186204 -0.012949376 -0.029478453 0.06538418 -0.046702974
-0.03617505 0.0061921934 -0.021422548 -0.037583318 0.009521325 0.043212548 0.010945278 -0.03829913
00000000: 3284 bf3c 86c0 5abd 028d c2bc de0a 3b3d
00000010: e986 58bd 010b 3b3c ef91 fd3c 5c7b eeba
00000020: 6223 293c e9be a5bc c8f9 043d 0e45 b03c
00000030: cf34 84bc c557 e7bc 5047 94bc 4a5b 373d
00000040: 919b aabc 010f 43bd 8436 683d 9dd5 0ebd
00000050: feba 403b 76b2 25bd 1370 6a3d b17f a63c
00000060: 6fa1 5abd a642 163d 5615 ec39 db9f f43c
00000070: c91c 543d 8eaa 47bd b969 2a3d b9cd 133d
00000080: 9c23 d63c e952 e9bc 59f4 71bd 443e d0bc
00000090: eb07 363d 85a4 1fbd a8b8 c7bc 4e30 0d3d
000000a0: 2f33 09bd 4fac 693d af89 57bd 6c99 653d
000000b0: b39e 15bc a126 1fbd 75ef ff3c a9d7 353d
000000c0: 288a f23c 769a 103c 14de b23c 8656 2e3d
000000d0: c1ba 9bbc bbd9 373d 5120 93bc 7a15 363d
000000e0: 7ea8 9b3c 5e6c f93b 51ae f33b ad89 e43c
000000f0: 0c8a 833c 0872 71b6 7afd cc3b 01a4 563c
00000100: 7c8b 2e3c 8814 0d3c 1538 debc f6b7 443d
00000110: 6875 b9bb d0f3 153d 841a 1dbd 10b6 d6bc
00000120: e17b 983c a345 a3bb cf61 ccbc 0aad 373c
00000130: 2229 0b3d d9a9 c1bc 29df fe3b 170d e5bb
00000140: 93dd acbc 0845 583b 957b 38bd ee41 53bc
00000150: 8795 3e3c 6e80 47bd 139e babc cee3 debc
00000160: 32c9 69bc fb83 82bc ad2d ebbc 4391 d7bb
00000170: 4599 bebc 2fed 49ba a3df 07bd 082d 68bb
00000180: 6d9c 553c 0d30 733c a80e 29bd 589b fdbc
00000190: 7204 a03c cd74 78bc 2110 57bd 9f10 4ebd
000001a0: 1ee1 cbbc d0cf b5bc 2a2e 15ba a2e3 4d3d
000001b0: 9a2d 8d3c 833b 00bd 5efa 19bc 1dd7 013d
000001c0: 5a36 813c 964f 8abc 43ba 2b3d 5d1e d1bc
000001d0: 2c89 433b 3887 a13c d507 11bc ab1e a73c
000001e0: 2a9b 50bb 1773 283d adee 133d 12d9 d7bc
000001f0: bedd c23c 39f5 8b3c 7f65 3f3d 7dd3 103c
00000200: 9325 c6bc 5dcd fbbc fe24 92bc b7d4 233c
00000210: 369d ce3a f80c eabc 436c 77bc 4105 ef3c
00000220: 2eec 57bc cd93 003c c728 41bc d575 3d3d
00000230: fbba 3e3d 41d8 d73c 183e a5bc fb8c 1d3d
00000240: 600e 543d c803 4f3d 2e83 0fbd b4c6 99bc
00000250: 477c bcbc e1fe 82bc e2e5 c6ba e98f 88bc
00000260: ae4e 07bc fd66 06bd e9ae 3cbd e634 57bb
00000270: 64b7 9a3d 976a 44bd f8fe f93c c844 4bbc
00000280: c886 f43b 99f0 edbc 5e83 febc 6eee bcbb
00000290: 7ee7 cf3c 027c 193d de88 4e39 3ae4 0a3d
000002a0: 6a71 3fb9 3023 43bd d914 17bd 9659 2abc
000002b0: c4e3 1fbd 648f b63c f7d5 ffbb 28aa cebc
000002c0: ea78 d4bc edeb 55bd 2494 b5bb 86a1 cc3c
000002d0: 7601 dbbc b727 313d 2475 0bbd 201b edbc
000002e0: 2df2 bc3c 2be6 24bd be14 f73c a742 b9bc
000002f0: 53dc 1fbc 1655 bb3c 13f8 5cbc 9588 223d
00000300: ac31 5fbc 4312 023d 8c51 a1bc 1930 2f3d
00000310: 1f66 3f3c 01ea f23c ec7f da3c 1364 343d
00000320: 709b afbb 7fc3 a73b 517e e5bb 6d28 e2bc
00000330: 2e6d 4fbd c39e 14bd 19ba c6bc db8a 30bd
00000340: 31a1 e2bc 80cc 9a3b 0307 f7ba 173a 183d
00000350: fc4b e53c c00f 4cbb bed4 17bd 27dd 1cbd
00000360: 4504 0abd 9cb2 b2bb 81a1 023d ac6f 93bc
00000370: 1317 ecbc e74d 4e3c 223f fd3c 7613 75bc
00000380: ea61 21bb afc3 2abd ae98 97bc bb83 673b
00000390: 8457 46bd 6e28 e23c fc20 ee3c 560a 0e3c
000003a0: ed84 e43b cc62 e6bc e488 57bc e097 4fbd
000003b0: 11fd 3b3c 7f0b a23c 7c9c 3dbc 8327 49bd
000003c0: a8f3 2ebd a1e4 5c3c 470c 50bd 6e1f 06bc
000003d0: 9f29 54bc cc7c f1bc 24e8 853d 9e4b 3fbd
000003e0: 4a2c 14bd e2e7 ca3b 577e afbc f7f0 19bd
000003f0: 55ff 1b3c a4ff 303d d353 333c 8cdf 1cbd

l3.weight f4 [4, 300]
0.050442845 -0.013902894 -0.005220868 0.00819934 0.044693474 -0.027414523 0.029652389 -0.017991902
-0.04874177 -0.016411832 0.01582716 0.061401926 -0.041366823 -0.0098667005 -0.015487012 -0.010884785
0.054873962 -0.04348847 0.010120673 0.042400736 -0.039519865 0.010138315 0.054037143 -0.017692158
-0.014010043 0.0066054515 0.0023462991 0.05024254 0.0024322767 0.030447714 0.018290276 -0.022161
-0.04721099 -0.031063616 -0.01029106 0.050949346 0.000103901315 0.0017135513 -0.033359684 -0.0032392847
-0.08795474 0.02965168 -0.047632474 0.052156318 -0.021167673 0.015325881 -0.03432884 0.0004016546
0.027238952 0.018956535 0.003691535 0.042922623 0.031211887 -0.041116677 -0.026850024 -0.04593736
0.054584395 0.06174898 -0.031352878 0.021680417 0.05900798 0.054216225 0.050240763 0.022810467
0.0060919286 0.042769574 -0.01771695 -0.0003697299 0.062196407 -0.040533483 -0.02567049 -0.00067242596
-0.024841322 0.06389479 0.05824483 0.0076892776 0.02365151 -0.035420254 0.06252695 0.028294126
0.0055075316 -0.05346632 0.058582325 0.024180928 -0.051236905 -0.040156465 0.030443747 -0.04595106
0.017550636 -0.028990315 0.063879356 0.05863791 -0.014946577 -0.025574002 0.0589115 -0.0030012971
-0.014708024 -0.041021172 -0.050362058 -0.017753655 0.034098897 -0.041129638 0.06377412 0.03684046
0.0012942393 0.01504853 0.0529875 -0.026964817 -0.042387743 0.03817011 0.028997254 -0.031897936
0.005885231 0.044101745 -0.009833466 0.053699445 -0.0090915775 -0.023826497 0.011281105 0.01730432
0.057724934 -0.026157685 -0.02133057 -0.0057173725 -0.015485979 0.005343331 0.05656789 0.0209274
0.0259506 0.0023731017 0.018790575 -0.038556095 0.046728827 0.0093376115 -0.049463775 -0.0049637123
0.009433106 0.0044360887 -0.016857624 0.04807568 -0.020244177 -0.03731152 -0.047712885 -0.03007549
0.023123797 0.0068448624 0.06004592 0.04460005 0.04053371 -0.0071894247 0.04919921 -0.020666923
-0.03214243 0.01244893 0.03267485 0.017509408 -0.04744954 -0.015435756 -0.030189555 -0.015429335
-0.002247425 -0.03143487 0.0019595884 0.036642153 -0.031606734 0.044792496 0.037805457 0.037792116
0.017633762 0.04042041 0.031093258 0.00231296 0.0466101 -0.042537153 0.031351175 0.031289786
0.01457675 0.0007838775 -0.03653667 0.024718506 0.024119042 0.036826998 -0.01695099 0.013788631
0.037680548 0.056664493 0.041434612 0.044736743 -0.03206533 -0.03611118 0.05099661 0.0002567852
0.05118274 0.04216615 -0.054215625 0.005382925 0.053332567 0.041978385 0.029716445 0.05495483
0.05525254 -0.028669875 -0.0040784567 0.051547375 0.0050531076 -0.026924442 0.025021954 0.062438022
0.0050714314 -0.031838216 0.03659554 0.04436593 0.02984689 -0.05768281 0.052442484 0.03546385
-0.033101495 0.03225696 0.05431335 0.016753767 -0.037859477 0.061344836 0.038292155 0.022329094
0.0025714613 0.045005668 -0.015729308 -0.029920591 0.019528864 0.017178195 -0.037486613 0.060033273
0.017596073 -0.0410557 0.034215596 -0.03920524 -0.022819126 -0.0047580833 -0.020315513 0.009470348
-0.024383472 -0.016645145 0.008094032 0.017504476 0.013551957 -0.015846541 -0.06218736 0.025546817
0.02193063 -0.019153565 -0.005287982 -0.043330908 -0.006153503 -0.02436048 0.0120274415 0.046516165
00000000: 289d 4e3d f7c8 63bc d113 abbb 8656 063c
00000010: 8110 373d 6c94 e0bc 91e9 f23c c163 93bc
00000020: 73a5 47bd 1b72 86bc f6a7 813c 9680 7b3d
00000030: 4270 29bd f1a7 21bc 3dbd 7dbc 1956 32bc
00000040: 85c3 603d f720 32bd 2ed1 253c 65ac 2d3d
00000050: 95df 21bd 2d1b 263c 0d56 5d3d 25ef 90bc
00000060: 618a 65bc 8b72 d83b 5ec4 193b 1fcb 4d3d
00000070: d566 1f3b 7c6d f93c 7dd5 953c fc8a b5bc
00000080: 5060 41bd 2079 febc d69b 28bc 43b0 503d
00000090: 98e5 d938 3e99 e03a 2aa4 08bd 2e4a 54bb
000000a0: 9d21 b4bd 14e8 f23c 451a 43bd dda1 553d
000000b0: d467 adbc 6719 7b3c 669c 0cbd 2b95 d239
000000c0: 3924 df3c bc4a 9b3c aeed 713b a2cf 2f3d
000000d0: 12b0 ff3c f669 28bd 95f4 dbbc d028 3cbd
000000e0: e393 5f3d 80ec 7c3d e06b 00bd 219b b13c
000000f0: 5ab2 713d d511 5e3d 42c9 4d3d 04dd ba3c
00000100: cd9e c73b 262f 2f3d 2323 91bc 4fd8 c1b9
00000110: a9c1 7e3d 7006 26bd eb4a d2bc be45 30ba
00000120: 0780 cbbc 46db 823d 2292 6e3d 56f6 fb3b
00000130: d0c0 c13c d414 11bd 210e 803d 15c9 e73c
00000140: 8678 b43b 80ff 5abd 05f4 6f3d 1517 c63c
00000150: cadd 51bd 1b7b 24bd 2a65 f93c 2e37 3cbd
00000160: 5ac6 8f3c 197d edbc 2ed3 823d 4e2e 703d
00000170: 7de2 74bc 9280 d1bc 2f4d 713d 69b1 44bb
00000180: edf9 70bc d105 28bd 7248 4ebd 1d70 91bc
00000190: 49ab 0b3d 8d77 28bd 019c 823d 06e6 163d
000001a0: 77a3 a93a 1c8e 763c 6c09 593d 52e5 dcbc
000001b0: c59e 2dbd 4358 1c3d a68b ed3c 69a7 02bd
000001c0: e5d8 c03b 08a4 343d 8c1c 21bc f3f3 5b3d
000001d0: d7f4 14bc c92f c3bc 62d4 383c cac1 8d3c
000001e0: fb70 6c3d a448 d6bc 73bd aebc cc58 bbbb
000001f0: e7b8 7dbc 1c17 af3b bbb3 673d f06f ab3c
00000200: 5a96 d43c 0a86 1b3b b1ee 993c ffec 1dbd
00000210: ba66 3f3d c8fc 183c 879a 4abd a3a6 a2bb
00000220: 508d 1a3c 9c5c 913b 0019 8abc 01eb 443d
00000230: 1ed7 a5bc f7d3 18bd 966e 43bd e060 f6bc
00000240: 1e6e bd3c de4a e03b b6f2 753d 8bae 363d
00000250: ad06 263d 4495 ebbb 1c85 493d ae4d a9bc
00000260: c8a7 03bd 99f6 4b3c 10d6 053d e46f 8f3c
00000270: 735a 42bd 41e6 7cbc 1650 f7bc 52cb 7cbc
00000280: 8949 13bb dac1 00bd 706c 003b 1516 163d
00000290: 1076 01bd 5678 373d e5d9 1a3d e8cb 1a3d
000002a0: ae74 903c df8f 253d 4ab7 fe3c 0895 173b
000002b0: 3bea 3e3d 703b 2ebd 176a 003d b829 003d
000002c0: 52d3 6e3c 217d 4d3a 7aa7 15bd 777e ca3c
000002d0: 4c95 c53c e8d7 163d cddc 8abc b6e9 613c
000002e0: eb56 1a3d 0719 683d 57b7 293d e03d 373d
000002f0: ef56 03bd 51e9 13bd d2e1 503d 20a1 8639
00000300: fea4 513d 6ab6 2c3d 3411 5ebd 3f63 b03b
00000310: 4073 5a3d 87f1 2b3d e76f f33c 5118 613d
00000320: 7d50 623d 16dd eabc 93a4 85bb 5723 533d
00000330: 8a94 a53b a690 dcbc d7fa cc3c 03bf 7f3d
00000340: 402e a63b ca68 02bd 34e5 153d 0db9 353d
00000350: 7781 f43c cf44 6cbd eecd 563d 8b42 113d
00000360: 6f95 07bd e01f 043d ad77 5e3d 323f 893c
00000370: 8a12 1bbd b944 7b3d 3cd8 1c3d 81eb b63c
00000380: f685 283b dd57 383d c0da 80bc 071c f5bc
00000390: fffa 9f3c 49b9 8c3c 908b 19bd 73e5 753d
000003a0: a425 903c 062a 28bd a725 0c3d ac95 20bd
000003b0: 2def babc b2e9 9bbb b86c a6bc 8529 1b3c
000003c0: d9bf c7bc 665b 88bc d59c 043c 8c65 8f3c
000003d0: 0709 5e3c 9bd0 81bc 2cb8 7ebd 8f47 d13c
000003e0: dda7 b33c f0e7 9cbc cf46 adbb c07b 31bd
000003f0: 53a3 c9bb a18f c7bc bf0e 453c bc87 3e3d

l3.bias f4 [4]
0.04687879 -0.029623475 0.021329178 0.048188165
00000000: f903 403d eeac f2bc 87ba ae3c f460 453d
