TD3/saves/best_avg_actor.pth (torch, 518693 bytes, 6 tensors)

l1.weight f4 [400, 18]
0	0x3fa1acc8	1.2630854
1	0xbf8b4594	-1.0880609
2	0xbe06807d	-0.13134952
3	0x3f3a9aac	0.7289226
4	0xbd4ad1d8	-0.04951653
5	0x3e8d73a2	0.27627283
6	0xbe9588fc	-0.29206073
7	0x3dd6c273	0.10486307
8	0xbf1346bb	-0.575298
9	0x3f006eb4	0.5016892
10	0xbe44637f	-0.1917858
11	0xbf9a206c	-1.2041144
12	0xbf8c299d	-1.0950199
13	0xbf65de00	-0.8979187
14	0xbd10bfaa	-0.035339035
15	0x3d9dea17	0.07710665
16	0x3e07a5db	0.13246863
17	0xbf758c01	-0.95916754
18	0x3fb56815	1.4172388
19	0x3e8db03c	0.2767352
20	0x3e71b8d9	0.2360567
21	0xbcc8fd23	-0.024534767
22	0x3cf826e4	0.030291982
23	0xbe982ec1	-0.2972317
24	0x3d343165	0.04399242
25	0x3f9f605e	1.2451284
26	0xbf54be4c	-0.8310287
27	0xbf21f568	-0.63265085
28	0xbbd991cf	-0.006639696
29	0x3e78ed71	0.24309327
30	0xbf2510d4	-0.644788
31	0x3f82136c	1.0162177
32	0xbcb2f9ad	-0.02184757
33	0xbde02363	-0.109442495
34	0x3dd898ce	0.1057602
35	0xbf2830c6	-0.6569942
36	0x3fb5966f	1.4186534
37	0x3e977ce8	0.29587483
38	0xbeb430b6	-0.35193413
39	0x3efebd65	0.49753872
40	0xbc41f2fa	-0.011837715
41	0x3d9e8472	0.07740106
42	0xbf4ef169	-0.8083711
43	0x3f596d0b	0.8493201
44	0x401e7395	2.4758046
45	0x3f14cf86	0.58129156
46	0xbe87b118	-0.265023
47	0xbe4db379	-0.20087995
48	0x3f655213	0.8957836
49	0xbb8b7119	-0.0042554257
50	0x3e291e5f	0.16515492
51	0xbdc8ed9c	-0.098109454
52	0x3e8abe0c	0.2709812
53	0x3da88a6e	0.08229528
54	0x3f83687e	1.0266263
55	0x3f808fe2	1.004391
56	0x3b9ea33f	0.004841238
57	0xbea09e18	-0.31370616
58	0xbf38819b	-0.7207276
59	0x3e9f9d86	0.31174868
60	0xbf3dc0c5	-0.7412227
61	0xbf059d83	-0.5219347
62	0x3f70dbf2	0.9408561
63	0x3d311741	0.043235067
64	0xbe4654c7	-0.19368277
65	0xbf3e23c5	-0.7427333
66	0x3f920aeb	1.1409582
67	0xbeca27ce	-0.39483494
68	0xbd8dfa85	-0.069325484
69	0x3e6e968f	0.23299621
70	0xba9213d3	-0.0011144824
71	0xbfca4eea	-1.5805333
72	0x3c2c54f9	0.010518306
73	0xbebf657a	-0.37382108
74	0x400aaa66	2.1666503
75	0xbeaf8314	-0.34279692
76	0x3e98f914	0.29877532
77	0x3eb5861e	0.35453886
78	0xbf415cc5	-0.7553218
79	0x3ea8e7bd	0.32989302
80	0x3fb61e94	1.4228082
81	0xbe50ea16	-0.20401797
82	0x3f22236f	0.6333532
83	0x3ee9436e	0.45559257
84	0x3e34aa9e	0.1764321
85	0xbf8363f7	-1.0264882
86	0xbe433533	-0.19063263
87	0xbef4d2fe	-0.47817224
88	0xbf92f70c	-1.1481643
89	0xbf9026b1	-1.1261808
90	0x3f4ee1cf	0.80813307
91	0x3dc8940c	0.09793863
92	0x3faa12f3	1.3287033
93	0x3eb4bcd0	0.35300303
94	0x3ee38bf9	0.44442728
95	0x3e43e34a	0.19129673
96	0xbf456cc7	-0.77119106
97	0x3f682be8	0.90691996
98	0xbf4043cf	-0.7510347
99	0x3f254ca2	0.6457006
100	0xbec9f678	-0.39445853
101	0xbf5c55de	-0.8606852
102	0xbe9af8e6	-0.3026802
103	0xbe21bf44	-0.15795618
104	0x3d811879	0.06303496
105	0x3ee792a3	0.45229062
106	0xbf04298d	-0.516259
107	0xbe9cb622	-0.30607706
108	0x3fefbb15	1.8728968
109	0xbd8e23cc	-0.069404215
110	0xbf55e039	-0.8354526
111	0x3ef7c63d	0.4839343
112	0x3d1ce435	0.038303573
113	0x3da8918a	0.082308844
114	0xbeec3e99	-0.46141508
115	0x3f1f0c73	0.6212837
116	0xbfd47ac3	-1.6599964
117	0xbd197074	-0.03746076
118	0xbefc6538	-0.49295974
119	0xbe5ba92f	-0.21451257
120	0xbe286a1d	-0.16446729
121	0xbed2108d	-0.41028252
122	0x3cbff12d	0.023430431
123	0xbed0fd11	-0.40818074
124	0xbf047ef8	-0.5175624
125	0x3ebd2b13	0.36946926
126	0x3f9c7e08	1.2225962
127	0x3e14fd90	0.14549851
128	0x3d960c1a	0.07326527
129	0x3ea65020	0.32483006
130	0xbeb408d4	-0.35162985
131	0x3db066ff	0.08613395
132	0xbf953aaa	-1.1658528
133	0x3f1c52b0	0.6106367
134	0x3e20cd02	0.15703204
135	0x3d1a4c5e	0.037670486
136	0xbef372bb	-0.4754847
137	0xbf50d59e	-0.81575954
138	0xbe04b649	-0.12960161
139	0xbf46c33e	-0.77641666
140	0xbd0e1c07	-0.034694698
141	0xbdade0c4	-0.08490136
142	0xbee64918	-0.4497764
143	0x3b5c9103	0.003365577
144	0x3f5a4343	0.85258883
145	0x3f465461	0.774725
146	0x3e88f61f	0.26750275
147	0x3e1a1772	0.15048006
148	0xbc937519	-0.018000172
149	0xbdb4c909	-0.08827407
150	0xbef158d0	-0.4713807
151	0xbf514f6a	-0.817618
152	0x3fe1d56c	1.7643256
153	0x3f23b055	0.63940936
154	0x3e0760ec	0.13220567
155	0x3e4fa20f	0.20276664
156	0x3f74125c	0.95340514
157	0xbf7ae062	-0.9799863
158	0x3e0c8ab9	0.13724793
159	0x3db3f3aa	0.087867096
160	0x3f0c16ef	0.54722494
161	0x3e833fd7	0.25634643
162	0x3f9ee353	1.2413124
163	0xbebd9c0e	-0.37033123
164	0x3dc663b4	0.096869856
165	0x3dde04ce	0.1084076
166	0x3ce500ad	0.027954424
167	0x3e97ee33	0.2967392
168	0xbd61c934	-0.055123523
169	0x3efa5001	0.48889163
170	0x4046f37d	3.1086113
171	0x3efe9f48	0.49730897
172	0x3e9201a6	0.28516883
173	0x3dfe5c58	0.12419957
174	0xbdf939d2	-0.121692315
175	0xbfe3d4db	-1.7799333
176	0xbe2abe95	-0.16674264
177	0xbd2d7a43	-0.042352926
178	0xbf830b0e	-1.0237749
179	0x3e9a62e2	0.30153567
180	0x3f39b7cd	0.7254608
181	0xbf57162b	-0.840182
182	0x3df31aa6	0.11870317
183	0xbc762fad	-0.015026015
184	0xbe03b424	-0.12861687
185	0xbedf80e0	-0.4365301
186	0xbf7cfbc5	-0.9882167
187	0x3f97dfe7	1.1865205
188	0x3f5dabd7	0.8659033
189	0xbf528180	-0.8222885
190	0xbeba3aa7	-0.36372873
191	0x3ec4cb6e	0.38436455
192	0x3e867ee0	0.26268673
193	0x3f43a415	0.76422244
194	0xbe77a76b	-0.24184959
195	0x3e2f734c	0.17133826
196	0xbeb3cfa5	-0.35119358
197	0xbf08438e	-0.5322808
198	0x3faa9a13	1.332827
199	0xbe88d100	-0.26721954
200	0x3fb5473b	1.4162363
201	0x3dfca601	0.1233635
202	0xbef4b2a4	-0.47792542
203	0x3e6d6b5c	0.23185486
204	0xbf816582	-1.0109103
205	0x3fcc4ba2	1.5960581
206	0xbf076cba	-0.5290028
207	0xbea705ca	-0.32621604
208	0xbd9d54c0	-0.076821804
209	0x3e269abc	0.16269964
210	0x3d5f4a1a	0.054514028
211	0x3f4a4fec	0.790282
212	0xbe0edae5	-0.13950689
213	0x3e8068a5	0.25079837
214	0xbe872a3f	-0.2639942
215	0xbf24f2e9	-0.6443315
216	0x3f33b5e5	0.70199424
217	0x3e09b079	0.13446225
218	0x3fc4e8e9	1.5383579
219	0x3e8a8230	0.2705245
220	0x3e02181b	0.12704508
221	0xbe0de63e	-0.13857362
222	0xbf373b7b	-0.71575135
223	0x40268ff1	2.6025355
224	0xbfcd9e60	-1.6063957
225	0x3e08da3c	0.133645
226	0xbf509a6a	-0.8148562
227	0xbd565347	-0.052325513
228	0x3f064bad	0.5245922
229	0x3ffc8cd9	1.9730483
230	0xbe45033a	-0.19239512
231	0xbd415a54	-0.047205284
232	0x3ea244dc	0.3169316
233	0x3edbfe86	0.42967623
234	0x3e863f59	0.26220205
235	0x3e61dca9	0.22056831
236	0xbe8bd63e	-0.2731189
237	0xbdeaa8f3	-0.11458006
238	0xbecfb144	-0.4056493
239	0x3a4b02bb	0.00077442423
240	0xbf179c12	-0.5922252
241	0x3f8c24c7	1.0948724
242	0x3f881085	1.0630041
243	0x3ec09e9f	0.37621018
244	0xbdf8e23d	-0.121525265
245	0x3eaf9579	0.34293726
246	0x3f307543	0.6892893
247	0x3f59ed13	0.8512737
248	0x3eac6ce2	0.3367682
249	0xbed6e247	-0.4196951
250	0x3dec630c	0.11542329
251	0xbf923de6	-1.142514
252	0x3f67b276	0.90506685
253	0x3fab54cb	1.3385252
254	0x3f320ad0	0.6954775
255	0xbc1e323b	-0.009655531

l1.bias f4 [400]
0	0x3d2a35e5	0.041555304
1	0xbf70e693	-0.9410183
2	0xbe674794	-0.22585899
3	0xbe6a735c	-0.22895569
4	0xbf62f313	-0.8865215
5	0xbe86da78	-0.26338553
6	0xbdf457ef	-0.119308345
7	0xbf9625ac	-1.1730247
8	0x3ccd66e4	0.025073476
9	0xbeda1d06	-0.42600268
10	0xbf67f324	-0.9060538
11	0xbf8e07f8	-1.1096182
12	0xbe901d14	-0.28147185
13	0xbf601677	-0.8753428
14	0xbf3a06d3	-0.7266666
15	0x3b10ca3a	0.0022093193
16	0xbf31f888	-0.69519854
17	0xbf9c2e9d	-1.2201725
18	0xbf2f9821	-0.68591505
19	0xbf89e8d3	-1.0774177
20	0xbdb765fc	-0.08954999
21	0xbeccd70a	-0.40007812
22	0xbea16887	-0.3152506
23	0x3dd814dd	0.10550854
24	0xbf912464	-1.133923
25	0xbf84947a	-1.0357811
26	0xbef2fd68	-0.4745896
27	0xbe99a227	-0.30006525
28	0xbecfa89c	-0.40558326
29	0xbf3e273f	-0.74278635
30	0xbf12f0db	-0.57398766
31	0xbe95c86e	-0.29254478
32	0xbf10893e	-0.56459415
33	0xbf86a4aa	-1.0519001
34	0xbf10c32b	-0.565478
35	0xbf54ab6a	-0.8307406
36	0x3d251b30	0.04030913
37	0xbfb12768	-1.3840151
38	0xbfab402a	-1.3378956
39	0xbf6b5d27	-0.91939014
40	0xbf09393e	-0.5360297
41	0xbf43a0cf	-0.7641725
42	0xbf636604	-0.8882754
43	0xbfa563fb	-1.2921137
44	0xbef9aff1	-0.48767045
45	0xbd52fd20	-0.05151093
46	0xbf0647d8	-0.52453375
47	0xbea92c07	-0.33041403
48	0xbf85350f	-1.0406817
49	0xbeb2edf2	-0.34947163
50	0xbf15828d	-0.5840233
51	0xbe83ae45	-0.25718895
52	0xbfb5a21e	-1.4190099
53	0xbf45dfdb	-0.772947
54	0xbe24ce75	-0.16094382
55	0xbf8d19f1	-1.1023542
56	0x3c11fbea	0.008910159
57	0xbf73cf97	-0.9523863
58	0xbf4a7a50	-0.79092884
59	0xbf4740a5	-0.77833015
60	0xbf234417	-0.6377577
61	0x3f1825f3	0.59432906
62	0xbecda2fa	-0.40163404
63	0xbf09bf4b	-0.53807515
64	0xbe9448c4	-0.28961766
65	0xbf8c19b1	-1.094534
66	0xbf38c597	-0.721765
67	0xbee3b907	-0.44477102
68	0xbf245e40	-0.64206314
69	0xbf3550bc	-0.70826316
70	0xbd0ab8cd	-0.033867646
71	0xbf5f58f1	-0.8724509
72	0xbf44ba01	-0.7684632
73	0xbec3c052	-0.38232666
74	0xbebad726	-0.3649227
75	0xbf82add8	-1.0209303
76	0xbf4c1994	-0.7972653
77	0xbf281d00	-0.6566925
78	0xbf7ca471	-0.9868842
79	0xbf861fd1	-1.047846
80	0xbf45ac2c	-0.7721584
81	0xbf2adc87	-0.6674275
82	0xbf354bf2	-0.7081901
83	0xbf70b99f	-0.94033235
84	0xbe7d6aa1	-0.24747707
85	0xbf99c55a	-1.2013352
86	0xbf1a6bb1	-0.60320574
87	0xbf595866	-0.8490051
88	0xbf981376	-1.1880939
89	0xbf2e248e	-0.6802453
90	0xbf57db1b	-0.84318703
91	0xbf1d7662	-0.6150876
92	0xbd6e2b16	-0.05814656
93	0xbf46caeb	-0.7765338
94	0xbf594702	-0.84873974
95	0xbf287954	-0.6581013
96	0x3e15440c	0.14576739
97	0xbf4e722f	-0.8064298
98	0xbf1bcd15	-0.60859805
99	0xbed78830	-0.4209609
100	0xbf83d434	-1.0299134
101	0xbf192e14	-0.59835935
102	0xbf8532e2	-1.0406153
103	0xbf3dbfe4	-0.74120927
104	0xbe1f5cc8	-0.15562737
105	0xbf528438	-0.82233
106	0xbf7d49d4	-0.9894078
107	0xbf77928f	-0.96708006
108	0xbe80a8c0	-0.25128746
109	0xbe7a668f	-0.24453185
110	0x3f24a247	0.64310116
111	0xbf406b09	-0.7516332
112	0x3dcbff90	0.09960854
113	0xbf833299	-1.0249816
114	0x3dea6937	0.114458494
115	0xbf0ae5a8	-0.5425668
116	0xbf47d0ab	-0.7805278
117	0xbea1782d	-0.31537
118	0xbf5c4336	-0.86040056
119	0xbf2d2024	-0.6762717
120	0xbea5d2b2	-0.3238731
121	0xbe599391	-0.21247698
122	0xbf2987cd	-0.6622284
123	0xbf29eb00	-0.66374207
124	0xbf2b291b	-0.66859597
125	0xbcdd1310	-0.026986629
126	0xbfabab07	-1.3411568
127	0xbf292c0c	-0.66082835
128	0xbf3d6720	-0.7398548
129	0x3d5467a6	0.05185666
130	0xbf93939a	-1.152942
131	0xbf8d3613	-1.1032127
132	0x3e76bca1	0.24095394
133	0xbf6e21dd	-0.9302042
134	0xbf6cedc5	-0.9255031
135	0xbf88f078	-1.0698385
136	0xbf0886f9	-0.5333095
137	0xbefc9798	-0.49334407
138	0xbf052d94	-0.5202267
139	0xbf118da7	-0.5685677
140	0xbe7a7fff	-0.24462889
141	0x3e4042b6	0.18775448
142	0xbf51fcfa	-0.82026637
143	0x3e26dfd5	0.16296323
144	0xbf24271f	-0.64122194
145	0xbea03be4	-0.31295693
146	0xbd905d60	-0.0704906
147	0xbf025790	-0.5091486
148	0xbe14a5f4	-0.14516431
149	0xbe6b37e7	-0.22970544
150	0x3ca22cd4	0.019796766
151	0xbf12ee22	-0.5739461
152	0xbef9f315	-0.4881827
153	0xbf59232d	-0.848193
154	0xbf949dd2	-1.1610663
155	0xbf97fe18	-1.1874418
156	0xbf8f1b33	-1.1180176
157	0xbf998dda	-1.1996415
158	0x3eee3c3c	0.4653033
159	0xbf897fa1	-1.0742074
160	0xbf5852a3	-0.84501094
161	0xbf42364a	-0.7586409
162	0xbf1847da	-0.59484637
163	0xbf6c07fe	-0.92199695
164	0x3e8b9813	0.2726446
165	0xbe14b429	-0.1452185
166	0xbe3375a2	-0.17525342
167	0xbf87e536	-1.0616825
168	0xbe8a7fda	-0.27050668
169	0x3ec48c81	0.38388446
170	0xbfafc9a4	-1.3733411
171	0xbf688694	-0.9083035
172	0xbfb5692f	-1.4172724
173	0xbf285451	-0.65753657
174	0xbf77f2c9	-0.96854836
175	0xbeea0ec1	-0.4571438
176	0xbd823b96	-0.06359021
177	0xbf961206	-1.172425
178	0xbf5dcfc3	-0.86645144
179	0x3df16e4e	0.11788617
180	0x3e8c2748	0.2737372
181	0x3dd1d778	0.102461755
182	0xbf22bcc1	-0.63569266
183	0xbe79b0c4	-0.24383837
184	0xbf641f90	-0.8911066
185	0xbfb45510	-1.4088459
186	0xbf8ad5b7	-1.084647
187	0xbf73d5de	-0.9524821
188	0xbf4d3ee4	-0.8017409
189	0xbea41482	-0.32046896
190	0xbf5d7ce0	-0.8651867
191	0xbf01009b	-0.5039155
192	0xbf2bf03e	-0.67163455
193	0xbf2c7893	-0.6737148
194	0xbf68701f	-0.90796083
195	0xbf4ff078	-0.812263
196	0xbed241a5	-0.41065708
197	0xbf33f13c	-0.7028997
198	0xbf8d26f9	-1.1027519
199	0xbf2700db	-0.6523568
200	0xbfd05506	-1.6275947
201	0xbf34c4dd	-0.7061289
202	0xbedde69d	-0.43340006
203	0xbfc1df73	-1.5146316
204	0xbf707065	-0.939215
205	0xbeaa4591	-0.332562
206	0xbf769fab	-0.96337384
207	0xbf9d4346	-1.2286155
208	0xbe4b2b1f	-0.19840668
209	0xbfa59ee4	-1.2939115
210	0xbf51b8dc	-0.819227
211	0xbf37fb8c	-0.71868205
212	0xbee208b3	-0.44147262
213	0xbf1129d7	-0.5670447
214	0xbf527236	-0.8220552
215	0xbe89351d	-0.26798335
216	0xbe12af55	-0.14324696
217	0xbf9799f7	-1.1843861
218	0xbf866a46	-1.0501182
219	0xbd6abfcc	-0.057311818
220	0xbfd7e018	-1.6865263
221	0xbf7346c3	-0.9502985
222	0xbfa77c5c	-1.3084826
223	0xbf7fed2e	-0.9997128
224	0xbfa88544	-1.316567
225	0xbf00ec8f	-0.5036096
226	0xbf093590	-0.53597355
227	0xbf0f1728	-0.5589471
228	0xbeafa01c	-0.3430184
229	0xbf2730b0	-0.65308666
230	0xbf42a93a	-0.7603947
231	0x3e2c94a3	0.16853575
232	0xbf3f5c76	-0.7475046
233	0x3d19c34e	0.037539773
234	0x3db860ac	0.09002814
235	0xbf2b6c4f	-0.6696214
236	0xbf77f743	-0.96861666
237	0xbf4be21c	-0.7964189
238	0xbf7fb777	-0.9988932
239	0xbe1675ca	-0.1469337
240	0xbf861fdb	-1.0478472
241	0xbf617f34	-0.8808472
242	0xbf7812b4	-0.9690354
243	0xbe04e4e1	-0.12977935
244	0xbf1c3bb1	-0.6102858
245	0xbf98aa33	-1.1926941
246	0xbf50d58c	-0.81575847
247	0xbf488dc7	-0.78341335
248	0xbf939da9	-1.1532489
249	0xbf2e0678	-0.6797862
250	0xbea85dfc	-0.32884204
251	0xbec839e1	-0.39106658
252	0xbf807a7d	-1.003738
253	0xbece2431	-0.40261987
254	0xbf230cf9	-0.6369167
255	0xbe5b2783	-0.21401791

l2.weight f4 [300, 400]
0	0xbd8829e4	-0.06648615
1	0x3e13c29e	0.1442971
2	0x3e941bf8	0.28927588
3	0xbf3b548d	-0.7317589
4	0xbea9403e	-0.33056825
5	0xbecfecc5	-0.40610328
6	0x3e0b76c3	0.13619523
7	0x3f9a98b7	1.2077855
8	0xbe94751a	-0.2899559
9	0xbe003ca1	-0.12523128
10	0x3f2700e1	0.65235716
11	0x3ebdb8c6	0.37055033
12	0xbd8f3ddc	-0.069942206
13	0x3df1f0ec	0.1181353
14	0x3d069c8f	0.03286415
15	0xbf8f6783	-1.1203464
16	0xbf81d8e5	-1.0144316
17	0x3f1e6c54	0.61884046
18	0x3f00794f	0.501851
19	0x3f0d4fca	0.55199873
20	0x3e15485f	0.14578389
21	0x3db8a2cc	0.09015426
22	0xbe8335ca	-0.25626975
23	0xbdfc4cb2	-0.12319316
24	0xbf45ef08	-0.7731786
25	0x3ecccb14	0.39998686
26	0xbe41491a	-0.18875542
27	0x3e99dcc5	0.30051246
28	0x3f0cdda1	0.5502568
29	0xbe230c57	-0.15922676
30	0x3ed5eee1	0.41783813
31	0x3ec4230a	0.38307983
32	0xbb330533	-0.0027316331
33	0xbdd15819	-0.102218814
34	0xbe9c8153	-0.30567417
35	0x3ee71b88	0.45138192
36	0x3eb697c5	0.35662666
37	0xbe9b96f6	-0.30388612
38	0x3e0349bc	0.12821096
39	0x3ed502cb	0.41603693
40	0x3ec3ad28	0.38218045
41	0x3ede0bbe	0.43368334
42	0x3f064410	0.52447605
43	0x3e92deeb	0.28685698
44	0x3e6771de	0.2260203
45	0xbee7ff82	-0.45312124
46	0xbe56dfc3	-0.20983796
47	0x3f04847f	0.51764673
48	0x3e4102f8	0.18848789
49	0x3d805cf3	0.06267729
50	0x3f010c88	0.50409746
51	0x3de23b66	0.110464856
52	0x3e56b006	0.20965585
53	0x3e1d2a9b	0.15348284
54	0xbf9fe0af	-1.2490443
55	0xbd90389d	-0.07042048
56	0x3e88e163	0.26734456
57	0x3f16e3fd	0.5894163
58	0x3cdd766d	0.027034009
59	0xbe892674	-0.2678715
60	0xbd8fa0c9	-0.07013089
61	0xbe8f52a7	-0.27992746
62	0x3f228f5f	0.63500017
63	0x3e3407b2	0.1758106
64	0xbe8582cd	-0.26076356
65	0xbd8d6828	-0.06904632
66	0x3f272385	0.65288574
67	0x3efd7602	0.49504095
68	0x3eca7e95	0.395497
69	0x3e3ce65d	0.18447252
70	0x3d2a1298	0.04152164
71	0x3c96ffc7	0.018432511
72	0xbf2fe503	-0.6870882
73	0xbec244ec	-0.37943208
74	0x3b956a5f	0.0045597996
75	0x3e6e6d4b	0.2328388
76	0xbf6ff9be	-0.9374045
77	0x3df38510	0.11890614
78	0x3f9cb959	1.2244064
79	0x3e15ac9a	0.14616624
80	0x3eb06f83	0.34460077
81	0xbd048ec6	-0.03236272
82	0xbd6c9191	-0.05775601
83	0x3e26395a	0.16232815
84	0xbf13298b	-0.57485265
85	0x3ef64cca	0.4810546
86	0xbbdaf20e	-0.006681687
87	0xbf2128a9	-0.6295267
88	0x3eca9952	0.395701
89	0x3e6e913b	0.23297589
90	0x3e99afd6	0.30016965
91	0xbdd1a30e	-0.10236178
92	0xbc4ee69a	-0.012628222
93	0x3ebe1534	0.37125552
94	0x3cb52403	0.022111898
95	0x3f4cb578	0.799644
96	0x3e13394c	0.14377326
97	0x3f581b28	0.8441644
98	0xbeb1f7cb	-0.34759364
99	0xbc84109b	-0.0161212
100	0x3de4fb43	0.11180737
101	0xbda21742	-0.07914592
102	0x3f3d0b65	0.7384551
103	0xbf6fca22	-0.93667805
104	0x3f2d3ff5	0.67675716
105	0x3d8c280a	0.06843574
106	0xbe317f74	-0.17333776
107	0x3b513432	0.003192198
108	0x3cd09fed	0.025466884
109	0x3e022821	0.1271062
110	0xbf093c91	-0.5360804
111	0x3d1164fe	0.035496704
112	0xbf6561da	-0.89602435
113	0xbe358cb8	-0.17729461
114	0x3e0d8b17	0.1382259
115	0xbdfa970d	-0.12235842
116	0xbdb90722	-0.090345636
117	0xbf04a57b	-0.51815003
118	0xbd809daa	-0.06280072
119	0xbec441a1	-0.3833132
120	0x3e9b8065	0.30371395
121	0x3f3ec960	0.74526024
122	0x3e484a54	0.19559604
123	0x3f04fdc8	0.5194974
124	0x3d9e9ced	0.07744775
125	0xbf00ffc4	-0.5039027
126	0x3ece7649	0.4032462
127	0x3e95f9f9	0.29292277
128	0x3e3d24d1	0.18471076
129	0xbf260ace	-0.64860237
130	0x3e7f6aee	0.24943134
131	0xbf203a25	-0.6258872
132	0xbf14b1ff	-0.580841
133	0xbd4d98e2	-0.05019463
134	0x3e1c5c06	0.15269479
135	0xbe142b35	-0.14469607
136	0x3ee89389	0.4542506
137	0x3dce153f	0.10062646
138	0xbf072e1d	-0.5280474
139	0xbf1cc777	-0.6124186
140	0xbf20d70f	-0.62828153
141	0x3b37c312	0.0028039855
142	0xbeaa4b67	-0.33260652
143	0xbd3130e9	-0.043259535
144	0x3df37a56	0.11888568
145	0xbf464b12	-0.774583
146	0xbdb9879d	-0.09059069
147	0xbdc6de56	-0.09710376
148	0xbebb3747	-0.3656561
149	0xbdd74f7e	-0.10513209
150	0xbe034c93	-0.1282218
151	0xbdfbd3f9	-0.1229629
152	0xbf4691ef	-0.77566427
153	0xbfad0838	-1.3518133
154	0x3dc04c78	0.09389585
155	0x3e910fbb	0.28332314
156	0x3e19e4ff	0.15028761
157	0x3ef7544f	0.4830651
158	0x3e4d40c0	0.20044231
159	0x3d7e39f3	0.062066983
160	0x3f3e0704	0.74229455
161	0x3f9e795d	1.2380787
162	0x3e1474b6	0.14497647
163	0xbdf8b483	-0.12143805
164	0xbed965a9	-0.42460373
165	0xbf2085a4	-0.6270392
166	0xbf2a0739	-0.6641727
167	0x3eb43ffb	0.35205063
168	0xbef639a6	-0.48090857
169	0x3e1d3790	0.15353227
170	0x3e4a5781	0.19759943
171	0x3f122dfb	0.5710141
172	0xbdfb7e9c	-0.12280008
173	0x3ed45d80	0.41477585
174	0x3d6381ec	0.055543825
175	0xbca42360	-0.0200364
176	0xbe3703a6	-0.17872486
177	0x3e62f5cc	0.22164077
178	0xbef056c9	-0.46941212
179	0xbe9ea273	-0.30983314
180	0xbdbd4a41	-0.092426784
181	0xbe4b50e9	-0.19855084
182	0xbe90d69d	-0.28288737
183	0xbeae28b3	-0.34015426
184	0xbe7f5162	-0.24933389
185	0xbd6d62a2	-0.05795539
186	0xbe6c534e	-0.23078653
187	0xbd0f9f01	-0.035063747
188	0xbd59db9a	-0.053187944
189	0x3e45b344	0.19306666
190	0x3f52fbba	0.82415354
191	0xbed0993f	-0.40741917
192	0x3e8bb0c0	0.27283287
193	0xbea2e606	-0.3181612
194	0x3e9bd57a	0.30436307
195	0xbe8cf040	-0.27527046
196	0x3f0eb78b	0.55748814
197	0xbf42e5dc	-0.7613199
198	0x3ea3a57c	0.31962192
199	0x3efe3d92	0.4965635
200	0x3c808c18	0.015691802
201	0x3eb1d7b3	0.34734878
202	0xbee9830c	-0.45607793
203	0xbdfccf66	-0.123442456
204	0xbe55c15b	-0.2087454
205	0xbf0b9f76	-0.54540193
206	0x3d149dd6	0.036283337
207	0x3ef1b0cd	0.472052
208	0x3ef0e718	0.4705131
209	0xbe80fa06	-0.25190753
210	0x3e3eae4b	0.18621175
211	0x3eb2e3f1	0.3493953
212	0xbe4e7498	-0.20161664
213	0x3c7b8f56	0.015353998
214	0x3eafc5ea	0.34330684
215	0x3fa4a178	1.2861776
216	0x3ee3cf23	0.4449397
217	0x3ec5a3b1	0.3860145
218	0x3e30c2fc	0.1726188
219	0xbf1b328e	-0.60624015
220	0x3fbffc72	1.4998915
221	0xbf86f223	-1.0542644
222	0x3d860778	0.06544393
223	0x3eb62355	0.3557383
224	0x3e0ced05	0.13762291
225	0xbcb319c4	-0.021862872
226	0xbdddac46	-0.10823874
227	0xbcd5d206	-0.026101124
228	0x3e03c5a0	0.12868357
229	0x3d661eac	0.056181595
230	0xbe1cbbe6	-0.15306053
231	0x3e8ad09d	0.27112284
232	0xbe3ec71d	-0.18630643
233	0x3ddcb11d	0.10775969
234	0xbe668c8d	-0.22514553
235	0x3de8f38e	0.11374579
236	0xbe08035d	-0.13282533
237	0xbe518078	-0.20459163
238	0xbedf3024	-0.43591416
239	0x3e23ddff	0.16002654
240	0x3f378231	0.7168303
241	0xbf4a9e9f	-0.79148287
242	0x3f0b938f	0.5452203
243	0xbe113940	-0.14181995
244	0x3e356348	0.17713654
245	0xbcd273bb	-0.02568995
246	0x3d9f10d8	0.077668846
247	0xbd9150c0	-0.0709548
248	0xbdca75d0	-0.09885752
249	0x3f45f219	0.77322537
250	0xbf689473	-0.90851516
251	0xbf13c44b	-0.57721394
252	0x3aaadb1d	0.0013035272
253	0xbf78ee48	-0.9723859
254	0x3e427e5b	0.18993513
255	0x3e606dfa	0.21916953

l2.bias f4 [300]
0	0xbf3d7a06	-0.7401432
1	0xbe00113a	-0.12506571
2	0xbdd48c58	-0.10378331
3	0x3c709a46	0.014685219
4	0xbd628c3c	-0.05530952
5	0xbf366f95	-0.7126401
6	0xbe05b19e	-0.13056037
7	0x3e041910	0.12900186
8	0xbecdb837	-0.40179607
9	0xbf2a13f5	-0.664367
10	0xbbd9540e	-0.0066323346
11	0x3c55e776	0.013055673
12	0xbd865bbb	-0.06560465
13	0xbdca3161	-0.098726995
14	0xbf10d59f	-0.5657596
15	0xbc88d56e	-0.016703334
16	0xbecfcbe7	-0.40585253
17	0xbdcf8e48	-0.1013456
18	0x3c0593a9	0.008152881
19	0xbdc5edd5	-0.096645035
20	0xbcca0f9c	-0.024665646
21	0xbd7c8ee2	-0.0616597
22	0x3b9d2958	0.0047961883
23	0xbe47a72c	-0.19497365
24	0xbdd8b15f	-0.10580706
25	0xbbcc1425	-0.0062279874
26	0xbe4e7537	-0.20161901
27	0xbf45c88a	-0.77259123
28	0x3e568db6	0.20952496
29	0xbe15bb95	-0.14622338
30	0xbcd1430e	-0.02554467
31	0x3c78ec25	0.01519302
32	0xbf0a3684	-0.53989434
33	0xbec39257	-0.38197586
34	0x3e68b3a2	0.22724774
35	0xbd8c60d8	-0.06854409
36	0xbead1a3e	-0.33809084
37	0xbdc706bd	-0.09718082
38	0xbd62a6b0	-0.055334747
39	0x3bcdd107	0.0062810215
40	0xbe996429	-0.2995923
41	0xbe901cb1	-0.2814689
42	0xbdb9b7b6	-0.09068243
43	0xbcdd7bb2	-0.027036522
44	0xbe01c7f9	-0.1267394
45	0x3ec21d8b	0.37913164
46	0xbcf9c84e	-0.03049102
47	0xbebc828e	-0.36818355
48	0xbf0165a2	-0.50545704
49	0xbdd63a06	-0.10460286
50	0xbf0d4ab9	-0.5519214
51	0x3be96a12	0.0071232403
52	0xbee9b4f8	-0.4564588
53	0x3bd2462b	0.006417056
54	0xbea5ae21	-0.32359412
55	0xbc1732d4	-0.009228427
56	0x3e1eb8c7	0.15500174
57	0xbf12265e	-0.57089794
58	0xbf1f53c9	-0.6223722
59	0x3e188542	0.14894584
60	0xbec3298c	-0.38117635
61	0xbdad60c2	-0.08465721
62	0xbec6dcc4	-0.38840306
63	0xbce2f68a	-0.02770545
64	0x3f1d3474	0.6140816
65	0xbe7fc624	-0.24977928
66	0xbd8fb234	-0.070164114
67	0xbc7aa595	-0.015298267
68	0xbc3b2d45	-0.011424367
69	0xbf488e66	-0.7834228
70	0xbdc25557	-0.094889335
71	0xbd120b06	-0.035655044
72	0xbf1fbd2e	-0.6239804
73	0xbe53a024	-0.20666558
74	0xbe0d8339	-0.13819589
75	0xbee6f5e6	-0.4510948
76	0xbe8ddd47	-0.27707884
77	0xbe45c36f	-0.19312833
78	0x3ea3389b	0.31879124
79	0xbf6552c2	-0.89579403
80	0xbdceb30f	-0.100927465
81	0xbf05b302	-0.5222627
82	0xbdbdd8bd	-0.09269855
83	0xbdbd45bc	-0.092418164
84	0xbd034213	-0.032045435
85	0x3e164d34	0.14677888
86	0xbe612e8b	-0.21990411
87	0xbdd19639	-0.10233731
88	0xbd7301e9	-0.059327994
89	0x3eabf1f3	0.3358303
90	0x3ed491cd	0.41517487
91	0xbe8bd6ac	-0.2731222
92	0xbd9d9bd0	-0.076957345
93	0xbd332660	-0.04373777
94	0xbd9deb1d	-0.0771086
95	0x3e373d1c	0.17894405
96	0xbd4cad10	-0.049969733
97	0xbf6af476	-0.9177927
98	0xbdf26951	-0.11836494
99	0xbd694ded	-0.05695908
100	0xbeb19d08	-0.34690118
101	0xbe5db6f5	-0.21651824
102	0xbd9f3864	-0.077744275
103	0xbda22159	-0.07916517
104	0x3ddf8b81	0.1091528
105	0x3e894151	0.26807645
106	0xbe144a0b	-0.1448137
107	0xbdaf98b0	-0.08574045
108	0x3e1a6dfc	0.15081018
109	0xbd980c68	-0.07424241
110	0xbd91bdb8	-0.07116264
111	0xbedc17db	-0.4298695
112	0xbd942ede	-0.07235502
113	0xbd931eed	-0.07183633
114	0xbf413f8e	-0.754876
115	0xbdc6f65a	-0.097149566
116	0xbc2fdd66	-0.010733938
117	0xbe23d58f	-0.15999435
118	0xbf3bc6d2	-0.7335025
119	0xbf3db4a0	-0.74103737
120	0x3db86e81	0.09005452
121	0xbb607928	-0.0034251902
122	0xbbde28e8	-0.0067797787
123	0xbd5057fb	-0.050865155
124	0xbe8c6359	-0.27419546
125	0xbf34e9fe	-0.70669544
126	0xbf198d6c	-0.5998142
127	0xbf34532d	-0.70439416
128	0xbd5bdf36	-0.053679667
129	0xbe5ee655	-0.21767552
130	0xbdd8e871	-0.1059121
131	0xbd4522b7	-0.04812881
132	0xbf2c2437	-0.6724276
133	0xbdb1ab31	-0.0867523
134	0xbf8b7e9e	-1.0898015
135	0xbf497d29	-0.78706604
136	0xbdc2f3e0	-0.09519172
137	0xbe9ea9c9	-0.3098891
138	0xbd8aa55a	-0.067698196
139	0xbed8769b	-0.4227799
140	0xbad63bff	-0.0016344785
141	0xbb9bba25	-0.0047524148
142	0xbdc6c66d	-0.097058155
143	0x3e2be450	0.16786313
144	0xbf01eef2	-0.50755227
145	0xbe90554c	-0.28190076
146	0xbf6e8378	-0.93169355
147	0x3da27873	0.0793313
148	0xbea09dec	-0.31370485
149	0xbd661c3e	-0.056179278
150	0xbd00f886	-0.03148701
151	0xbeed0991	-0.4629636
152	0xbf307f8a	-0.6894461
153	0x3d9ed61e	0.07755683
154	0xbd95bf12	-0.073118344
155	0xbd0b6b50	-0.034037888
156	0x3ce05557	0.027384443
157	0xbf09f00e	-0.5388192
158	0x3e6ea556	0.23305258
159	0xbf1444be	-0.5791739
160	0xbf2aafb3	-0.66674346
161	0x3d878590	0.06617272
162	0xbf055e91	-0.5209742
163	0xbda8e66d	-0.08247075
164	0xbd49dec9	-0.04928473
165	0xbdc5b998	-0.0965454
166	0xbe698ad1	-0.2280686
167	0xbd06033e	-0.032717936
168	0xbd2a5e91	-0.04159409
169	0xbf031be1	-0.51214415
170	0xbf03d284	-0.51493096
171	0xbd068bc6	-0.032848142
172	0xbddb8d85	-0.10720352
173	0xbe6fe64a	-0.23427692
174	0xbcfcb478	-0.030847773
175	0xbe83934c	-0.25698316
176	0xbd793214	-0.060838774
177	0xbefc843c	-0.49319637
178	0xbd62dff9	-0.05538938
179	0xbe5aa1dc	-0.21350807
180	0xbea79435	-0.3273026
181	0xbde88dfc	-0.11355206
182	0x3e49f2b7	0.19721495
183	0xbde9a101	-0.11407662
184	0xbf0258d4	-0.5091679
185	0xbdaabef7	-0.08337205
186	0xbca46153	-0.020065939
187	0xbdbbe5a3	-0.09174659
188	0xbf0e7575	-0.55647975
189	0xbde10987	-0.10988145
190	0xbd82ed4a	-0.063929155
191	0xbc430c8d	-0.011904848
192	0x3e965b90	0.29366732
193	0xbc8672d3	-0.016412174
194	0xbd65a38f	-0.056064185
195	0xbf2d2e68	-0.67648935
196	0xbefb1e2f	-0.49046466
197	0xbecd8c08	-0.40145898
198	0x3d767953	0.060174298
199	0xbe63dada	-0.22251454
200	0xbd1ae8e7	-0.03781977
201	0x3e87b21c	0.26503074
202	0xbd82ab23	-0.06380298
203	0xbe2136f3	-0.15743618
204	0xbdb67e0f	-0.089107625
205	0xbe15a773	-0.14614658
206	0xbd9cd700	-0.076581955
207	0xbf2b086c	-0.66809726
208	0xbd5455ff	-0.051839825
209	0xbe865d67	-0.26243135
210	0xbce09bc6	-0.027418029
211	0xbdb5897a	-0.08864112
212	0xbca7c726	-0.020480704
213	0xbf3d2d83	-0.7389757
214	0xbda87939	-0.082262464
215	0xbf196c94	-0.599313
216	0xbf4864f4	-0.7827904
217	0xbe809215	-0.25111452
218	0x3c15179f	0.00909987
219	0x3df0f605	0.117656745
220	0xbd98a0aa	-0.07452519
221	0xbec33194	-0.38123763
222	0xbcf525d5	-0.029925266
223	0x3ec90f98	0.3926971
224	0x3f88a655	1.067576
225	0xbe10c99c	-0.14139408
226	0xbee3f591	-0.4452329
227	0xbd0a7532	-0.033803172
228	0xbec6a222	-0.38795573
229	0xbc2a33d5	-0.010388334
230	0xbcbb58ab	-0.022869429
231	0xbe286b9f	-0.16447304
232	0xbcd16a1b	-0.02556329
233	0xbf3ff142	-0.74977505
234	0xbd82c464	-0.06385115
235	0xbde85d16	-0.1134588
236	0xbccd08dd	-0.02502864
237	0xbd1d12dc	-0.038348064
238	0xbd912a39	-0.070881315
239	0xbd5c734a	-0.053820886
240	0x3e07f92e	0.13278648
241	0xbf905696	-1.1276424
242	0xbf317c6b	-0.6933047
243	0xbe371f33	-0.17882995
244	0xbe4c2f27	-0.19939862
245	0xbdb176ac	-0.08665213
246	0x3e427c93	0.18992834
247	0x3d3191d0	0.04335195
248	0xbe6e1513	-0.23250227
249	0xbd1dd6c2	-0.038534887
250	0x3e47cbaf	0.19511293
251	0xbde13798	-0.10996932
252	0xbf8c7ab4	-1.0974946
253	0xbf3aa742	-0.72911465
254	0x3e2478e1	0.16061737
255	0xbdbdf1f1	-0.09274662

l3.weight f4 [4, 300]
0	0x3e8ce5a6	0.27518958
1	0xbc9de697	-0.019274993
2	0x3b043377	0.0020172277
3	0xbcf708d5	-0.030155579
4	0x3d39bad6	0.045344196
5	0x3df850b2	0.121247664
6	0xbf4068a1	-0.7515965
7	0xbf051b6d	-0.51994973
8	0xbf0e391e	-0.55555904
9	0xbf05cbce	-0.52264106
10	0x3c03ac3b	0.008036668
11	0x3c8d1181	0.01722026
12	0xbeb690ae	-0.35657257
13	0xbd47f152	-0.048814125
14	0xbed8ac12	-0.4231878
15	0xbbdc0d3c	-0.006715445
16	0xbf118e83	-0.5685808
17	0xbce31e26	-0.027724337
18	0xbc92809a	-0.017883588
19	0x3cecc74e	0.02890363
20	0xbd5507d7	-0.05200943
21	0xbd26302a	-0.040573277
22	0x3d4f54bf	0.05061793
23	0xbe275d7e	-0.16344258
24	0xbc5d8350	-0.013520077
25	0xbc4ed8d7	-0.012624941
26	0xbee5d2d9	-0.44887426
27	0x3ec57b1b	0.38570485
28	0xbe12a3b8	-0.14320266
29	0xbf5780cc	-0.84180903
30	0x3c4e3df1	0.01258801
31	0xbcbbde33	-0.022933101
32	0xbf48fb59	-0.78508526
33	0xbf38c66a	-0.72177756
34	0x3ecb02b4	0.396505
35	0x3d3129b5	0.043252666
36	0xbf8b1bd3	-1.0867866
37	0xbbb9f6e7	-0.005675185
38	0xbd07a8db	-0.033120017
39	0xbbd1d9cb	-0.006404137
40	0x3e378d71	0.1792505
41	0x3e9744d9	0.29544714
42	0xbd4a36c9	-0.049368653
43	0x3c8892c1	0.01667154
44	0xbb070cb8	-0.0020606946
45	0x3e0d7350	0.1381352
46	0xbc846f8b	-0.01616647
47	0xbf377c89	-0.716744
48	0x3e1ba632	0.15200117
49	0x3f825237	1.018134
50	0xbefb8c5b	-0.4913052
51	0x3ccad5bc	0.02476012
52	0xbecc595a	-0.3991192
53	0xbd457e03	-0.048215877
54	0xbe189221	-0.14899494
55	0xbd84d5eb	-0.06486114
56	0x3edaf523	0.4276515
57	0x3ecf5178	0.40491843
58	0xbed867fd	-0.42266837
59	0x3ba0c7d9	0.004906636
60	0x3d9c90cd	0.07644806
61	0x3c873546	0.016504895
62	0x3dd24874	0.102677256
63	0x3ca628f5	0.020283202
64	0x3e7d886a	0.24759069
65	0x3e1a4d8e	0.15068647
66	0xbc0fe2c4	-0.0087820925
67	0x3c482eeb	0.012218217
68	0x3d1165cf	0.035497483
69	0xbe7ee8f3	-0.2489355
70	0x3acf0ca1	0.001579661
71	0x3e917634	0.28410494
72	0xbe80bbcd	-0.2514328
73	0xbe9b5068	-0.30334783
74	0xbeb00b5b	-0.34383664
75	0xbe1d1626	-0.1534048
76	0x3ec9e1f5	0.39430204
77	0xbf059ca9	-0.5219217
78	0xbf8957d8	-1.0729933
79	0xbef71db7	-0.48264858
80	0xbdb69fd4	-0.089172035
81	0x3f2a06a8	0.66416407
82	0x3d7293a8	0.059222847
83	0xbcd12287	-0.02552916
84	0xbc706898	-0.014673375
85	0x3f130df9	0.57443196
86	0xbdc68655	-0.096935906
87	0xbe7bf090	-0.24603486
88	0x3c86c9ce	0.01645365
89	0x3ed67b61	0.41891006
90	0xbde962bd	-0.11395786
91	0x3f670332	0.9023925
92	0xbc3658f0	-0.011129603
93	0xbc0af652	-0.008481579
94	0x3d446d9a	0.047956087
95	0xbf4a70db	-0.79078454
96	0xbd2171df	-0.039415237
97	0xbf5b894f	-0.8575639
98	0xbd9867e3	-0.0744169
99	0xbc8eb3f6	-0.017419796
100	0xbf026ac4	-0.5094416
101	0x3ec27076	0.37976426
102	0x3d7cacab	0.061688107
103	0x3cde467d	0.02713322
104	0x3ea6e1f4	0.32594264
105	0xbef50ab1	-0.4785972
106	0xbf133782	-0.57506573
107	0x3eaf7303	0.34267434
108	0xbedb93a1	-0.4288607
109	0x3cab634d	0.020921374
110	0x3c96937b	0.018380871
111	0xbf4c7fa4	-0.79882264
112	0x3bd84129	0.0065995646
113	0x3d748eb9	0.059706423
114	0x3e404b77	0.18778788
115	0xbc0cc637	-0.00859218
116	0xbce2726c	-0.027642451
117	0xbe9d58bc	-0.3073176
118	0x3dde2b41	0.10848094
119	0xbdfdb88d	-0.12388716
120	0xbe9421c3	-0.28932008
121	0xbccf9455	-0.025339285
122	0xbd88de3b	-0.06683012
123	0x3ce70577	0.028200848
124	0x3f39cd0e	0.72578514
125	0x3e42986b	0.19003455
126	0x3eddaa9c	0.43294227
127	0x3d51b8c8	0.05120161
128	0x3be4213c	0.0069619697
129	0xbee7186a	-0.45135814
130	0x3caa0365	0.020753572
131	0xbc528330	-0.01284866
132	0x3e2bdd39	0.16783608
133	0xbcbf60ad	-0.023361528
134	0xbd88834c	-0.06665668
135	0xbe95c842	-0.29254347
136	0xbee240ca	-0.44190055
137	0xbf85c926	-1.0452011
138	0x3b333ad3	0.0027348294
139	0x3ddf0d03	0.10891154
140	0xbd8bd5b8	-0.06827873
141	0xbd6558ba	-0.05599282
142	0xbee1898a	-0.44050246
143	0xbd819034	-0.06326333
144	0x3ed1546a	0.40884715
145	0x3eb64709	0.3560107
146	0x3eaeafa6	0.34118384
147	0x3ec18efd	0.37804404
148	0xbf1426ce	-0.5787171
149	0xbd0688f8	-0.032845467
150	0x3e3e7e02	0.18602756
151	0xbd074c3b	-0.033031683
152	0xbf035352	-0.5129901
153	0x3f0b9fe8	0.5454087
154	0xbc837f8b	-0.016052028
155	0xbcf066a6	-0.029345822
156	0xbf2e6d09	-0.68135124
157	0x3c808caf	0.015692083
158	0x3ebbbb46	0.36666316
159	0x3de1aa00	0.11018753
160	0x3ed7f8a0	0.42181873
161	0x3ea7d653	0.32780704
162	0x3f052781	0.52013403
163	0xbf19c885	-0.60071594
164	0xbd90f854	-0.07078615
165	0x3e1b46f6	0.15163788
166	0xbd7cbb05	-0.061701793
167	0x3cb87af2	0.022519562
168	0xbc3e79b7	-0.011625699
169	0x3ea0d363	0.31411275
170	0x3b8c64e2	0.004284487
171	0x3b598db8	0.0033196043
172	0x3f956825	1.1672407
173	0xbe6db119	-0.23212089
174	0xbc036440	-0.008019507
175	0x3f453cdb	0.77045983
176	0x3c8c978d	0.017162109
177	0x3f1c9beb	0.6117541
178	0xbd84e985	-0.06489853
179	0x3eae7ce5	0.34079662
180	0x3ec18bdd	0.3780202
181	0xbef7b7dd	-0.48382464
182	0xbdbd7fab	-0.09252866
183	0x3ca568c7	0.020191563
184	0x3ebcd48a	0.36880904
185	0x3d842a5a	0.064533904
186	0x3b966077	0.004589136
187	0xbc67f71a	-0.014158035
188	0xbe6cf101	-0.2313881
189	0x3ec3baea	0.38228542
190	0xbb5ad4a3	-0.0033390902
191	0xbd802b56	-0.06258266
192	0xbf071bae	-0.5277661
193	0x3beff2b5	0.007322634
194	0xbc2e4307	-0.010636098
195	0x3f21b79c	0.6317079
196	0x3f18885f	0.59583086
197	0xbd4eb89a	-0.05046902
198	0x3e1ebbc3	0.15501313
199	0x3e2ca354	0.1685918
200	0x3d6472e4	0.05577363
201	0x3ec2e73d	0.38067046
202	0xbbecf10a	-0.0072308825
203	0xbe279407	-0.16365062
204	0x3c05297f	0.008127569
205	0x3aabf0f7	0.0013118078
206	0x3cd932ff	0.026513575
207	0x3f2c30aa	0.67261755
208	0x3b02719c	0.0019904142
209	0xbe267c34	-0.16258317
210	0x3d29b87e	0.04143571
211	0x3e105fbe	0.14099023
212	0x3c566690	0.013085976
213	0xbf4f9ec2	-0.8110162
214	0x3d659a2d	0.056055237
215	0xbe9774d1	-0.2958131
216	0xbf8eae7f	-1.1147002
217	0x3ef81b2b	0.48458228
218	0x3d3dd4b8	0.046345443
219	0x3f13f126	0.5778984
220	0xbd81d8e1	-0.063401945
221	0x3f0e9200	0.5569153
222	0x3c91d794	0.017802991
223	0xbf8708de	-1.0549581
224	0x3f370e4a	0.7150618
225	0x3ded39ca	0.11583288
226	0xbeaeb279	-0.3412054
227	0xbc2af491	-0.010434286
228	0x3ee3cd64	0.44492638
229	0xbbb24c6c	-0.005441239
230	0xbcec37ed	-0.028835261
231	0x3e8b04ed	0.27152196
232	0xbd80eb69	-0.06294901
233	0x3f06bbc0	0.52630234
234	0xbcb696e3	-0.022288745
235	0xbc0a04c9	-0.008423992
236	0x3b7bdae6	0.0038430034
237	0xbcb334b3	-0.021875715
238	0xbdadaf5e	-0.08480714
239	0xbba996a7	-0.00517543
240	0xbeb0dc03	-0.34542856
241	0x3f92b52f	1.1461543
242	0x3eb1c96e	0.3472399
243	0xbf1792a1	-0.5920811
244	0xbf66b23b	-0.9011571
245	0x3b6f183c	0.003648295
246	0x3e17ba02	0.1481705
247	0x3dce9e46	0.10088782
248	0x3de999b9	0.114062734
249	0x3eee8568	0.46586156
250	0xbf42a54e	-0.76033485
251	0xbe276a7b	-0.16349213
252	0x3c66e618	0.014092945
253	0xbe4eafcc	-0.20184249
254	0x3bb893f1	0.0056328704
255	0x3d523f90	0.05133015

l3.bias f4 [4]
0	0xbeb8e024	-0.36108506
1	0x3ec2bf59	0.38036612
2	0xbf0e5c30	-0.55609417
3	0xbeeaa7b4	-0.45831072
