TD3/saves/best_avg_actor.pth (torch, 491045 bytes, 5 tensors)

l1.weight f4 [400, 3]
000000 e8 a3 8d bb 13 93 9e 3e 7e 4b f3 be c9 8b d9 be
       -0.0043225177 0.30971584 -0.47518533 -0.4248946
000010 b1 b4 63 be 53 89 1e 3e 40 6b 3b bc 7a 61 ea 3e
       -0.22236897 0.15482073 -0.011439145 0.45777494
000020 42 dd 51 bd d2 70 1c 3e 9e ab 32 be ea 6b e8 bd
       -0.0512364 0.15277413 -0.1744828 -0.11348708
000030 bd 33 0d bf d6 c5 c3 be 84 b5 73 be 08 34 af 3c
       -0.5515707 -0.38236874 -0.23799711 0.021387115
000040 8d b9 69 3e 66 5e b1 3e d2 66 c8 be 69 b9 80 be
       0.22824688 0.34642333 -0.39140946 -0.25141457
000050 83 bc 56 3e 27 77 f5 3e 43 57 f3 bd 15 34 dd 3e
       0.20970349 0.4794247 -0.11881878 0.43203798
000060 da 95 be bd 65 3b 7a 3d b5 d4 05 3f 79 1c 09 bf
       -0.09305926 0.0610918 0.5227769 -0.5355907
000070 f0 17 ba be 48 ac 15 be cc 73 66 be ca 66 ff 3e
       -0.36346388 -0.14616501 -0.2250511 0.4988311
000080 a4 9a bf be 70 13 88 be 3c 85 ce be df 6c 0a bf
       -0.3742267 -0.2657733 -0.40336025 -0.54072374
000090 3e 8e ac be 9d 19 fe 3e 55 e7 83 3e 54 45 8f 3e
       -0.33702272 0.49628916 0.2576243 0.2798258
0000a0 67 bd f8 3c 0b 8d 97 be d5 0b c8 3d 6b 00 0a bf
       0.030363752 -0.29599795 0.09767882 -0.5390689
0000b0 ce 97 d5 be 73 64 98 be e2 81 ba 3e 8a 51 ad 3e
       -0.4171738 -0.29764137 0.36427218 0.33851272
0000c0 3f 19 83 be 3d a8 aa bc 68 0e bd 3e 3d ef 12 3f
       -0.256052 -0.020832175 0.36925054 0.573963
0000d0 af a3 6a 3e 50 bc 9f 3d b0 32 c6 3e 4b 0d ae be
       0.22914003 0.0779959 0.38710546 -0.33994517
0000e0 ee 55 dc 3d d2 2e e5 be ea e0 cc be 2e b4 98 be
       0.10758577 -0.44762284 -0.40015346 -0.29824966
0000f0 a6 c0 85 3e 8a c2 6d 3e f4 19 af be 94 9b 32 3e
       0.26123542 0.23218742 -0.34199488 0.17442161
000100 28 47 a2 3e b8 3d 95 bd e1 95 b4 3c 41 fc 08 3e
       0.31694913 -0.072871625 0.022044124 0.13377477
000110 a9 62 b7 3e 15 eb 0d 3f 84 cc e3 be cb a8 58 be
       0.3581746 0.5543683 -0.4449197 -0.2115814
000120 9e 59 68 3e 06 ec f4 3e 3b 9e 00 3f ef 69 02 3f
       0.22690436 0.47836322 0.5024144 0.5094289
000130 44 51 eb 3d 99 86 00 bf db 8b 59 3d 58 ee b8 be
       0.114901096 -0.5020538 0.053111892 -0.36119342
000140 8f be 09 bf 17 52 03 3f cf c3 e0 3e b1 6f 13 bf
       -0.53806394 0.51297134 0.4389939 -0.575923
000150 92 50 dd 3d 7a 30 c7 bd 4d 94 c2 bd 80 50 87 be
       0.10806383 -0.09726043 -0.095009424 -0.26428604
000160 28 5a 63 3e 3f 16 af be 33 bb 58 3e 2f 7d 95 3e
       0.2220236 -0.3419666 0.21165161 0.2919707
000170 31 9d d3 3e 0b 0f 5d 3e d6 48 12 bf c8 c1 bf be
       0.41330865 0.2158777 -0.5714239 -0.3745253
000180 64 99 93 3e 10 7b f7 3d 6e 98 e6 be d3 36 aa be
       0.28827965 0.12084019 -0.4503817 -0.33244953
000190 58 0b 0b 3f cd 2e c7 3e f7 e3 80 be 38 cc 14 be
       0.54314184 0.38902894 -0.25173923 -0.14531028
0001a0 ac cb 0c bf dc 05 2a bc 52 9b de be ff 03 e4 be
       -0.5499828 -0.010377374 -0.43477875 -0.445343
0001b0 10 4d 02 bd 94 88 b1 3d f6 1d 72 be 86 67 af 3e
       -0.031811774 0.08668628 -0.23644242 0.3425867
0001c0 dd e2 b3 be 5e 1c 06 3f b1 93 ca 3e fa 46 f9 be
       -0.3513402 0.52387035 0.39565805 -0.48686963
0001d0 5f 24 13 be 14 6a d5 3c f0 83 ac 3d 11 38 0c 3e
       -0.14369343 0.026051559 0.084236026 0.13693263
0001e0 97 01 68 3e 4c a7 0d 3d be 3b 90 be 52 e0 8b 3e
       0.22656856 0.034583375 -0.2817058 0.2731958
0001f0 51 c7 0d bf c1 34 af be 26 ff 13 be 09 fe 8f be
       -0.5538226 -0.34219936 -0.144528 -0.281235
000200 e6 d2 4e be 6c 48 f2 be 69 84 fb bd 9c bf fc 3d
       -0.20197639 -0.47320879 -0.122811146 0.12341234
000210 51 93 c0 be 08 b9 f2 bc 9f 9b d3 3e d2 1a 73 bd
       -0.37612393 -0.029629245 0.41329667 -0.05935175
000220 92 72 83 3c d1 02 4c bd 66 4c ef 3d ce f4 bb 3e
       0.016045842 -0.049807373 0.11684494 0.3671021
000230 2b 01 0c 3f 82 b9 bb 3e 2d 53 0c 3f 36 07 2b bd
       0.5468928 0.3666497 0.54814416 -0.041754924
000240 ff c5 04 bf 89 23 8c be 21 47 c9 3e 76 47 75 bb
       -0.5186462 -0.2737086 0.3931208 -0.0037426627
000250 b6 ed 92 be 39 86 e2 be 0c 52 0a bf dc 7d f9 be
       -0.28696984 -0.4424303 -0.54031444 -0.48728836
000260 3e d6 ef bd 53 1c a2 3e b8 d0 9f 3e 6d 8b 0e bf
       -0.11710785 0.31662235 0.31213927 -0.55681497
000270 5d 64 b8 3e f9 4f e7 be 6e f9 f9 bd d7 b7 6f be
       0.3601407 -0.45178202 -0.12205778 -0.23409973
000280 39 c0 e3 bd 82 28 e8 bd 3c a1 04 bf 31 3c ff be
       -0.11120648 -0.11335851 -0.51808524 -0.4985061
000290 ff 05 b9 bd b0 a8 f4 3b 01 49 86 be 03 b5 5e 3e
       -0.09034347 0.007466398 -0.26227573 0.21748738
0002a0 b7 07 05 bf 7b 98 1f bd cb fa 01 3f 02 26 71 be
       -0.51964897 -0.038963776 0.50773305 -0.23549655
0002b0 22 77 05 3f 94 1b 56 3e 9e 62 05 bf 07 07 bb 3e
       0.5213491 0.20908958 -0.521036 0.365288
0002c0 a8 71 88 bd 98 f5 83 be 53 61 ec 3e 2a e0 ee be
       -0.06662303 -0.2577331 0.46168002 -0.466554
0002d0 f0 c1 7d 3d 73 8f f7 bd 15 18 d3 3e 38 08 25 3e
       0.06195253 -0.12087908 0.4122931 0.16116416
0002e0 fb 09 8e 3e 39 ca 50 3e 95 2b 0e be 00 ab f8 bd
       0.2774199 0.20389642 -0.13883813 -0.12141991
0002f0 e9 99 f3 be c2 2b a0 3e dc b3 ea 3e 57 42 ca 3e
       -0.47578362 0.31283385 0.45840347 0.39503738
000300 1e 83 d0 be 28 f1 d2 3c 81 61 d0 be 97 b9 a2 be
       -0.40725034 0.025749758 -0.4069939 -0.3178222
000310 eb 3f ac be bc 0a 4a 3e 67 27 b0 be 2b 60 4e bc
       -0.33642516 0.19730657 -0.34405062 -0.01259617
000320 b7 f7 c6 3c 7f 8d be 3e d6 73 df be 70 ef ca be
       0.024288042 0.37217328 -0.43643063 -0.396358
000330 3e a5 ab be 14 e7 ce 3e a3 84 54 be 8c 56 f9 3e
       -0.33524507 0.40410674 -0.20753722 0.48698843
000340 e8 c8 55 3e 6b b9 95 3d a3 d4 8c bb c6 bd e9 bd
       0.20877421 0.07310756 -0.004297809 -0.114131495
000350 64 5a 94 3d b8 ff 06 be 2e ee 84 bb 22 de 96 3d
       0.07243803 -0.13183486 -0.0040567135 0.07366587
000360 f2 38 e7 be 5c ef 9a be 92 b2 ee 3e 5a e5 ef be
       -0.45160633 -0.30260742 0.46620613 -0.4685467
000370 28 cf 29 bd 0d 36 12 3f d5 90 55 3e 2f e9 85 3c
       -0.041457325 0.57113725 0.2085603 0.016346542
000380 1e 16 00 bf 74 6f 92 3e 75 8d d2 be 8c d2 27 be
       -0.5003375 0.28600657 -0.41123548 -0.16388911
000390 08 5c 46 be ba 19 af bd ed ef ce 3b dc d0 f3 3e
       -0.19371045 -0.08549829 0.0063152225 0.47620285
0003a0 71 9c 93 3d 88 62 04 3f 01 d3 b4 3e 72 e2 ba be
       0.07207573 0.51712847 0.35317233 -0.3650089
0003b0 4d 94 84 3e f9 f5 d0 be 79 91 7a be 26 e3 2d 3e
       0.25894395 -0.40812662 -0.24469556 0.16981182
0003c0 36 36 43 3e 19 c5 dd 3e 9d 51 3e be e5 49 72 3a
       0.19063649 0.43314436 -0.1858582 0.00092425785
0003d0 fe 2e 98 3e 16 f0 0e bf 2a b7 d5 3e e7 70 f4 be
       0.29723352 -0.5583509 0.41741306 -0.47742388
0003e0 77 5f 02 3c b4 07 c9 bd b0 af 9b be e2 47 9c 3d
       0.007957331 -0.098159224 -0.30407476 0.07630898
0003f0 9f 70 f4 3e 3e d2 2c be 7a 7f af be b4 a6 5a be
       0.47742173 -0.16877076 -0.34276944 -0.21352655

l1.bias f4 [400]
000000 88 51 7b 3e c9 ef 04 3f 27 6f 09 3f 56 82 06 bf
       0.2454282 0.51928383 0.5368523 -0.52542627
000010 29 89 c3 be c0 71 74 be ad 81 bc be d2 d0 0d 3f
       -0.38190582 -0.23871517 -0.36817685 0.5539676
000020 d5 db 50 bd ef 15 c4 be 55 8a 83 be e3 47 a3 be
       -0.0509909 -0.38297984 -0.25691476 -0.31890783
000030 bf 34 71 3e 91 eb 00 bf 8c cf 09 bf 78 b2 11 bf
       0.23555277 -0.50359446 -0.53832316 -0.56912947
000040 5a 87 7e 3e 95 29 92 3e d2 97 b7 be 49 9b 12 3e
       0.2485632 0.2854735 -0.35858017 0.14317049
000050 b9 35 da 3e 66 ce ab 3d 49 2d fa bd 0c b8 2e 3d
       0.42619112 0.08388977 -0.12215669 0.04265599
000060 2c 93 7d bd 06 d6 94 3e d0 b7 c8 be b4 e6 95 3e
       -0.061907932 0.29069537 -0.39202738 0.29277575
000070 e7 9b a6 3e 3c 19 b3 be 01 61 f1 3e 26 2b 11 3f
       0.3254082 -0.3498019 0.4714432 0.56706464
000080 15 12 69 be fb 97 25 be c8 50 93 3e ea 94 e7 be
       -0.22760804 -0.16171257 0.2877257 -0.452308
000090 22 cc 69 3e 6b ee 09 3e dc 53 ba 3e ac 61 00 bf
       0.22831777 0.13469855 0.36392105 -0.50149035
0000a0 2f 95 f5 be 99 c3 84 3e 82 f5 54 3e 9d 91 09 bf
       -0.4796538 0.2593048 0.20796779 -0.53737813
0000b0 94 d8 a4 be 40 3c 07 bf ea c6 d3 be 49 60 85 be
       -0.32196486 -0.5282631 -0.41362697 -0.26050022
0000c0 86 9f f4 3e 46 5c eb bd b6 c7 a9 3e 4b 5d 0c 3f
       0.47777957 -0.11492209 0.3316018 0.54829854
0000d0 49 b7 86 3e 47 50 04 bf 1a c1 94 3e b4 81 61 3e
       0.2631171 -0.51684994 0.29053575 0.22022134
0000e0 a9 1c e5 3e ef cb 11 bf 00 cd b5 3e ac f6 f1 3e
       0.44748428 -0.569518 0.35507965 0.47258508
0000f0 6c 82 09 bf 4e 6c 77 3d 3f 59 fc 3e a6 fe d6 be
       -0.53714633 0.06040602 0.4928684 -0.41991156
000100 7e fc 41 3e d4 9e 82 3e 0c f3 1a 3e a4 f4 12 3f
       0.18943974 0.255118 0.15131778 0.5740454
000110 b3 08 f2 3e 41 9d fd 3e 4f 62 93 bd 1e ed f7 3e
       0.47272262 0.49534038 -0.07196485 0.48423094
000120 fe bc 09 bf 28 84 9f be 5a e5 fc bd 39 9f 2f be
       -0.53804004 -0.31155515 -0.12348433 -0.17150582
000130 0c 86 08 3f 03 6d 8b 3e 33 50 be 3e 79 12 c9 3e
       0.5332954 0.27231607 0.37170562 0.39271906
000140 16 d1 dc be c4 f2 88 bd 53 a9 ac 3d b7 c4 19 3e
       -0.4312827 -0.06686929 0.084307335 0.15016447
000150 46 02 98 3e c2 3e 6b be e7 44 32 be f1 57 f7 3e
       0.29689234 -0.22973159 -0.17409097 0.4830928
000160 ad ab 1e be 9b 56 cd be 4a 6e c8 3e 5f 2b c8 3e
       -0.15495177 -0.40105137 0.39146644 0.3909559
000170 03 62 39 be 5d 63 ec bd aa 1e da be 43 db f6 be
       -0.18103795 -0.115423895 -0.4260152 -0.48214158
000180 af 52 5e 3e 21 8f 7c be 17 54 eb 3e 88 b1 ec be
       0.21711229 -0.24663974 0.45962593 -0.46229196
000190 6e 70 a3 bd 48 3e 4c 3c ab ec 97 3e a9 3d ef 3e
       -0.07980429 0.012466021 0.2967275 0.4672673
0001a0 14 2f c8 3e 98 1f 82 3e 1b ae 87 be bc 1a d3 be
       0.39098418 0.2541473 -0.2650002 -0.41231334
0001b0 ab 39 04 bf e2 9c ea 3c 94 59 0f 3f 2c 97 e0 bd
       -0.51650494 0.02863926 0.5599606 -0.10966334
0001c0 86 1c c7 bc 2c d0 d6 be 95 81 35 3e 58 68 bb 3e
       -0.024305593 -0.41955698 0.17725213 0.36603045
0001d0 53 b8 11 bf 10 24 d0 be a7 f4 da 3e 0e fa 0b 3e
       -0.5692188 -0.40652514 0.4276478 0.13669607
0001e0 0f 70 13 bd bc 5d d3 3d c1 c6 b3 bd ca 9d ce be
       -0.03599554 0.10320613 -0.08778144 -0.40354759
0001f0 3c 1c 0a bf b0 6b c2 3e de a1 8c bd 0e 91 5b be
       -0.5394933 0.37972784 -0.06866811 -0.21442053
000200 73 99 18 be 97 3a a1 be 07 1b 2f be 0b c0 fd be
       -0.14902286 -0.31490013 -0.17100154 -0.4956058
000210 7e 36 dd 3e 30 6a 71 3e 40 14 95 be 63 c9 49 be
       0.43205637 0.23575664 -0.29117012 -0.19705729
000220 65 9e 84 3e 52 ed 5a be c0 e5 1b 3e a3 c8 22 3e
       0.25902095 -0.21379593 0.15224361 0.1589685
000230 8e 14 ba be 21 19 14 3e a1 b0 10 3d 6c 16 01 3f
       -0.36343807 0.14462711 0.035324696 0.5042484
000240 0f e9 55 be 0a fb 17 be 28 b1 fe 3e f0 63 f1 be
       -0.20889686 -0.14841858 0.49744534 -0.4714656
000250 e7 da 2a 3d 41 68 0e 3f 00 8a 84 be e0 b1 0d 3f
       0.041712668 0.5562783 -0.25886536 0.5534954
000260 83 26 03 3f 79 81 09 3f bb a8 61 bd d1 b4 05 3f
       0.5123064 0.53713185 -0.055092555 0.5222903
000270 d3 cc 80 be 84 5f 4a be 17 9d 5f 3e 11 c8 f9 3d
       -0.25156268 -0.19762999 0.21837269 0.12196363
000280 7b f5 a2 3e 72 75 0c 3f 62 0b b9 be 73 e2 9c 3e
       0.31827912 0.5486671 -0.36141497 0.30641517
000290 fb cb 45 3e 6d f3 9b 3e bc 2a 8c 3e 13 27 5d be
       0.19316094 0.30459157 0.27376354 -0.21596937
0002a0 c3 a1 e9 be ae 98 ec 3e 45 90 a8 be bc fc bc 3e
       -0.45631227 0.46210235 -0.3292257 0.3691157
0002b0 63 cd 0c bf 70 8f cc bd 36 84 c8 3b dc 95 cc 3d
       -0.55000895 -0.09988296 0.0061192764 0.09989521
0002c0 58 27 3f 3d fd 4a 3a 3e c2 a7 83 bd 03 ca 10 3e
       0.04666838 0.18192668 -0.06428482 0.14139561
0002d0 20 43 12 3f 4f 45 bf be a7 1c 01 bd 5e ad 61 be
       0.57133675 -0.37357566 -0.031521466 -0.2203879
0002e0 81 af 01 3f 5a 0c fd 3e 5d f9 80 bc 77 ee 4c be
       0.5065842 0.49423486 -0.015743906 -0.20012842
0002f0 af a4 b6 be 11 84 d3 3e be d9 22 bd 76 33 0b 3f
       -0.3567252 0.41311696 -0.039758436 0.543754
000300 43 92 a8 3e 19 5f 01 3f b6 cc e9 3e 75 18 c0 be
       0.3292409 0.5053573 0.45663995 -0.3751866
000310 28 0c 2d 3e 2c 26 75 be e6 51 94 3e ff 9e 54 bd
       0.16899168 -0.23940343 0.28968734 -0.051909443
000320 0b b9 4c 3d 1e 71 cc be 19 18 04 bf e8 a1 5e 3e
       0.04998116 -0.39930052 -0.5159927 0.2174145
000330 47 63 09 3e 5c 6a 4d 3d ad c5 c8 3e 6e df 76 be
       0.13416778 0.05015026 0.39213315 -0.24108669
000340 f6 dd 51 3e 95 ce a2 be f7 fe f4 3d bc f8 06 be
       0.20494828 -0.31798235 0.11962693 -0.13180822
000350 d7 04 cf 3e fe 3f 01 3f 87 5e 00 3f 80 c2 d4 3c
       0.4043338 0.5048827 0.5014424 0.025971651
000360 b3 50 ae 3e a0 ac 13 bf 32 66 ad be 20 53 d3 3d
       0.34045944 -0.5768528 -0.3386703 0.10318589
000370 5b 04 53 3b f7 11 e8 be 64 d6 82 be 11 10 8a be
       0.003219864 -0.45326206 -0.25554192 -0.26965383
000380 b1 6f 12 bf 0c 89 61 3d d3 82 c9 3e fb f2 6f 3e
       -0.5720168 0.05506234 0.39357623 0.23432533
000390 6d 73 8c be 9c b8 07 bf 69 7c ee be 6d 76 2f 3c
       -0.27431813 -0.53016067 -0.46579292 0.010709387
0003a0 76 59 cb 3e 27 6c 6f be e0 d9 a0 be 06 b1 9d be
       0.3971669 -0.233811 -0.31416225 -0.3079912
0003b0 52 b8 4c bd 4d 5c 0c bf 41 6d 02 bf 9c 7e 11 3f
       -0.04998047 -0.5482834 -0.5094796 0.56833816
0003c0 5d fa 8c be af 43 d5 bd d0 2d 1e be 3d d8 01 bf
       -0.27534762 -0.104133 -0.15447164 -0.5072058
0003d0 8c 73 d0 bd 6e fa 34 3e 60 10 70 be b6 93 c9 bc
       -0.10178289 0.17673656 -0.23443747 -0.024606567
0003e0 ab fe 34 bb 25 23 13 bf de d1 d6 3e c3 c7 ee 3e
       -0.0027617614 -0.574755 0.4195699 0.4663678
0003f0 42 8b c9 3e bb 26 42 be b0 78 9a 3e 8c 7a 0a bf
       0.39364058 -0.18960087 0.30170202 -0.5409324

l2.weight f4 [300, 400]
000000 33 80 d6 bc b5 b5 28 3d e7 ae d8 3c 20 2d 0b bc
       -0.026184177 0.041188914 0.026450587 -0.008494645
000010 80 68 27 3b 1a 48 ad bb a7 30 3e 3c 67 e9 e8 3a
       0.0025544465 -0.005288136 0.011608279 0.0017769755
000020 00 dd f7 bc d3 c6 17 3c 67 68 ab 3a 4d db 53 3b
       -0.030256748 0.009263712 0.0013077379 0.0032326758
000030 f7 17 9c bc c7 e5 51 3c 58 9c 25 bd ba e0 74 3c
       -0.019054396 0.012811131 -0.040432304 0.014946157
000040 a3 f5 dd 3c a7 4f b4 bb b3 16 1f bd 67 96 3e b9
       0.027094668 -0.0055026594 -0.038840007 -0.00018175841
000050 9a d9 94 38 38 fd 30 bd a3 da 10 bd 6d 6d 3d 3d
       7.0977214e-05 -0.04321024 -0.03536476 0.046246935
000060 3d 27 19 3d 67 00 e3 3c 82 e0 0d 3d 4a ae 9d 3c
       0.037390936 0.027710153 0.034637935 0.019248147
000070 ad 84 e6 3c bb a4 07 3d 13 5f 3f bc da 46 d0 bb
       0.028139437 0.033116084 -0.011680382 -0.0063561024
000080 2b 08 12 3d cd 0c 97 b7 b7 42 05 bd 3b cd 1e bd
       0.03565232 -1.8006564e-05 -0.032534327 -0.03876994
000090 47 14 e5 3c cb a3 29 3d da 0c 1f 3d 9a 54 08 3c
       0.02796377 0.04141597 0.038830616 0.008320952
0000a0 95 5e 0d 3d a0 08 3c bd 02 8d 13 bd 97 10 45 bd
       0.03451403 -0.045906663 -0.036023147 -0.048111524
0000b0 2a 01 25 3d 00 34 ed b9 3a 9b bc bc 03 99 8a 3c
       0.040284313 -0.00045242906 -0.023023237 0.016918665
0000c0 a7 53 99 bc e8 58 03 bd 67 fb 9d 3c 9a fe 15 3c
       -0.018716646 -0.03206721 0.019284917 0.00915494
0000d0 3b a9 12 bd db e4 06 bd 8d 0c c0 3c a5 b9 1b 3d
       -0.035805922 -0.032933097 0.023443485 0.03801884
0000e0 9a 60 85 3b 67 bc cd bc 0d c9 c5 3c 7a df 0e 3c
       0.0040703537 -0.025114251 0.02414372 0.008720273
0000f0 55 4c 33 bd 38 b8 04 bd cd 4d 33 3c 33 73 fd 3c
       -0.043773968 -0.032402247 0.010943842 0.03093872
000100 f3 96 83 bc 2a 0e c6 3c a7 ab fd bc e2 fa 43 3d
       -0.01606319 0.024176676 -0.03096564 0.047846682
000110 d5 ed 11 3d 2d 71 19 3c 5d 3a b6 3c e3 9a 8e 3c
       0.035627205 0.009365362 0.022244627 0.01740784
000120 2d b4 f1 bc 67 96 e4 b9 c0 72 5a 3c b3 e7 38 bc
       -0.02950486 -0.00043599607 0.013333023 -0.01128571
000130 5b 64 44 3d ea f4 9d bc 92 e6 36 bd 33 00 c3 bc
       0.04794727 -0.019281823 -0.044653483 -0.023803806
000140 60 12 3e bd db c3 28 3d 8d df b7 bc 80 17 10 bd
       -0.046404243 0.041202407 -0.022445465 -0.03517866
000150 e7 1b b1 bb f8 fe 09 bd d3 f6 d5 bc 77 d1 d0 3c
       -0.0054049375 -0.033690423 -0.026118672 0.025490506
000160 50 c3 19 bd 0a 2a c1 3c 1a 59 15 3d 33 33 eb b8
       -0.03753978 0.023579616 0.036461927 -0.0001121521
000170 9d e0 b5 3c e3 70 e5 bc db b4 1f 3d 83 f3 46 3d
       0.02220183 -0.02800793 0.038990837 0.048572075
000180 07 ac 42 3c 1a a1 3a 3d 7f 66 4b bd cd e5 b3 bb
       0.011881835 0.045563795 -0.049658295 -0.005490041
000190 f3 c4 22 3c 6d 02 32 bd 0a 53 c7 3c c0 1a 9c bc
       0.009934652 -0.043459345 0.024331588 -0.019055724
0001a0 2a 25 94 bc c3 7d 22 bd a7 73 a7 3c 9d 04 15 bd
       -0.018084127 -0.039670717 0.02044089 -0.036381353
0001b0 c0 d6 2d bc 0a f5 b5 3c 0a 49 1a 3d e7 3d 39 3c
       -0.010610282 0.02221157 0.03766731 0.011306263
0001c0 5d cc 98 bc 6d 29 b2 bc c3 e6 e5 3c 13 fe 17 3c
       -0.018652136 -0.021748269 0.028064137 0.009276885
0001d0 c7 66 2c 3d e7 3f 9a 3c b5 fb 24 3d 95 07 25 bd
       0.042090204 0.0188293 0.04027911 -0.040290434
0001e0 fb a4 24 3d 43 31 bc bc 87 49 5b bc 33 e7 9c 39
       0.0401964 -0.022972709 -0.0133842295 0.00029926896
0001f0 47 a0 19 bc e0 0a 22 3c 23 7f 36 3d dd ba f4 bc
       -0.009376592 0.009890288 0.04455484 -0.02987426
000200 4d 1f 7d 3c 40 99 24 bd 87 a0 00 3c 72 b7 28 3d
       0.015449357 -0.040185213 0.007850773 0.041190572
000210 dd 17 0a 3d 10 62 2f 3d f7 b9 dd 3c 8d 8d 87 bb
       0.033714164 0.04281813 0.027066214 -0.004136747
000220 ed e3 55 3c 3d 27 ab bc c3 d6 2d 3d b3 16 cd 3c
       0.01305483 -0.020892734 0.04244114 0.025035238
000230 b0 e5 15 bd e7 14 31 3d 00 80 42 ba 33 a9 11 bb
       -0.036596 0.043232825 -0.0007419586 -0.0022226095
000240 f3 33 60 bc 53 23 58 bc 4d 01 24 3b 63 f6 c7 bc
       -0.013684261 -0.013192016 0.002502519 -0.024409479
000250 a2 81 3e bd c7 fc d2 bc c0 04 23 bc 52 a7 1a 3d
       -0.046510346 -0.0257553 -0.009949863 0.037757225
000260 87 a9 16 3d ad 69 f5 bc 00 a4 fb ba 40 6f 6c bc
       0.036782768 -0.029957617 -0.0019198656 -0.014430821
000270 83 1f db bc e0 0d 10 bc 0a 1f 8e bc 37 f2 e4 3c
       -0.026748424 -0.008792371 -0.017348785 0.027947528
000280 e0 22 cb bc 8d 12 fc 3b a7 24 e7 bc 2d ad 7f bc
       -0.024796903 0.007692641 -0.02821572 -0.015605253
000290 33 39 21 3d 63 16 c9 bc 33 09 45 bb 10 98 43 3d
       0.03936119 -0.024546808 -0.0030065298 0.04775244
0002a0 53 31 8c 3c 67 7c d0 bc d3 ec f5 bc da a2 8f bc
       0.017113363 -0.025449945 -0.030020153 -0.017533708
0002b0 13 44 80 bc a0 55 b2 3c e7 20 36 bc 02 ba 2c 3d
       -0.01565746 0.021769345 -0.011116243 0.04216958
0002c0 70 bd e0 bc 5d 15 80 bc 97 20 95 3c 82 90 23 3d
       -0.02743408 -0.015635187 0.018204017 0.039932735
0002d0 07 e9 43 3d 93 1e 03 3c e7 1e 0a 3b ed 83 b7 bc
       0.047829654 0.008002895 0.0021075548 -0.022401774
0002e0 83 6e e7 3c 9d 6c ed bc c0 52 57 bc d2 2b 2b bd
       0.028250938 -0.028982455 -0.013142288 -0.041789837
0002f0 12 e2 44 bd 5a f2 e4 3c cd 9d 5e 3b ea 42 23 3d
       -0.04806716 0.027947593 0.0033968568 0.039858736
000300 37 f7 22 3d 5d f0 d6 3c 6a eb a3 3c ba 98 54 bc
       0.039786544 0.026237661 0.020009715 -0.012975866
000310 1a 8b d9 3c a3 f6 c4 3c 67 cb 8d 3c 9a 2e bd ba
       0.026555587 0.024043387 0.017308904 -0.0014433444
000320 33 ba f4 3b 67 9e 68 39 eb a0 14 bd 00 2b 3e 3c
       0.0074684857 0.00022184254 -0.036286276 0.011606932
000330 ca 8e 16 bd 0d bd c6 3c 2a 0b f4 bc ca cb 85 bc
       -0.036757268 0.024260068 -0.02979048 -0.016332526
000340 0d 41 c2 bc a3 a6 21 3d 57 39 10 bd ba 25 d1 3c
       -0.02371266 0.039465558 -0.035210934 0.025530685
000350 43 6d cd 3c 10 cf 10 3d 00 41 4d 3c fd 4a df 3c
       0.025076514 0.03535372 0.012527704 0.027257437
000360 f8 e4 21 3d e7 5c 21 3c 70 45 8b 3c dd 23 20 bd
       0.039525002 0.00984881 0.017000884 -0.039096702
000370 e0 bb 5b bc 8d 8e 94 3b 80 81 c6 3b 50 b6 90 bc
       -0.013411492 0.004533595 0.006057918 -0.017665058
000380 a7 06 4b bd 9a 0a 55 bc ca cf 9c 3c e5 58 30 3d
       -0.04956689 -0.013003016 0.01914205 0.043053526
000390 bd f0 38 bd a3 8e c3 3c 52 54 42 bd c2 d9 43 bd
       -0.04515146 0.023871725 -0.047443695 -0.047815092
0003a0 40 41 00 bd c0 67 d8 bb 2d cc 64 3c b0 c0 1b bd
       -0.031312227 -0.006604165 0.013964695 -0.038025558
0003b0 3f c9 1d 3d 93 33 39 3d 00 9c 49 3b 33 b4 26 3d
       0.038522 0.0452152 0.003076315 0.040699195
0003c0 a7 6e b9 bc 1d 09 a2 bc 67 6d d3 bb 33 05 b3 3b
       -0.022635771 -0.019779736 -0.0064522508 0.0054632663
0003d0 9d dd 0e bd b5 fd 23 bd 40 ce a1 3c 80 32 6c 3c
       -0.034879316 -0.040036876 0.019751668 0.014416337
0003e0 77 59 48 3d cd ff a6 bc 73 a5 90 3c 13 4a a5 bc
       0.048913445 -0.020385647 0.017657017 -0.020176923
0003f0 e7 32 ca 3c cd 84 35 bb e3 d1 17 3d 9a 8f e3 3c
       0.024682475 -0.0027697564 0.037065398 0.027778435

l2.bias f4 [300]
000000 30 ef ca 3c 13 28 86 3c 47 d4 72 3c a3 13 1a bd
       0.024772257 0.01637653 0.014821119 -0.037616383
000010 f2 e2 4b bd 67 19 f9 3a 67 41 24 3d 78 60 2b bd
       -0.04977698 0.0019004763 0.040101435 -0.041840047
000020 f3 71 35 bc 3a 1a bd 3c 6a cf 2c bd 3a 0e 06 3d
       -0.011074531 0.023083795 -0.042189993 0.03272841
000030 17 7f 2f 3d b0 cf 9d 3c 9a 9b dd ba 77 51 f5 3c
       0.04284581 0.019264072 -0.0016907335 0.029946072
000040 67 06 34 bc e0 af a3 3c ef ce 3f 3d c2 93 20 3d
       -0.010987855 0.019981325 0.046828207 0.039203413
000050 6a dc b7 bc d7 b7 d5 3c a2 01 3e 3d e7 de 39 3c
       -0.022443969 0.026088638 0.046388276 0.011344648
000060 10 c1 4c bd 82 da 43 3d 2f 6b 20 bd 5b 74 33 bd
       -0.049988806 0.047815807 -0.03916472 -0.043812137
000070 e0 bf 6b 3c dd bf d8 3c 20 3e a0 3c 80 e4 ee 3c
       0.014389008 0.026458675 0.019560874 0.029161692
000080 93 6f 3a 3d b2 d2 46 bd b7 65 cd bc 58 85 2e bd
       0.04551656 -0.04854078 -0.025072915 -0.042607635
000090 13 c4 59 3c 33 9f 7e ba 0a 3d a6 bc 67 c1 43 3d
       0.013291377 -0.00097130536 -0.020292778 0.047791865
0000a0 c7 66 fd bc ca fe 86 bc 00 c9 3c bc 00 cb a0 ba
       -0.030932797 -0.016478915 -0.0115225315 -0.001226753
0000b0 d5 df 06 3d b8 dd 16 bd 03 f8 d2 bc 87 0d c0 3c
       0.032928307 -0.03683254 -0.025753027 0.02344395
0000c0 1a d3 0f bd b7 08 c0 3c e3 55 82 3c a7 a3 e3 bb
       -0.03511343 0.023441656 0.015910095 -0.006946999
0000d0 20 d6 c3 bc c7 11 17 bc f0 5a 2f bd aa d2 29 3d
       -0.023905814 -0.009220547 -0.042811334 0.04146067
0000e0 e7 86 26 3d 6f 75 2f 3d 3a 2f 95 3c e0 42 86 3c
       0.040655997 0.042836603 0.018210996 0.01638931
0000f0 1d 7c 92 bc 20 43 09 bd 78 31 35 3d 77 b3 d9 bc
       -0.017881447 -0.03351128 0.04423663 -0.026574833
000100 2a 0f aa bc a5 b1 19 bd c3 2a f8 bc ca f6 fa bc
       -0.020759184 -0.03752293 -0.030293828 -0.030635256
000110 f3 b4 7a 3c 3d 8e 00 bd 6d 3c 4c 3d a0 27 28 3c
       0.015301931 -0.03138565 0.049862314 0.010263354
000120 ba 96 40 bc ad e8 7f 3c c5 20 29 bd 5a a3 2c 3c
       -0.011754686 0.015619439 -0.041291017 0.010536993
000130 27 04 dd 3c 4d 55 f2 bc 42 3f 34 bd 80 92 d2 3c
       0.026979519 -0.02958169 -0.04400564 0.025704622
000140 00 1b 57 bc b3 30 6e 3b 27 ba 54 3c 98 41 0a 3d
       -0.013128996 0.0036344945 0.012983835 0.03375396
000150 82 c6 01 bd 70 cf ce 3c 73 d3 97 3c 97 a7 ea 3c
       -0.031683452 0.025245398 0.018533444 0.028644366
000160 9a 47 e4 bc 1a 7f 81 3b 80 54 14 3c f3 35 1c bd
       -0.027866174 0.0039519193 0.0090533495 -0.038137387
000170 c0 8c 1e 3d 40 21 d2 3b 0f 68 3b bd 57 6a 09 3d
       0.03870845 0.006412655 -0.045753535 0.03354868
000180 6d 49 d4 3c 13 86 9b bc b0 4a e2 bc eb 08 3e 3d
       0.025913918 -0.01898483 -0.027623504 0.046395224
000190 27 c1 c9 bc c3 db be bc 13 5b 47 bc 00 4e 8d 3a
       -0.024628235 -0.02329815 -0.01216771 0.0010780692
0001a0 e7 45 21 bd 5a 69 64 3c 7a 25 f0 bc 5a b6 cb bb
       -0.039373305 0.013941133 -0.029314745 -0.0062168064
0001b0 9f 4c 32 3d 6d 18 e7 3c 53 18 3d 3c ed e0 d9 bc
       0.043530103 0.02820989 0.011541444 -0.02659651
0001c0 03 8c a5 bc c3 37 33 3d d0 da 18 3d da b0 da 3c
       -0.020208364 0.04375435 0.03731805 0.026695658
0001d0 c7 2c 35 3c 5d 26 34 3d 67 68 82 3c 45 30 46 3d
       0.011058039 0.0439819 0.015918924 0.048385877
0001e0 7a fd 51 3c ad c4 1b 3d 87 82 77 3c 1a 39 9e bc
       0.012816781 0.03802936 0.015106804 -0.019314338
0001f0 c0 78 14 bc 1b 04 32 bd 5a e8 d6 3b 70 48 fc 3c
       -0.009061992 -0.043460947 0.00655846 0.03079626
000200 8a b8 d1 bc dd 35 20 bd 2d 6e 81 3c fd 11 ca bc
       -0.02560069 -0.039113868 0.015799606 -0.02466678
000210 b0 ff 03 3d b8 eb 26 3d 73 ea 7f bc e2 b4 45 3d
       0.032226264 0.040752143 -0.015619862 0.048268206
000220 e8 cd 03 bd bd 45 9f bc 5a 2a e0 bb 5a 9e f3 bc
       -0.03217879 -0.019442433 -0.006840986 -0.029738594
000230 b3 10 9c 3b 9a 03 42 bc e7 24 30 3c 8a ce b6 3c
       0.004762733 -0.011841679 0.010750986 0.022315282
000240 8d 3c 10 3c c7 e2 e9 3c 8f 67 28 bd a3 3a 0d bd
       0.008803499 0.028550519 -0.041114386 -0.03447975
000250 27 28 b8 3c da ec 05 3d 67 93 91 bb 63 9c 05 bd
       0.022480084 0.032696582 -0.0044426206 -0.032619845
000260 2d 78 3c 3c ea 10 b1 bc 13 ae ca 3c 8d 91 f1 bc
       0.0115032615 -0.02161451 0.024741208 -0.02948835
000270 93 55 8b 3c c0 5f 47 3c 33 0e e7 3a 6d ed f6 3c
       0.017008578 0.012168825 0.0017628133 0.03014251
000280 53 2d 24 3c 5a 62 21 3c 68 30 11 3d 85 18 00 bd
       0.010020572 0.009850109 0.035446554 -0.031273384
000290 7a 3e 3a 3d 9d 84 ba 3c 10 37 17 3d 5b e3 3e 3d
       0.04546974 0.022768313 0.036917746 0.04660354
0002a0 80 ac 34 bd 4b 73 31 bd 57 0f d5 bc 80 bf 22 3b
       -0.04410982 -0.043322843 -0.026008291 0.0024833381
0002b0 60 ec 9f bc 0b f0 33 3d c0 cc 1d 3d 2d 65 96 3c
       -0.019521892 0.043930095 0.038525343 0.018358791
0002c0 b3 1f 3a 3d 0f 07 0b 3d 52 64 2d 3d ca 76 8e bc
       0.045440387 0.03394228 0.042332 -0.017390627
0002d0 9a 0e cf 3a a0 2b 2d bd bd fc 46 bd 8d ff 15 bd
       0.0015797198 -0.042277932 -0.048580874 -0.036620665
0002e0 15 6d 1b 3d 72 17 30 3d bd d2 43 bd 9a 4f a8 bb
       0.037945826 0.04299111 -0.047808398 -0.0051364424
0002f0 17 37 f7 bc 6a 8d 98 bc 13 d9 cc 3c 2d 7a 5c bc
       -0.030177636 -0.018622119 0.025005853 -0.013456863
000300 fb 53 06 bd 33 f2 d9 bb 18 46 43 bd 57 ee 22 3d
       -0.032794934 -0.006651187 -0.04767427 0.03977808
000310 40 62 9e bb a7 98 66 bc 23 17 9b 3c 0d 8d e1 3b
       -0.0048334897 -0.014074481 0.01893193 0.0068832696
000320 78 20 11 3d 17 60 47 bd 2f 89 0d bd 8d 32 00 3d
       0.035431355 -0.048675623 -0.034554657 0.03129821
000330 aa a3 c4 bc 53 c2 3a bc f0 2e f7 bc 3d 2b 9f 3c
       -0.024003822 -0.01139887 -0.030173749 0.019429797
000340 55 e3 41 3d b3 85 be bb e3 be 1c bd 47 c5 f0 bc
       0.04733594 -0.005814278 -0.03826798 -0.029390944
000350 cd 10 3b bb e0 de 3d bc 1b fc 06 3d aa 12 42 3d
       -0.002854395 -0.011588782 0.03295527 0.04738108
000360 67 4e 66 bc 9b 44 48 bd cd 7c f9 38 3d 8e 3f bd
       -0.0140567785 -0.048893552 0.00011896491 -0.04676651
000370 cd 9f 00 3b 17 73 8a bc 5a f9 24 3d 67 40 87 3c
       0.0019626499 -0.016900582 0.040276863 0.016510202
000380 90 2c ba 3c 00 4a db 3c 2a 52 0b bd 70 09 26 3d
       0.022726327 0.026768684 -0.034013905 0.040536344
000390 40 4a 47 bd ef 90 34 bd ad cb 00 bc 2a 63 fc 3c
       -0.048654795 -0.044083532 -0.00786106 0.030809004
0003a0 d3 01 28 3d 20 c0 00 bd 5a dc a9 3c 4d 0c 7c 3b
       0.041017365 -0.031433225 0.020734955 0.003845948
0003b0 00 70 12 bb f8 26 22 bd fa 7c 6d bc 1a ca 27 bc
       -0.002234459 -0.039587945 -0.014495129 -0.010241056
0003c0 a7 41 41 bc 68 5b 39 3d bf fa 18 3d 53 eb 2c bd
       -0.011795438 0.045253187 0.037348505 -0.04221661
0003d0 0b c2 05 bd 98 8c 0c bd 47 1a 5e 3c 75 2b 1c bd
       -0.032655757 -0.03431377 0.01355607 -0.03812738
0003e0 4d f2 ed bb 6d 18 00 3d dd b9 95 bc 5a 17 f6 3b
       -0.0072615505 0.031273294 -0.018277103 0.007510108
0003f0 67 1d 82 3b 10 61 ff bc 20 a1 13 3d db 6c 0c bd
       0.00397079 -0.031174213 0.036042333 -0.0342835

l3.weight f4 [1, 300]
000000 99 d6 50 bd e7 0f 12 bd 2d 40 17 3d fe 40 6b 3d
       -0.050985906 -0.035659697 0.036926437 0.05743503
000010 63 bc 28 bd ea 74 8c 3b 61 27 6e 3c 6b 0c 14 bc
       -0.041195285 0.004286398 0.014535756 -0.009036164
000020 f1 24 a3 bb a2 71 00 3d 90 d2 3c bc 9e c8 e5 bc
       -0.004978769 0.03135837 -0.011524811 -0.028049763
000030 57 0f 9b bc 8c 0e 88 3c 64 d6 f2 bc 53 0f 3f bc
       -0.018928213 0.016608499 -0.029643245 -0.011661368
000040 96 1d e1 bc 25 07 04 3d a3 7a 3e 3d 55 91 9b bc
       -0.027479928 0.032233376 0.046503674 -0.018990198
000050 6e 82 13 bc 68 c4 43 3d 40 cf c4 bc bf bf 56 bd
       -0.009003265 0.04779473 -0.024024606 -0.052428957
000060 bc 30 07 3d 0c 27 28 3d 00 8e 24 bd f3 90 07 3d
       0.03300546 0.041052863 -0.040174484 0.03309722
000070 1c 4c 9f bc 3a 19 62 bd 64 31 4b bd ee 3f 46 3d
       -0.019445471 -0.05519984 -0.04960765 0.04840081
000080 3a 39 f6 bc df 5c 8f 3c ba 36 e3 3c 3f 4c 3d bd
       -0.030056585 0.01750034 0.027736057 -0.046215292
000090 11 41 13 3d 9f 7d 52 3d b8 4e 02 3b a2 cb 79 3c
       0.035950724 0.051389333 0.0019883346 0.015246304
0000a0 4f e8 1c 3d 06 8b aa bc ae b0 24 bd d2 14 fc bc
       0.038307484 -0.020818245 -0.040207557 -0.030771647
0000b0 f7 ff 5f 3d 98 7e 42 3d 26 54 79 ba 3a 4f 5b bd
       0.054687466 0.04748401 -0.0009511135 -0.053542353
0000c0 24 00 15 bd 70 89 05 bd d1 74 44 bd 42 74 1f 3d
       -0.036377087 -0.032601774 -0.047962967 0.03892923
0000d0 7d 8a ba 3b 92 34 e4 3b ee fb 1c bd 1e f5 c1 3c
       0.0056927786 0.0069642747 -0.038326196 0.023676451
0000e0 e7 27 51 3d b9 45 76 bb ef a4 00 bd 71 ba 38 3c
       0.051063444 -0.003757818 -0.031407293 0.01127492
0000f0 01 87 37 3c 3e 69 1b bd e5 6a f0 3c 8f f0 e4 bc
       0.011201621 -0.037942164 0.029347846 -0.027946739
000100 3c b8 51 3c b0 c4 54 bd 06 ae 56 bd a3 07 b3 3c
       0.012800273 -0.05194539 -0.052412055 0.021854227
000110 a5 45 04 3d f6 90 01 bd d0 f8 0a bd 5c 19 34 3d
       0.03229298 -0.031632386 -0.033928692 0.043969497
000120 38 37 26 bd 2e bb 1e 3d 99 5f 51 bd d3 cb f7 3c
       -0.040580004 0.038752727 -0.05111656 0.030248558
000130 f3 dd 51 3d ea a7 59 3d 7f 3e 66 bd e4 3b 2d b9
       0.051237058 0.05313865 -0.056211945 -0.00016520877
000140 28 91 d8 3b 0c a6 1d 3d cd 1a d7 3b 7e 76 2c 3d
       0.006609101 0.038488433 0.006564474 0.04210519
000150 71 3d b9 3c 1b 1c 03 bd ae a4 99 3c 54 49 4d 3d
       0.022612305 -0.032009225 0.018755283 0.05011876
000160 de 3d 28 3c 14 a5 13 bd f3 5d 2e 3d c1 5e ce bc
       0.010268657 -0.036046103 0.042570066 -0.025191667
000170 9b 91 5c 3c 12 bd 33 bd 8f 2c 65 3d e6 57 d3 3c
       0.013462449 -0.043881483 0.055950698 0.02579875
000180 b6 79 5e 3d 94 14 67 bb 5e 5a 2f 3c 6e d2 09 3d
       0.05431529 -0.0035260068 0.010702698 0.033647947
000190 4a 36 0d 3d 09 97 51 3c 9c 4a 4c 3d 48 2c 20 bc
       0.034475602 0.012792357 0.04987584 -0.0097761825
0001a0 35 0f 0b 3d b5 5b 65 bd a5 f2 2d 3d 4f f3 2a 3d
       0.03395005 -0.05599566 0.042467732 0.041735943
0001b0 39 52 06 3d a7 31 3e bc 57 e7 49 bc ec 7b d9 bc
       0.032793257 -0.011608518 -0.012323222 -0.026548348
0001c0 4c 23 b6 3c c1 83 d6 bc 34 2c 6d bc 9e 2e 1a 3d
       0.022233628 -0.026185872 -0.014475871 0.037642114
0001d0 b3 4c aa bb 57 06 10 bd 3f 53 48 bd 08 f6 8e bc
       -0.0051971315 -0.035162296 -0.048907515 -0.017451301
0001e0 e2 32 37 bc b1 0d c0 3c fa 4b 8d bc 04 f4 52 3c
       -0.011181565 0.023444029 -0.017248143 0.012875561
0001f0 55 52 67 bd cf 8c 07 bd 17 e0 ac bc bd 5f 43 bc
       -0.056475002 -0.03309327 -0.021102948 -0.011924681
000200 ae 5c 8b bc ca 77 55 3d 29 38 64 bd bc b7 40 bd
       -0.017011967 0.052116193 -0.05571762 -0.047050223
000210 fc a8 f2 bb 3e ae 6b bd 89 d6 40 bc 20 76 59 3d
       -0.0074053984 -0.057539217 -0.011769899 0.05309117
000220 5f 12 88 3c ba d3 4a bd ea 78 6a 3b a9 81 c7 bc
       0.016610323 -0.049518324 0.0035777637 -0.024353819
000230 ce 0d e8 bc 0d 51 41 bd b7 1b 1a 3d 05 7c 4d bd
       -0.028326895 -0.047196437 0.037624087 -0.050167102
000240 75 56 2a 3c a6 0c 44 3d c9 47 a7 bc 64 57 92 bc
       0.0103965895 0.047863625 -0.020419972 -0.017863937
000250 76 a9 31 bd ff 46 32 3d 97 ad 12 3d bd f0 28 bd
       -0.0433745 0.04352474 0.03581008 -0.04124521
000260 bb 21 59 bd 08 4f 11 3d 38 17 5a 3d 11 2c aa bc
       -0.053010684 0.03547576 0.0532448 -0.020772966
000270 a8 42 22 3d d9 81 a9 bc 6a c3 92 bb 8e e3 98 bc
       0.03961435 -0.020691799 -0.0044788616 -0.018663194
000280 f6 d6 2f bd 92 b0 95 bc 19 e6 49 3c 4f 52 52 3d
       -0.042929612 -0.018272672 0.012322926 0.051348027
000290 3d 44 41 bd 4d a4 56 bd d0 79 23 3d 7f e2 51 bd
       -0.047184218 -0.052402783 0.03991109 -0.051241394
0002a0 81 3f e7 bc d5 70 3f bd 82 72 50 3d 25 78 8c b7
       -0.028228523 -0.046738464 0.050890453 -1.6745247e-05
0002b0 2b 09 08 bd 7e 33 fc bc b6 1d 2c 3d 10 bf c7 bc
       -0.03321187 -0.030786272 0.042020522 -0.024383098
0002c0 88 86 c4 3c ab 2d 0c bc 71 d5 0b 3d 6f 5d 14 bd
       0.02398993 -0.00855581 0.0341391 -0.036221918
0002d0 cc 44 cf b8 86 cd bd bc b2 fd f7 bc 31 ed 58 bd
       -9.8833436e-05 -0.02316929 -0.030272339 -0.05296058
0002e0 88 6d 13 bc c7 47 1b 3d ff 31 f0 3b ff 6a 41 3d
       -0.008998282 0.03791025 0.0073301787 0.04722118
0002f0 4f 61 83 bc 05 42 27 bd b8 7a bc 3b fa 69 08 bd
       -0.016037611 -0.040834446 0.005751934 -0.033304192
000300 72 eb 17 bd d2 c9 10 3d f2 41 08 bc 94 8f bb 3c
       -0.037089773 0.03534872 -0.008316504 0.022895612
000310 2c 00 36 3d 83 21 a1 bc 65 23 14 bd 8f 76 d2 3c
       0.044433758 -0.0196693 -0.036166567 0.025691299
000320 13 f7 17 bd 69 a7 5b bd 4b 7b 6b bd 9f f7 f1 3b
       -0.037100863 -0.05362645 -0.05749063 0.007384255
000330 3b 18 67 3d dd 38 c0 3c 39 27 2c 3b 16 6e 4c 3c
       0.056419592 0.023464615 0.0026268496 0.012477418
000340 d0 77 1e bd 16 80 02 bc 5a 50 7f 3c 1c 64 48 b9
       -0.03868848 -0.007965108 0.015583122 -0.0001911078
000350 ad 48 13 bd f2 8e d4 bc 64 af 0f 3d 53 41 16 bc
       -0.03595798 -0.025947068 0.035079375 -0.009170848
000360 65 32 5e 3a 3f a5 59 3c 8c 24 02 3c 80 45 65 bd
       0.00084761373 0.013284027 0.007943284 -0.055974483
000370 10 90 7e 3c 6f 7e 7c 3c 2f ae c3 3c cb 4f 32 3c
       0.015537277 0.0154110035 0.023886768 0.010883282
000380 08 64 28 bd 62 df 68 3d dd 85 d0 3c 14 6b 59 3d
       -0.041111022 0.05685366 0.025454456 0.053080633
000390 1b 72 40 3c bc cf 3e bd 81 f5 4d 3d 3a 05 1f bd
       0.011745955 -0.04658483 0.05028296 -0.038823344
0003a0 68 78 5b bd 02 9a 38 bd cb bc 48 ba 48 22 f9 bc
       -0.053581625 -0.04506875 -0.0007657527 -0.030411854
0003b0 9b f2 26 3d b9 19 1c 3d 92 63 09 bd e9 b4 a0 bc
       0.04075871 0.03811047 -0.033542223 -0.019617515
0003c0 c4 a2 00 bd 57 6c 1d 3d 2e 36 fb bb e1 05 2d 3c
       -0.031405225 0.0384334 -0.007666371 0.010560484
0003d0 42 95 8c bc 15 18 c0 bc e1 be 4c 3d 16 59 18 bd
       -0.017161015 -0.023448983 0.049986724 -0.037194334
0003e0 a0 9b 2c 3d 7b ff 33 3d f6 09 08 3d 80 f2 1b bd
       0.042140603 0.043944817 0.033212624 -0.038073063
0003f0 f8 95 69 bd 92 19 18 bd 3c 87 48 bd 0f 98 6a bc
       -0.057027787 -0.03713376 -0.048957095 -0.01431848
