TD3/saves/best_avg_critic.pth (torch, 984667 bytes, 10 tensors)

l1.weight f4 [400, 4]
-0.41970918 0.4649731 0.020833343 -0.19221339 -0.05096417 0.750369 0.42785385 0.070603855
0.7152831 -1.6055566 -0.3821545 -0.063974485 1.6906208 0.26242512 -0.004072492 0.016996153
0.029734138 -0.052309368 0.0014766963 0.0049262224 1.261593 -1.7255214 0.37712747 0.04436368
-0.08633635 0.8901137 0.4172762 0.26646754 0.01681538 -0.034336947 -0.0011312263 -0.007521001
0.11167917 -1.2297646 0.068552166 0.13125356 -0.6515946 -0.22016999 -0.11779073 0.040110327
-0.06607593 -0.16724332 -0.2783394 0.073238045 0.71153563 -0.29862985 -0.26593795 -0.043953776
0.018978985 0.14584802 0.0044345087 0.024971569 -0.6076992 0.21182907 -0.116117455 0.08913353
-0.43273336 0.2569931 -0.17700991 -0.20816076 0.50227046 -1.8319145 -0.39033923 -0.06452863
-0.43674928 0.2702139 -0.13485818 -0.084260724 0.35264227 0.106838934 -0.033130478 -0.39026672
0.15670398 -0.10815108 -0.36891034 -0.053158227 1.4963772 1.0205582 0.019090509 -0.019579032
-0.22678956 0.13954484 -0.31405923 0.1523476 1.2613536 -0.79497373 -0.4435028 -0.071590215
-0.09938294 -0.11164842 0.009446711 -0.031181421 0.38809526 -0.06996164 -0.23351124 -0.03298662
0.37745374 -0.4985837 -0.07180704 0.31432134 1.3121899 0.9082841 0.43819505 0.062454417
0.4572007 0.71120113 -0.48160496 -0.08581994 0.5966252 0.8940059 0.44631314 0.08134955
0.02330167 -0.17861317 -0.039349932 0.086068876 0.09893901 1.0365093 0.1176088 0.058623675
-0.2714347 -0.47638938 0.5605111 0.05968815 1.0579455 -1.0514151 -0.25961027 -0.04089979
-0.39224848 1.5902469 0.32056683 0.046117555 -0.2242036 -0.6405073 -0.40299064 -0.107433364
0.21251637 1.0303984 -0.34873265 -0.052877456 -0.4564729 -0.33840865 -0.21298356 0.36187997
0.5360531 0.4236907 0.6269034 0.102916755 -0.354062 1.3969126 0.27452353 0.043449618
0.16184513 0.544726 -0.29164365 -0.018457485 0.3678286 1.1450453 0.26412714 0.045630913
-0.04764947 -0.06295103 -0.00043069673 -0.023946583 0.09724799 -0.3092392 -0.0029557566 -0.05214857
-0.57495403 0.45870927 0.107880324 -0.3730327 0.4242853 0.7385405 0.3286801 0.059661213
-0.47594848 0.6321443 0.022924198 0.0037915173 0.008615916 2.4044359 0.5523498 0.08363521
1.5626049 -0.82489836 0.19830805 0.017716136 -0.7580159 0.56015867 0.46803492 0.09878058
-0.26369634 -0.91494226 -0.20444721 0.23860833 0.058522027 0.00037427334 -0.002519618 0.0027315663
-0.7101145 0.16618547 -0.048236787 -0.04816553 -0.3791491 0.104802355 0.20602973 0.1092895
-0.3545008 1.3644049 0.2685661 0.04476903 -0.3972609 1.1432036 0.114163905 0.0062707975
0.8038886 0.092280485 0.5900311 0.0902232 -0.29248112 1.3516892 0.14803551 0.00933215
0.15345225 0.47640198 -0.0041872417 0.06341797 1.7045068 -0.86014926 0.066083975 0.03887027
1.0213432 -1.6049887 -0.084922075 -0.057290323 1.7026608 -1.690821 -0.03954661 0.013658428
1.1064407 1.5416431 0.46083874 0.026379712 0.021414915 -1.0566651 -0.35281155 -0.05153991
0.2712921 0.032850526 -0.48397797 -0.035337478 -0.040676314 -0.28573847 -0.14253105 0.50878423
00000000: 1fe4 d6be f410 ee3e b0aa aa3c 96d3 44be
00000010: cebf 50bd 2f18 403f a90f db3e c198 903d
00000020: cb1c 373f e182 cdbf c1a9 c3be 0e05 83bd
00000030: 4366 d83f 965c 863e 8a72 85bb 843b 8b3c
00000040: 0295 f33c 5942 56bd b58d c13a 266c a13b
00000050: e17b a13f e3dd dcbf da16 c13e b1b6 353d
00000060: 1dd1 b0bd 7ede 633f 3aa5 d53e 6f6e 883e
00000070: 68c0 893c e6a4 0cbd a845 94ba bb72 f6bb
00000080: 0cb8 e43d ed68 9dbf 1465 8c3d 5567 063e
00000090: e7ce 26bf 3e74 61be 443c f1bd ba4a 243d
000000a0: d152 87bd d541 2bbe 8082 8ebe d4fd 953d
000000b0: 3327 363f 03e6 98be 0529 88be e008 34bd
000000c0: d179 9b3c 2f59 153e 5b4f 913b 2d91 cc3c
000000d0: 2d92 1bbf b8e9 583e fdce edbd a48b b63d
000000e0: 3a8f ddbe 9994 833e 1642 35be 1828 55be
000000f0: cc94 003f 2d7c eabf 8bda c7be 9627 84bd
00000100: 9a9d dfbe 7a59 8a3e 4318 0abe e390 acbd
00000110: 878d b43e 5fce da3d d3b3 07bd 0ad1 c7be
00000120: 0277 203e 507e ddbd d1e1 bcbe 71bc 59bd
00000130: 4a89 bf3f a7a1 823f b363 9c3c 3564 a0bc
00000140: 863b 68be d8e4 0e3e 5fcc a0be 0201 1c3e
00000150: 0974 a13f 6683 4bbf cd12 e3be e49d 92bd
00000160: 4889 cbbd eda7 e4bd 61c6 1a3c 2e70 ffbc
00000170: 6cb4 c63e 0c48 8fbd 921d 6fbe fa1c 07bd
00000180: 9e41 c13e 5d46 ffbe 920f 93bd baee a03e
00000190: d7f5 a73f 4f85 683f 1a5b e03e 34d0 7f3d
000001a0: 3616 ea3e 4711 363f ed94 f6be 5dc2 afbd
000001b0: 6ebc 183f 92dd 643f 2883 e43e 989a a63d
000001c0: 25e3 be3c 5fe6 36be 652d 21bd e144 b03d
000001d0: 89a0 ca3d 56ac 843f e2dc f03d 611f 703d
000001e0: 7df9 8abe 4fe9 f3be a87d 0f3f 907b 743d
000001f0: c26a 873f c594 86bf a3eb 84be 8a86 27bd
00000200: cbd4 c8be 368d cb3f 5621 a43e c3e5 3c3d
00000210: a195 65be 49f8 23bf ca54 cebe 0606 dcbd
00000220: e49d 593e 18e4 833f 168d b2be 0896 58bd
00000230: d1b6 e9be e643 adbe 5d18 5abe 5548 b93e
00000240: c73a 093f fded d83e be7c 203f 05c6 d23d
00000250: 9d47 b5be 08ce b23f 598e 8c3e 3af8 313d
00000260: bbba 253e 2a73 0b3f 5152 95be 2734 97bc
00000270: 0854 bc3e d890 923f ac3b 873e 7be7 3a3d
00000280: 172c 43bd 78ec 80bd 23cf e1b9 a02b c4bc
00000290: f429 c73d 9a54 9ebe 5eb5 41bb bd99 55bd
000002a0: 3030 13bf f1db ea3e 5cf0 dc3d 24fe bebe
000002b0: ec3b d93e fd10 3d3f c248 a83e 515f 743d
000002c0: 85af f3be 35d4 213f 87cb bb3c 1b7b 783b
000002d0: c529 0d3c 47e2 1940 cc66 0d3f f048 ab3d
000002e0: 7003 c83f 8a2c 53bf 4411 4b3e 6e21 913c
000002f0: 540d 42bf 8f66 0f3f 46a2 ef3e 794d ca3d
00000300: 3503 87be a839 6abf 9c5a 51be be55 743e
00000310: cbb4 6f3d 1e3a c439 2d20 25bb 1404 333b
00000320: 10ca 35bf 862c 2a3e f093 45bd 3849 45bd
00000330: d51f c2be 9ea2 d63d 75f9 523e 2cd3 df3d
00000340: 2181 b5be d2a4 ae3f 7f81 893e bb5f 373d
00000350: c865 cbbe 7f54 923f c4ce e93d 437b cd3b
00000360: a5cb 4d3f 8dfd bc3d 470c 173f f1c6 b83d
00000370: 16c0 95be 2704 ad3f 9f96 173e e0e5 183c
00000380: 9622 1d3e f6ea f33e 2135 89bb 48e1 813d
00000390: 472d da3f be32 5cbf 0957 873d 6f36 1f3d
000003a0: 60bb 823f 4570 cdbf a0eb adbd 42a9 6abd
000003b0: caf0 d93f d36c d8bf a0fb 21bd 99c7 5f3c
000003c0: d99f 8d3f 9054 c53f 0ef3 eb3e 441a d83c
000003d0: 556e af3c cd40 87bf b7a3 b4be 831b 53bd
000003e0: cce6 8a3e 468e 063d f6cb f7be 08be 10bd
000003f0: 359c 26bd 504c 92be a9f3 11be af3f 023f

l1.bias f4 [400]
0.19124496 0.12462183 -0.12425811 0.4999337 -0.07926954 -0.92480606 -0.3224444 -0.057306103
0.54202634 0.66608125 -1.2202871 0.1664981 -0.22046554 0.37852523 0.112630196 0.16216725
0.24754567 -0.078120984 -0.6442769 -0.032279834 0.3173128 -0.9701158 -0.17382494 -0.15700108
-0.45381382 -0.90312344 0.27043998 -0.15390117 -0.5894011 -0.25578994 -0.17998028 -0.63460696
-0.1595335 -0.48838937 0.010325262 -1.0551171 -0.722643 -0.14922063 0.41627762 -0.01900061
-0.1347183 -0.4436405 0.45722866 -0.13777092 0.33721104 -0.7138551 -0.4574279 -0.57604
-0.49598193 -0.07381925 0.036171835 0.110057585 -0.14355505 -0.311879 -0.65520245 -0.20658167
-0.07095294 0.32951695 -0.65747637 -0.29263023 -0.39956406 -0.21588664 -0.80095613 -0.8628557
-1.1517302 -0.75840926 0.5883167 0.30595824 0.27855173 -1.2078661 -0.5894817 -0.14264217
-1.2198608 -0.74968815 -0.7071113 -0.0743649 -1.1957667 -0.42982948 -0.3490633 -0.6458718
-0.6069753 0.24059512 -0.7182315 0.07181149 0.15369645 -0.6811591 -1.1352082 0.47518227
-0.23167804 -0.57532066 -0.31791985 -0.5781043 -0.80202204 0.35311756 0.16046792 -0.91487026
-0.51771444 -0.73798454 0.31852275 -0.8780838 -0.9537877 0.4774014 0.31729168 -0.80358976
-0.112861454 -0.07527421 -0.07280517 -0.14327346 0.46146387 -1.1254003 0.16567801 0.107509874
-0.84095424 -0.50048405 -0.3638212 -0.12582006 -1.6975738 0.417482 -0.15049079 -0.5600353
-0.02253436 -1.3636309 0.4033478 -0.053828523 0.6417895 0.03402262 0.31379896 0.4990897
0.66304743 -0.73473454 -0.48168775 -0.809285 0.34713373 -0.33270746 0.06611782 0.077228665
0.10625705 -0.043707673 0.21711329 -0.41208932 0.28198716 -1.179584 0.5435516 0.30656406
0.155047 0.24143 0.34465712 -0.7243624 -1.6103288 -0.456933 -0.058711316 -1.0352852
0.26483092 0.16095397 0.059518483 0.15239748 -0.22876443 0.11315502 0.041975617 0.12703219
0.17416811 -0.9713856 -0.8843754 -0.25402966 -1.1336813 0.61727154 -0.05514263 0.004073391
-0.40615898 -0.52656025 -0.59876794 0.6022867 -0.26453143 -0.47791824 -0.3310247 -1.0074259
-0.6738648 -1.4115571 0.2627529 -0.18377002 0.23394284 -0.79538226 -0.027744481 -0.6435009
-1.0440277 0.4445465 -1.0919199 -0.50052303 -1.0256919 0.42093423 0.5204677 -0.61428094
-0.5923773 -0.45734215 0.1509849 -0.45646113 -0.98664904 -0.65300184 -0.096618555 -1.3932983
-1.1475153 -0.60898846 -0.42202365 0.29086575 -1.1419109 0.17175603 0.0997179 0.52354854
-0.69175225 -0.20717183 -1.3717521 -1.0057544 -0.28621364 0.063342445 -0.15297769 -0.42578855
-0.1289778 -0.6200677 -1.3767219 0.4932271 -1.211464 0.44793293 0.39554656 0.39698437
-0.17844744 -0.38955763 0.1445858 -1.0584184 -0.29164702 0.20711775 -0.36758435 0.3815933
-0.2785742 -0.73659337 -0.8348418 0.037478525 0.44778767 -0.31559724 0.34304532 -0.35576522
-0.129852 0.13357764 -0.24415462 0.42588004 -0.88975143 0.079552725 0.49347532 0.253122
-0.58085185 -0.1973872 -0.3436021 0.09542906 0.3669903 -1.6615225 -0.12547414 0.28014138
00000000: b8d5 433e bb39 ff3d 097b febd 4ff7 ff3e
00000010: 1258 a2bd 17c0 6cbf 6f17 a5be ceb9 6abd
00000020: 3dc2 0a3f 4d84 2a3f 5e32 9cbf 7a7e 2a3e
00000030: b8c1 61be 0fce c13e a9aa e63d 2c0f 263e
00000040: 9d7c 7d3e e5fd 9fbd 55ef 24bf dc37 04bd
00000050: d376 a23e 8259 78bf 2aff 31be e4c4 20be
00000060: 495a e8be 1933 67bf 1c77 8a3e 4598 1dbe
00000070: fee2 16bf e6f6 82be c04c 38be 9a75 22bf
00000080: c05c 23be 2c0e fabe 4a2b 293c 140e 87bf
00000090: 22ff 38bf 4bcd 18be 5722 d53e 2ba7 9bbc
000000a0: 98f3 09be d924 e3be e019 ea3e d213 0dbe
000000b0: eda6 ac3e 35bf 36bf fd33 eabe 5c77 13bf
000000c0: 58f1 fdbe 8c2e 97bd eb28 143d df65 e13d
000000d0: 1800 13be 9bae 9fbe 59bb 27bf 258a 53be
000000e0: c64f 91bd 72b6 a83e 5f50 28bf a1d3 95be
000000f0: a993 ccbe 6311 5dbe 760b 4dbf 1ce4 5cbf
00000100: e56b 93bf 1c27 42bf ec9b 163f 8fa6 9c3e
00000110: 559e 8e3e 5b9b 9abf 46e8 16bf ca10 12be
00000120: 6624 9cbf 90eb 3fbf 3f05 35bf a04c 98bd
00000130: e20e 99bf 9c12 dcbe 6db8 b2be db57 25bf
00000140: bc62 1bbf 915e 763e 05de 37bf e711 933d
00000150: 9a62 1d3e 7160 2ebf 814e 91bf 174b f33e
00000160: 023d 6dbe 3748 13bf 64c6 a2be a5fe 13bf
00000170: 5151 4dbf d3cb b43e b451 243e f034 6abf
00000180: ef88 04bf 8eec 3cbf 6a15 a33e 1aca 60bf
00000190: 6e2b 74bf f56d f43e 0e74 a23e 0fb8 4dbf
000001a0: e823 e7bd 5d29 9abd e11a 95bd 47b6 12be
000001b0: fe44 ec3e 1e0d 90bf 7fa7 293e 232e dc3d
000001c0: c748 57bf b91f 00bf c646 babe f9d6 00be
000001d0: 194a d9bf 33c0 d53e 421a 1abe 795e 0fbf
000001e0: fa99 b8bc 758b aebf 9a83 ce3e 4c7b 5cbd
000001f0: 514c 243f 4e5b 0b3d 42aa a03e af88 ff3e
00000200: 7abd 293f 9017 3cbf c79f f6be 4d2d 4fbf
00000210: 83bb b13e a258 aabe c868 873d 102a 9e3d
00000220: 4c9d d93d d106 33bd f252 5e3e 5ffd d2be
00000230: 9f60 903e 9cfc 96bf 3326 0b3f f7f5 9c3e
00000240: a4c4 1e3e 6d39 773e e676 b03e d06f 39bf
00000250: 411f cebf 1ff3 e9be 477b 70bd 3a84 84bf
00000260: eb97 873e 1ed1 243e a7c9 733d 160e 1c3e
00000270: 3941 6abe d2bd e73d a0ee 2b3d ba14 023e
00000280: 2059 323e baac 78bf 6d66 62bf 2d10 82be
00000290: 781c 91bf 8205 1e3f 3ddd 61bd 157a 853b
000002a0: 12f4 cfbe a7cc 06bf db48 19bf 762f 1a3f
000002b0: aa70 87be b3b1 f4be 127c a9be 55f3 80bf
000002c0: 6782 2cbf e7ad b4bf 8c87 863e 352e 3cbe
000002d0: b68e 6f3e 2c9e 4bbf 6548 e3bc 7abc 24bf
000002e0: b3a2 85bf 999b e33e 08c4 8bbf 4722 00bf
000002f0: df49 83bf b184 d73e 5f3d 053f 8441 1dbf
00000300: 0aa6 17bf c028 eabe c99b 1a3e 46b5 e9be
00000310: 0895 7cbf 212b 27bf f3df c5bd 9957 b2bf
00000320: c8e1 92bf abe6 1bbf 7c13 d8be 5bec 943e
00000330: 232a 92bf d0e0 2f3e e638 cc3d 4707 063f
00000340: ad16 31bf da24 54be 9395 afbf 8fbc 80bf
00000350: 988a 92be afb9 813d 2fa6 1cbe f500 dabe
00000360: c212 04be c2bc 1ebf 6c38 b0bf 4388 fc3e
00000370: 4111 9bbf 7757 e53e 1485 ca3e 8941 cb3e
00000380: edba 36be 1974 c7be 4d0e 143e 417a 87bf
00000390: c252 95be ad16 543e 0434 bcbe 3260 c33e
000003a0: 47a1 8ebe 6291 3cbf 31b8 55bf 1583 193d
000003b0: 6d44 e53e f695 a1be a3a3 af3e dc26 b6be
000003c0: ecf7 04be 94c8 083e ab03 7abe f30c da3e
000003d0: c0c6 63bf 8aec a23d cca8 fc3e 3599 813e
000003e0: b5b2 14bf df1f 4abe 9dec afbe 5070 c33d
000003f0: 27e6 bb3e c5ac d4bf 4b7c 00be b16e 8f3e

l2.weight f4 [300, 400]
-0.029004088 -0.18674636 0.020504054 0.4400447 -0.17821203 -0.17444961 -0.1625922 -0.06947336
0.024502339 -0.0062790457 -0.06380444 0.035283484 -0.23765469 -0.036614783 -0.11759266 -0.0617291
-0.07279552 -0.028042683 -0.037956048 0.57296705 -0.081410185 -0.21988954 -0.0015890792 -0.10312296
-0.08021381 -0.3328787 0.014767481 -0.33549887 -0.20930175 -0.06388737 -0.3562657 -0.16818845
-0.14058651 -0.085567236 -0.12191605 -0.32208106 -0.8077301 -0.20587064 0.01059871 -0.2153465
-0.011697624 -0.14539936 -0.010664283 -0.25184038 -0.0734785 0.026119934 0.5311699 -0.26499894
-0.14157324 0.12594464 -0.097497225 -0.12468538 -0.104334764 -0.12707041 -0.066489406 -0.16927072
-0.20569408 -0.029644378 -0.31670663 -0.44037503 -0.10418176 -0.0682841 -0.18881775 -0.33016664
-0.9658885 -0.16385585 -0.029738013 -0.020675475 -0.27595595 -0.46928966 -0.14618935 -0.12515418
-0.35883573 -0.22075658 -0.29592872 -0.017170636 -1.6318843 0.0038583076 -0.15618339 0.07195708
-0.3000573 -0.087709084 -0.2307347 -0.020348223 0.054984592 -0.28352845 -0.5253825 -0.06222784
-0.0511115 -0.20398231 0.028076548 0.028751556 0.18634075 -0.09972747 -0.27130094 0.05207762
-0.14661391 -0.18616083 0.14692304 -0.020788945 -0.2828234 -0.0092896 -0.0028418172 0.20996742
-0.17955984 -0.027306845 0.00648054 -0.14009528 -0.0916154 -0.1128281 -0.04937579 -0.16175078
-0.7891846 -0.092450194 0.027829397 -0.26054183 -0.33453575 0.054211106 -0.1465715 -0.0317159
-0.114146665 -0.10063318 -0.009386007 -0.09849838 -0.09605325 -0.1205729 0.042300064 -0.07607743
0.01452682 -0.20964377 -0.21085317 -0.12046927 -0.029659556 0.029220575 -0.12403321 -0.02764196
-0.09987946 -0.11569866 -0.05123978 -0.06335344 -0.11031076 -0.517609 -0.035019416 0.043928936
-0.06978398 -0.006664483 0.09512378 -0.1722671 -3.003308 -0.13781819 -0.036517333 0.880027
-0.080061175 0.04993076 0.059930194 -0.054832295 -0.09211343 -0.21571325 -0.25491413 -0.13663568
-0.024263995 0.33197603 -0.08720065 -0.19685066 0.21659997 -0.045711886 -0.31660342 -0.04845973
-0.07269997 -0.16628492 -0.0021979157 -0.043304622 -0.12746608 -0.12430822 -0.09148591 -0.20596993
0.0006969391 -1.846672 -0.011885789 -0.06236153 -0.10935289 -0.23569931 0.0045116427 -0.12378784
0.24659996 0.0076523456 0.18578681 -0.02671738 0.25420538 -0.01582318 -0.057419628 0.092557095
-0.16235316 0.018058268 -0.0523765 -0.17561895 -0.025805099 -0.1546112 -0.19153048 -1.5799018
-0.18899634 -0.37257606 -0.11407428 -0.021528088 -0.12897958 -0.28183877 0.05480349 0.0076016528
-0.2511494 -0.06784806 -0.5946054 -0.24760488 -0.04177504 -0.00018046492 -0.0195753 -0.10204172
0.018671202 -0.26755264 -0.47689497 -0.042957287 0.34340122 0.010509952 -0.17722397 0.05046734
-0.16276 -0.1400276 -0.011275972 -0.46205643 0.018503428 -0.17728612 -0.13190377 -0.08412205
-0.1721623 -0.36448717 -0.32680976 -0.16625485 -0.037652936 -0.22487879 0.41841245 -0.13249266
-0.3915588 -0.10921414 -0.1580368 0.037408467 -0.16611986 -0.089509875 0.065766014 0.00052992546
-0.21563804 0.04951643 -0.18026195 -0.0142388195 -0.023620138 -0.16735171 -0.21448435 0.0037431133
00000000: fb99 edbc 703a 3fbe 1ef8 a73c 8a4d e13e
00000010: 377d 36be eba2 32be 927e 26be 0d48 8ebd
00000020: 21b9 c83c 74c0 cdbb e7ab 82bd 6a85 103d
00000030: c05b 73be 62f9 15bd 6cd4 f0bd a7d7 7cbd
00000040: d115 95bd c5b9 e5bc cd77 1bbd f8ad 123f
00000050: 62ba a6bd b92a 61be a648 d0ba 2132 d3bd
00000060: 2347 a4bd 146f aabe 4ef3 713c 82c6 abbe
00000070: 3353 56be 62d7 82bd 7568 b6be 9839 2cbe
00000080: e9f5 0fbe e03d afbd 1faf f9bd cfe7 a4be
00000090: 66c7 4ebf c1cf 52be 36a6 2d3c cb83 5cbe
000000a0: 64a7 3fbc 92e3 14be 3fb9 2ebc 39f1 80be
000000b0: e57b 96bd 79f9 d53c c0fa 073f f1ad 87be
000000c0: 93f8 10be a2f7 003e a0ac c7bd 0c5b ffbd
000000d0: 77ad d5bd bf1e 02be 992b 88bd 4e55 2dbe
000000e0: 78a1 52be c4d8 f2bc 5f27 a2be d678 e1be
000000f0: 3f5d d5bd 89d8 8bbd 7159 41be 9a0b a9be
00000100: 7844 77bf d4c9 27be 229d f3bc 9d5f a9bc
00000110: 194a 8dbe bc46 f0be a9b2 15be 6b28 00be
00000120: 51b9 b7be 030e 62be f883 97be 6fa9 8cbc
00000130: 96e1 d0bf a9db 7c3b 8aee 1fbe 3c5e 933d
00000140: 1ca1 99be d2a0 b3bd b845 6cbe 51b1 a6bc
00000150: 8637 613d a42a 91be 787f 06bf 9fe2 7ebd
00000160: 4b5a 51bd bde0 50be ca00 e63c 6288 eb3c
00000170: 1cd0 3e3e ea3d ccbd f5e7 8abe 584f 553d
00000180: f521 16be f2a0 3ebe fe72 163e 944d aabc
00000190: 3bce 90be 6833 18bc c83d 3abb b301 573e
000001a0: 89de 37be 9bb2 dfbc b65a d43b 2375 0fbe
000001b0: dba0 bbbd 6b12 e7bd 453e 4abd ffa1 25be
000001c0: 0008 4abf 8756 bdbd 7afa e33c bd65 85be
000001d0: 4548 abbe 770c 5e3d d716 16be 88e8 01bd
000001e0: bac5 e9bd c518 cebd c4c7 19bc 85b9 c9bd
000001f0: 91b7 c4bd edee f6bd d542 2d3d 7cce 9bbd
00000200: e601 6e3c dbac 56be e5e9 57be 98b8 f6bd
00000210: 99f8 f2bc fd5f ef3c 2005 febd 6471 e2bc
00000220: 9a8d ccbd 6bf3 ecbd cee0 51bd 73bf 81bd
00000230: 9cea e1bd 0682 04bf 8570 0fbd d4ee 333d
00000240: e7ea 8ebd bc61 dabb 42d0 c23d c966 30be
00000250: 3336 40c0 3620 0dbe 3393 15bd 7349 613f
00000260: 1df7 a3bd 3284 4c3d 5d79 753d d497 60bd
00000270: f7a5 bcbd efe3 5cbe 1b84 82be 39ea 0bbe
00000280: 49c5 c6bc c3f8 a93e 4196 b2bd 3893 49be
00000290: 62cc 5d3e 633c 3bbd d819 a2be b67d 46bd
000002a0: b9e3 94bd 9846 2abe e80a 10bb 3060 31bd
000002b0: 7886 02be 4f95 febd f75c bbbd c8e9 52be
000002c0: cbb2 363a c05f ecbf 9dbc 42bc ce6e 7fbd
000002d0: 68f4 dfbd 295b 71be 67d6 933b 7b84 fdbd
000002e0: b384 7c3e 87c0 fa3b e63e 3e3e 68de dabc
000002f0: 3527 823e 9d9f 81bc d830 6bbd 938e bd3d
00000300: e83f 26be efee 933c be88 56bd 74d5 33be
00000310: 3765 d3bc 6652 1ebe 9120 44be 393a cabf
00000320: 4288 41be 4ac2 bebe c79f e9bd ac5b b0bc
00000330: 3913 04be 2c4d 90be a079 603d 4917 f93b
00000340: a796 80be ecf3 8abd 0f38 18bf 228c 7dbe
00000350: 4e1c 2bbd 2f3b 3db9 615c a0bc 40fb d0bd
00000360: 59f4 983c a9fc 88be 942b f4be fbf3 2fbd
00000370: 49d2 af3e ef31 2c3c 337a 35be d7b6 4e3d
00000380: 8faa 26be 6563 0fbe dbbe 38bc a992 ecbe
00000390: 8094 973c 7e8a 35be c811 07be 2e48 acbd
000003a0: 504b 30be 109e babe 9c53 a7be b63e 2abe
000003b0: f739 1abd a046 66be 283a d63e 28ac 07be
000003c0: 657a c8be aaab dfbd 66d4 21be 9f39 193d
000003d0: 531b 2abe f450 b7bd 55b0 863d b2ea 0a3a
000003e0: 38d0 5cbe bdd1 4a3d 9796 38be f049 69bc
000003f0: 057f c1bc 3f5e 2bbe c9a1 5bbe 054f 753b

l2.bias f4 [300]
0.069134384 0.033064194 -0.02468443 0.20453455 -0.010654441 -0.04625666 -0.044961654 0.061007127
0.02572145 0.08218866 -0.046952326 0.09774274 0.04479699 0.0005686014 -0.0954587 0.36138335
0.021685662 -0.04360533 0.38262546 -0.20054813 -0.13538648 0.35438654 0.3284093 0.018260388
-0.034582153 0.59203845 0.32666284 -0.01530378 0.088392526 -0.084687755 0.024970042 -0.032793656
0.032070994 0.018030748 -0.010577222 -0.00015686365 0.09169834 0.42792574 -0.016469795 0.13077292
-0.00093453826 0.03296561 -0.030957067 -0.009903124 -0.010830965 0.019943658 -0.03626034 -0.054448437
0.0031067326 0.482152 -0.009871236 -0.022367759 -0.04303812 -0.006536016 0.55334777 -0.049078904
0.0122178495 0.004783881 0.014452485 -0.01996682 -0.02112809 0.3609312 0.42140388 -0.15926698
0.262282 0.0045095724 0.30198961 -0.043467008 -0.024277806 -0.020033574 0.073572 -0.04805988
-0.007606814 -0.020938938 0.03794791 0.06612998 -0.022037972 0.19879504 -0.043799195 0.004653229
0.10225186 -0.13891655 -0.016003314 0.038620465 -0.00399354 0.025545778 0.43609068 0.54657924
-0.001915627 0.3139188 -0.014539215 0.03475295 0.03244645 0.003849527 0.10745148 0.013674943
-0.048350904 -0.03287509 0.020743065 -0.041881595 0.41005042 -0.012596403 0.4220727 0.012325155
-0.018534753 0.35800445 0.16060469 -0.025663784 -0.048348803 0.014801928 -0.05280052 -0.10685812
0.32188958 -0.018428156 0.12069957 -0.034876943 0.24284369 0.030116728 -0.022628123 0.027486958
0.065597236 -0.03457133 0.1409579 0.031681117 -0.046130963 0.021429505 0.0010038555 0.33962718
0.02847922 -0.03620447 0.021846985 -0.15199184 0.011355751 -0.01808555 0.031074362 -0.0140078785
0.089935325 0.01171257 0.5514767 -0.05629815 0.04913052 0.037329637 0.038169224 0.019242918
0.0072206007 0.2840824 0.02342275 0.022003373 -0.0010293098 0.33594912 -0.02823597 0.007708788
0.008126887 0.05366083 0.010766658 -0.009627795 0.019931959 -0.016296512 0.12844053 0.02440451
0.014433453 -0.053494595 0.01069195 -0.032147232 0.40328917 -0.04172029 0.081324615 -0.055949043
-0.017942807 0.105243616 0.07450059 0.03143229 -0.054908182 -0.03288753 -0.039748013 0.0009545018
0.034316428 0.31925347 -0.4453231 -0.017391035 -0.042266507 -0.0043591517 0.35062316 0.07719781
0.015903082 -0.02853896 0.038681548 -0.025223246 -0.004958233 -0.032803267 0.024170086 0.10941978
0.35705623 0.0029441607 0.32461023 0.021701053 0.076768324 0.03595307 0.004875926 0.37829933
-0.07854846 0.29901224 0.029675046 -0.068729594 0.030829836 0.025739523 -0.003703876 -0.008098597
-0.03390022 -0.00927082 -0.0218544 0.38714454 -0.03520264 -0.015330634 0.017328305 0.3380174
0.42874914 -0.0197262 0.026788209 -0.014625021 0.38650656 -0.028292712 -0.01376356 -0.044275954
-0.02241269 0.53020394 -0.05733956 0.032685433 -0.010051314 0.41275617 0.06897994 0.03370128
0.030816074 -0.041981827 0.027507484 0.3301621 0.3732984 0.018622175 0.006324178 0.028422356
0.037163347 0.005191373 -0.022197085 0.038147207 -0.0095641 -0.020619575 0.0064309346 0.342731
0.08254308 0.083997026 -0.036374833 -0.5045505 0.0076964097 0.012297371 0.04042475 -0.02570072
00000000: 5496 8d3d 526e 073d 0037 cabc 8171 513e
00000010: f78f 2ebc a077 3dbd b629 38bd 9ce2 793d
00000020: cab5 d23c 8752 a83d 1551 40bd 582d c83d
00000030: 0c7d 373d 320e 153a da7f c3bd 3d07 b93e
00000040: 21a6 b13c 819b 32bd 7ce7 c33e 7d5c 4dbe
00000050: c1a2 0abe 2772 b53e 4425 a83e cf96 953c
00000060: 04a6 0dbd d58f 173f 5a40 a73e b5bc 7abc
00000070: 2407 b53d c670 adbd f98d cc3c a452 06bd
00000080: e05c 033d 38b5 933c 164c 2dbc c47b 24b9
00000090: 57cc bb3d 1519 db3e aaeb 86bc 56e9 053e
000000a0: cdfb 74ba f306 073d ad99 fdbc b640 22bc
000000b0: 5c74 31bc e260 a33c b985 14bd 5305 5fbd
000000c0: 539a 4b3b a0dc f63e f7ba 21bc 973c b7bc
000000d0: bd48 30bd 132c d6bb 33a8 0d3f f606 49bd
000000e0: 602d 483c 1ac2 9c3b 1eca 6c3c 7591 a3bc
000000f0: d114 adbc f9cb b83e 40c2 d73e e216 23be
00000100: d449 863e 09c5 933b 629e 9a3e 760a 32bd
00000110: 40e2 c6bc 731d a4bc ebac 963d 70da 44bd
00000120: 9542 f9bb 2388 abbc 456f 1b3d 286f 873d
00000130: fa88 b4bc ed90 4b3e c966 33bd 1d7a 983b
00000140: 6c69 d13d 2440 0ebe 6219 83bc 7e30 1e3d
00000150: 3edc 82bb 6145 d13c 4747 df3e 9eec 0b3f
00000160: c715 fbba f7b9 a03e e335 6ebc 1c59 0e3d
00000170: 92e6 043d 5948 7c3b 860f dc3d de0c 603c
00000180: 990b 46bd 08a8 06bd 5ced a93c 098c 2bbd
00000190: 21f2 d13e 2561 4ebc ea19 d83e 72ef 493c
000001a0: 32d6 97bc 5c4c b73e 8e75 243e db3c d2bc
000001b0: 6509 46bd c983 723c 5c45 58bd 6ed8 dabd
000001c0: b6ce a43e a5f6 96bc 5631 f73d 20db 0ebd
000001d0: 04ac 783e 5bb7 f63c 9d5e b9bc 542c e13c
000001e0: d857 863d ab9a 0dbd 4557 103e 0fc4 013d
000001f0: d2f3 3cbd ee8c af3c cd93 833a 9de3 ad3e
00000200: 414d e93c 234b 14bd 73f8 b23c c0a3 1bbe
00000210: 790d 3a3c 2628 94bc a98f fe3c 4d81 65bc
00000220: 0330 b83d 14e6 3f3c 942d 0d3f e498 66bd
00000230: 163d 493d f6e6 183d 5557 1c3d 53a3 9d3c
00000240: ca9a ec3b 4073 913e 11e1 bf3c 6b40 b43c
00000250: e8e9 86ba 8601 ac3e 1f4f e7bc 009a fc3b
00000260: a226 053c 75cb 5b3d a366 303c e6bd 1dbc
00000270: 5948 a33c 4380 85bc ea85 033e f8eb c73c
00000280: 4a7a 6c3c 261d 5bbd 4a2d 2f3c d1ac 03bd
00000290: eb7b ce3e e5e2 2abd 858d a63d d32a 65bd
000002a0: cbfc 92bc f789 d73d c493 983d 25bf 003d
000002b0: 67e7 60bd 13b5 06bd d0ce 22bd 8837 7a3a
000002c0: 628f 0c3d 3175 a33e 6401 e4be a577 8ebc
000002d0: a51f 2dbd 37d7 8ebb e184 b33e e319 9e3d
000002e0: 2e47 823c 89ca e9bc 8b70 1e3d fba0 cebc
000002f0: ac78 a2bb b85c 06bd 5800 c63c 7a17 e03d
00000300: 13d0 b63e d2f2 403b 5033 a63e 68c6 b13c
00000310: b638 9d3d 8743 133d 3bc6 9f3b 73b0 c13e
00000320: 04de a0bd 2218 993e 1519 f33c 1ac2 8cbd
00000330: da8e fc3c b1db d23c babc 72bb faaf 04bc
00000340: f5da 0abd a3e4 17bc 0008 b3bc cf37 c63e
00000350: a530 10bd 572d 7bbc 17f4 8d3c 9e10 ad3e
00000360: 0285 db3e d798 a1bc f272 db3c c99d 6fbc
00000370: 30e4 c53e 1ec6 e7bc 8e80 61bc b45a 35bd
00000380: d19a b7bc 72bb 073f e3dc 6abd 29e1 053d
00000390: 44ae 24bc c754 d33e 5b45 8d3d 5a0a 0a3d
000003a0: fe71 fc3c 23f5 2bbd 6057 e13c 020b a93e
000003b0: f820 bf3e 888d 983c 0d3b cf3b 00d6 e83c
000003c0: 9838 183d 651c aa3b a9d6 b5bc 3f40 1c3d
000003d0: beb2 1cbc 62ea a8bc 97ba d23b 707a af3e
000003e0: 590c a93d a206 ac3d c7fd 14bd 392a 01bf
000003f0: 2a32 fc3b ea7a 493c 6c94 253d 518a d2bc

l3.weight f4 [1, 300]
0.03163161 0.04633748 0.014580058 -2.6107204 0.0135076605 0.023367625 0.042746067 0.030756705
0.030563066 0.0032583545 0.034928955 -1.3446876 -0.012784927 0.0032410386 0.014747528 -0.14038903
0.023837822 0.035606604 2.9916391 -0.09414169 0.28005567 -0.4755732 -0.5154806 0.049902707
-0.028719783 -0.5461673 -0.60055184 0.016259518 -0.33797738 -0.017954675 0.037202887 0.04163715
-0.0016455125 0.049158838 0.050781563 -0.027086545 -0.01981695 -0.43433696 0.0058401334 0.0048340843
0.044084802 0.00038123535 0.043168746 0.0424892 0.024624562 0.030763924 0.04141315 0.047335345
0.019914463 -0.67916995 0.043091707 0.04816725 -0.003232385 0.016494652 -0.1515656 -0.015931353
0.00903502 -0.011638456 0.048366617 0.009865314 0.048217528 -0.6309173 -0.55232394 0.046418104
-0.24697617 0.015970182 -0.5849432 0.011107958 0.043624014 0.01500685 -0.026228061 0.038150605
-0.0016894368 0.021551128 0.0047007105 -0.012104492 0.024640322 -0.19227739 0.25628185 0.035315834
0.004988213 0.085745156 0.015124252 0.013901491 -0.2146873 -0.0300944 -0.0571741 -0.12418573
0.00655422 -0.80667955 -0.004208495 0.0070696576 0.011469779 0.033457775 0.0034858857 -0.0030130832
0.0076218713 -0.0008030489 -0.53021157 0.03382352 -0.07821086 0.03403747 -0.48347762 0.044870906
-0.014245296 -0.7801534 0.00035623784 0.045497432 0.010943687 0.005459203 -0.008447101 0.061897572
-0.5321412 -0.021698948 -1.7199992 -0.006387941 -0.03793723 0.031580694 0.048852388 -0.001411239
0.0019260071 0.022298291 -0.44669396 0.0012670156 0.025196698 0.035683975 0.029102707 -0.058460247
0.005706888 -0.0029792606 0.030220913 -0.076821834 0.035176307 -0.004002218 0.013429053 0.005261455
-0.030559573 0.018327378 -0.11944377 0.0031425727 -0.0007957669 0.008118945 -0.015709605 0.024669303
0.020789098 -0.23810078 0.026075711 0.043244842 -0.0048984243 -0.7241615 0.012004649 0.02300448
0.0034052536 0.027803756 0.016648842 0.03742805 0.0014306058 0.044000417 -1.9407135 0.0146303205
-0.0020848792 0.01465646 -0.014221543 0.01739836 -1.1480876 0.016742773 -0.022154767 0.040926456
0.015001751 -0.005025091 0.0024767746 0.027422607 0.021808997 -0.020878064 0.043591697 0.015037795
-0.0025067627 -0.42909023 -0.017850243 -0.0035567412 0.014539255 0.045615286 -0.094697244 -0.001970746
0.033164278 0.026377926 0.04593371 0.030494092 0.02733856 0.042097546 0.007307857 0.00061026774
-0.6864226 0.02250951 -0.16786863 0.004903993 0.0015884885 -0.01809617 0.016030915 -0.8119094
0.026203472 2.7927816 0.017246613 0.0016417576 0.03373346 0.0039933007 -0.025097916 -0.0025067895
0.042588405 -0.024005193 0.03708519 -0.8935726 0.04638875 0.033351865 0.014431335 -0.5361897
-0.20939276 0.001680139 0.04663403 0.021143442 -0.42423055 0.0465917 0.010035838 -0.017934103
0.022147173 -0.14307745 -0.00375623 0.03933954 0.011007484 -0.75691986 -0.16114841 -0.0060205027
0.046407275 0.004306488 0.0007304922 -0.19865103 -0.20535742 0.021678457 0.025048675 0.032760154
0.031041712 0.008090193 -0.013922111 0.020007975 0.030270562 0.030351546 0.05033198 -0.3772946
-0.19226147 0.002850721 0.014091094 -2.8243623 -0.0040571503 -0.0045346976 0.0030920089 0.04738064
00000000: 2690 013d 5fcc 3d3d 32e1 6e3c 0b16 27c0
00000010: 3c4f 5d3c 766d bf3c 8016 2f3d 7cf5 fb3c
00000020: 655f fa3c 1e8a 553b aa11 0f3d b91e acbf
00000030: df77 51bc 9b67 543b 9e9f 713c 24c2 0fbe
00000040: 8947 c33c 3bd8 113d 0477 3f40 5ccd c0bd
00000050: 7563 8f3e 557e f3be 89f6 03bf c866 4c3d
00000060: c045 ebbc 9fd1 0bbf c4bd 19bf ae32 853c
00000070: 5f0b adbe af15 93bc 0e62 183d b78b 2a3d
00000080: 3dae d7ba c75a 493d 5400 503d 9ae4 ddbc
00000090: 2857 a2bc 6a61 debe 975e bf3b 3d67 9e3b
000000a0: 4492 343d 8be0 c739 b6d1 303d 2809 2e3d
000000b0: 73b9 c93c a004 fc3c d6a0 293d b5e2 413d
000000c0: a823 a33c 15de 2dbf ee80 303d 064b 453d
000000d0: 6cd6 53bb cb1f 873c 0334 1bbe 7882 82bc
000000e0: 9f07 143c 39af 3ebc 131c 463d 20a2 213c
000000f0: be7f 453d cc83 21bf 1a65 0dbf e920 3e3d
00000100: 52e7 7cbe e6d3 823c d6be 15bf 27fe 353c
00000110: 18af 323d 4adf 753c 3bdc d6bc cf43 1c3d
00000120: 1870 ddba fe8b b03c 6b08 9a3b eb51 46bc
00000130: 80da c93c 5de4 44be 6037 833e 56a7 103d
00000140: 2a74 a33b 289b af3d b6cb 773c 14c3 633c
00000150: fdd6 5bbe 8888 f6bc 642f 6abd 1755 febd
00000160: c8c4 d63b 8d82 4ebf 6ae7 89bb 96a8 e73b
00000170: bdeb 3b3c 050b 093d 7573 643b 2677 45bb
00000180: e4c0 f93b b383 52ba f2bb 07bf 888a 0a3d
00000190: 042d a0bd e06a 0b3d 618a f7be 8eca 373d
000001a0: 1a65 69bc 22b8 47bf 6fc5 ba39 845b 3a3d
000001b0: 264d 333c 1de3 b23b b665 0abc 4f88 7d3d
000001c0: 683a 08bf fec1 b1bc ef28 dcbf ef51 d1bb
000001d0: 1264 1bbd c25a 013d 7119 483d 53f9 b8ba
000001e0: 1372 fc3a e8aa b63c 12b5 e4be fd11 a63a
000001f0: 4e69 ce3c 5c29 123d cd68 ee3c 0374 6fbd
00000200: d900 bb3b b33f 43bb d991 f73c c454 9dbd
00000210: 0815 103d 0a25 83bb 8805 5c3c 4968 ac3b
00000220: 1258 fabc 4c23 963c ef9e f4bd 9ff3 4d3b
00000230: 039b 50ba 5305 053c 6eb1 80bc 4717 ca3c
00000240: e64d aa3c b1d0 73be bb9c d53c 8121 313d
00000250: f682 a0bb a662 39bf 26af 443c e473 bc3c
00000260: ad2a 5f3b b4c4 e33c 2763 883c 284e 193d
00000270: 2a83 bb3a c839 343d 4d69 f8bf 03b4 6f3c
00000280: 78a2 08bb a621 703c 7a01 69bc 0187 8e3c
00000290: 89f4 92bf 2428 893c ea7d b5bc 80a2 273d
000002a0: e7c9 753c 85a9 a4bb 6251 223b 60a5 e03c
000002b0: c8a8 b23c 7908 abbc 358d 323d 1561 763c
000002c0: 8048 24bb b7b1 dbbe ac3a 92bc 3718 69bb
000002d0: 0e36 6e3c 18d7 3a3d a1f0 c1bd a227 01bb
000002e0: 44d7 073d 8516 d83c fc24 3c3d bfce f93c
000002f0: 1ef5 df3c 7a6e 2c3d bf76 ef3b 60fa 1f3a
00000300: 64b9 2fbf dd65 b83c c1e5 2bbe adb1 a03b
00000310: d434 d03a 6b3e 94bc 4453 833c 4bd9 4fbf
00000320: aaa8 d63c efbc 3240 c548 8d3c 3e30 d73a
00000330: 192c 0a3d 3cda 823b 259a cdbc f348 24bb
00000340: 2e71 2e3d 8aa6 c4bc a4e6 173d 2dc1 64bf
00000350: 2102 3e3d f79b 083d 6871 6c3c ba43 09bf
00000360: 0e6b 56be 1c38 dc3a 5303 3f3d 0335 ad3c
00000370: bf34 d9be f0d6 3e3d 5b6d 243c 8aea 92bc
00000380: fd6d b53c e582 12be 152b 76bb 7f22 213d
00000390: bc58 343c 80c5 41bf 1704 25be a347 c5bb
000003a0: 8e15 3e3d 711d 8d3b 807e 3f3a 2d6b 4bbe
000003b0: 3749 52be 0597 b13c e132 cd3c 832f 063d
000003c0: 304b fe3c bb8c 043c 9119 64bc c4e7 a33c
000003d0: f8f9 f73c cea3 f83c e828 4e3d c22c c1be
000003e0: 31e0 44be 29d3 3a3b 55de 663c 5ac2 34c0
000003f0: d8f1 84bb cd97 94bb 4da3 4a3b 3412 423d

l4.weight f4 [400, 4]
0.0367814 0.05491164 0.0033488492 0.24796338 -0.16381115 -1.6259097 -0.3566617 -0.057060614
0.054703068 -0.2268077 0.0066004223 -0.011455445 0.018969672 -0.011743889 0.00056403194 -0.007851867
0.4879968 1.7146169 0.2110268 0.047692955 1.1287937 -0.7158089 0.06732553 -0.2692461
0.124589965 -2.5404208 -0.49008006 -0.08750477 0.17486542 0.5656096 -0.15980724 -0.53632766
0.087631226 -1.5013026 -0.30030236 -0.028660247 0.9526354 0.41355854 0.44549635 0.06220508
-0.15864778 -0.5542612 0.4337087 -0.03511662 0.96922475 -0.46483636 -0.38185424 -0.056052078
-0.6046241 0.54936564 0.23673674 0.08629836 0.13370787 -1.2705208 -0.1552487 -0.027040625
0.03423521 0.15303995 0.0008605535 -0.0013548532 1.1774694 0.75221175 0.4448298 0.0684257
-0.21504612 0.16111423 -0.06283781 -0.084621444 -0.020098014 0.66934896 -0.068687476 0.08570042
-0.123988636 -0.33388308 0.07740157 -0.00537298 -0.551233 0.19610775 -0.0044617886 0.09129776
0.20924656 0.11654989 0.057269383 -0.008713087 0.3022041 2.244146 0.52223146 0.08430109
-0.3309917 -1.0654407 -0.26388428 0.32165685 -0.040774934 2.612905 0.58381695 0.09072966
0.07003429 3.2081068 0.7236484 0.10417816 0.24445643 -1.5954878 -0.27834505 -0.03281714
-0.39825457 -0.18602796 0.090773374 0.006350043 -0.21131885 -0.29806763 -0.014123417 0.012692645
-0.6474293 1.3925426 0.23158716 0.08855019 0.790733 -0.13506606 -0.5335338 -0.03772548
0.044262826 -0.7622565 -0.4267144 -0.034230698 0.9833785 -1.0323641 0.061170872 0.0096288845
0.37758255 0.5320803 0.13506141 0.25055888 -0.19313966 1.0708872 0.15605856 0.019811366
0.2647309 -0.42957675 -0.023896446 0.29673868 0.010580917 0.008001363 0.0029166162 -0.0045683496
-0.0064200563 0.08992401 0.0011385693 0.0039322325 1.114399 -1.1740562 0.50353795 0.04528343
0.09048742 0.34333044 -0.11802214 0.48306152 1.2356653 0.7814477 0.46788892 0.07400368
-0.42049924 0.341892 0.23570696 -0.064310715 -0.5164554 1.3238857 0.45325807 0.036834445
0.040105466 1.0911676 -0.11944172 -0.020650294 -0.09694386 0.11866836 0.0003126437 0.0026459836
0.7324619 0.20468828 -0.2248081 0.032489225 -0.7087887 -0.51587254 0.0925944 0.047695994
0.0029967567 0.13652478 0.0037565576 -0.0007890058 1.0121685 0.14734833 -0.36796486 0.015303167
0.3714697 1.188528 -0.23036933 -0.32858983 0.15751222 -0.11953626 -0.065207414 -0.025569014
0.029634269 -0.17760375 -0.4473058 -0.048451144 0.2862506 -2.0704222 -0.16823176 -0.009246355
-0.21753822 -0.31796062 -0.31125623 0.23410562 0.3817656 -0.6257109 0.14407365 0.0025642172
1.2823955 -0.76364404 -0.5260579 -0.09277586 0.98109037 -0.068849556 0.039248843 0.23310576
0.56846124 1.8337443 0.41887155 0.08078112 -0.48059124 -0.07488962 -0.106769465 -0.0064924643
-0.6474304 -0.30415857 -0.20202886 -0.0024469355 -0.42088678 -1.6903551 -0.3871473 -0.03879693
-0.1766966 -0.2939803 0.54113847 0.07683661 -0.3404789 -0.51974744 0.14503576 0.016058058
-0.358544 0.14250766 -0.15756567 -0.2048221 -0.4945225 -0.60455984 -0.32992324 -0.121495485
00000000: 18a8 163d 07eb 603d 5e78 5b3b 1dea 7d3e
00000010: 1cbe 27be cf1d d0bf 5d9c b6be 64b8 69bd
00000020: 5310 603d 4740 68be 5b48 d83b 9eaf 3bbc
00000030: 4966 9b3c 7169 40bc 8bdb 133a 1ea5 00bc
00000040: b7da f93e 9178 db3f 6917 583e b059 433d
00000050: 507c 903f 413f 37bf f8e1 893d a0da 89be
00000060: 0629 ff3d 4196 22c0 c6eb fabe b335 b3bd
00000070: ec0f 333e cacb 103f 82a4 23be c54c 09bf
00000080: 0078 b33d af2a c0bf 3bc1 99be e5c8 eabc
00000090: eadf 733f f2bd d33e 1918 e43e c1ca 7e3d
000000a0: 9074 22be 10e4 0dbf 110f de3e 72d6 0fbd
000000b0: 1d1f 783f 08ff edbe 6682 c3be dd96 65bd
000000c0: a5c8 1abf 3aa3 0c3f 1e6b 723e 32bd b03d
000000d0: b7ea 083e 6da0 a2bf 84f9 1ebe 4d84 ddbc
000000e0: 383a 0c3d 81b6 1c3e c596 613a 5495 b1ba
000000f0: 51b7 963f f390 403f bbc0 e33e c622 8c3d
00000100: 0d35 5cbe 21fb 243e 1cb1 80bd 024e adbd
00000110: 97a4 a4bc 745a 2b3f 05ac 8cbd b483 af3d
00000120: c1ed fdbd b9f2 aabe b784 9e3d d30f b0bb
00000130: 9b1d 0dbf 78d0 483e 3234 92bb 52fa ba3d
00000140: bb44 563e b5b1 ee3d 4d93 6a3d 56c1 0ebc
00000150: 7fba 9a3e 17a0 0f40 f6b0 053f 0da6 ac3d
00000160: be77 a9be 5c60 88bf d71b 87be 35b0 a43e
00000170: 9e03 27bd d639 2740 0775 153f 79d0 b93d
00000180: 236e 8f3d 9f51 4d40 0641 393f 5c5b d53d
00000190: c952 7a3e f238 ccbf 3e83 8ebe 446b 06bd
000001a0: 06e8 cbbe 1d7e 3ebe 64e7 b93d 0614 d03b
000001b0: f863 58be 529c 98be e865 67bc d0f4 4f3c
000001c0: edbd 25bf d63e b23f 2f25 6d3e cd59 b53d
000001d0: 7a6d 4a3f c24e 0abe ac95 08bf 0886 1abd
000001e0: f04c 353d 3e23 43bf 4f7a dabe 7d35 0cbd
000001f0: b2be 7b3f 8224 84bf 4f8e 7a3d 78c2 1d3c
00000200: 8052 c13e 6a36 083f 8a4d 0a3e 4149 803e
00000210: 67c6 45be d512 893f d1cd 1f3e 724b a23c
00000220: cf8a 873e 7cf1 dbbe 7bc2 c3bc 22ee 973e
00000230: 955b 2d3c 2618 033c b324 3f3b 18b2 95bb
00000240: 565f d2bb 142a b83d 0c3c 953a f5d9 803b
00000250: a0a4 8e3f 7947 96bf dde7 003f 1e7b 393d
00000260: 7851 b93d 02c9 af3e 97b5 f1bd d753 f73e
00000270: 482a 9e3f f50c 483f 238f ef3e 3e8f 973d
00000280: ad4b d7be 780c af3e 2a5d 713e 56b5 83bd
00000290: 6c36 04bf 1675 a93f 7111 e83e b7df 163d
000002a0: a145 243d 61ab 8b3f dc9d f4bd ce2a a9bc
000002b0: 818a c6bd 6608 f33d 54ea a339 3d68 2d3b
000002c0: a082 3b3f ce99 513e 1834 66be 6c13 053d
000002d0: 2d73 35bf 3910 04bf 22a2 bd3d e05c 433d
000002e0: 3c65 443b 27cd 0b3e 9430 763b 48d5 4eba
000002f0: bd8e 813f 7be2 163e e465 bcbe 22ba 7a3c
00000300: 4731 be3e af21 983f f0e5 6bbe ed3c a8be
00000310: e24a 213e 6dcf f4bd 778b 85bd 1c76 d1bc
00000320: 91c3 f23c c2dd 35be 4405 e5be b574 46bd
00000330: 708f 923e cc81 04c0 f244 2cbe 067e 17bc
00000340: 57c2 5ebe bccb a2be fa5c 9fbe 62b9 6f3e
00000350: c876 c33e 972e 20bf 0b88 133e 6d0c 283b
00000360: 8925 a43f 2d7e 43bf bbab 06bf 4501 bebd
00000370: bd28 7b3f ff00 8dbd 65c3 203d 47b3 6e3e
00000380: ad86 113f 22b8 ea3f 5576 d63e 9270 a53d
00000390: 0e10 f6be bb5f 99bd f3a9 dabd bdbe d4bb
000003a0: 00be 25bf acba 9bbe a7e0 4ebe c45c 20bb
000003b0: 797e d7be 8e5d d8bf 2c38 c6be 88e9 1ebd
000003c0: f4ef 34be 9684 96be 0d88 0a3f 835c 9d3d
000003d0: 4053 aebe 2b0e 05bf 4184 143e 308c 833c
000003e0: 1493 b7be 87ed 113e e558 21be e2bc 51be
000003f0: 0e32 fdbe 6fc4 1abf b3eb a8be a0d2 f8bd

l4.bias f4 [400]
-0.582864 -0.43081984 0.037229244 -0.059740048 0.21658705 0.29174247 -0.8705691 -0.9240221
-0.6160382 -1.47623 -0.106304795 0.2582047 0.5382272 0.07880768 -0.16773254 -1.0911872
0.021557102 0.27893928 0.29670274 -0.810824 -0.041940216 -0.9184063 -0.670361 -0.7290902
-1.0009708 -0.7569451 0.53392255 -0.49336442 0.26715776 -0.36272892 -0.6337371 0.12726729
-0.71647835 -0.0018841878 -0.24614671 -0.037349097 -0.10708032 -0.86767364 -0.8735504 -1.1591527
0.17410576 -0.2319159 -0.1327527 -0.17457435 -0.6398831 0.3337108 -0.16128586 -0.8013494
0.16994284 -0.57242215 -0.8989736 -0.14718509 0.32250607 0.41001993 -1.4047604 0.14156233
0.017787388 0.5971192 0.70162463 -0.2345772 -0.08608588 0.5440905 0.12139052 -0.9243481
-0.46623442 -0.11471673 -0.20962693 -0.14301722 0.5926655 -0.7145464 -0.29685017 0.28087893
-0.7998668 -0.15133493 0.49675414 -0.58432275 0.5247557 -0.05707578 -0.6857801 0.48670924
-0.8016614 -0.10145313 -0.4945571 -0.40617973 -0.38584453 -0.16471718 0.5547966 -1.369533
0.38975647 -1.0498242 0.3976266 -0.65404385 -0.50835824 0.35988683 0.20408562 -0.018495644
-0.4090969 -0.46918213 -1.2212716 -0.65408546 -0.23513319 -0.2493509 -0.1160895 -0.26620948
-0.20375195 -0.98234284 -1.0019062 0.57746315 -0.21149173 -1.5602101 0.091852754 0.5935374
-0.4827619 -0.18341996 -0.3249616 -0.8145816 0.34530997 -1.3377539 0.2743366 0.30291387
-0.19531438 -0.13623732 0.28637034 -0.24775852 0.33726484 0.25526342 0.01708009 -1.1276833
-0.07843981 0.17495872 -0.5139576 -1.0808921 0.07581435 0.42287993 -0.67229056 -0.22124186
0.27559558 0.39021647 0.22455454 -0.10132734 0.28815916 0.018196672 -1.5828719 -0.8160749
0.07227844 -0.32650223 -0.6269011 -0.5318582 -0.13895458 -0.7861227 -0.2892479 -0.45941618
-0.51842535 0.03964219 0.0014026582 0.17878681 0.061105248 0.25905576 0.06549427 -0.10301244
-0.071796045 -1.3282849 0.13322093 -1.1376383 0.23125546 0.4718997 0.024509093 -0.12159732
-0.4088996 0.13206017 -0.7534043 0.24577218 0.22793001 0.45229056 0.24874455 -0.056320846
0.07500924 -1.2381967 -0.026625132 -1.3036344 -0.7657571 -1.296932 0.26504147 -0.8781613
0.49089107 -0.09261426 0.61722815 0.12518373 0.20097642 0.46238825 -1.5379274 -0.71218204
-0.62488025 0.12800582 0.43187866 0.4296598 -0.34109503 -1.0764965 0.09667239 0.3558374
-0.75283724 0.51208204 -0.02126503 -0.6797481 -0.008049267 -0.2700455 0.15682092 -0.85367566
-0.9206775 -0.94874054 -0.7021118 -0.09787461 -0.48316354 -0.9564729 0.20982054 -0.28877762
-0.12693398 -0.72276366 0.3930766 -0.57348824 -0.46277595 -0.7917254 -0.32888103 -0.6348637
-0.08922027 0.30580094 0.064887054 -0.13190907 -0.9453959 0.34036577 -1.1940511 0.54820037
-0.13188605 -0.4249412 0.101025246 -1.1928631 -1.3056655 0.380713 -0.3365541 -0.17345081
-1.2078953 -0.53297305 0.06408741 -0.91888887 -0.2473364 -0.85784346 -0.7298477 -1.1277735
0.2136486 0.21694292 -0.16188578 0.24083689 -0.7256969 0.044866256 -0.52980536 -0.46626037
00000000: 9336 15bf 6b94 dcbe b17d 183d fbb1 74bd
00000010: ffc8 5d3e 455f 953e 9edd 5ebf b68c 6cbf
00000020: aeb4 1dbf 1bf5 bcbf 54b6 d9bd 6833 843e
00000030: 42c9 093f ec65 a13d 14c2 2bbe 06ac 8bbf
00000040: 8598 b03c 21d1 8e3e 6ce9 973e 2992 4fbf
00000050: 81c9 2bbd ad1c 6bbf c79c 2bbf a8a5 3abf
00000060: d01f 80bf 27c7 41bf 26af 083f 439a fcbe
00000070: e7c8 883e 9bb7 b9be 983c 22bf 5b52 023e
00000080: 206b 37bf daf6 f6ba e20d 7cbe 5efb 18bd
00000090: ed4c dbbd dc1f 5ebf 00a1 5fbf 1e5f 94bf
000000a0: c848 323e 5d7b 6dbe 53f0 07be 9ec3 32be
000000b0: 61cf 23bf 24dc aa3e 1f28 25be 3c25 4dbf
000000c0: 7f05 2e3e 428a 12bf 2223 66bf b0b7 16be
000000d0: 841f a53e 22ee d13e 30cf b3bf b7f5 103e
000000e0: dbb6 913c cedc 183f ac9d 333f 0135 70be
000000f0: cb4d b0bd 8449 0b3f 989b f83d 14a2 6cbf
00000100: 47b6 eebe 9bf0 eabd 71a8 56be 1b73 12be
00000110: edb8 173f 83ec 36bf bffc 97be 5dcf 8f3e
00000120: 12c4 4cbf 8bf7 1abe 8f56 fe3e 2d96 15bf
00000130: 6456 063f 4bc8 69bd 498f 2fbf f431 f93e
00000140: ae39 4dbf a9c6 cfbd 9736 fdbe caf6 cfbe
00000150: 6a8d c5be 9fab 28be 2607 0e3f db4c afbf
00000160: 298e c73e a460 86bf b795 cb3e 6b6f 27bf
00000170: c423 02bf 1643 b83e d2fb 503e 2d84 97bc
00000180: 2675 d1be a438 f0be a152 9cbf 2572 27bf
00000190: c1c6 70be d855 7fbe 55c0 edbd 9c4c 88be
000001a0: 5aa4 50be d27a 7bbf 763e 80bf a0d4 133f
000001b0: 4a91 58be f7b4 c7bf 4c1d bc3d 11f2 173f
000001c0: 912c f7be 71d2 3bbe 5e61 a6be 6b88 50bf
000001d0: 78cc b03e 853b abbf d975 8c3e 8717 9b3e
000001e0: 7e00 48be cc81 0bbe 229f 923e 69b4 7dbe
000001f0: faad ac3e e3b1 823e 8beb 8b3c ed57 90bf
00000200: 0da5 a0bd 6128 333e ba92 03bf ac5a 8abf
00000210: 8e44 9b3d b883 d83e 3c1b 2cbf 3a8d 62be
00000220: dd1a 8d3e 74ca c73e a0f1 653e b584 cfbd
00000230: 9989 933e 3011 953c 8c9b cabf 49ea 50bf
00000240: b806 943d 4d2b a7be 977c 20bf dc27 08bf
00000250: 1c4a 0ebe 563f 49bf 4d18 94be 9938 ebbe
00000260: 86b7 04bf d95f 223d 66d9 b73a e413 373e
00000270: 7f49 7a3d f5a2 843e dc21 863d 30f8 d2bd
00000280: ce09 93bd 3d05 aabf 116b 083e 229e 91bf
00000290: 3bce 6c3e d69c f13e 4bc7 c83c 0408 f9bd
000002a0: 4a5b d1be c83a 073e 1bdf 40bf b4ab 7b3e
000002b0: 7c66 693e a192 e73e e4b6 7e3e b0b0 66bd
000002c0: 729e 993d 3b7d 9ebf f31c dabc 7edd a6bf
000002d0: a808 44bf de01 a6bf 84b3 873e 2ecf 60bf
000002e0: 1356 fb3e 8cac bdbd aa02 1e3f 2a30 003e
000002f0: c3cc 4d3e 27be ec3e ceda c4bf 9051 36bf
00000300: 27f8 1fbf f513 033e 331f dd3e 5ffc db3e
00000310: 02a4 aebe a3ca 89bf 2dfc c53d 5230 b63e
00000320: f1b9 40bf cf17 033f 0034 aebc f903 2ebf
00000330: 13e1 03bc 6743 8abe aa95 203e 7d8a 5abf
00000340: 85b1 6bbf a9e0 72bf 99bd 33bf 7c72 c8bd
00000350: 3661 f7be 68db 74bf 32db 563e a9da 93be
00000360: fbfa 01be 0a07 39bf 5641 c93e 20d0 12bf
00000370: f8f0 ecbe 84ae 4abf 1863 a8be 6d86 22bf
00000380: 1eb9 b6bd f191 9c3e 81e3 843d 2c13 07be
00000390: 7705 72bf 6c44 ae3e abd6 98bf dc56 0c3f
000003a0: 230d 07be e591 d9be 53e6 ce3d bdaf 98bf
000003b0: 0c20 a7bf d0ec c23e d250 acbe 179d 31be
000003c0: 509c 9abf ec70 08bf 4340 833d 4d3c 6bbf
000003d0: c145 7dbe a19b 5bbf 4dd7 3abf e25a 90bf
000003e0: b3c6 5a3e 4926 5e3e 63c5 25be f29d 763e
000003f0: 46c7 39bf aec5 373d 53a1 07bf aeb9 eebe

l5.weight f4 [300, 400]
-0.055598143 -0.048043437 -0.034292255 -0.004318929 -0.047941353 -0.041424934 0.035043146 -0.019328142
0.042635303 -0.0009940562 0.039074782 0.010286609 -0.015818695 0.025637938 0.016965883 -0.041625172
-0.012523099 0.003341549 0.031354986 -0.024379464 0.015278617 -0.04723754 0.005970699 -0.018678335
0.006055224 0.033754446 -0.020950405 0.031768955 -0.004661607 0.026574118 -0.017965322 -0.024113283
-0.018139768 -0.042030703 0.010414881 0.0013927062 -0.042940482 -0.04351586 0.022827828 -0.032043375
-0.025779743 -0.01742904 0.014777118 -0.052162714 0.02925477 0.009041631 -0.053270426 0.00531465
-0.025490966 -0.04473326 0.013611031 -0.0424686 0.025499599 -0.013482077 0.0067964676 -0.031737
0.010232515 -0.027002703 -0.045043327 -0.013270766 0.013657353 -0.027117273 -0.029977478 -0.00528155
-0.049914632 -0.0214757 0.028480167 -0.036604676 -0.016274385 0.047113527 -0.046004474 0.028095908
0.032340642 -0.0015973261 -0.054564357 0.033679392 0.03641059 -0.046965353 -0.02255426 0.036931533
-0.0022121097 0.033360142 -0.048398063 -0.019496609 0.014302691 -0.054280892 0.032329928 -0.037902415
0.016475083 0.032009095 -0.04350687 0.024401836 -0.049379762 -0.049694158 -0.014369142 -0.02616337
-0.041134335 -0.033852965 -0.055744577 -0.016433101 -0.032484688 -0.044965122 -0.027643861 0.022705274
0.013059003 -0.0054908665 -0.043444797 0.004672008 0.005794931 0.017522799 -0.030647367 0.0018994943
-0.057034258 -0.007658166 -0.0086992495 0.011477391 -0.051507622 0.032193366 0.036051597 0.007733245
0.008640516 0.030421231 -0.018612275 0.002857776 -0.011877742 -0.024145775 -0.032257434 0.004529178
0.03828264 -0.0539027 -0.015573935 0.024995768 -0.009072207 -0.034408268 -0.034781855 -0.026689602
0.004542506 0.04065091 0.011517693 -0.020215098 0.032603513 0.037217494 -0.022128308 -0.045146592
-0.028556982 0.034780588 -0.021628171 0.0012577355 -0.001799657 -0.024205077 0.004552752 -0.006803334
0.03735406 -0.031931892 0.024362639 -0.018109905 0.015899483 -0.028268415 -0.032424185 -0.02649247
-0.02253495 -0.020690586 0.03831694 0.0014274418 0.03657108 -0.038169485 0.024805883 0.012557723
0.0018158257 -0.013137871 0.02832955 -0.03889531 -0.033467572 0.009697953 0.02807202 0.033895437
0.012671546 0.031902526 0.01240585 0.031626802 -0.046288684 -0.039473068 -0.04961056 -0.041633118
-0.006287579 -0.04948372 -0.018703263 0.036627125 0.016962431 -0.042792287 -0.002443558 -0.028623262
-0.02528995 -0.045704134 -0.02808722 -0.016478846 -0.042701706 -0.038097527 -0.050453898 0.034071412
0.034212403 -0.05535462 0.048195135 -0.044284616 0.011321418 -0.042842936 -0.021681879 0.018644223
-0.047209125 0.049158175 -0.03628964 0.017539745 -0.0033833936 0.0058464827 -0.058325123 0.037204497
-0.059853643 0.009272967 -0.05478117 -0.0049702288 -0.056100503 -0.02255882 0.026886582 0.022482438
-0.019707646 -0.010976468 0.008269666 0.00784108 -0.030627852 -0.05705365 0.0322386 -0.016258473
-0.014358907 -0.0021843158 -0.033104707 0.0038759352 0.011019563 -0.045518093 0.026637876 -0.019968553
-0.0032545328 -0.01639636 -0.006320294 0.027342794 -0.0030100667 0.04891924 -0.022762341 -0.01007641
-0.055503894 -0.053933453 -0.019608023 -0.019976722 0.00013216138 0.03894731 -0.034810115 0.018899357
00000000: e1ba 63bd 32c9 44bd 0976 0cbd cd85 8dbb
00000010: 275e 44bd 31ad 29bd 6789 0f3d 0d56 9ebc
00000020: 5ba2 2e3d fe4a 82ba e10c 203d 2a89 283c
00000030: 3596 81bc a706 d23c 09fc 8a3c 287f 2abd
00000040: af2d 4dbc e4fd 5a3b 166e 003d 71b7 c7bc
00000050: 2a53 7a3c 277c 41bd daa5 c33b 4f03 99bc
00000060: e76a c63b 1a42 0a3d 2fa0 abbc 2a20 023d
00000070: 65c0 98bb f7b1 d93c 032c 93bc 3889 c5bc
00000080: da99 94bc 6328 2cbd 2da3 2a3c 778b b63a
00000090: 5ce2 2fbd b03d 32bd 6d01 bb3c ea3f 03bd
000000a0: 0a30 d3bc 59c7 8ebc ba1b 723c 92a8 55bd
000000b0: b3a7 ef3c 5923 143c 1732 5abd 8426 ae3b
000000c0: 6ed2 d0bc 393a 37bd cd00 5f3c 8ef3 2dbd
000000d0: 89e4 d03c eee3 5cbc e7b4 de3b a8fe 01bd
000000e0: 47a6 273c c634 ddbc 5a7f 38bd a06d 59bc
000000f0: 17c3 5f3c 0b25 debc 5493 f5bc da10 adbb
00000100: 4973 4cbd cfed afbc 3d4f e93c c9ee 15bd
00000110: dc51 85bc 1dfa 403d 306f 3cbd 6429 e63c
00000120: 9f77 043d 5f5d d1ba e07e 5fbd 67f3 093d
00000130: 4523 153d be5e 40bd b6c3 b8bc 8545 173d
00000140: 0bf9 10bb a5a4 083d 0c3d 46bd 5ab7 9fbc
00000150: d655 6a3c a455 5ebd 636c 043d 903f 1bbd
00000160: c1f6 863c f81b 033d 4234 32bd 5ce6 c73c
00000170: 6f42 4abd 1a8c 4bbd 8d6c 6bbc 9054 d6bc
00000180: 7a7c 28bd 68a9 0abd 6d54 64bd b69e 86bc
00000190: aa0e 05bd 592d 38bd 6175 e2bc 6900 ba3c
000001a0: 6ef5 553c baec b3bb 2cf3 31bd a517 993b
000001b0: 68e3 bd3b f98b 8f3c 3010 fbbc 74f8 f83a
000001c0: c19c 69bd 5af1 fabb 4c87 0ebc ab0b 3c3c
000001d0: a8f9 52bd 31dd 033d d7aa 133d 2967 fd3b
000001e0: f390 0d3c f235 f93c c578 98bc 8649 3b3b
000001f0: dc9a 42bc 5ccd c5bc 5f20 04bd 8069 943b
00000200: 42ce 1c3d 14c9 5cbd d129 7fbc edc3 cc3c
00000210: 98a3 14bc afef 0cbd 6b77 0ebd 27a4 dabc
00000220: 4dd9 943b 9281 263d b5b4 3c3c 229a a5bc
00000230: 438b 053d 5f71 183d 6d46 b5bc a2eb 38bd
00000240: 55f0 e9bc 1776 0e3d 902d b1bc 9ada a43a
00000250: 78e2 ebba ba49 c6bc 402f 953b 81ee debb
00000260: 9200 193d 04cb 02bd 2894 c73c 395b 94bc
00000270: a23f 823c 2a93 e7bc 39cf 04bd bd06 d9bc
00000280: 379b b8bc 4e7f a9bc 39f2 1c3d 0019 bb3a
00000290: 8fcb 153d 9b57 1cbd b535 cb3c e8be 4d3c
000002a0: 0001 ee3a 3a40 57bc 5f13 e83c b050 1fbd
000002b0: 4b15 09bd 2ae4 1e3c 4bf7 e53c f1d5 0a3d
000002c0: 519c 4f3c 39ac 023d e841 4b3c 1b8b 013d
000002d0: 3499 3dbd 83ae 21bd 7134 4bbd 7d87 2abd
000002e0: 0908 cebb 71af 4abd 9637 99bc 5306 163d
000002f0: ccf4 8a3c f746 2fbd 1a24 20bb 557b eabc
00000300: df2c cfbc 4234 3bbd 2b17 e6bc a5fe 86bc
00000310: fce7 2ebd 270c 1cbd bfa8 4ebd 778e 0b3d
00000320: 4e22 0c3d 87bb 62bd 4368 453d c963 35bd
00000330: 787d 393c 137c 2fbd 329e b1bc c5bb 983c
00000340: 5b5e 41bd 155a 493d 72a4 14bd 83af 8f3c
00000350: edbb 5dbb da93 bf3b 53e6 6ebd be63 183d
00000360: 1829 75bd a5ed 173c 3862 60bd 4ddd a2bb
00000370: a4c9 65bd 46cd b8bc 4041 dc3c 172d b83c
00000380: ee71 a1bc a5d6 33bc 7e7d 073c e077 003c
00000390: 43e7 fabc 17b1 69bd 9f0c 043d 7d30 85bc
000003a0: 9f41 6bbc bd26 0fbb cd98 07bd 6703 7e3b
000003b0: 668b 343c 2e71 3abd ad37 da3c 1795 a3bc
000003c0: 004a 55bb a951 86bc 781a cfbb fffd df3c
000003d0: 8a44 45bb 8a5f 483d 1778 babc 8717 25bc
000003e0: 0d58 63bd 53e9 5cbd 01a1 a0bc 39a6 a3bc
000003f0: cd94 0a39 3787 1f3d 0d95 0ebd d3d2 9a3c
