TD3/saves/best_avg_critic.pth (torch, 984667 bytes, 10 tensors)

l1.weight f4 [400, 4]
00000000: 405a 3cbe 8c5d 813e 60a3 b33d 1cb9 dbbe
00000010: dccf 323e cc45 b2be 066c a13e 40b8 71bc
00000020: 7844 e13d 50fd 60bd a226 fabe 0c95 0c3e
00000030: fc3a 283e b01c 70bd 68d5 cbbd c8e2 1c3e
00000040: 808f a0bd 9cda 5dbe 409c 4f3c 8022 9f3b
00000050: ce2b be3e 88d6 a0be f043 f53e 0ada a2be
00000060: 40d3 903d 903c 63bd 528b f63e 406f 6a3c
00000070: a06e a23c 303c 7bbd 1649 b4be 349e 6a3e
00000080: 0084 493e 54a2 c7be 30e8 7fbd aa08 943e
00000090: 9ced e6be 380d eebd 28de 71be 1cf3 ee3e
000000a0: 0064 ebba b04a 873e 2068 1abe f866 56be
000000b0: d453 be3e a2e6 9c3e 48de 23be 3831 13be
000000c0: 00e0 6b3b e0ec 35bd 4c5d 713e 60d9 b43c
000000d0: 383c cdbe 6c95 eb3e a8a8 69be 1e6b 963e
000000e0: ee05 cdbe 28b6 d83e ec25 b3be ac64 97be
000000f0: 0423 ee3e a67d dcbe 06b1 abbe 6c8a 36be
00000100: 82d8 a9be 1e81 fa3e c05e d1be 6876 06be
00000110: 6a34 ea3e 4489 523e 2072 ccbd 6cc9 ccbe
00000120: c041 663c a870 a83e 10ab e9be c2f3 cabe
00000130: e696 eb3e 38fc af3e e0b8 a83d 8c07 35be
00000140: c86d 66be 4e0a 8a3e 1231 e9be 149c 133e
00000150: ce61 863e f05e 95bd 88df 7ebe a08e ca3d
00000160: 680a 4ebe b01e f8bd 1c96 073e 5ee8 aebe
00000170: 94f1 963e 2ef1 983e 10ce 4dbe 4026 27bc
00000180: 4cdf 753e 341a dcbe b804 f8bd f298 ef3e
00000190: 3e05 e53e 703c 713d 489c 123e bc68 65be
000001a0: 3434 e03e 0c45 7a3e a005 d3bc dca2 0c3e
000001b0: 20a3 f83e 405d 8ebc d68f f13e 1c14 a3be
000001c0: 404f 2e3c 58a2 ffbe e0d0 973e 0080 183c
000001d0: f025 8a3d 141e 763e e0da 373e 903a 803d
000001e0: f06b 433e 5080 f0be e8c8 ec3d 3054 bc3d
000001f0: 7229 aa3e 646f 15be 608d 02be 607c 153d
00000200: e404 d5be 18b2 003e 1aa4 f43e b812 163e
00000210: 50aa 4d3d b655 bb3e 54c8 a6be 6494 6dbe
00000220: f0db 243e 1e3f db3e 0052 27bc 104f 67be
00000230: f0a9 91be 58d4 e33d 36a9 fcbe 4cfc d03e
00000240: b43c f63e 7c0b 9ebe b827 d93d 280c 81bd
00000250: fa59 89be 7c4b 2cbe 107b 313e d00c debd
00000260: e406 623e 4203 fe3e 08e7 cbbe 081a a53e
00000270: d02e ffbd 5891 203e 907d e43e c412 013e
00000280: 34de 1fbe 4cf7 10be e4de 3bbe 5630 b83e
00000290: c841 ecbd 50cf 69bd 68c0 36be 061d f8be
000002a0: b2d7 debe cc89 653e f474 213e 8a5e f7be
000002b0: 18cf cb3e d4ec 3cbe 6209 f63e 64ee 15be
000002c0: 4ccd fcbe 34a4 c63e 50a4 df3d 8056 26bd
000002d0: 2e70 afbe 34d3 d53e e09d 0c3e e084 ad3c
000002e0: 2c87 7b3e a40b b4be 4c2f 65be 96cf b1be
000002f0: b835 93be cab9 cdbe fcf8 a33e dc29 80be
00000300: 2ed3 9abe 604e 9cbe 203f 4fbe 308a b03e
00000310: f057 e43d eced 363e 5cce 0ebe 0820 d5be
00000320: 5274 f3be 005f d23e 6012 4fbe 96e8 87be
00000330: 5c0e 97be 70e5 77be 1444 ff3e 3894 8cbd
00000340: 3c2f 5ebe 08e8 7dbe e897 5c3e 5431 1e3e
00000350: 0035 fdbd 2e60 943e 14ef 1a3e bc06 343e
00000360: 4420 7d3e 4c67 7fbe c440 223e 74f0 0a3e
00000370: f651 9cbe fc40 413e 7049 bc3d 3835 c93d
00000380: 007e 173d 8cec f53e 74cf cebe d651 903e
00000390: fe23 a63e 3c50 53be 8e1e a93e 625c bfbe
000003a0: 9425 ba3e a0ab fa3c 843a ffbe 0675 b33e
000003b0: 2a96 de3e c227 c3be f8ca 3abe acbe 70be
000003c0: 2abb de3e 3ce2 ec3e 2466 2c3e 641c ac3e
000003d0: b056 593e b408 12be ea08 d0be b8d6 003e
000003e0: 601a 253e 1ac9 ab3e 68b1 d5be 0832 ce3d
000003f0: c06b bbbd 90b8 78be 5819 b4bd 2a73 f63e
-0.18393803 0.25266683 0.08771396 -0.42914665 0.17462105 -0.34818876 0.31527728 -0.014753401
0.109993875 -0.054929078 -0.488576 0.13728732 0.16428751 -0.05862111 -0.099528134 0.15320885
-0.078398705 -0.21665424 0.01267153 0.0048564076 0.37142795 -0.31413674 0.47903395 -0.31806976
0.07071543 -0.05547768 0.48153168 0.014308751 0.01982814 -0.061336696 -0.3521201 0.22911912
0.1967926 -0.38991034 -0.06247729 0.2891286 -0.45103157 -0.11623615 -0.23619902 0.46669853
-0.001795888 0.2642417 -0.15078783 -0.20937717 0.3717333 0.3064471 -0.16002762 -0.14374244
0.0035991669 -0.044415355 0.23570746 0.022076309 -0.40085006 0.46012437 -0.22818244 0.293786
-0.40043586 0.42326474 -0.3498987 -0.29568994 0.4651109 -0.43064612 -0.33533496 -0.17826241
-0.33172995 0.48926634 -0.408926 -0.13131106 0.45743114 0.20560175 -0.09982705 -0.39997423
0.014053762 0.3289845 -0.45638323 -0.39639097 0.46013564 0.34372115 0.08238387 -0.1767866
-0.22502816 0.26960987 -0.4554525 0.14415008 0.26246494 -0.072934985 -0.24889958 0.09890485
-0.20121157 -0.12115228 0.13240856 -0.34161657 0.29481184 0.29871505 -0.20098138 -0.010201991
0.24010962 -0.4298874 -0.12110275 0.46796376 0.44730562 0.05889553 0.14317429 -0.22403234
0.43789828 0.24440402 -0.025759518 0.13734001 0.48561954 -0.01737845 0.4718005 -0.3185128
0.010639012 -0.49928546 0.29651546 0.009307861 0.06745517 0.24034911 0.17954588 0.0626117
0.19084144 -0.46972895 0.11561757 0.09195745 0.33234745 -0.14593273 -0.12749243 0.036495566
-0.41605294 0.12567937 0.4778145 0.14655578 0.05021125 0.3658883 -0.32574713 -0.23201138
0.16099524 0.42821592 -0.010212421 -0.22588754 -0.28449965 0.11124486 -0.49347848 0.40817487
0.48093188 -0.30868137 0.10603279 -0.06301147 -0.2682646 -0.1682567 0.17332101 -0.108422875
0.22072941 0.4961186 -0.398247 0.32246423 -0.12460101 0.15680444 0.44627047 0.12604815
-0.15612108 -0.14156836 -0.18346745 0.35974377 -0.11535984 -0.057082474 -0.17846835 -0.48459643
-0.43523937 0.22415847 0.1576727 -0.48314315 0.39806437 -0.18449718 0.48054034 -0.1464172
-0.4937538 0.38797152 0.10920012 -0.040609837 -0.34265274 0.41762698 0.137321 0.021181524
0.24563283 -0.3516513 -0.22381324 -0.34728688 -0.28751922 -0.40180808 0.32025898 -0.25031936
-0.30239242 -0.30528545 -0.20238924 0.3448043 0.11149585 0.17864197 -0.13945907 -0.41626
-0.47549683 0.41088104 -0.20221853 -0.26544636 -0.29503143 -0.24208617 0.49856627 -0.06864208
-0.21697706 -0.24795544 0.21542323 0.15448505 -0.123636246 0.2897963 0.15130264 0.17580694
0.2471934 -0.24941748 0.15845019 0.13568288 -0.3053128 0.18872446 0.091936946 0.09824604
0.036985397 0.48032033 -0.4039265 0.28187436 0.32449335 -0.20636076 0.33031124 -0.3737517
0.36356795 0.030599415 -0.4984933 0.3505022 0.4347394 -0.3811627 -0.18241489 -0.23510236
0.4350217 0.46266353 0.16835839 0.3361541 0.21224475 -0.14261132 -0.406318 0.12581909
0.16123343 0.33551866 -0.41736913 0.100681365 -0.09151411 -0.24289155 -0.087938964 0.48134738

l1.bias f4 [400]
00000000: 7ce3 3c3e 180f 803d 30e3 413e 08ea c33d
00000010: ba31 943e 8c7b 393e 5434 57be f897 843e
00000020: 92a4 d03e 6a54 ec3e 8a8f a5be 0006 b53e
00000030: bc06 413e f295 b63e 4086 483e 0063 ac3b
00000040: ee2c aa3e 20c4 40bd fca0 2bbe 300f 0ebd
00000050: aa16 d43e c028 b0be 70b6 0bbd 8043 173c
00000060: d62d 84be 6648 96be 58b2 823d 9099 b0bd
00000070: 28c4 08be 50dc 6cbd 90c1 cbbd 3053 5fbd
00000080: 2616 82be c200 8ebe 40a7 793c a86b a7be
00000090: 2cc4 c4be 2e3d bbbe a40a c93e 6859 853d
000000a0: d03c 6e3d 80c5 a9bd 2e5e 833e 0870 563e
000000b0: 7c8f 543e 5e48 f0be 7289 b7be 8815 f9be
000000c0: b848 81be 5011 c33e 0015 333c 7c20 423e
000000d0: d6c6 b2be 90ec febd 88cb 2e3e de01 a9be
000000e0: 14d9 a03e 587d 803e 3247 9f3e 8ef6 a8be
000000f0: a038 96bd 60c8 5bbd e4ba d9be 3649 dbbe
00000100: 0865 f8be 1095 d0be a8ce e83e 284c 603e
00000110: ea08 d33e 0470 3fbe d4af 8fbe 841d c83e
00000120: 4020 f8be c09d 6b3c b887 8ebd 006c 143c
00000130: ac09 2cbe 587c ecbe 2e37 a7be 2043 d1be
00000140: c020 743c 082f 763e 9a4a f8be 1822 db3d
00000150: 402b 883e 3825 9ebe 0400 b4be c415 e23e
00000160: d8d1 813e 6801 de3d ec8a 14be 8884 40be
00000170: fc95 33be 0c12 993e 1027 e3bd e448 f3be
00000180: b0d6 d3bd b0b6 7fbe f8dc 253e 68ba a6be
00000190: 281b a9be 0cbf 943e 0837 943e 98d2 c2be
000001a0: 24ec 7f3e d064 c8bd 3033 14be 2ceb 41be
000001b0: 0221 e53e 9432 f1be a06a 92bd b23e 8e3e
000001c0: 3404 8bbe 40ad febc 2682 96be 380c d03d
000001d0: 704b e6be d89f 493e 0433 4abe c848 d03d
000001e0: d612 983e 8a18 9dbe e47b fb3e b889 a53e
000001f0: 2430 f43e 4885 a1bd 603e 3fbd 80ee c53e
00000200: 8e0a f93e 30b2 11be 6885 eebd d034 8bbe
00000210: 787a 623e f4dd 42be 182b c23d d8db 913d
00000220: 80db e3bc 00dd 70bc 84ba 653e b09a 57be
00000230: a05d 743e 3024 c4be b025 e03e e4cb 8a3e
00000240: a0ad 6d3d 20ce e4bc b42a ce3e 7882 debd
00000250: eec4 febe 280d ac3d 5ca8 253e 78ba f0be
00000260: aa48 913e 008b 583e c066 6a3d d004 c63d
00000270: 96da c13e a083 163e 403e 8abc 182d bf3d
00000280: 061b 913e 40f6 3ebd 6844 51be 60b9 acbd
00000290: e89a ddbe 7c30 f73e f46e 203e a082 9c3c
000002a0: 3885 71be 784c babe a062 03be 8ef0 ed3e
000002b0: 2870 92be a0c3 063d 20fa 9fbd e051 183e
000002c0: 60bc c8bc 6abb f5be b298 da3e d882 eb3e
000002d0: dea9 d23e 2ca0 e0be a48f da3e a2aa b3be
000002e0: b402 4fbe ea21 b53e ee33 c2be 34e6 34be
000002f0: 125d ecbe 7cd4 af3e ac4e b53e c001 c4be
00000300: 2006 95bc 203b 5ebe 5c90 063e 3a36 dabe
00000310: b6cd acbe fc07 acbe a0a2 fd3d 347a f5be
00000320: 14ec c9be c0aa 783d b449 39be d0ce 58bd
00000330: 70e4 a3be 301f cc3e 087e e73d 42eb 8e3e
00000340: 387c fb3d d02d 2b3d c0a9 aebe e806 fdbe
00000350: 20e9 88be f468 a33e 6036 a3bd ec15 64be
00000360: 742a 623e c065 493d 12d2 d3be 9c8e c43e
00000370: 803d 24be 2214 b73e 8004 783c 0ce2 c33e
00000380: 80c8 ccbd 94ef bf3e 081d a83e 9004 a1be
00000390: 409a d0bc 042a c43e 0618 9ebe e80e d23e
000003a0: 905b 33bd a821 1dbe bcdb f2be c46d 1b3e
000003b0: 0cd6 c53e 00bb f0bc 7083 4e3d f02f f7bd
000003c0: c8c0 6dbe dead fd3e 2010 953d f046 c23d
000003d0: 3235 a9be c026 2f3c 1ce1 753e 86af af3e
000003e0: bccc 3d3e 4c13 7cbe 085b cbbd e4a7 b13e
000003f0: 2295 813e 4a79 edbe c841 13be 00b7 393c
0.18446153 0.06252879 0.18934321 0.09566122 0.28944188 0.18113536 -0.21016055 0.25897193
0.40750557 0.46158153 -0.32336074 0.3535614 0.18850225 0.35661274 0.19582462 0.005260825
0.33237404 -0.04706204 -0.1676063 -0.034682453 0.4142354 -0.3440609 -0.034109533 0.009232402
-0.2581622 -0.2935211 0.063816726 -0.0862304 -0.13356078 -0.057827294 -0.099490285 -0.054522693
-0.25407523 -0.27734953 0.015237629 -0.32699323 -0.38430917 -0.36570114 0.3926593 0.065111935
0.058163464 -0.08289623 0.2565779 0.20941174 0.2075786 -0.46930212 -0.3584705 -0.4864924
-0.25250793 0.38099146 0.0109303 0.18957704 -0.34917325 -0.124474645 0.17069829 -0.33009237
0.31415617 0.2509563 0.31109005 -0.33000606 -0.07335019 -0.05365789 -0.425254 -0.42829293
-0.4851458 -0.40738726 0.45470166 0.21904051 0.41217738 -0.18695074 -0.28063834 0.3908502
-0.48462105 0.014380872 -0.0695948 0.009058952 -0.16800565 -0.46188617 -0.32659286 -0.40871525
0.014900386 0.24041378 -0.48494416 0.10699862 0.26595497 -0.3088777 -0.35156262 0.4415723
0.2535541 0.10840112 -0.1450612 -0.18800557 -0.17537683 0.2989658 -0.11091435 -0.4751655
-0.10343683 -0.24972034 0.16197574 -0.32564092 -0.3302853 0.29052007 0.28948236 -0.38051295
0.24992424 -0.097848535 -0.14472651 -0.18937367 0.44751745 -0.471089 -0.07149243 0.27782208
-0.27151644 -0.031088471 -0.2939617 0.101585805 -0.4497943 0.19689882 -0.19746023 0.10170132
0.2970187 -0.30682784 0.4911796 0.32331634 0.47692978 -0.078867495 -0.046690345 0.38658524
0.48640865 -0.1422813 -0.11646539 -0.2718873 0.2211703 -0.19029981 0.09480876 0.0712201
-0.027814627 -0.014701128 0.22434431 -0.21055102 0.2386384 -0.3830886 0.43778753 0.2710868
0.05802691 -0.02793032 0.40266955 -0.10864729 -0.4975962 0.08400947 0.16177505 -0.47017264
0.2837575 0.21146774 0.057226896 0.09668887 0.3786208 0.14698648 -0.016875386 0.09334773
0.2834093 -0.04662156 -0.20436251 -0.08433795 -0.43282247 0.48279178 0.15667325 0.019105256
-0.23585975 -0.36386466 -0.12830591 0.4647259 -0.28601193 0.032901406 -0.078113794 0.14874983
-0.024503887 -0.47994548 0.42694622 0.45998263 0.41145223 -0.438722 0.42687714 -0.3509112
-0.20215875 0.35377437 -0.37930244 -0.1766594 -0.46164757 0.343418 0.35411584 -0.38282585
-0.018191397 -0.21702242 0.13141006 -0.42619497 -0.33750695 -0.33599842 0.12384534 -0.47944796
-0.39437926 0.060709715 -0.18094522 -0.052931607 -0.3201022 0.39867544 0.113033354 0.27913862
0.12279552 0.041791737 -0.34113884 -0.49419332 -0.2674036 0.3191601 -0.079693556 -0.22273988
0.22086507 0.049169302 -0.41371208 0.38390052 -0.16039085 0.35757548 0.015137792 0.38258398
-0.0999918 0.3748747 0.3283465 -0.31448793 -0.025464177 0.38313305 -0.30877703 0.41026998
-0.043788493 -0.1534487 -0.4743327 0.15178591 0.38639867 -0.029386044 0.050418317 -0.1206969
-0.23218071 0.49546713 0.07278466 0.094861865 -0.33048397 0.010690391 0.24011654 0.343136
0.18535131 -0.24616736 -0.09929472 0.34698403 0.25309092 -0.463816 -0.14380562 0.0113351345

l2.weight f4 [300, 400]
00000000: 9a20 c4bc da64 e93b 37c6 a5bc 1a70 3ebc
00000010: efdd 24bd cdc4 5a39 c01e f2bb 0794 72bc
00000020: 3b5f 00bd fa66 7c3c e3ff b8bc f396 a8bb
00000030: 5dfd fdbc cae1 283d d03d 4bbd f81e 20bd
00000040: f54b 103d 3dcc 1d3d 3fc1 203d ea42 d03c
00000050: b352 743b 803e 483c 2a54 873c 47a4 7abc
00000060: d0f1 a6bc 8746 85bc 12df 233d 0d42 933b
00000070: d3de abbc c74c 6d3c 65a2 06bd 8f6d 00bd
00000080: dae1 a3bb 3b9f 1e3d c0f6 06bd 231e a5bc
00000090: c08f e4bc 22ab 4cbd 7b42 453d 68b8 29bd
000000a0: a076 423c 97ed ecbc f891 30bd e067 bbbc
000000b0: 67ef ed3c 1d62 273d f304 53bc 038a 063d
000000c0: 3bbd 203d 159f 1abd 4db5 4abb 1a95 36bb
000000d0: 682a 303d a81f 23bd cd1c b43c 5a35 e0bc
000000e0: 4d1b f9bc a0d6 fcbc 27b9 763c 1a22 d2bc
000000f0: 272f a93c cfdb 3ebd 5f55 12bd 67ea dbbc
00000100: cd6a ca3a f3d8 09bd 93d4 f03c 8da8 043c
00000110: 7088 febc c036 6f3c c089 f93c 5362 0bbd
00000120: 2374 e0bc 6db2 f6bc d72f 19bd ca2e 933c
00000130: 8b4d 313d 8d97 06bd 339e d53c 004a 02ba
00000140: a057 5a3c d054 d4bc aa66 d0bc d71b 993c
00000150: b729 193d bdd3 18bd 6d10 403c 9d48 4cbd
00000160: ddbf b6bc 1239 013d 3370 9d3c c359 b23c
00000170: b7ba cbbc a74e b3bc 7521 2dbd adb0 0dbc
00000180: 78f9 2d3d 9a56 d63a 25ae 18bd 8d36 383d
00000190: ca0a db3c fd88 ae3c a72e 033d e78a 5d3c
000001a0: 67d1 d93b b7af b2bc 8d88 47bd 8db2 38bc
000001b0: 406f 103c e74b cf3b 9f29 29bd d0aa 1e3d
000001c0: 60be e3bc 135e 233d 2de1 873c 9ae7 0abc
000001d0: 2db5 d1bc d3a7 6f3c da36 d7bc a004 6abc
000001e0: 2d8f 4e3c 879b 753c 6d0a c93c 589f 1dbd
000001f0: 6790 31bd 3882 133d a752 473d 5085 c8bc
00000200: 807d 1ebb 330d eb3b a0ca 003c 804d 9ebc
00000210: f388 b03b af13 3cbd 7286 19bd 67a1 1e3c
00000220: 4d40 5fbc 3344 0fbd 3304 18bb 5a89 813c
00000230: 2a24 f9bc cd63 7dbc 9553 1e3d 10b3 d03c
00000240: d7e5 ed3c 7a40 7cbc 7a39 efbc 7355 b43b
00000250: c236 31bd c755 ab3c 432a b23c 60c1 263c
00000260: 676b db3a 7ac6 223d 1a6a bd3c 1d99 15bd
00000270: 6d0a c63c 7a6f e93c 0d68 e23c e055 abbc
00000280: 2a19 a43c 0ad7 dabc 7364 923c 971b ffbc
00000290: df2c 27bd 3a41 19bc 3340 ae3b d039 ec3c
000002a0: 8ad5 183d dd42 97bc 67c7 ed3c 6082 3c3c
000002b0: 8a74 a83c 07c0 8e3c bbd2 0c3d e0f1 403d
000002c0: 4028 9dbc a050 803c 4340 cb3c 1d8b 8ebc
000002d0: 13f2 80bc 6f6d 103d aab4 b8bc 00f8 80bb
000002e0: 0a41 22bd b0fd 903c 0341 bbbc c713 d33c
000002f0: 83d5 a83c 9dfe 97bc e749 8a3b 2330 a73c
00000300: 6d13 0ebd 6d8b 6b3c 17b1 c1bc 47a3 86bc
00000310: 3305 353d b3a9 cabb 45a8 07bd 676c fbbc
00000320: d3eb 40bd 909a 463d 73d8 f93c 403f 50bc
00000330: 6dd3 82bc cd49 423c 0387 e23c 0ad5 923c
00000340: 178d 3cbd e74a c53b d0ca 1cbd 3b60 1ebd
00000350: 00f4 9a3b 02a8 43bd 7a69 14bd cac4 1c3d
00000360: 2784 5b3c 80b7 fd3b 67c9 b33a b35d 37bb
00000370: 5aca a73c d016 973c 0015 40bb 5b12 36bd
00000380: cd09 a73b a374 25bd 339f afbb 104c 3e3d
00000390: 6777 0abb 0a24 91bc 4d07 1b3c 1a1c 2fbd
000003a0: 6072 57bc aaac b9bc 1a7b a1bc 8092 c93b
000003b0: 750e 1cbd c0bf 803c 7ab1 4a3d 0053 1b3c
000003c0: 0a5d cc3c 8741 6e3c fdf4 49bd 7236 0f3d
000003d0: 4da3 92bb add7 36bc 2a27 3e3d 80a8 37bc
000003e0: 879d 21bd 4064 42bd ba4e 12bc c086 dd3c
000003f0: 70c3 873c dabf ea3b 677a 6b3b b351 fdbc
-0.023941327 0.007122618 -0.020236118 -0.011623407 -0.040250715 0.00020863414 -0.0073889196 -0.0148058
-0.03134082 0.015405411 -0.022582954 -0.0051449477 -0.031004602 0.041230954 -0.049619496 -0.039092034
0.03522869 0.038524855 0.039246794 0.025422532 0.0037280738 0.012221932 0.016519625 -0.015297956
-0.020378977 -0.016268982 0.04000766 0.004493958 -0.020980274 0.014483637 -0.032869715 -0.031354483
-0.005001289 0.038726073 -0.032950163 -0.020155972 -0.027900577 -0.049967892 0.048159104 -0.04143563
0.011869103 -0.028921885 -0.043107957 -0.02287668 0.02904482 0.040865052 -0.012879598 0.032846462
0.039242964 -0.03774937 -0.0030930818 -0.0027859868 0.04300919 -0.03982511 0.02198639 -0.02736919
-0.030408526 -0.03086406 0.015058792 -0.025651027 0.020652367 -0.046596345 -0.035725947 -0.02684517
0.0015443206 -0.033654165 0.029398238 0.008096826 -0.031070918 0.014600456 0.030461192 -0.034029316
-0.027399128 -0.030114377 -0.03739914 0.017966647 0.04328684 -0.032859374 0.026076412 -0.00049701333
0.0133265555 -0.025919348 -0.025439579 0.018690033 0.037393298 -0.037311304 0.011722666 -0.049873937
-0.022308284 0.031548567 0.01921854 0.021771317 -0.024869306 -0.02188809 -0.042268235 -0.00864808
0.04247424 0.0016352714 -0.037275452 0.0449739 0.026738543 0.021305555 0.032026913 0.013521886
0.006647277 -0.021812303 -0.04871421 -0.011273039 0.008815587 0.006326187 -0.04129946 0.03873712
-0.027800739 0.039884638 0.016586864 -0.00847807 -0.025599087 0.014627415 -0.026271272 -0.014283329
0.012607378 0.014990694 0.024541104 -0.03848204 -0.043350603 0.03601286 0.048662808 -0.02447763
-0.002418369 0.0071732043 0.00786081 -0.019324064 0.0053874194 -0.04591721 -0.037481733 0.009682036
-0.01362617 -0.03497715 -0.0023195862 0.015812565 -0.030412752 -0.015465689 0.03865393 0.025476009
0.02904026 -0.015396232 -0.029202212 0.0055033504 -0.04326511 0.020914925 0.021748668 0.01017794
0.0016740382 0.039740063 0.023121882 -0.036522973 0.024174893 0.028495539 0.027637506 -0.020914972
0.02003153 -0.026713867 0.017870164 -0.031141086 -0.040814277 -0.00935393 0.0053177117 0.02883616
0.03731302 -0.0184645 0.029025747 0.011505693 0.020563383 0.01742555 0.034380656 0.04710567
-0.019184232 0.015663445 0.024810916 -0.017400319 -0.01574043 0.035260614 -0.022547085 -0.003935814
-0.039612807 0.017699093 -0.022858148 0.025766267 0.020609623 -0.018554026 0.0042202356 0.020408696
-0.034686495 0.014376503 -0.023644013 -0.016435279 0.04419441 -0.0061847805 -0.03311946 -0.030691339
-0.0470999 0.048487246 0.030498719 -0.0127103925 -0.015969956 0.011858416 0.02765227 0.01792385
-0.04603299 0.006020892 -0.038279355 -0.03866599 0.004728794 -0.047767647 -0.036233403 0.03827361
0.013398207 0.007742822 0.0013716639 -0.0027979433 0.020482231 0.018443495 -0.0029309392 -0.0444511
0.005097604 -0.040394437 -0.005359554 0.046459258 -0.0021128298 -0.01771738 0.00946219 -0.04275141
-0.013149828 -0.02266534 -0.01971202 0.0061514974 -0.038099725 0.015716434 0.04948566 0.009480238
0.024946708 0.01454199 -0.049305905 0.034964032 -0.0044750334 -0.01115982 0.04642407 -0.011209607
-0.03945687 -0.047458887 -0.008929903 0.027041793 0.016572684 0.007163984 0.0035931112 -0.030922746

l2.bias f4 [300]
00000000: 8d71 68bc 0812 2b3d 63f8 89bc 27ad 263c
00000010: cd0a 0dbb 6fde 24bd 72dc 0dbd b80b 223d
00000020: 6b77 443d 4a68 29bd e3b7 27bd 23d3 99bc
00000030: c7cc 1fbc 5a86 143c 7f62 30bd bbd9 07bd
00000040: 0356 fc3c f090 0fbd da4f 1f3d 7ab5 103c
00000050: b05f 1cbd da2d 54bc 4d0d f03b 536a cc3c
00000060: 6d9d 8c3c 7ba6 283d c019 0b3c 8002 66bb
00000070: 8d69 f83c 0319 45bd cb8d 003d d332 bdbc
00000080: 97ce 223d bd23 db3c 6770 35bb b3ac 1c3c
00000090: 9a4b 4a3c 6a4f f23c 2769 b7bb daff c33c
000000a0: 73cd c33b 22a0 1f3d 401e a9bc 3363 643a
000000b0: 9a8d beb9 a33f d03c 90af debc 6752 2fbd
000000c0: 6705 d73c 3d2f b9bc b362 4abb e729 65bc
000000d0: 729f 07bd 33bf 5f3a e7f0 cbbc 37e2 e6bc
000000e0: e7e6 a73c 1ac2 9c3b 1350 c63c ad7d 6abc
000000f0: 0de1 50bc f73b 26bd 2de3 0d3c dab8 b0bc
00000100: 9a65 04ba 27d2 2b3c 6710 6d3a 8dba a1bb
00000110: 8dba 8bbc c0ae 45bc ef98 2e3d 03ec 21bd
00000120: 33e3 d1ba 1aba 6dbc cf3b 423d d5ff 01bd
00000130: a7d5 a23b 1aa7 10bb 677f cdbb bd56 8a3c
00000140: 508a c83c 9faf 12bd ed88 30bc bdc0 1c3d
00000150: 4d91 673b 73ab 49bc cd6e 00bc 43b3 e53c
00000160: 936b 2c3c d086 b0bc 6759 e8bb c3b5 3d3d
00000170: 92bb 1e3d c0f5 7c3c b76f 17bd 7a81 d03c
00000180: 5fc4 24bd 3348 cf3b 3754 cebc d7f2 12bd
00000190: 2329 483d 4d64 7f3b 132a b3bc 4347 c93c
000001a0: 1a96 51bc c785 353d 3374 a2bb ea45 8abc
000001b0: 1a3e 0fbd d52c 1e3d 1d96 e6bc c055 5cbc
000001c0: f232 43bd cd83 0bbc 726f 14bd 00ad c03a
000001d0: 5a74 26bd 5221 1f3d 4d12 75bc 42bf 1a3d
000001e0: 6762 eb3a 9a3d 203c d0c2 05bd c8fa 3d3d
000001f0: 433b d73c b07e e63c dad8 3f3c 5a7c 633c
00000200: 4360 1b3d 3da0 dbbc 870a e63c 5fb5 0abd
00000210: 67ef 9a3c e062 41bc 58ff 253d 001a fbbb
00000220: 00f9 783c 48cc 2f3d fa5d 433d ff12 46bd
00000230: c0f8 b93c 2778 393d 00b0 bbb8 d034 e73c
00000240: 3728 a63c 2d3a cbbc a31f 083d 5a22 ed3c
00000250: da09 c33b 68b6 2cbd 10cc 97bc ca81 debc
00000260: 3787 ff3c 3026 b6bc da4e b23c 808e 083b
00000270: 7afe d13c e70c aabb 3372 43bb c58f 163d
00000280: d306 d33c 0de9 3bbd b0e6 2d3d 9345 aebc
00000290: 40e5 8ebb 980f 11bd 27eb d83c 4bfe 4abd
000002a0: c03c 41bc 3758 1a3d 98f0 36bd 7893 2a3d
000002b0: a843 3ebd e7b9 a6bc 53dd e6bc 130a 463c
000002c0: 75b7 3b3d 20a9 603c 927b 1ebd 007c a43a
000002d0: 0af0 09bd 4dde 993b 90d9 34bd 93c7 513c
000002e0: 70ab e73c d78b b8bc 82f8 4a3d 20f2 9bbc
000002f0: 273a 9b3b 4de4 b6bc 13c6 093c d3da 28bd
00000300: 6737 5ebc 9d9c e43c 5ab7 983b d7f8 e23c
00000310: 0d99 c83c fd61 b23c c007 163d 7aa6 f5bc
00000320: 07a1 51bc d256 283d 0d23 453d 1b37 45bd
00000330: 55cc 183d 600d 8d3c 6d34 15bd e7f3 eabb
00000340: 63ca c7bc 9a6c 883c cd98 4abc 33f5 913a
00000350: 2ade c0bc b3fd ebbb 53a5 dd3c a071 0bbd
00000360: d51a 0f3d 33cd 4cbc 7717 1f3d 5a0d b5bb
00000370: 33c2 dabb b798 b0bc 1aaf 9dbb 3343 b638
00000380: 930e 4bbc a2a6 463d f7d4 49bd b77b 2f3d
00000390: 6769 d93a 2817 0bbd cd70 ca3b ea23 0bbd
000003a0: 58c1 343d bae8 10bd dba6 193d c7e9 b63c
000003b0: 1051 bf3c adcc c93c 6d02 4a3c bd42 213d
000003c0: 45dc 443d a79a 3a3c 4037 843b da6a 3e3d
000003d0: 008b 2fbc 1a32 34bc e732 623c 3a68 1dbd
000003e0: 2727 3a3c 801f d9bb c725 ccbc 005a 54bc
000003f0: f32f 893c 60de ae3c 3d78 473d e7a5 7dbc
-0.014187229 0.041765243 -0.016842073 0.010173119 -0.002152133 -0.04025119 -0.03463406 0.039561957
0.04796545 -0.041359223 -0.040946852 -0.018777436 -0.009753413 0.009065235 -0.043062683 -0.03316663
0.030802732 -0.035050333 0.03889451 0.00883233 -0.038177192 -0.012950385 0.0073258043 0.024953043
0.01716491 0.041174393 0.008490026 -0.0035096705 0.030323768 -0.048119556 0.031385224 -0.023095524
0.0397478 0.02675044 -0.0027685405 0.009562659 0.012347126 0.029578883 -0.005597252 0.02392571
0.005975419 0.038971074 -0.020644307 0.00087122916 -0.00036345125 0.02542097 -0.027183324 -0.042803194
0.026247693 -0.022605533 -0.0030881583 -0.013987041 -0.033111043 0.0008535266 -0.024895145 -0.02818404
0.020495845 0.004783881 0.024208104 -0.01431219 -0.012748969 -0.04058453 0.00866012 -0.02157252
-0.000505054 0.010487116 0.00090432767 -0.0049355687 -0.017056728 -0.012065589 0.042626318 -0.03953172
-0.0016013145 -0.014509702 0.04742032 -0.03173812 0.004969317 -0.0022072257 -0.006271291 0.016887063
0.024480015 -0.035812017 -0.010774833 0.038269747 0.0035334409 -0.012308943 -0.007838917 0.02803958
0.010523695 -0.021548659 -0.0070907357 0.04631592 0.0387531 0.015439451 -0.036971774 0.025452364
-0.040226337 0.0063257455 -0.025186641 -0.03587612 0.048867356 0.0038969696 -0.021870648 0.024570113
-0.012792135 0.044317033 -0.0049576997 -0.01687904 -0.034971334 0.038616974 -0.028147751 -0.013448179
-0.047656007 -0.0085153105 -0.036239095 0.0014699996 -0.040638305 0.038850136 -0.0149579765 0.037780054
0.0017958403 0.009780312 -0.03265649 0.04638174 0.026273375 0.028136581 0.011709416 0.013884628
0.0379336 -0.026809806 0.028081192 -0.033864375 0.018912984 -0.011803359 0.040526718 -0.0076630116
0.015196085 0.042919427 0.047697045 -0.04835796 0.022701621 0.0452806 -8.9496374e-05 0.028223425
0.020282848 -0.024808014 0.033233296 0.028947044 0.005952102 -0.042166144 -0.018529922 -0.027161498
0.031192405 -0.022235006 0.021766115 0.002083689 0.02563404 -0.0051895264 -0.0029822707 0.036758203
0.02576009 -0.04587655 0.04245633 -0.02127341 -0.004360825 -0.035415262 0.026479317 -0.04955892
-0.011794269 0.037681784 -0.04466304 0.041644543 -0.04645124 -0.020352317 -0.028181707 0.012087363
0.045829255 0.013712198 -0.038692065 0.0012549162 -0.033676185 0.00469569 -0.044152796 0.01280393
0.02827999 -0.022527618 0.0495534 -0.019036353 0.004737157 -0.02232566 0.008409041 -0.041224312
-0.013563014 0.02790671 0.004660529 0.027706547 0.024487043 0.02177524 0.036628485 -0.029986609
-0.01279474 0.041098423 0.04812913 -0.048148256 0.03730424 0.017218292 -0.03642695 -0.0071701887
-0.024388498 0.016653348 -0.012365532 0.0011135697 -0.023543436 -0.007201874 0.027056372 -0.034043908
0.0349377 -0.012500095 0.038840737 -0.0055252733 -0.0066759824 -0.021557195 -0.0048121335 8.690953e-05
-0.0123936115 0.048498757 -0.049275365 0.042842593 0.0016587198 -0.03395763 0.0061779977 -0.033969797
0.0441297 -0.035378195 0.03751264 0.02232827 0.023354083 0.02463373 0.01232968 0.039370287
0.048061628 0.011389411 0.0040349066 0.04648862 -0.0107142925 -0.010998273 0.013806081 -0.038429476
0.011361874 -0.0066260695 -0.024920357 -0.012960911 0.016746497 0.021346271 0.048698653 -0.015481449

l3.weight f4 [1, 300]
00000000: 6726 67bd f52d 5c3d 0acb 5ebd ec74 d8ba
00000010: 8c6a a63c e59f f03c fc36 523d 8299 34bd
00000020: 5b5f 1ebc 5e9d 35bd dcaa 273d a1cd 3cbc
00000030: 8af0 20bd b875 2b3c c885 a23c a9dc f1bc
00000040: 3822 003d 4e72 303d 9afd d13c b9bb 3ebc
00000050: 4cc6 13bd 9634 8abc 61f9 2cb9 6350 663d
00000060: 19fa 19bd fa22 f3bb 7b17 61bb 0ea8 d53c
00000070: de9b 82bc 1186 c63a 729e 313d 451b 4d3d
00000080: ee01 ab3b fb5f 673d df90 6b3d ca22 43bd
00000090: 059d 2cbd ebee 44bd e976 803c 52f9 43bd
000000a0: d662 4e3d da47 d13b 843a 543d 4fc4 533d
000000b0: 32e5 093d 22e9 4abd 59f6 473d 1d51 673d
000000c0: 4ea4 cabb 4d7c 16bd 8787 493d 3f15 633d
000000d0: 50b7 c63b d034 bd3c b62f 2abd 3a52 5abd
000000e0: 8491 833c 39af 3ebc 476c 653d e019 e2bc
000000f0: 8f11 633d 252c 80bc b66e 5fbd ab3d 04bd
00000100: e0f6 a0bb 61cc b53c 7248 3839 8143 493d
00000110: bf1e 4e3d 4c8d b23c 2ecf 11bd 6197 393d
00000120: cf6d 8d3b b58d e23c fff6 4f3c a2e1 17bd
00000130: 97f7 29bd 7b5d c5bb 2fb2 e1bc ee2f 373d
00000140: 70b4 90bc 3e24 04bd a7ba a63c 3fa2 2bbd
00000150: 3a59 28bd b915 82bc c860 69bc f067 10bd
00000160: 49e8 943c 3d30 51ba dd1e 3c3b e776 883c
00000170: ae9d 8f3c 6d5b 2e3d 04e7 dfbc 0e75 e63b
00000180: c93e 59bd 8ded 29bd 092c 5ebd ba23 233d
00000190: 142e c5bc 002f 6cbd 2822 63bc 8c7a 613d
000001a0: bd41 e3bb b168 06bb ed7d a3bc 5f04 593d
000001b0: c378 b03c f8c6 4fbd 2e8d e4bc d0cc 1ebd
000001c0: 4438 14bc 0825 18bd 8247 80bb b942 65bd
000001d0: 826f 4abd 3e11 1f3d 9d0f 643d 3d1e f53b
000001e0: 1ef5 95bc b3e5 0bbd e434 43bd 0ac4 f0bc
000001f0: f179 f8bc 4ef0 2a3d e6bb 183d 03b3 b7bc
00000200: 4b12 5e3c 28e2 b13b 55f9 153d c28a e8bc
00000210: f7cb 2b3d eb4c 74bc cbdb 97bc 414d 3c3c
00000220: 2c07 5ebd 9c4e 12bd 92db 67bd 76e3 253c
00000230: f492 d5bc ecca 7f3c b987 3fbd 3ca7 083d
00000240: adc0 fe3c 7f5a fab9 f500 0a3d 1957 4b3d
00000250: 2124 3fbd cf6b 56bc 54f7 a73c a3e9 c8bc
00000260: 4d1f c9bc 481f 49bd 2884 cc3c 0bea 403d
00000270: 82e3 d1bc c9e7 563d 1fb7 f4ba b87c ce3c
00000280: 6fff fe3b 360b b03c 7542 3cbd 43bf db3c
00000290: a266 18bd c71b bb3c 564b 1bbd 20ad 403d
000002a0: bd3a ac3c 0b6f 48bd 70bd 3dbd 26f9 113d
000002b0: d46b ed3c 7340 62bd 9f51 573d a81c cb3c
000002c0: 1cec e43b 4929 b2ba 0fd4 a03b be43 7dbb
000002d0: 6c95 b23c 5792 5a3d 072f 64bc 435d f8bc
000002e0: 892d 2f3d 50a1 043d 893f 633d 5cce 153d
000002f0: 270d 103d c795 523d 9082 2ebd a0de c8bc
00000300: e986 25bc eac8 cebc 2736 f1bb c0bd 323c
00000310: 0c3f c7bb 881f b6bc 8ef2 423d 4c4b ffbb
00000320: e641 42bd 5b54 ee3b 10a0 4dbd 7934 c1bc
00000330: e48d 243d 8f80 39bd 9d5d 0dbd b8db b0bc
00000340: ed7c 4e3d 89ec 513d 8af8 373d 57d6 48bc
00000350: 0dff 613d 7a51 233d b729 b83c b289 5abd
00000360: 1689 973a 39fb 053c 4ef3 643d f8e9 eb3c
00000370: ba2a dbbb 2971 593d a2d7 933c ecac 02bd
00000380: 23fa ff3c 50db 14bb 0980 763b 43e3 443d
00000390: 73b5 ad3c 5e5e 3eba 7475 f7bc 4acc 06bd
000003a0: 8c93 693d dd20 2f3c 27fe 1e3c 2150 54bc
000003b0: f60d 4bbc 53cb e23c 5365 fe3c 80e2 2a3d
000003c0: ab6e 263d 6ccb 683c c1e3 0d3d 3d9e e03c
000003d0: aa1d 56bd 22b5 1c3d 97d0 683d 37f3 edbc
000003e0: 7682 30bd 26af 09bd 5b7c c03c 2324 cebc
000003f0: c6d7 863b ce73 733b 0be0 333c 92b9 643d
-0.056433108 0.053754766 -0.054392852 -0.0016514338 0.020314477 0.029373119 0.05132197 -0.04409171
-0.009666289 -0.04433953 0.04093443 -0.011523635 -0.039291896 0.010465078 0.019839182 -0.029524164
0.031282634 0.04307776 0.025633622 -0.011641436 -0.036077783 -0.016870778 -0.00016496099 0.056229006
-0.037592027 -0.007419941 -0.003434627 0.026081111 -0.015943464 0.0015146156 0.043363996 0.050074834
0.005218736 0.05648802 0.057511207 -0.0476406 -0.042141933 -0.048079412 0.0156817 -0.047845192
0.050387226 0.006386739 0.051813617 0.051700886 0.033665843 -0.04953874 0.04881892 0.05647384
-0.0061841374 -0.036739636 0.049201515 0.055440184 0.006064333 0.023096472 -0.041549407 -0.053301074
0.016060598 -0.011638456 0.056011464 -0.027600229 0.055436667 -0.01564605 -0.05454894 -0.032285374
-0.0049122423 0.022192182 0.00017574595 0.049136642 0.05032229 0.021795891 -0.035597973 0.04531038
0.0043160687 0.027655462 0.012693166 -0.037080415 -0.041495886 -0.0060231066 -0.027550785 0.044723444
-0.017664164 -0.032261126 0.020352675 -0.041902777 -0.041100718 -0.015879499 -0.014244266 -0.035255373
0.018177168 -0.00079799053 0.002870492 0.01665826 0.017531242 0.04256766 -0.027331837 0.007032997
-0.053038392 -0.04148631 -0.054241214 0.039828993 -0.024069823 -0.05766201 -0.013863124 0.05504851
-0.006935327 -0.0020509178 -0.019957507 0.052982684 0.021541959 -0.05072686 -0.027899351 -0.038769543
-0.009046618 -0.03714469 -0.0039147744 -0.055971835 -0.04942275 0.038834803 0.055678952 0.0074804113
-0.018305358 -0.034154605 -0.047657862 -0.029390354 -0.030331584 0.04173308 0.03728857 -0.022424227
0.013554166 0.0054285713 0.036614735 -0.028386477 0.041942563 -0.014910917 -0.018537423 0.011493028
-0.05420606 -0.0357195 -0.056605883 0.010125032 -0.02607105 0.015612345 -0.046760295 0.033362612
0.031097734 -0.0004775114 0.03369232 0.04964361 -0.046665315 -0.013087227 0.020503677 -0.02452547
-0.024551058 -0.049102098 0.02496536 0.0470982 -0.02562118 0.05246714 -0.0018670297 0.025205955
0.007781915 0.02148972 -0.045961816 0.0268246 -0.037207253 0.022840394 -0.037913643 0.047040105
0.021024102 -0.048934024 -0.04632324 0.035637997 0.02898208 -0.055237245 0.052568074 0.024793938
0.0069861542 -0.0013592626 0.004908092 -0.0038645114 0.021799766 0.053362217 -0.013927228 -0.030317908
0.042768035 0.032380402 0.055480514 0.036573753 0.035168793 0.05141237 -0.042604983 -0.024520218
-0.010102966 -0.025242288 -0.007361192 0.010909498 -0.006080514 -0.022231832 0.0475946 -0.0077909585
-0.047426127 0.0072732395 -0.050201476 -0.023584591 0.04017438 -0.04528862 -0.034513105 -0.021589145
0.050412107 0.051250968 0.04491476 -0.012258134 0.055174876 0.039872624 0.022480829 -0.053353973
0.001156124 0.008177572 0.055896096 0.028798088 -0.006688443 0.053086434 0.018047158 -0.031903192
0.031247204 -0.0022713728 0.0037612936 0.048068296 0.021204686 -0.00072619866 -0.030207373 -0.03290967
0.057025477 0.010688988 0.009704149 -0.012958557 -0.012393465 0.027684843 0.031054175 0.041719913
0.040632885 0.014208656 0.03464103 0.027419204 -0.052274384 0.03825868 0.05683955 -0.029046638
-0.043093167 -0.0336143 0.023496797 -0.025163716 0.0041150777 0.0037147882 0.010978709 0.055841036

l4.weight f4 [400, 4]
00000000: 9c90 353e 12bd ecbe d424 6e3e 7831 ea3e
00000010: 3c39 f6be b458 0c3e f443 50be e639 adbe
00000020: f03e c7bd d47c e7be c083 a73c 8a39 b0be
00000030: 5cad 11be 6814 d33d 64f9 bdbe 2052 61be
00000040: 4c3d 4c3e 7853 163e 3eb5 993e 7855 88be
00000050: 1099 b03e 40df 6ebe 70c5 0b3d a642 acbe
00000060: 408a e1be 3ea7 a1be ace4 9fbe 487c ca3d
00000070: 4e55 cd3e 1c99 d13e d044 85be fcf7 eebe
00000080: baed cabe 50dd 603e 5e5f 94be 08f6 933d
00000090: c0b9 f03e d08d c0be 563e aa3e c0a0 51bc
000000a0: f8ce 033e 26a1 d0be 08e8 003e d48a 993e
000000b0: 74a1 e23e d084 bebd c4b4 e6be e8b9 c03d
000000c0: 882b b2be 4460 d93e 007e 7b3e b035 313e
000000d0: f043 84bd 2ca3 81be 1a35 cfbe 8081 013c
000000e0: 7073 153e f8a4 e7bd c0af f33e 7260 863e
000000f0: 8e22 b63e c040 8d3d 64d4 2c3e b664 8f3e
00000100: c884 40be be9c d23e 80ab 68be 68f6 f33d
00000110: 807c 9f3d 7a10 fc3e 0010 233b 00dd ad3e
00000120: 90a3 563d b85c f4be c44f c23e 20b3 4bbd
00000130: 9e9f 8ebe f89d abbe 8cd5 5d3e 187b a53e
00000140: 8c17 973e 48ba 823d aac1 8e3e e079 01be
00000150: 4050 f6bd 2c19 b53e fc72 523e f03a 52be
00000160: d88a 3abe 20ad 6c3d c0b3 94be 6067 b0bc
00000170: c654 a7be 6092 ed3e a091 a43e 203f e53e
00000180: 0cfb bebe 4aef 973e 0e54 c43e 3039 65bd
00000190: 6ec4 a3be cc2b 8e3e f0cb dabe 6622 a83e
000001a0: 28d1 3dbe fc24 65be 982e 1e3e 7c23 9abe
000001b0: 58c0 d6be 80ab 1fbc 5a42 9cbe 44f6 853e
000001c0: 5800 e1be 9e31 b63e 66ec c83e dcbd 3abe
000001d0: 0017 eb3e 6622 d43e a480 cebe 7025 013d
000001e0: a860 edbd de23 f73e 7682 fcbe 9c41 84be
000001f0: e8b5 a43e 846d 2ebe 40b1 15be 72c3 813e
00000200: 10a0 2a3e e067 223d 2c24 d73e 72b6 8f3e
00000210: 20b0 2dbe d4a4 17be ca67 d93e 4088 8ebe
00000220: 0ee8 bc3e 9e4a aebe 4832 fabd a45d d33e
00000230: c009 89bd e023 48be 3e45 933e a4d7 fbbe
00000240: 78db e8bd 7c81 0cbe a0e8 493e 9089 4b3e
00000250: d407 9b3e c80a ecbe b207 e73e 527b d1be
00000260: e073 f83c fc46 233e ec3b 1ebe 2cdb a33e
00000270: 804b bc3d 38c1 8abd 605e 553e b292 b7be
00000280: fc3a aabe 841a 33be 7e79 d03e c04f edbd
00000290: 5e53 9bbe f021 f2bd a8a0 333e 3085 78bd
000002a0: 5887 c1bd 0048 ea3c 30e7 143e 6a0b e1be
000002b0: 4898 aa3d a6ae af3e fa00 8cbe 20e6 a43d
000002c0: fc2f cf3e 00af 453c 4cd3 86be 4843 f7bd
000002d0: 7e6e edbe fc45 c0be 3004 7f3d f0f5 cbbd
000002e0: 0ada 87be 52fc a23e 489d 9ebd d0a6 733e
000002f0: 3680 f73e 580a 39be 2027 50bd b04a cc3d
00000300: 44d7 9a3e 6e87 d43e 9098 cf3d b613 a1be
00000310: 08c7 ce3d 8e4d ba3e 667b fbbe be2b 953e
00000320: 1e9c a03e ba1c b33e 440a d9be 2006 ecbd
00000330: 4c17 c03e dc97 30be 8856 c7be c05c b93c
00000340: 0ade d0be c04b 4b3c 6ef3 f6be 9241 bc3e
00000350: bcde eb3e b68e a5be e0c4 83bc 1868 823d
00000360: 4213 ac3e b878 d83d 22c2 edbe f063 2b3d
00000370: 104a 3d3d 4063 0dbc 0002 80ba 2a59 ae3e
00000380: 406f b73c e07c d93e 886d fd3e 004a 04bc
00000390: c0a7 cbbe 0814 553e 8c60 30be fa48 dbbe
000003a0: 9003 f5be 20d2 2bbe 28e8 74be 98ca 52be
000003b0: 201a f5be a0c5 c2bc b876 cabe b283 a1be
000003c0: 10fe 7a3d 48cc c3be 90a8 2f3e 70df 013d
000003d0: fc35 6abe fc83 97be b0ef b23d e409 36be
000003e0: 1ecb afbe 3c1c b73e d86e 91be ae42 9abe
000003f0: 1c07 f2be 04ab 403e 0c5b fdbe 98ab eabd
0.17730945 -0.46238 0.23256236 0.45740867 -0.4809054 0.13705713 -0.20338422 -0.33833236
-0.09728801 -0.45212424 0.020448565 -0.344189 -0.14226288 0.103066266 -0.37104332 -0.22003984
0.19945258 0.14680278 0.3002109 -0.26627707 0.34491777 -0.2332735 0.034123838 -0.336446
-0.4405079 -0.31572908 -0.3122915 0.09886986 0.40104145 0.40937126 -0.26029062 -0.46673572
-0.39634496 0.21959424 -0.2897901 0.07224661 0.47016716 -0.37608194 0.33250684 -0.012794673
0.12871921 -0.40747947 0.12588513 0.2998873 0.44263804 -0.09302676 -0.45059788 0.09410459
-0.34798837 0.42456257 0.24559784 0.17305636 -0.064582705 -0.25319803 -0.404702 0.00790441
0.14594817 -0.11310762 0.47595024 0.26245457 0.35573238 0.06897116 0.16877896 0.28006524
-0.18800652 0.4113521 -0.22721672 0.11912233 0.07787418 0.4923132 0.0024881363 0.33957672
0.05240208 -0.4772699 0.3795148 -0.049731374 -0.27856153 -0.33518958 0.21663493 0.32320476
0.29510152 0.063831866 0.2788213 -0.12644148 -0.12027025 0.35370767 0.20551676 -0.20530295
-0.18217027 0.057782292 -0.29043388 -0.021533668 -0.32681865 0.46400738 0.32142353 0.44774723
-0.3730091 0.2967475 0.3834538 -0.05596274 -0.319858 0.2776779 -0.42733717 0.32838744
-0.18536818 -0.2237739 0.15447462 -0.30105197 -0.41943622 -0.009745479 -0.30519372 0.26164448
-0.43945575 0.3558473 0.39242858 -0.18236488 0.45915985 0.41432494 -0.4033252 0.031529844
-0.11590701 0.48269552 -0.49318284 -0.25831306 0.32170033 -0.17033964 -0.14618397 0.25344425
0.16662621 0.039649844 0.42019784 0.28068882 -0.16961718 -0.1480897 0.42461997 -0.27838326
0.36895794 -0.34041303 -0.12216622 0.4128238 -0.06691313 -0.19544935 0.28763765 -0.49187958
-0.11369985 -0.1372127 0.19717646 0.19876695 0.3027941 -0.46101975 0.4512306 -0.40914398
0.030328691 0.15945047 -0.15452546 0.32003152 0.09194088 -0.06775135 0.20836782 -0.35854107
-0.33248127 -0.17490584 0.4071769 -0.11587477 -0.30337042 -0.11822879 0.17541754 -0.060673892
-0.09449643 0.028598785 0.14541316 -0.4395402 0.083298266 0.34312934 -0.27344495 0.08051705
0.40466297 0.012065649 -0.26333082 -0.1207338 -0.4637336 -0.37553394 0.062259853 -0.09959018
-0.26533538 0.3183313 -0.07744843 0.23794103 0.48340005 -0.18070352 -0.050818563 0.09975183
0.3024236 0.41509575 0.10136521 -0.3146035 0.10096556 0.36387295 -0.49117583 0.29134935
0.31369108 0.34982854 -0.42390645 -0.11524606 0.37517774 -0.1724543 -0.38933206 0.022627234
-0.40794402 0.012408197 -0.48232597 0.36768776 0.4606837 -0.32335442 -0.016085088 0.063675106
0.33608443 0.105699 -0.46437174 0.041843355 0.04621321 -0.00862962 -0.0009766221 0.34052402
0.022391915 0.42478085 0.49497628 -0.008074284 -0.3977642 0.20808423 -0.1722433 -0.42829114
-0.4785428 -0.16779375 -0.23916686 -0.20585096 -0.47871494 -0.023775876 -0.395437 -0.31545788
0.06127745 -0.38241792 0.17154145 0.031707227 -0.22872156 -0.29592884 0.08737123 -0.1777721
-0.34334654 0.3576373 -0.2840488 -0.30128998 -0.4727105 0.18815237 -0.49483526 -0.1145851

l4.bias f4 [400]
00000000: 945e 8ebe ea7f adbe 46d8 af3e 1499 2d3e
00000010: 1812 573e 000e 7f3e c610 c7be d0fd d7be
00000020: 003c a9bd 9e13 c3be 849b 133e 3cee e13e
00000030: e617 be3e 2496 363e 88bd a83e 1cdd bcbe
00000040: 44b9 653e 7033 983e 421c f93e bce1 6cbe
00000050: 5cc3 eb3e beb6 f7be b00d f3be 72e3 cdbe
00000060: 8e61 fcbe c05c 2abe 4859 9c3e 00c7 d3bd
00000070: 0008 a83a 0010 3d3b 8483 1abe 2a17 cd3e
00000080: a082 9b3d 40fb e33d a8dd cdbd 0491 b23e
00000090: 70ca cb3d 50a7 083d ec8c a5be 68c5 c5be
000000a0: 64bb 1f3e ae90 ddbe c07f e83d 3615 cf3e
000000b0: 00d4 55bd e8c0 b2bd 90c6 0a3e d827 8cbe
000000c0: d435 383e 3ea0 a73e 7810 dfbe 0000 ed38
000000d0: 2edd 933e 64f4 ea3e e011 e2be 80fb 553c
000000e0: c89a 18be b6cb d23e 8674 fa3e 18e8 c4be
000000f0: 6085 cdbc 7ed4 e13e 404b 883c 8882 cfbe
00000100: 606c 41bd 4035 52be e0b5 83be 28e8 a73e
00000110: 9019 703e 7050 33be 384c 853e 58fe 2f3e
00000120: 7031 aebd 4482 703e 642e eb3e 8cbf 583e
00000130: e85d 193e e0e1 783d 4066 44bc a283 e43e
00000140: a8a3 75be 0092 b8bb e844 c63e 004c e03a
00000150: 8005 64bd 58b2 893d f858 c63e 44ec f7be
00000160: 5ead c23e d450 cebe 6069 223e 40ba 5f3e
00000170: 8c21 2ebe 90e1 c23d b008 933d e6fb 813e
00000180: 6cfb 79be f4b1 963e 2019 d4be 1c80 5bbe
00000190: bc83 043e ac2b 07be e001 563d 90fc 8dbd
000001a0: 58ca b03d cc1f 99be d87a c9bd 24fc 913e
000001b0: ccb4 343e aa86 febe d05f e13d be4f ac3e
000001c0: b8c1 92bd fc2c 0c3e 3cb8 f03e e02e 24be
000001d0: 78b7 773e 4c72 d6be 80ee a53c e027 823e
000001e0: 84f5 b8be a8e3 aa3d 8628 ab3e ba31 ebbe
000001f0: 6e3b b63e 405f b4bd bc02 d83e 38e0 e6be
00000200: 682c 5ebe 3807 c63e dc29 553e c2ee 9cbe
00000210: 22c1 df3e d6ca e63e 8a6c c1be c4d4 29be
00000220: 56aa f63e 284d ea3e 38b7 323e 3497 093e
00000230: 6c0f 243e a8ab 983d 480b f1be 586b 7abe
00000240: 4018 5fbd 2c64 30be 3077 b3be 324c cbbe
00000250: 4033 91bd 8895 b6be a068 ae3c eafc bfbe
00000260: 3a5b 85be 3042 213e 70d2 663e 481f 263e
00000270: f0bf 403e 4027 be3d b6a9 a33e d838 243e
00000280: 3ce4 18be d8d6 88be 0078 cfbb 869e b5be
00000290: fe9a 9b3e 4a97 8a3e 500e ef3e e84b 1ebe
000002a0: 40b1 b1bd 60bf b53d 38eb 983d be39 833e
000002b0: 74b4 5b3e 9638 e03e a8ed fc3d f876 8d3e
000002c0: cc2e 193e bea1 d1be 60a2 c2bc a20f cbbe
000002d0: c6fd e0be ea6b 8ebe 12cb dc3e c0f8 163e
000002e0: ded1 a63e 2274 85be c2cf e43e d6a6 fc3e
000002f0: 0040 f4ba 7ccb af3e 1837 ffbe 10b9 f8bd
00000300: 14c9 79be 60d1 66bd 4ced 9f3e 5a7a cd3e
00000310: 4465 51be 9cf5 55be ec9f c33e 748e 353e
00000320: 40d6 29bd 12b9 fe3e 9001 65bd 8021 7cbe
00000330: 00ae 903d 007c 2a3d b086 d33d fcc5 4dbe
00000340: b84e 54be 5c17 6bbe debb bdbe d83b 323e
00000350: 5c61 12be 1086 d9be c425 be3e 005b f93b
00000360: 3e57 82be 1e9d 88be 80dc eb3e 8872 b9be
00000370: ccbc 86be e028 d9bd 6030 0ebd 5812 c6be
00000380: 70a7 d83e aa2d 863e 982e ee3e 400f b8bc
00000390: 2875 b5bd c0fe 503d aeac dcbe 3ee5 883e
000003a0: d8a4 563e e63c f0be c032 04bd cadd 96be
000003b0: 9893 80be 9eff db3e c45c 11be 7c39 edbe
000003c0: 6264 debe 10cc 30be e8b6 a93e 545f 5cbe
000003d0: aea3 853e d050 38bd d23c e0be 34be 94be
000003e0: 6c4d 663e 961a a53e c85d ecbd c2ff ae3e
000003f0: 5ae3 86be 2a66 823e 90bb 45be 2000 08be
-0.27806532 -0.33886653 0.3434469 0.16952926 0.21002996 0.24907684 -0.38879985 -0.4218583
-0.08263397 -0.38100904 0.14414793 0.4412707 0.37127608 0.17830712 0.329571 -0.36887443
0.22433954 0.29726744 0.48654372 -0.23132986 0.46047485 -0.4838161 -0.4747138 -0.4021259
-0.49293178 -0.16636944 0.30536866 -0.103406906 0.0012819767 0.0028848648 -0.15089232 0.40056735
0.07593274 0.111319065 -0.10052043 0.34876263 0.09950721 0.033362687 -0.32334077 -0.38627172
0.15598828 -0.43274444 0.113524914 0.4044587 -0.052204132 -0.087282 0.13552308 -0.27374148
0.17989284 0.32739443 -0.43567252 0.00011301041 0.28879684 0.4588958 -0.44154263 0.013060451
-0.14902794 0.41171044 0.48917025 -0.38458323 -0.025088012 0.4410743 0.016637444 -0.40529275
-0.047222495 -0.20528126 -0.25724697 0.3279431 0.23447251 -0.17511153 0.26034713 0.17186868
-0.08505523 0.23487192 0.4593383 0.2116682 0.14977229 0.060762286 -0.011987269 0.44631678
-0.23988211 -0.005632639 0.38724446 0.0017112494 -0.055669308 0.067234695 0.38739753 -0.48422444
0.38022894 -0.40296042 0.1586051 0.21848392 -0.17004985 0.09515679 0.071793914 0.25387496
-0.24412316 0.29432642 -0.4142542 -0.21435589 0.12940878 -0.13200253 0.052247882 -0.06932938
0.08632344 -0.29907072 -0.09837884 0.2851268 0.17647094 -0.49712116 0.11004603 0.33654588
-0.07165855 0.13689035 0.4701556 -0.16033506 0.24191082 -0.41884077 0.020255327 0.25421047
-0.36124814 0.08344203 0.33429354 -0.45936376 0.35592216 -0.0880723 0.42189586 -0.4509294
-0.21696627 0.38677382 0.2081675 -0.30650908 0.43702036 0.45076627 -0.3777812 -0.1658507
0.4817683 0.4576199 0.17452705 0.13436586 0.16021508 0.07454616 -0.4707892 -0.24455011
-0.054466486 -0.17225713 -0.3505187 -0.3970657 -0.07089853 -0.35660958 0.021290123 -0.37497646
-0.26046163 0.15747905 0.22541213 0.1622287 0.18823218 0.0928483 0.31965417 0.16037309
-0.14930815 -0.26726413 -0.006331444 -0.35472506 0.30391687 0.2706855 0.46690607 -0.15458643
-0.08676386 0.088743925 0.074667394 0.2562999 0.21455556 0.43793172 0.12350017 0.27629828
0.14959258 -0.40943712 -0.023759067 -0.39660364 -0.43943614 -0.27816707 0.4312368 0.14743328
0.3258199 -0.26065165 0.44689757 0.49346036 -0.0018634796 0.34334934 -0.4984672 -0.12144673
-0.24393111 -0.05635202 0.3123573 0.4013241 -0.20448786 -0.20894474 0.38207948 0.17730123
-0.04146409 0.49750572 -0.055909693 -0.24622154 0.07064438 0.041622162 0.10328424 -0.20095056
-0.20733154 -0.2295813 -0.37057394 0.17405641 -0.14294952 -0.42485094 0.37138188 0.007609725
-0.25457186 -0.2668237 0.46066666 -0.36220193 -0.26315916 -0.106034994 -0.034714103 -0.3868587
0.42315245 0.26206714 0.46519923 -0.02246821 -0.088602364 0.0510242 -0.43100494 0.26737398
0.2096132 -0.46921462 -0.03227496 -0.29466087 -0.25112605 0.42968458 -0.14195544 -0.4633292
-0.4343596 -0.17265344 0.3314736 -0.2152074 0.2610144 -0.044998944 -0.43796402 -0.29051363
0.22490472 0.32246846 -0.11541325 0.34179503 -0.2634533 0.2546857 -0.1930983 -0.13281298

l5.weight f4 [300, 400]
00000000: 33bb 3abd 32c9 44bd 2701 cabc cd85 8dbb
00000010: c8b2 1bbd 171e 02bd 6789 0f3d 0d56 9ebc
00000020: 5ba2 2e3d eddf 113c 7f99 483d b326 843c
00000030: 0034 c0bb a706 d23c 7a85 dc3c 830c 01bd
00000040: cded a7bb 3a4d 5b3c 17f9 283d a7ad 6bbc
00000050: 7a66 ce3c 8f69 18bd daa5 c33b 4788 0dbc
00000060: 7759 833c 1a42 0a3d a789 35bc 2a20 023d
00000070: 000c ad3b f7b1 d93c 032c 93bc c7ef 7abc
00000080: d3b7 05bc 7b7a 03bd f7d7 9b3c 4dc7 383c
00000090: 7a09 07bd 43ab 09bd 6d01 bb3c 8714 b5bc
000000a0: 43f4 81bc a794 f3bb d38e c93c 18fb 37bd
000000b0: b3a7 ef3c 2d40 9a3c ef4c 30bd 7a27 433c
000000c0: 27d3 7dbc cfac 21bd cd00 5f3c 3873 15bd
000000d0: 570b 013d 5aff 88bb e7b4 de3b 9707 afbc
000000e0: 57ba a53c 5dfb 92bc e539 19bd a06d 59bc
000000f0: da55 c13c 6a7c 8dbc 1a61 c4bc da10 adbb
00000100: f8da 33bd edf7 41bc 1853 1d3d 57d4 e5bc
00000110: 80f7 cfbb 1dfa 403d 306f 3cbd 5767 1b3d
00000120: 0a01 1d3d 00a6 053c eb99 36bd 67f3 093d
00000130: 13c9 3d3d 75a0 19bd 73a2 80bc 9bf5 353d
00000140: b3e6 f43b a5a4 083d 0bbb 2fbd 5ab7 9fbc
00000150: bd50 c63c 4feb 37bd f56b 263d 903f 1bbd
00000160: 0339 d83c f81b 033d 139b 19bd 828b 0c3d
00000170: 6f42 4abd 22a6 22bd 2719 8fbb f3da 84bc
00000180: 7a7c 28bd 6723 e4bc 3083 3bbd f39f c8bb
00000190: aa0e 05bd cf78 12bd 0da4 91bc 821f 063d
000001a0: 60ab bc3c 8d79 923b d748 09bd c736 6f3c
000001b0: 60b8 803c bd0f e13c 3010 fbbc cdcd 443c
000001c0: 0500 41bd 5af1 fabb 678a 30bb 90d5 ae3c
000001d0: 5782 2abd efc8 2c3d 109a 3c3d 1a94 913c
000001e0: 2741 983c d36d 253d c08c 4ebc cdd5 523c
000001f0: 4d7c 2ebb 1d9b 94bc 1372 b6bc 8069 943b
00000200: 42ce 1c3d 70a2 42bd 9a18 09bc 3db7 0f3d
00000210: 1a06 49bb a77a d4bc 7dc1 ebbc 875a 89bc
00000220: b392 6c3c cd29 493d fdf8 af3c 20ee 39bc
00000230: da3f 2e3d 9226 413d 6d46 b5bc 4adc 0fbd
00000240: 4a9b a5bc 6016 303d 902d b1bc 9ada a43a
00000250: ed88 033c 076d 68bc 402f 953b 679a 553b
00000260: cb7b 413d 2d7f b4bc 3713 0c3d b352 46bc
00000270: 10d8 d33c 1df3 95bc ca53 b7bc ed55 87bc
00000280: bab4 69bc e0b7 30bc c723 453d 0019 bb3a
00000290: fb60 2e3d ca2e e7bc 3d59 0e3d 50a0 b83c
000002a0: 0001 ee3a 3a40 57bc 45d6 1c3d 5322 efbc
000002b0: e774 c0bc 9ac3 9f3c c0ac 1b3d c0b3 233d
000002c0: 0398 b93c efd0 2b3d 2d8c b73c 2fb2 2a3d
000002d0: 5a83 14bd 83ae 21bd dbec 30bd 7f97 01bd
000002e0: 8058 6f3b 03b9 21bd 8088 10bc a24a 303d
000002f0: a024 bc3c 6b07 16bd 1a24 20bb dacd 98bc
00000300: 7a50 7bbc 4234 3bbd 437e 93bc 5adb 05bc
00000310: 1be6 05bd 270c 1cbd bbfc 25bd 2d43 343d
00000320: e217 353d 4b62 3abd 4368 453d 67a9 0cbd
00000330: 5728 ae3c 3546 06bd dd6b 80bc 43d9 ea3c
00000340: a7c5 28bd 155a 493d 72a4 14bd e311 e13c
00000350: 338e 0e3b da93 bf3b d286 4abd 5f3d 413d
00000360: 3848 4cbd 7087 8e3c 157a 47bd 4ddd a2bb
00000370: eb9b 40bd fd7d 87bc 3ae4 163d 03b2 e53c
00000380: 6d06 21bc 9a41 7dba e328 8b3c e077 003c
00000390: 43e7 fabc 4bdc 40bd a5a5 1c3d e753 cfbb
000003a0: a7a1 8fbb 5ac6 003c 3702 bebc 6703 7e3b
000003b0: c36d ab3c 9a3b 17bd f3f3 153d 1795 a3bc
000003c0: 004a 55bb 731d d1bb 6750 0a3b 4a9a 163d
000003d0: 733d e73b 8a5f 483d 1778 babc 8717 25bc
000003e0: b5d5 3abd 6a0b 34bd 4de2 5ebc e040 29bc
000003f0: cd94 0a39 952b 483d 0d95 0ebd d715 df3c
-0.045588683 -0.048043437 -0.024658753 -0.004318929 -0.038012296 -0.031766977 0.035043146 -0.019328142
0.042635303 0.008903486 0.04897451 0.016131734 -0.005865574 0.025637938 0.026919115 -0.031506073
-0.0051247836 0.0133851115 0.041253176 -0.014384664 0.025195349 -0.037210044 0.005970699 -0.008638448
0.016033871 0.033754446 -0.011080182 0.031768955 0.0052809715 0.026574118 -0.017965322 -0.015315956
-0.008161503 -0.03209923 0.019023878 0.011277986 -0.032968022 -0.033610594 0.022827828 -0.022104515
-0.015863543 -0.007433492 0.024604237 -0.044917196 0.02925477 0.01882943 -0.04304212 0.011911267
-0.015492237 -0.039471444 0.013611031 -0.036486834 0.031504955 -0.004180831 0.0067964676 -0.021365924
0.020230455 -0.017942125 -0.03740873 -0.013270766 0.023600508 -0.01727124 -0.023972083 -0.00528155
-0.043909997 -0.011838895 0.038409323 -0.028055353 -0.006346643 0.047113527 -0.046004474 0.03794035
0.03833107 0.008157253 -0.04458038 0.033679392 0.046334337 -0.03750654 -0.015702462 0.04442368
0.0074737906 0.033360142 -0.042902987 -0.019496609 0.02420842 -0.044902142 0.0406303 -0.037902415
0.026394373 0.032009095 -0.037501406 0.034312733 -0.049379762 -0.039709218 -0.004367012 -0.016217684
-0.041134335 -0.027848912 -0.045779407 -0.006122583 -0.032484688 -0.035759743 -0.01777842 0.032744892
0.023030937 0.0044700564 -0.03351673 0.014600462 0.015712917 0.027473325 -0.030647367 0.012011957
-0.04711916 -0.007658166 -0.0026937963 0.021342069 -0.041628208 0.042183813 0.046045363 0.017770816
0.018585755 0.04038794 -0.0126068 0.012868357 -0.0026624382 -0.01814037 -0.022271192 0.004529178
0.03828264 -0.047518194 -0.008367682 0.03508686 -0.0030673803 -0.025937391 -0.028778786 -0.0167668
0.014439273 0.04911213 0.021481032 -0.011348277 0.042541362 0.047155924 -0.022128308 -0.035122193
-0.02021565 0.04299009 -0.021628171 0.0012577355 0.008028251 -0.01418615 0.004552752 0.0032593252
0.0472372 -0.022033298 0.034198012 -0.012104678 0.025859863 -0.018304402 -0.02237882 -0.016520465
-0.01426428 -0.010786027 0.048129823 0.0014274418 0.042572957 -0.028220553 0.034753073 0.02253738
0.0018158257 -0.013137871 0.03829028 -0.029191172 -0.023493243 0.01950245 0.038006544 0.039966345
0.022655493 0.0419473 0.022405708 0.041673835 -0.03625808 -0.039473068 -0.043194633 -0.03163862
0.0036521256 -0.03948308 -0.008821607 0.043039925 0.022966683 -0.036628168 -0.002443558 -0.018652845
-0.015339011 -0.045704134 -0.018004542 -0.008169973 -0.03269015 -0.038097527 -0.040524226 0.044009376
0.04421223 -0.045503896 0.048195135 -0.034341242 0.02125947 -0.0327818 -0.015676433 0.028668052
-0.04120412 0.049158175 -0.03628964 0.02747435 0.0021752238 0.0058464827 -0.04944498 0.04717767
-0.04987356 0.017398566 -0.04870041 -0.0049702288 -0.047023695 -0.016539568 0.036838748 0.028038984
-0.009828192 -0.00096609595 0.01698727 0.00784108 -0.030627852 -0.047085088 0.03824391 -0.0063271406
-0.004383284 0.007859791 -0.023194415 0.0038759352 0.020926362 -0.036922075 0.0366096 -0.019968553
-0.0032545328 -0.0063816844 0.0021105052 0.036768235 0.007056886 0.04891924 -0.022762341 -0.01007641
-0.045613963 -0.043956198 -0.013603759 -0.010330409 0.00013216138 0.048869688 -0.034810115 0.027232094
