TD3/saves/continuation_actor.pth (torch, 518693 bytes, 6 tensors)

l1.weight f4 [400, 18]
000000 89 54 10 3f 53 e5 3c bf 6d b7 73 bf 59 4d b2 3d
       0.5637899 -0.7378742 -0.9520176 0.08706159
000010 11 b1 d9 3e a9 fc 0e be 1b 3f f6 bf b9 0a c9 3f
       0.42517903 -0.1396357 -1.9238008 1.5706397
000020 ac b7 85 c0 a3 4e e2 bf 5a e7 10 3f c4 55 2e bf
       -4.178671 -1.7680248 0.56603014 -0.6809962
000030 a3 6b c5 3e ee eb 00 40 ae 4f 0b bd 89 09 b0 3e
       0.38558683 2.0144 -0.034011535 0.34382275
000040 b0 13 7a be 35 c5 2e 3f cb 4f a6 3f dd 29 b1 3f
       -0.24421573 0.68269664 1.2993101 1.3840901
000050 4a 67 ad 3e 5e 11 d6 be de 2d b8 be 38 0b 10 3e
       0.33867866 -0.41810125 -0.35972494 0.1406678
000060 ff 2c d9 bf 41 63 8e bf f2 76 6e 3f e5 5f a4 3e
       -1.6966857 -1.112404 0.93150246 0.32104412
000070 8f 96 05 3f bd ba 0f be 62 42 e6 bf 3d ed 58 bf
       0.5218286 -0.14036079 -1.7989008 -0.84736997
000080 20 d3 ba be eb 16 87 3e e7 e5 a2 3f b8 30 c1 be
       -0.364892 0.26384673 1.2726411 -0.37732482
000090 03 f7 7e 3f d2 cd 6d c0 55 0b 30 3f 5b 0d 0c be
       0.9959566 -3.7156873 0.6876729 -0.1367697
0000a0 53 0f 88 bd d6 70 05 bf 45 1c ac bf e9 e0 9d bf
       -0.06643548 -0.521253 -1.3446127 -1.2334262
0000b0 97 0c 9a 3f 19 0e 11 3f 03 0d 2e 3d 65 0d 0b bf
       1.2035092 0.56662136 0.042492878 -0.54317313
0000c0 66 80 d0 3f 3d ab 70 bf 7d 0f af 3e 24 78 31 be
       1.6289184 -0.9401129 0.34191504 -0.17330986
0000d0 e7 13 48 bf 64 18 f2 3b 0a 23 1f 40 57 9c f4 3e
       -0.7815537 0.0073881615 2.4865136 0.47775528
0000e0 87 f1 b2 bc 36 7b 00 bf 03 94 72 be b7 7c 40 bf
       -0.021843685 -0.50188005 -0.23689274 -0.751903
0000f0 6f 71 35 c0 e6 40 25 bf 27 d8 3f bf dc 91 81 be
       -2.8350484 -0.6455215 -0.749392 -0.25306594
000100 10 43 3a 3f 2b da 20 3f 72 f7 21 be 5b b4 e8 bd
       0.7275858 0.628329 -0.15817049 -0.11362525
000110 cb 92 c6 3c 68 ff 97 bd 63 ae b6 3d 62 43 9f bf
       0.024239918 -0.07421762 0.089199804 -1.2442439
000120 6a f5 e3 3f ed e0 29 3f 34 b8 e7 3e 6b a8 29 3f
       1.780927 0.66358835 0.45257723 0.6627261
000130 b6 50 3d be 5c 4c 05 3e 38 ab be bf 5b aa e5 3e
       -0.1848782 0.1301741 -1.4896002 0.44856533
000140 c0 c6 09 3e e6 c9 a4 bf 1f db 8f be 9f e4 1c be
       0.13454723 -1.2874115 -0.28096864 -0.15321587
000150 03 81 13 40 98 9e 88 be bb 20 bd 3e c1 5d 6b bd
       2.3047493 -0.26683497 0.36939034 -0.057462458
000160 9d 20 40 bf ad f5 40 bf ca a3 2e bd 04 26 2e bf
       -0.75049764 -0.7537487 -0.04263667 -0.6802676
000170 41 91 da 3f ee 0d 2c 3e 8b eb 3a 3f f8 0f 64 bf
       1.7075578 0.16802189 0.7301566 -0.89086866
000180 59 8f 09 c0 7d 79 d3 3f 0f 8a 99 3e db b0 8d 3e
       -2.1493742 1.652145 0.29988143 0.27673993
000190 ec 21 62 bf 87 51 2d 3d 52 7e c7 3e 45 2e 8a bf
       -0.8833301 0.04231408 0.38963562 -1.079537
0001a0 87 45 9c 3e 06 c4 00 bf 08 75 99 bf 47 8c 77 bf
       0.30521795 -0.5029911 -1.198884 -0.9669842
0001b0 c4 bf 7b 3f 65 b0 6a 3f ff 0f 90 bf 45 fd 9d bf
       0.98339486 0.91675407 -1.1254882 -1.2342917
0001c0 3c 73 69 bf 44 4c 05 3f a6 7d 38 c0 13 40 bf bc
       -0.9119146 0.520695 -2.882669 -0.023345983
0001d0 61 02 6a 3f 3a 0c c8 3e 45 44 aa 3e 4d 45 1d bf
       0.9140988 0.39071828 0.3325521 -0.6143387
0001e0 19 0b 64 bd 7f d4 ae bf 67 57 15 3e 1f 91 c4 bc
       -0.055674646 -1.3658599 0.14584123 -0.02399498
0001f0 ab 08 f0 bd 93 6f aa bf 29 e7 55 40 70 20 0d be
       -0.11720403 -1.33153 3.342234 -0.13781905
000200 a6 90 d6 bf 82 67 31 bf 94 b1 04 bf 75 03 4f bf
       -1.6762893 -0.69298565 -0.5183346 -0.8086465
000210 61 29 c2 bf 43 9c 1a 3f eb b6 02 bc 2a 96 20 3d
       -1.5168878 0.60394686 -0.007978181 0.039205708
000220 39 15 ac 3d 2b 8f 7d 3e 1a 25 e4 be 40 54 d0 3e
       0.084024854 0.24761645 -0.44559556 0.40689278
000230 27 d6 a1 be d3 13 39 bf c8 8a 85 be da 8b 63 bf
       -0.31608698 -0.72295874 -0.26082444 -0.8888527
000240 71 81 c2 3f 2f 9f 26 40 ac 16 d8 3f 28 e8 3e 3f
       1.5195752 2.6034658 1.6881919 0.7457299
000250 f5 13 5e bf 42 77 f7 3e 32 03 ce bf 2a 09 5b bf
       -0.867492 0.48333174 -1.6094725 -0.8556086
000260 80 f0 61 bf 32 09 48 3e ca 2c 5f be 3c b2 ce 3e
       -0.882576 0.19534758 -0.2179443 0.40370357
000270 e1 a7 1d 3f 05 47 91 3e cb 25 b2 be 64 cb a1 3c
       0.6158429 0.28374496 -0.3479446 0.019750305
000280 18 16 1c bf 50 d2 3b bf 44 b1 14 40 e2 52 27 bf
       -0.6097121 -0.73367786 2.3233194 -0.65360844
000290 42 5d 76 bf a6 1d 4f 3f df c3 41 bd 52 69 45 be
       -0.9623605 0.80904615 -0.047305938 -0.19278458
0002a0 12 4e 20 be 67 7b 3d 3f 04 37 b9 3d ac 59 4c 3e
       -0.15654781 0.7401642 0.090436965 0.19956082
0002b0 bc 19 92 3d 11 7c 3f 3e 25 e3 1a bf d0 1a a3 3f
       0.07133815 0.18699671 -0.60502845 1.2742558
0002c0 43 d1 b2 3e 23 94 2d 3e e8 ec 7f bf d1 df 62 bf
       0.3492528 0.16951041 -0.99970865 -0.88622767
0002d0 04 66 5a c0 14 4e 85 c0 d1 1c a1 3f 26 43 9a be
       -3.4124765 -4.165781 1.2586919 -0.30129355
0002e0 15 b8 14 bf f3 6f 7e bb 46 76 ac 3f f3 0c 61 3f
       -0.58093387 -0.003882405 1.3473594 0.87910384
0002f0 f3 0b 07 bf 5f 57 bf 3e 58 39 69 be 14 ed fe bd
       -0.5275261 0.37371346 -0.22775781 -0.12447563
000300 52 9a 85 3f da 46 55 3f 5b cc 1b 3d 9f 24 30 be
       1.043772 0.83311236 0.038036685 -0.1720147
000310 e4 4d 37 3e 6e 6c 16 3f 2d 5b 7e 3f 50 43 6f 3e
       0.17900807 0.587592 0.99357873 0.23365521
000320 c2 8b 6d c0 15 e4 73 bf ce 94 1a 3d 0d 43 65 bd
       -3.7116551 -0.952699 0.037739567 -0.055972148
000330 6d b7 9a bf 95 20 e0 bf 4d a5 b2 3f dd b5 e0 bd
       -1.2087227 -1.7509943 1.3956696 -0.10972188
000340 01 b9 11 be d9 a4 23 3f 69 50 5f bd 59 f2 08 3d
       -0.1423073 0.6392341 -0.054520044 0.033434246
000350 cd d8 ec 3e 02 ea e6 bd cf fa 51 bf 61 91 a3 be
       0.46259156 -0.11275102 -0.8202333 -0.31946853
000360 8e 42 b4 3f fd 10 39 c0 c2 d4 50 bf 1b bc 71 3f
       1.4082811 -2.891662 -0.8157464 0.9442765
000370 df 1f 53 be 53 56 ff be 6d 45 26 c0 52 5b 49 bf
       -0.20617627 -0.49870548 -2.5979874 -0.7865497
000380 3a 6b 7a bf c7 a1 29 bf df 04 c3 be a4 75 b4 be
       -0.97819865 -0.6626248 -0.38089654 -0.35246003
000390 1c 90 b8 3f b7 39 c9 3f d2 d7 20 3e cb a8 64 3e
       1.4418979 1.5720738 0.15707329 0.22330014
0003a0 ea 62 a9 bf 86 b3 85 bf 2c 35 b0 3e ec c4 8d 3f
       -1.3233311 -1.0445411 0.34415567 1.1075721
0003b0 04 4c d4 bf 95 20 17 3f e7 e6 23 3f b6 75 b4 be
       -1.6585698 0.5903409 0.64024204 -0.35246056
0003c0 77 15 20 c0 03 98 a1 3e 14 85 3e 3f d7 78 49 bd
       -2.50131 0.31561288 0.7442181 -0.049187507
0003d0 09 df 5f be b9 a6 85 be 82 08 6f 3f ef 0b 98 3f
       -0.21862425 -0.26103762 0.93372357 1.1878642
0003e0 18 03 06 bd b4 74 15 bf 2b 64 25 bf a5 c0 a4 3e
       -0.032717794 -0.583812 -0.6460597 0.32178226
0003f0 cf 0e 43 3f 78 ee c3 3e 2f 4c 19 40 4d 68 82 3f
       0.7619447 0.38267875 2.3952749 1.018808

l1.bias f4 [400]
000000 59 25 0a bf 3b 86 40 bf a8 87 5f bf 06 52 dc bf
       -0.5396324 -0.7520482 -0.8731637 -1.7212532
000010 41 1b a9 bf a9 cd 40 bf eb 4c c2 bf d5 cc b9 bf
       -1.3211442 -0.7531381 -1.5179724 -1.4515635
000020 12 58 c8 bf 90 63 c8 bf 70 c0 9f 3f ce 58 c4 bf
       -1.5651877 -1.5655384 1.2480602 -1.5339601
000030 ad 3f d4 be 0a 06 3b bf 36 dd ca bf f2 68 e4 bf
       -0.4145483 -0.7305609 -1.5848758 -1.7844527
000040 64 d9 18 c0 15 0c af bd af b7 f3 bf 9e 5f 5e bf
       -2.3882685 -0.08547226 -1.9040431 -0.8686465
000050 63 6b cd bf 46 ee d1 3f f1 b8 8c bf 97 ca 1f be
       -1.6048397 1.640084 -1.099394 -0.15604626
000060 1b d6 cb bf 4d b2 bb bf b4 23 95 bf 10 1f e0 bf
       -1.5924715 -1.4663788 -1.1651521 -1.750948
000070 30 5c 98 bf 1f f3 66 bf 65 00 cb bf a2 58 ff bf
       -1.1903133 -0.90214723 -1.5859495 -1.9948924
000080 25 90 d6 bf 35 be a6 bf 22 7e 8a bf 54 87 63 bb
       -1.676274 -1.3026797 -1.0819743 -0.0034718113
000090 6b c9 87 bf b3 4a b6 bf 25 3e c4 bf 44 66 d1 bf
       -1.0608343 -1.4241546 -1.5331465 -1.6359334
0000a0 0d fd cf bf e0 e4 cc bf d9 81 c7 bf f1 44 87 bf
       -1.62491 -1.6007347 -1.5586501 -1.0567914
0000b0 77 78 36 bf 53 b4 d7 bf 82 0d ca bf 80 8a 97 bf
       -0.71277565 -1.6851906 -1.5785372 -1.1839142
0000c0 fe ef 67 bf f7 bc 9b bf 34 1e 92 bf 09 ce 45 bf
       -0.90600574 -1.2167042 -1.1415467 -0.7726751
0000d0 25 c6 29 c0 c3 5a b9 bf fa da 0e c0 65 aa de bf
       -2.6527188 -1.4480823 -2.2321153 -1.739575
0000e0 ee e0 41 3f 1c f8 2e bf d4 c0 13 c0 53 89 8f bf
       0.7573384 -0.68347335 -2.3086443 -1.1213783
0000f0 44 8e cb be f5 2e cc 3f 87 7b c0 bf d4 fc 21 3e
       -0.39756978 1.595183 -1.5037698 0.15819103
000100 2f 91 6b bf 74 fc cb bf ea 0d 0d 3e 5a 8a 71 bf
       -0.9201841 -1.5936418 0.13774839 -0.9435173
000110 73 a1 5f bf f2 71 2d bf 79 00 df be d9 fd 9b bf
       -0.87355727 -0.6775199 -0.43555048 -1.2186843
000120 76 69 8c be c0 2c 1a bf b3 62 1a bf 6e 32 76 bf
       -0.2742421 -0.60224533 -0.60306853 -0.961707
000130 31 90 c9 bf 57 55 96 bf 9f 40 9b bf 9a b9 c7 bf
       -1.5747129 -1.1744794 -1.2129096 -1.5603516
000140 a6 7b f9 bf 16 08 bd bf 35 b3 86 bf 40 ff 7b bf
       -1.949086 -1.4768093 -1.052344 -0.98436356
000150 6a 68 8d bc 6f 09 d6 bf a9 8d ae bf f1 57 83 bf
       -0.017261703 -1.6721629 -1.3636981 -1.0261213
000160 1e af 5d 3f 6c bc 8c bf 46 e7 1a bb 54 b9 47 be
       0.8659533 -1.0995002 -0.0023636385 -0.19504291
000170 19 9d e2 bf 18 67 fb bf 00 2b 53 bf 5f 5e b7 be
       -1.7704192 -1.9640837 -0.8248749 -0.35814187
000180 37 ac 00 bf 4c 90 53 bf c9 a9 9c bf a4 9c 19 3e
       -0.5026278 -0.82642055 -1.2239314 0.1500116
000190 a4 b9 e0 bf 38 76 0b bf d8 58 c5 bf bb 34 dd bf
       -1.7556653 -0.5447726 -1.5417738 -1.7281717
0001a0 65 cc 20 bf 67 10 81 bf 63 87 da bf 8a 77 26 bf
       -0.6281188 -1.0083131 -1.7072567 -0.6502615
0001b0 5b 91 89 bf a5 17 fc bf d8 59 2e bf 6e ec 94 bf
       -1.0747484 -1.9694716 -0.6810584 -1.1634653
0001c0 d5 26 e0 bd 15 67 0a c0 15 d6 fa bc 39 61 b5 be
       -0.109449066 -2.1625416 -0.03061966 -0.35425738
0001d0 a1 d3 f5 3d 16 86 2f c0 7c af 1f bf ce 4c b5 bf
       0.12003256 -2.742559 -0.6237714 -1.4164064
0001e0 1b 46 93 bf f5 4a 8b 3d e7 06 a8 bf 80 f2 8e bf
       -1.150577 0.06801406 -1.3127106 -1.1167755
0001f0 30 1e cd bf 7a 30 35 3f 92 b8 f1 be f7 e1 b2 bf
       -1.6024837 0.70777094 -0.47211128 -1.3975209
000200 bd 20 a6 bf cc 36 9f bf af 28 a6 bf 42 bb c4 bf
       -1.2978741 -1.2438598 -1.2981166 -1.5369647
000210 54 56 cf 3e 55 5f 06 c0 2b e7 b4 be 81 88 1a c0
       0.4049555 -2.0995686 -0.35332617 -2.4145815
000220 0f 4d cf bf da 8f 61 bf 6c 09 85 bf 5a cb 17 bf
       -1.6195391 -0.88110125 -1.03935 -0.59294665
000230 fa cb cd bf 37 d1 19 bf b3 5e f7 be 20 69 b0 3f
       -1.6077874 -0.6008486 -0.48314437 1.3782082
000240 88 8a a4 bf e7 d9 4c 3d 42 cb e6 bf 00 fe f4 bf
       -1.2854776 0.050012495 -1.8030779 -1.9140015
000250 49 84 60 bf bd 67 31 bf 63 0a ef bf 7a 71 e8 bf
       -0.8770185 -0.6929892 -1.8675045 -1.815963
000260 19 c6 67 bf c1 75 86 be fa 01 7c bf 44 8c 9e bf
       -0.9053665 -0.26261714 -0.98440516 -1.2386556
000270 96 52 68 be 73 29 ae bf 98 3b 37 bd 0e 64 13 3f
       -0.22687754 -1.3606399 -0.044734567 0.57574546
000280 dc 2a b3 bf 8c 7e fa bf ac 96 41 bf 2b e2 f2 bf
       -1.3997455 -1.9569869 -0.7562053 -1.8975271
000290 aa 07 4b bf 66 75 a6 bf 1e 40 cd bf df 1b b1 bf
       -0.7930857 -1.3004577 -1.6035192 -1.383663
0002a0 e2 37 e2 be c2 1c 3c bf 30 8a 93 bf d6 1c 8f 3e
       -0.4418326 -0.7348138 -1.1526546 0.27951688
0002b0 a1 3d 2d c0 13 d0 b8 be 59 3c ad bf 67 ec 75 bf
       -2.7068865 -0.36096248 -1.3534042 -0.96063846
0002c0 29 c8 c4 bf cf f0 83 bf 1d 5e 9e bf 0b 84 22 3f
       -1.5373584 -1.0307864 -1.2372471 0.6348273
0002d0 d1 cb 6a be 30 12 a8 bf c7 3c d2 bf 95 25 89 bf
       -0.22929312 -1.313055 -1.6424798 -1.0714594
0002e0 b2 13 b2 3e 09 15 1a bf 83 51 c0 bf af 71 5a bf
       0.3478065 -0.6018835 -1.5024875 -0.8532972
0002f0 c2 32 9a bf 9a 26 00 c0 b5 24 5c be 8b 5c d2 bf
       -1.204674 -2.002356 -0.21498378 -1.6434492
000300 b6 82 50 3f b6 39 15 3f cc ab c6 bb cb 92 56 bf
       0.8144945 0.58291185 -0.0060629603 -0.8381774
000310 e5 4a 50 bf 5f 88 2c 3f 7a 21 0a c0 93 fa c6 bf
       -0.8136428 0.67395586 -2.1582932 -1.5545219
000320 c3 6f 44 bf c4 99 20 bf 78 d6 c5 bf 15 97 1d c0
       -0.76733035 -0.6273463 -1.5456076 -2.4623463
000330 93 6a 82 3e de cf b9 bf d5 b7 3b bf 41 03 dd bf
       0.25471935 -1.4516561 -0.7332738 -1.7266618
000340 61 ae 66 bf d4 d1 ba bf a1 0b 89 bf b2 45 a3 bf
       -0.9010983 -1.4595284 -1.0706674 -1.2755644
000350 b3 5c 09 c0 a5 19 5a 3f d8 c2 ae bf 5d 36 2b bf
       -2.146283 0.8519538 -1.3653212 -0.66879827
000360 b9 54 bb be 3a 37 79 bf f3 2d 82 bf af 76 ff bd
       -0.36588076 -0.97349894 -1.0170273 -0.12473809
000370 46 44 57 bf 46 55 37 bf 1d 32 ab bf 6a 3c ab bf
       -0.8408855 -0.7161449 -1.3374668 -1.3377812
000380 27 07 c1 bf 2b 11 e1 bf 59 03 8e bf 1a d2 0a bf
       -1.5080308 -1.7583364 -1.1094772 -0.5422684
000390 53 9e 9b bf 6a 14 fe bf c8 45 70 bf 9c 59 6c 3f
       -1.2157692 -1.984998 -0.9385648 0.92324233
0003a0 87 f1 ba 3f 29 09 b4 bf 52 d3 fa be 2b b6 0c c0
       1.4604958 -1.4065295 -0.4898935 -2.1986187
0003b0 66 4c 61 bf 9b 12 d5 3e 2d ba c1 bf 3a 9b 08 be
       -0.880072 0.41615757 -1.5134941 -0.13340464
0003c0 bb 20 b3 bf 7e 29 be bf d1 e4 a7 be 7b e7 62 bf
       -1.3994364 -1.4856412 -0.3279176 -0.8863446
0003d0 3a 38 c1 bf 03 d0 66 bf 14 a1 90 bf 26 60 c0 be
       -1.5095284 -0.9016115 -1.1299157 -0.37573355
0003e0 90 d4 08 3f af 16 1a c0 da 04 43 bf ef d9 79 be
       0.53449345 -2.4076345 -0.7617928 -0.24399541
0003f0 1f 26 21 c0 8b c2 e9 bf e6 58 22 bf a5 62 a4 bf
       -2.5179517 -1.8262495 -0.634169 -1.2842604

l2.weight f4 [300, 400]
000000 ca c4 f3 bd 75 4a 88 bf 06 f6 c4 3e ad 9f 0e 3f
       -0.11902769 -1.0647722 0.3846895 0.55712396
000010 69 73 ed 3f 46 71 80 be dd 92 04 be 6f 44 ab bf
       1.8550845 -0.2508642 -0.12946649 -1.3380259
000020 48 0b ed bd 4c ea b3 bd 91 bb b2 3e 3e ea dc bd
       -0.11574417 -0.08784923 0.34908727 -0.10786866
000030 e8 e7 5d 3f 72 46 90 bf 84 03 24 bf 1f 68 59 bc
       0.86681986 -1.1271498 -0.64067864 -0.013269453
000040 56 8d e9 3e 54 be 10 40 22 76 87 3b 26 8e 47 3f
       0.45615643 2.2616167 0.0041339556 0.77951276
000050 a5 dc 91 3f 75 cb f9 bd a1 2a 64 3f d4 7c d6 be
       1.139546 -0.121970095 0.89127547 -0.4189211
000060 2b c1 31 be 57 16 67 3f 49 59 2e 3f de ea 41 bf
       -0.17358844 0.9026846 0.6810499 -0.75749004
000070 d1 27 43 be f8 b2 91 be ab 4b e7 be dc f2 45 bd
       -0.19058158 -0.28456855 -0.45174918 -0.048327312
000080 16 1b db 3e cf 3a 6e bf 12 70 9f bd 8d 0f 99 be
       0.42794102 -0.93058485 -0.077850476 -0.29894677
000090 4f 1d 22 3f 05 74 44 c0 11 a5 15 bf 6e ed 04 bf
       0.6332597 -3.0695813 -0.58454996 -0.5192479
0000a0 43 76 32 bf 31 33 02 bf 0d 2d 80 bd 7a 47 b0 3f
       -0.69711703 -0.5085936 -0.06258593 1.3771813
0000b0 e7 f1 32 3e ba 2f a5 be 7a 2e 09 bf a4 1d 04 bf
       0.17475091 -0.32262975 -0.5358654 -0.5160773
0000c0 7d c9 57 3e a2 85 3c bf ac c8 ce 3f 72 56 d1 bf
       0.21072955 -0.7364141 1.615499 -1.6354506
0000d0 7e af 33 bf af dd 4c bf 22 fb 9e 3e c8 29 3a bf
       -0.70189655 -0.8002576 0.31050974 -0.72720003
0000e0 64 bd 9f 3f eb aa 41 3f 50 3a 3b be 94 df c8 bf
       1.2479672 0.75651425 -0.18283963 -1.5693231
0000f0 be 1b 02 bf 1a 93 95 be 2e 39 83 bf 04 49 b4 bf
       -0.5082358 -0.29213792 -1.0251825 -1.4084783
000100 81 f4 46 bf 1f 91 a6 3e ff d0 68 bf e9 f5 c2 be
       -0.77716833 0.32532594 -0.909439 -0.3807824
000110 51 d7 c7 be 4b 71 34 3f 5b 6e 8f 3e 7d 80 30 bf
       -0.3903146 0.7048537 0.28013882 -0.6894606
000120 d5 18 aa bf 83 20 be bd de ed ca 3f ca 62 40 be
       -1.3288828 -0.09283545 1.5853841 -0.18787685
000130 2c 28 58 3f d2 7e 17 bd 61 97 71 be ac 55 c7 3e
       0.844363 -0.03698618 -0.23592903 0.3893255
000140 b8 71 a1 be 91 c4 6d 3e d0 e2 c0 bd 14 e0 e3 3e
       -0.31532073 0.23219515 -0.09418261 0.44506896
000150 b2 63 18 bf c1 f3 85 3e 02 ae be be 0a 1c d1 3f
       -0.5952712 0.26162532 -0.37242132 1.6336682
000160 0b 92 1b bf 17 0e c2 3e 9c a0 2a 3f b6 19 f1 3e
       -0.6076972 0.37901375 0.6665132 0.47089928
000170 08 bb 8c bf aa d3 23 be 36 94 9e bd 97 94 fa be
       -1.0994577 -0.15998712 -0.07743113 -0.4894149
000180 f1 00 6e bf 33 ac 85 3d 92 82 ab 3e 45 f0 cd 3f
       -0.92970186 0.06526985 0.33498055 1.608895
000190 e4 96 53 3e ca 5d 75 3e 40 b3 eb be d3 47 43 be
       0.20663029 0.23961559 -0.46035194 -0.19070368
0001a0 79 47 bb 3e f5 51 ea bd ab e7 2a bf 09 a2 db be
       0.36577967 -0.11441413 -0.6675975 -0.4289706
0001b0 c8 0c 39 bf 72 93 61 bf cb 33 37 3f d1 9a 45 bf
       -0.7228513 -0.8811561 0.71563405 -0.77189356
0001c0 a6 11 7a 3f a2 17 70 3e c6 f6 34 c0 c4 ca 50 bf
       0.9768318 0.23446515 -2.8275619 -0.81559396
0001d0 54 dc 43 3f 5c 8b 83 bf 83 83 11 40 21 a7 07 bf
       0.7650807 -1.0276904 2.2736518 -0.52989393
0001e0 29 a7 bd 3e 26 fa d1 be bd 4f 25 3f 11 96 46 3f
       0.37041596 -0.4101116 0.64574796 0.77572733
0001f0 3c 19 82 be 4f f0 34 bd e9 3c 78 3f ba 52 73 be
       -0.25409877 -0.04417449 0.9696794 -0.23762026
000200 5e 3b 80 be 6c d5 24 3e 77 2c a2 bf 63 d5 e7 be
       -0.25045294 0.16097039 -1.266982 -0.4527999
000210 05 7e 4d 3e ec d1 b7 bd ab 9a cc be e6 17 57 3e
       0.20067604 -0.08975586 -0.39961752 0.2100521
000220 68 d3 3c bf 9f 21 42 be c1 05 27 3f e8 f7 05 bf
       -0.7376008 -0.18958138 0.65243155 -0.523314
000230 94 a2 82 3f 31 fe 81 bf 15 38 95 bf 0a e5 47 3e
       1.0205865 -1.0155698 -1.165774 0.19520965
000240 2d 53 b7 bd d5 1f a4 bf 62 dc 22 bf f5 42 03 bf
       -0.089514114 -1.2822214 -0.6361753 -0.51274043
000250 ec 3c 6a 3d f7 91 32 3f be 37 23 bf 06 48 15 bf
       0.057187006 0.69753975 -0.6375693 -0.58313024
000260 94 56 47 bd f8 e5 37 bf 73 c9 20 bf 67 05 94 3f
       -0.04866655 -0.7183528 -0.6280739 1.1564149
000270 96 24 65 be 8d 7c e4 3e 35 d4 36 3d 3a 64 c2 3e
       -0.22377238 0.44626275 0.04463597 0.37967092
000280 df b4 99 3d 38 64 c7 be 51 d3 63 bf 06 7e 2f 3e
       0.075052015 -0.38943648 -0.8899432 0.17137918
000290 c3 a8 54 3f 4f 5c fb bf a3 2a a8 bf 9a fd 07 bf
       0.8307001 -1.9637545 -1.3138012 -0.5312134
0002a0 ff db e7 be 6e ef 87 bf 7a 23 de be de b7 f5 3e
       -0.4528503 -1.0619943 -0.4338644 0.47991842
0002b0 22 0c 2f 3f 29 98 20 3f 32 68 60 bf 8b 31 a4 3e
       0.6837789 0.6273218 -0.8765899 0.32069048
0002c0 9e 91 aa 3e a1 33 c4 be dc 26 8b 3e 13 f7 91 3f
       0.33314222 -0.3832064 0.27178085 1.1403526
0002d0 87 b8 82 3f bb de 93 3e e8 56 c3 bc ad 17 ad 3e
       1.0212563 0.28880867 -0.023845151 0.33807126
0002e0 09 75 22 3f 15 06 de bf 61 d6 5f 3f eb 09 6b 3e
       0.6345983 -1.7345606 0.8743649 0.22953002
0002f0 52 07 f2 3e 46 59 bf 3e 4e 89 9b 3e 48 3d d3 be
       0.4727121 0.37372798 0.30378193 -0.4125769
000300 5b 1d 6c be 14 93 8d 3e 70 57 8a be 31 49 2c bf
       -0.23058073 0.27651274 -0.27019835 -0.6729918
000310 2d 9d 87 3e e6 44 c8 be 7d 33 5d 3d cf 39 8e be
       0.26487103 -0.39115065 0.05400418 -0.2777848
000320 87 56 5f bb ef 89 31 3f b2 70 3b 3f 4b 82 f1 3e
       -0.0034078674 0.69351095 0.73218834 0.47169718
000330 6f e8 d9 be 6d 34 cc bf ff d2 3c 3f f5 20 14 bf
       -0.42560145 -1.5953499 0.73759454 -0.5786279
000340 bc 7d b6 3f 3f d3 08 3e b1 67 29 bf bf 25 0f bf
       1.4257121 0.13361834 -0.66173846 -0.5591697
000350 5f d8 85 3e 3b 52 37 bc 0a 1b 95 bf 78 57 3e bb
       0.2614164 -0.011189039 -1.1648877 -0.0029043835
000360 05 d8 a9 bd ec 25 b7 be bd 59 bf 3d cb e4 82 3f
       -0.082931556 -0.3577112 0.09343288 1.0226072
000370 4b 72 84 bf e5 6f 16 be 05 be 7c bf 67 be 75 bd
       -1.034738 -0.14691122 -0.98727447 -0.059996035
000380 fb d8 12 3f d0 4f 74 3f d0 2f 85 3f 79 e2 13 3f
       0.57362336 0.95434284 1.0405216 0.57767445
000390 1a 43 1b bf 08 34 a4 3d 52 14 14 3f 83 4e 53 be
       -0.60649264 0.08017737 0.57843506 -0.20635419
0003a0 c2 cb 26 bf 18 de dd 3d 68 30 aa bf 0b 46 ca be
       -0.6515466 0.10833377 -1.3296022 -0.39506564
0003b0 47 a2 ef 3e 3a f5 36 3f 6f 82 5a 3e bf 6b d9 3b
       0.46803495 0.71467936 0.21338819 0.006635159
0003c0 5f 15 cb 3b 3c f6 9b 3f a0 f6 18 3e c1 01 24 3e
       0.006197616 1.218452 0.1493783 0.16016294
0003d0 f1 47 aa be bb c0 e3 3e fb bc 8f 3f 69 f7 90 3f
       -0.33258012 0.4448298 1.1229547 1.1325504
0003e0 4f 1a 3b bf b0 5d 17 be c1 d6 39 3f 39 19 8b 3f
       -0.7308702 -0.14781833 0.72593313 1.0867072
0003f0 72 b2 08 bf 7d c1 3f bf 74 26 23 bd a6 e4 07 3f
       -0.53397286 -0.74904615 -0.039831594 0.53083265

l2.bias f4 [300]
000000 78 78 19 3f 9e 42 00 bf 04 9a 31 bf 89 b1 ab 3c
       0.59949446 -0.5010165 -0.69375634 0.020958679
000010 66 ba ac bd 18 5a bf bf 9b 09 4a 3f a6 ca 82 bd
       -0.0843399 -1.494937 0.78920907 -0.06386308
000020 ab 4b 8b be 48 c3 1c bf 7f 92 22 be 8e 5d 95 bc
       -0.27206168 -0.61235476 -0.15876196 -0.018233087
000030 9b 4f c9 bd 21 7b 1e 3f 91 9f 8f bf bf 91 66 bf
       -0.09829637 0.6190663 -1.1220571 -0.9006614
000040 45 8d 84 be f0 fb c6 bf db 7b 38 be a8 c2 c1 bd
       -0.2588903 -1.5545635 -0.18015997 -0.09460956
000050 e5 c6 17 3e 25 d5 6d 3f cf cb ba bf 82 63 c5 bc
       0.14821966 0.9290336 -1.4593447 -0.0240953
000060 40 fb fb 3e bd 43 88 bf 05 fb 2e bd c9 d7 1a bf
       0.49215126 -1.0645672 -0.04271986 -0.6048551
000070 52 47 a5 3f 63 77 0f 3e ee 20 8b bf 07 82 b7 bc
       1.291239 0.14010386 -1.0869424 -0.022400869
000080 14 39 43 bc 81 3a 7d bf ca 40 14 3f 45 9f 6f bd
       -0.011915464 -0.98917395 0.5791136 -0.0585015
000090 39 0a 70 be b2 c1 83 be 7e 54 f6 bd 4c be 98 be
       -0.234414 -0.25733715 -0.12027834 -0.29832685
0000a0 16 e5 49 3e dc 80 36 ba 94 10 ac bd 22 e4 8a bd
       0.19716296 -0.00069619506 -0.084015995 -0.06781794
0000b0 37 37 73 3f 1a db b1 bd 68 16 24 bc c3 e1 af bd
       0.95006126 -0.086843684 -0.010015108 -0.085879825
0000c0 cd bd 80 3e 43 27 a3 3c 9e 5a 92 bf b3 80 e4 bc
       0.25144807 0.019916182 -1.1433904 -0.0278934
0000d0 62 0f 1c be cb 05 4b bc c6 88 7c bd c3 06 58 bf
       -0.15240243 -0.012391518 -0.061653875 -0.8438532
0000e0 a2 92 d4 bc 21 2d 71 bd 3f 09 bc bf 8a 5b 25 bc
       -0.025948826 -0.05888093 -1.4690322 -0.010092625
0000f0 12 71 bb bc c8 56 2c bf a9 9e e5 bd ad 25 c8 bd
       -0.022881065 -0.6731992 -0.11211903 -0.09772811
000100 2d ce 17 be 1d 75 44 bf 7c 7c ce be 3e 4b ab be
       -0.14824744 -0.767412 -0.4032935 -0.33455843
000110 ff 4b 09 bd b6 96 a1 3c 4c dc bd be d8 d5 51 bd
       -0.03351974 0.019725185 -0.37082136 -0.051229328
000120 8d db 37 bc d1 7f 7a bc 4a b1 99 be ce 33 90 bd
       -0.011221779 -0.015289263 -0.30018073 -0.07041131
000130 99 c0 a4 be d0 f9 a5 bf 0f 77 36 bd 2d a6 99 bd
       -0.3217819 -1.2966862 -0.044547137 -0.07502399
000140 49 91 81 bd e9 0d fb be 6a 7b 7d be 51 4d 5a bf
       -0.06326539 -0.4903405 -0.2475411 -0.85274225
000150 02 cc 7a bf 09 78 03 3f 02 84 a0 be 0a d3 97 bd
       -0.9796754 0.51355034 -0.31350714 -0.074132994
000160 ad 99 37 bd f5 bb 87 bd b8 1d 35 bf 94 32 b4 bd
       -0.04482429 -0.06627647 -0.7074847 -0.087987095
000170 78 59 92 bf 1e ef 12 bd 52 5d 89 bd bb 94 76 bf
       -1.1433554 -0.03587257 -0.067072526 -0.96320695
000180 df 24 f2 bb b4 9f 31 bf 48 fc 2e 3f e8 bd ab bf
       -0.0073896493 -0.6938431 0.683537 -1.341733
000190 32 58 9d bc 6f 42 48 bd 0e 29 de be 5c 94 b5 be
       -0.019207094 -0.04889148 -0.43390697 -0.35464752
0001a0 b6 fd 9a be 50 89 18 bf 82 94 48 bd b9 a2 d1 bf
       -0.3027169 -0.5958452 -0.048969753 -1.6377784
0001b0 ad 2e a1 bf e8 30 0f bf ec 04 73 bd 8e eb 23 be
       -1.2592369 -0.55934 -0.059330866 -0.16007826
0001c0 0d fb 9f be ea 44 3b bf be 34 0b be f8 08 b8 bd
       -0.31246224 -0.7315203 -0.13594338 -0.08986086
0001d0 e5 89 95 bc 83 48 10 3f 41 c8 36 be 24 ea b9 be
       -0.01825423 0.56360644 -0.17849828 -0.36311448
0001e0 76 1c 38 bf 3e 7b e4 bb 7d e7 c0 bd f6 24 9d bf
       -0.7191843 -0.0069726994 -0.09419153 -1.2276905
0001f0 9c 11 17 bf 3b 4c 29 bf 3a b0 64 bd 9b df c5 be
       -0.59011245 -0.66131943 -0.055832125 -0.3864716
000200 f6 1b bb bf 1b ce 98 3c e7 df 86 bf 6b e1 e9 be
       -1.4617908 0.018652966 -1.053708 -0.45679793
000210 a4 9b 18 3e d9 35 7b 3f a0 a5 be bd 28 1c 0c 3c
       0.14903122 0.9812904 -0.09308934 0.008551635
000220 19 be 5c bf 86 11 52 bd a5 68 7b bf 3f 9a 92 bf
       -0.86227566 -0.051286243 -0.9820655 -1.1453322
000230 4b 4b db bf 56 b0 99 bf f1 be e9 be c0 62 c9 be
       -1.7132353 -1.2006938 -0.4565349 -0.39333153
000240 eb ac 3d 3d ef 62 2f 3f d1 0e f6 3e 10 64 59 3e
       0.046307486 0.68510336 0.4805818 0.21229577
000250 2f b6 90 bd df 78 c3 bd 6a 36 e1 be 1a 7f 67 bf
       -0.07065999 -0.09544539 -0.43986827 -0.90428317
000260 0d c7 71 be e7 00 ac be 17 64 8c bd 71 ff 11 bd
       -0.23611088 -0.33594438 -0.06855028 -0.035644
000270 8e da 70 3e 03 0d 2a bf e8 5c 22 bb 00 e0 68 bd
       0.23520872 -0.66426104 -0.0024774615 -0.056854248
000280 b1 c5 ac bf 1f e1 d0 bd ce 1a de be 0b 96 fc bd
       -1.3497831 -0.101991884 -0.43379825 -0.12333306
000290 ce 85 40 bf c0 42 2f 3e 3e cd e3 be 23 2d ed 3b
       -0.7520417 0.17115307 -0.44492525 0.0072380467
0002a0 ea 08 5b bf 8a 4e 63 bf 7f ff 09 bf 6a c9 cf 3e
       -0.85560477 -0.88791716 -0.5390548 0.40583354
0002b0 a9 0d b6 3c 25 d4 5a bd c8 56 f9 bc c9 b6 69 bd
       0.02222331 -0.053424973 -0.030436888 -0.057059083
0002c0 80 b9 a0 bd 74 fe 93 bf 0c f3 a4 bf 13 00 b0 3e
       -0.07847881 -1.1562028 -1.2886672 0.34375057
0002d0 60 71 35 bf 06 58 9a bf 39 1d 71 bf a4 f7 da bd
       -0.7087612 -1.2058113 -0.94185215 -0.10691765
0002e0 5b 77 b2 bf f4 b3 b2 bd e9 ff 24 bd 05 7c a9 be
       -1.3942674 -0.087257296 -0.040283117 -0.33102432
0002f0 b7 8e c2 3e 37 4e 44 be a2 37 92 bd 86 db 81 3e
       0.37999508 -0.19170462 -0.07139517 0.25362796
000300 a3 75 a8 3e ad 09 20 bd 51 85 89 bd 62 46 93 bf
       0.3290225 -0.039071728 -0.06714881 -1.1505854
000310 4c 04 89 bc 21 6b 10 3e da 7e c9 be 1f 19 1a 3e
       -0.016725682 0.14103366 -0.39354593 0.15048645
000320 57 cf 26 bd 4b c2 b2 be db 35 b1 be 29 fb 04 be
       -0.04072508 -0.3491386 -0.346114 -0.12986435
000330 ee 3c 29 bf 39 c7 71 3f 01 37 0f bf fe 53 4b bf
       -0.66108596 0.94444615 -0.55943304 -0.79425037
000340 fc 94 e2 be 9c a7 d3 bf ff c7 ee bc b4 62 9e bb
       -0.4425429 -1.6535525 -0.0291481 -0.0048335437
000350 34 6d 87 be 44 23 f4 bc f5 d6 b4 bd 85 a4 a5 bd
       -0.26450503 -0.029801972 -0.08830062 -0.0808802
000360 12 88 53 bf 3d 98 a8 be 39 69 c2 bc b0 15 e2 bd
       -0.826295 -0.3292865 -0.023731815 -0.11039293
000370 54 ef 07 bf 17 32 03 bd ab 55 c7 be 54 eb a3 bd
       -0.5309956 -0.03203019 -0.38932547 -0.0800387
000380 45 4f 35 bd 49 ee 97 bd 7b 24 57 bf fe 12 23 bf
       -0.04426505 -0.07418496 -0.8404004 -0.63700855
000390 f2 34 13 be 1f 7e ca bd 05 c8 ea bc 94 67 03 bd
       -0.14375666 -0.09887337 -0.02865983 -0.0320812
0003a0 25 9a 72 be bb 9e 13 3d 66 5f 1e bd bd 73 dc bd
       -0.23691614 0.03604005 -0.038665198 -0.10764263
0003b0 71 09 e5 bc 1f 5e 7b bb 07 10 81 be 91 d7 c4 be
       -0.027958604 -0.003835566 -0.2520754 -0.38445714
0003c0 1e 5d 0e bf 98 ce 0d bf 94 9b 03 be 2d 41 3a bf
       -0.55610836 -0.5539336 -0.12852317 -0.727557
0003d0 0a 3a 65 bd f5 30 31 bf 29 e2 4b bf 40 89 c4 bd
       -0.055963553 -0.6921533 -0.7964197 -0.09596491
0003e0 dd 8d 9d 3f 90 9d be bc 01 de 26 bd f5 4e 3f be
       1.2308918 -0.023268491 -0.040739063 -0.18682463
0003f0 37 3f e3 be 2e dd 21 be 79 d3 9e bf 08 36 e2 bd
       -0.44384167 -0.1580703 -1.2408286 -0.11045462

l3.weight f4 [4, 300]
000000 c6 4e 86 3c 9b c3 50 bf f4 a7 db bd cb 26 98 bc
       0.016394984 -0.8154847 -0.10725394 -0.018573185
000010 c6 61 24 3d 82 e8 e0 bf 28 8f 46 3f ab 60 01 bd
       0.040132307 -1.7570956 0.7756219 -0.03158633
000020 09 21 27 bf 58 0a 0f 3e ad 5d 2d bf 75 b7 31 3b
       -0.6528478 0.1396879 -0.6772106 0.0027117406
000030 32 12 57 bd 43 2a 40 3e 00 d7 4d bf ef f6 ab bf
       -0.052507587 0.18766122 -0.8040619 -1.3434733
000040 63 58 39 ba fa bd 24 bf f4 bb 12 c0 e4 11 ef bc
       -0.00070703606 -0.6435238 -2.2927217 -0.029183336
000050 70 be 16 bf 0a 03 ef be 77 9e 89 be ba 18 5b bc
       -0.58884335 -0.46682006 -0.26878712 -0.0133725945
000060 1e 54 9f 3f d5 78 b1 be ef 27 07 3b 12 f4 83 3f
       1.2447546 -0.346625 0.0020623168 1.0308859
000070 e4 e6 35 3f fd 72 0c bd 0c f6 0a bf 3c 02 b5 bc
       0.71055436 -0.03428935 -0.5428169 -0.022095792
000080 31 2e 45 bd c9 18 aa 3d fd 8a 7a bf 4a 39 e6 3c
       -0.048139755 0.08305509 -0.9786833 0.02810349
000090 9c 81 71 be af 6f 92 be a4 03 7d bb ea a3 e6 be
       -0.23584598 -0.28600833 -0.0038606906 -0.45046932
0000a0 e1 d4 2d bf 79 b3 ff 3c 3a f5 82 bc 59 28 05 3d
       -0.6790295 0.031213509 -0.015986074 0.03250918
0000b0 89 8d 83 bd db 85 a9 bc ca d7 a9 bb 8f 92 97 3f
       -0.0642348 -0.02069371 -0.0051831948 1.1841601
0000c0 8a 27 f5 be 7a 9b f4 3d 14 e9 01 3f 1f ef 40 3d
       -0.47881728 0.11943717 0.50746274 0.047103044
0000d0 ea 73 b6 3c aa 85 1f 3b f5 e1 d5 bb ff 74 7f 3e
       0.022272069 0.0024341145 -0.0065271803 0.24946974
0000e0 e1 96 12 3d 48 f1 7a bd 30 67 26 bf c7 aa 84 3a
       0.03578842 -0.06126526 -0.650012 0.0010121696
0000f0 1c 1c d7 3c 78 e3 14 3f 7d 4f b2 bb 44 99 e2 bc
       0.02625852 0.5815959 -0.0054416046 -0.027660973
000100 41 19 10 40 31 32 6c 3c 33 4d 10 bf f1 5e 25 3f
       2.2515414 0.014416263 -0.56367797 0.64597994
000110 67 48 56 3d 27 28 15 bd cf 3e 1d c0 5c ce c7 bb
       0.052315142 -0.036415245 -2.4569585 -0.006097598
000120 78 50 60 bc 59 fc 3b 3f 69 44 a0 bf 90 7f c0 3e
       -0.01369106 0.73431927 -1.2520877 0.37597322
000130 41 b4 08 3e 64 67 c5 3f 99 3f c3 bc 1e 8c fa be
       0.13350011 1.5422177 -0.023834037 -0.48935026
000140 f4 30 f2 3e 4d 67 1f bf c8 69 77 bf 5a b5 c7 3e
       0.47302973 -0.62267 -0.96645784 0.39005548
000150 79 ab 4a bf c1 f0 10 bf 5f 82 25 3e b1 a1 86 bc
       -0.79167897 -0.5661736 0.16163014 -0.016434522
000160 92 bf 6f 3c b1 18 7c bd b9 80 74 3e f1 6c 19 3c
       0.014633076 -0.061546985 0.23877229 0.009364353
000170 a6 92 fc bf 1a 5e 32 bc 4f 15 20 3d e8 c4 98 3f
       -1.9732254 -0.010886693 0.03908282 1.1935091
000180 28 b6 6f bc aa ba 4b 3e 13 60 36 3f 94 d6 e9 3e
       -0.014630832 0.19895425 0.7124035 0.45671523
000190 74 5e db 3c 0d 9f 05 bd 79 c3 2b be e4 d9 bb be
       0.026778437 -0.032622386 -0.16773786 -0.36689675
0001a0 14 b8 14 3f 96 c5 bd 3e 0c e4 52 3d 44 14 da 3e
       0.5809338 0.3706481 0.051487014 0.42593586
0001b0 ef c7 9e bf ad f4 b5 bf 65 8e e1 3b c9 f9 bc 3e
       -1.2404765 -1.4215294 0.00688343 0.3690932
0001c0 92 73 a5 3c d3 f3 d1 3e 53 ae 37 c0 55 05 8f 3c
       0.02019671 0.41006336 -2.870015 0.017458597
0001d0 ce 06 0f bd 84 c8 c8 bf 12 9c 4f 3f fb 86 f2 bd
       -0.0349186 -1.5686193 0.8109752 -0.11842152
0001e0 45 be af 3f bf d6 40 3b ba 3a a1 bc 0d c6 15 3f
       1.3729941 0.0029424874 -0.019681323 0.58505327
0001f0 34 31 34 bf 7e 11 2a 3e ca cf 04 3f 33 fb 84 be
       -0.7038758 0.16608235 0.5187956 -0.259729
000200 40 1e 5d be ab 86 0e bf 84 be 43 3e c9 88 24 bf
       -0.2159357 -0.55674237 0.19115645 -0.6427122
000210 21 49 2c 3f 68 43 4a 3f fb d6 d6 be ff d7 bb bb
       0.67299086 0.79009104 -0.41960892 -0.005732536
000220 1f c8 46 3f fb b1 a7 3a ac 05 46 bf fc 33 29 bd
       0.7764911 0.0012794131 -0.77352405 -0.04130934
000230 7d fc 87 bf 6b bc 71 3f 19 f1 0a 40 60 0e 0f c0
       -1.0623928 0.9442813 2.1709654 -2.2352524
000240 bc 79 4e 3f 60 d3 cd 3f 07 f9 8e 3f f6 5f 4c bf
       0.806545 1.6080132 1.1169747 -0.79833925
000250 dc af 49 3d 43 81 bb 3c 8a 9b e8 3d 23 8f a9 3e
       0.04923998 0.022888785 0.11357792 0.33117017
000260 14 3e f4 3e e0 17 01 3f b7 d5 31 3b b5 ad c3 3c
       0.47703612 0.50427055 0.002713544 0.02388654
000270 52 de e2 be 28 0b d1 bf b5 25 50 bc dc 6b ad 3c
       -0.44310242 -1.633153 -0.012704303 0.021169595
000280 35 e4 7f 3e cb 7c 08 bd 92 c1 25 bf 22 ce 85 3d
       0.24989398 -0.033322137 -0.6474849 0.06533457
000290 e7 72 3e bf 17 b6 3b bf 53 07 00 3f 44 95 4d 3c
       -0.7439408 -0.7332472 0.50011176 0.012547795
0002a0 bb 85 59 3e 67 a3 e9 be 6d 93 10 be d0 c5 47 be
       0.2124242 -0.4563248 -0.14118738 -0.19509053
0002b0 ef c9 22 3e f9 1d e0 3a 81 95 db 3c b8 68 70 3c
       0.15897344 0.0017098776 0.026804687 0.014673404
0002c0 ed 9c f8 3a 66 f7 59 bf 22 24 6f be e0 46 9b 3f
       0.0018967666 -0.85143125 -0.23353627 1.2131004
0002d0 82 e3 0f 3b 03 29 0a 3f 01 76 3a be 75 d2 1d bd
       0.0021955674 0.5396883 -0.18209077 -0.038530786
0002e0 4e bc 20 3f 3e 52 28 3d 6e 16 1c 3d 35 37 6d ba
       0.6278733 0.041094057 0.038107328 -0.0009049059
0002f0 bf e1 2d 3f 48 29 07 be ec 36 8a bc a6 dc 52 bd
       0.67922586 -0.13199341 -0.016871892 -0.051479958
000300 02 78 c8 3e 64 b0 aa 3c 58 0b 01 bd 55 6a 28 3f
       0.3915406 0.020836063 -0.03150496 0.6578725
000310 6d 7d 86 3b e2 ee 18 bd 28 b8 b2 bd 77 f5 19 3f
       0.0041043074 -0.03733719 -0.08726531 0.60140175
000320 66 ab 7d bf b1 2b 35 3e f0 91 e0 ba 21 23 6e bc
       -0.9908966 0.17692448 -0.0017133337 -0.014534743
000330 2c 51 d2 3d 9d 9b 52 3f 57 42 93 3f c6 59 88 bf
       0.102693886 0.822687 1.150462 -1.0652397
000340 68 90 b4 3e 80 df 9f bd e1 4e 74 3b 60 80 cc 3b
       0.35266423 -0.07806301 0.003727846 0.0062408894
000350 46 73 b3 3b da 50 36 bd fd b8 15 3d dd a0 8e 3c
       0.005476388 -0.0445107 0.03655337 0.01741069
000360 06 cd 55 c0 7e 8f 28 3f ee 3c 5f 3c 37 4c d5 3e
       -3.3406386 0.6584395 0.013625367 0.4165971
000370 16 df 07 bf fc f2 4c 3d 18 15 7a bf 75 c5 3b 3c
       -0.5307478 0.050036415 -0.97688437 0.011460652
000380 f0 75 cd 3b 77 5d c2 3b eb f5 bf be 7e 1a be bf
       0.0062701628 0.005931552 -0.37492308 -1.4851835
000390 3a f1 73 3d 89 81 61 3f 04 b8 4f bd 4b 0a ca 3c
       0.059556223 0.8808828 -0.0507126 0.024663111
0003a0 b9 57 75 3e 15 1b 4e bd d3 a9 07 3d 2c 8a b6 bc
       0.23959245 -0.050318796 0.03312094 -0.022282682
0003b0 f1 0d b2 bc 9d 8e 83 3f b3 83 f5 be 36 68 b5 be
       -0.021735163 1.0277897 -0.4795204 -0.3543107
0003c0 fb 61 03 bd ec 25 20 bc 9b a6 be 3c 5c 1f 22 bd
       -0.032075863 -0.009774666 0.023272803 -0.039580688
0003d0 2f e8 61 3c 41 aa 15 be ed fb 23 ba e2 4b 23 3d
       0.013788267 -0.14615728 -0.00062554964 0.03986729
0003e0 a7 64 48 bf 6a f5 fc bc d6 41 7d bb 9c 47 f0 bf
       -0.78278583 -0.030878741 -0.0038643978 -1.8771853
0003f0 03 5e 1e bf 61 22 de bf d8 f7 e1 bd 88 5d da 3b
       -0.618622 -1.7354242 -0.110336006 0.006663982

l3.bias f4 [4]
000000 1a b9 60 3f 7c 10 06 3f 37 bd 64 3c f2 f4 43 3f
       0.8778244 0.52368903 0.013961128 0.7654563
