TD3/saves/first_actor.pth (torch, 518693 bytes, 6 tensors)

l1.weight f4 [400, 18]
0.5544257 0.07302204 -0.3414224 -0.07574564 -0.296802 0.00021051253 -0.49706107 0.23477454
0.69057417 0.024397805 0.050274838 0.99128336 -0.2957715 -0.18731155 0.0031556273 0.1092611
-0.3378012 0.371606 -0.10842017 -0.13020928 -0.045830384 0.085463196 0.26004156 -0.006997467
-0.17532218 -0.57575244 0.94886136 -0.399382 -0.06726592 0.18685865 -0.22324564 0.09497295
-0.17681329 -0.11992409 -0.43969294 -0.09640099 0.03458021 0.5426066 -0.42685091 0.05975664
0.35867274 -0.06259599 -0.7122033 0.24402858 -0.7443275 0.07931966 0.29933566 -0.04214749
-0.27444664 0.15377611 -0.0298932 0.056872986 0.16217782 0.039361767 0.6129263 0.02220068
0.18000056 -0.42416987 0.047089797 -0.15419845 -0.33465895 0.56793636 -0.61569434 0.26823422
0.24498159 0.018756153 0.46281016 0.076363735 0.03909061 -0.0073249526 -0.3743045 0.1110002
0.5585369 0.31906706 0.15640795 0.100805685 0.24486877 0.094965346 -0.49687874 -0.5456282
-0.7547884 0.38784117 0.38654736 0.011296725 0.10797606 -0.075184405 -0.026500698 -0.07430363
-0.07618222 -0.42213178 0.6802396 0.32554883 1.4207001 -0.19253974 -0.06443308 -0.120924264
-0.045375008 -0.28603432 0.2618073 -0.1300837 -0.10259527 0.67121327 0.16179709 -0.49407792
-0.0010182284 0.033138525 -0.18825808 0.28070354 -0.092033066 -0.076349825 -0.8606699 -0.04165179
0.018706575 -0.12547071 0.27906796 -0.72223926 -0.40924364 -0.3819188 0.9085144 0.32515633
0.5570145 -0.123060934 -0.004721161 0.11947891 -0.57309675 -0.21777754 0.28062916 0.12050344
0.31460953 -0.31367192 -0.32997993 0.07129696 -0.7208566 0.5940059 0.12360125 -0.28812033
-0.0056982483 0.06843141 0.23604949 0.12027692 0.10516708 0.12592943 0.19245414 0.3548799
-0.061581843 -0.31778187 0.85702646 -0.054777812 -0.06714328 -0.1867687 -0.316483 -0.7063863
0.26856548 -0.12065764 0.8154788 -0.55560374 0.080458924 -0.4539363 -0.012368738 -0.20247306
-0.43778855 -0.36858115 -0.18661156 -0.4192014 0.75860393 -0.05527832 0.076829 -0.088256545
-0.19059415 -0.17554092 -0.3190019 -0.09459846 0.12752865 -0.40961727 -0.5676943 0.59866744
-0.050218277 -0.265634 0.18283696 -0.2477857 0.6984697 0.3685529 0.76048136 0.004650414
0.0028670966 0.022106234 -0.14408411 -0.06259334 -0.24230842 -0.015853157 0.6946354 0.43281168
-0.56820667 0.039449688 -0.06914493 0.020888027 -0.2117183 0.30157042 -0.035331566 -0.74304205
-0.26575795 0.46587524 0.28104755 -0.08606888 -0.5559329 0.34643528 0.038636412 -0.12228127
0.24800481 -0.3810822 0.013282546 0.06622128 0.054997638 0.14250338 0.18300311 -0.5232247
0.25311673 -0.41446376 0.18538047 0.04867405 0.16213647 0.23414749 -0.1898333 0.2600782
0.5499391 0.33906356 -0.20878708 -0.22489858 0.025221013 0.3624332 -0.034344546 -0.16516386
-0.32413173 -0.09119972 0.36928895 -0.36788675 0.8788709 0.14439432 0.23852706 0.012644173
0.023957703 0.3840985 -0.27421668 -0.09961033 0.39421567 -0.31000465 0.49684075 0.4679675
0.055767972 0.092543155 0.041533116 0.02174729 0.37838215 -0.3734281 -0.29557472 0.1714368
00000000: d8ee 0d3f 948c 953d ebce aebe 8820 9bbd
00000010: 6ff6 97be 07bd 5c39 ca7e febe bd68 703e
00000020: 78c9 303f e8dd c73c fdec 4d3d bfc4 7d3f
00000030: 5d6f 97be 99ce 3fbe a4ce 4e3b 49c4 df3d
00000040: 47f4 acbe 2443 be3e 650b debd 9555 05be
00000050: a4b8 3bbd 5407 af3d 2b24 853e 024b e5bb
00000060: a887 33be 8364 13bf 94e8 723f cc7b ccbe
00000070: b7c2 89bd e057 3f3e 819a 64be 2e81 c23d
00000080: 8b0e 35be c39a f5bd 6f1f e1be e26d c5bd
00000090: faa3 0d3d 44e8 0a3f 348c dabe 61c3 743d
000000a0: f4a3 b73e 5432 80bd f552 36bf a1e2 793e
000000b0: 3f8c 3ebf 5972 a23d 8642 993e d9a2 2cbd
000000c0: 4584 8cbe 7c77 1d3e 96e2 f4bc a6f3 683d
000000d0: f111 263e ce39 213d bde8 1c3f 33de b53c
000000e0: 1152 383e cb2c d9be 3be1 403d 33e6 1dbe
000000f0: 6b58 abbe 4764 113f 259e 1dbf ff55 893e
00000100: 74dc 7a3e 81a6 993c 74f5 ec3e 9764 9c3d
00000110: 7a1d 203d 2806 f0bb d7a4 bfbe 1354 e33d
00000120: 46fc 0e3f c25c a33e 6829 203e 3673 ce3d
00000130: e1be 7a3e 317d c23d e466 febe 4aae 0bbf
00000140: d039 41bf 1e93 c63e 89e9 c53e e615 393c
00000150: 8d22 dd3d 48fa 99bd fe17 d9bc 802c 98bd
00000160: 6c05 9cbd a821 d8be 2f24 2e3f 56ae a63e
00000170: 80d9 b53f 2329 45be 7ef5 83bd 24a7 f7bd
00000180: 25db 39bd 1773 92be 9b0b 863e a934 05be
00000190: 781d d2bd a2d4 2b3f 23ae 253e c8f7 fcbe
000001a0: 1376 85ba 43bc 073d bac6 40be 60b8 8f3e
000001b0: d57b bcbd 4c5d 9cbd dd54 5cbf 119b 2abd
000001c0: 883e 993c 657b 00be ffe1 8e3e ace4 38bf
000001d0: 6288 d1be dc8a c3be 6694 683f e47a a63e
000001e0: 8198 0e3f 5f07 fcbd f8b3 9abb 5cb1 f43d
000001f0: 78b6 12bf 1301 5fbe a0ae 8f3e 82ca f63d
00000200: 8014 a13e 9b99 a0be 21f3 a8be 2404 923d
00000210: 0f8a 38bf c510 183f a722 fd3d 8284 93be
00000220: 5fb8 babb c425 8c3d f5b6 713e bf53 f63d
00000230: d761 d73d a5f3 003e b312 453e d1b2 b53e
00000240: 3e3d 7cbd 4eb4 a2be 1666 5b3f b35e 60bd
00000250: 6a82 89bd 4b40 3fbe 0f0a a2be bcd5 34bf
00000260: 6a81 893e 5a1b f7bd 38c3 503f 0c3c 0ebf
00000270: a6c7 a43d 576a e8be 3fa6 4abc 1955 4fbe
00000280: d225 e0be abb6 bcbe 1a17 3fbe 91a1 d6be
00000290: de33 423f 856b 62bd 8658 9d3d d9bf b4bd
000002a0: 1d2b 43be 00c1 33be 3854 a3be d6bc c1bd
000002b0: df96 023e 5bb9 d1be 6a54 11bf 4542 193f
000002c0: aeb1 4dbd 2e01 88be 9d39 3b3e 89bb 7dbe
000002d0: e9ce 323f f7b2 bc3e e8ae 423f 8062 983b
000002e0: e6e5 3b3b 2218 b53c c98a 13be f030 80bd
000002f0: b31f 78be 7bde 81bc a0d3 313f 7e99 dd3e
00000300: fe75 11bf ff95 213d db9b 8dbd 5e1d ab3c
00000310: afcc 58be 7067 9a3e d5b7 10bd 0138 3ebf
00000320: 6d11 88be 3387 ee3e 77e5 8f3e e244 b0bd
00000330: 9e51 0ebf f75f b13e 3741 1e3d 9a6e fabd
00000340: f9f4 7d3e 351d c3be 099f 593c 069f 873d
00000350: 3445 613d 68ec 113e 2b65 3b3e 0ef2 05bf
00000360: 8498 813e 9834 d4be 61d4 3d3e 715e 473d
00000370: 1a07 263e 5cc4 6f3e a963 42be f828 853e
00000380: cfc8 0c3f bd99 ad3e 48cc 55be d04b 66be
00000390: 4c9c ce3c d890 b93e deac 0cbd b720 29be
000003a0: 98f4 a5be ebc6 babd 7113 bd3e a75b bcbe
000003b0: affd 603f 1bdc 133e 7040 743e 8129 4f3c
000003c0: f242 c43c 8fa8 c43e 2166 8cbe 8000 ccbd
000003d0: a3d6 c93e eeb8 9ebe e961 fe3e 7099 ef3e
000003e0: f56c 643d 4487 bd3d a11e 2a3d 5f27 b23c
000003f0: 4ebb c13e f831 bfbe 9255 97be 218d 2f3e

l1.bias f4 [400]
0.06181191 -0.48745596 -0.19059756 -0.506909 -0.47473755 -0.3151892 -0.2713863 -0.3107453
-0.31132355 -0.03321129 -0.49970132 0.029207269 -0.64986604 -0.11937404 -0.68665874 -0.5244412
-0.54685557 -0.35674515 0.13797805 -0.3537267 -0.7660301 -0.47656238 -0.47564366 -0.6815934
0.028919706 -0.45325688 -0.464262 -0.55441535 -0.27728242 -0.30574748 -0.4227985 -0.22935668
-0.14369884 -0.26472068 -0.30062965 -0.39443192 -0.08189679 -0.5744613 -0.41633886 -0.109667055
-0.30929598 0.10776764 -0.111229256 -0.044801485 0.15485807 -0.3865445 0.11468312 -0.41308355
-0.23788638 -0.71664304 0.055457067 -0.41418347 -0.14953312 0.2229776 -0.25309095 0.04421391
-0.037058502 -0.14287308 -0.017038168 -0.58321047 -0.19223355 -0.2574295 -0.37915355 -0.65178174
-0.26490876 -0.3495299 0.35912564 -0.37624586 -0.35447586 -0.6243739 -0.7318665 -0.643008
-0.66740835 -0.4142273 -0.7567877 -0.058700014 -0.5803711 -0.39811733 -0.451122 -0.12133183
-0.56597334 -0.59556055 -0.3858192 -0.72613853 -0.7545415 -0.19651043 -0.5988977 0.09536864
-0.34369078 -0.017100697 -0.58015114 -0.26731798 -0.028570212 0.25131205 -0.25795928 -0.4050442
-0.023692321 -0.5524552 -0.23668228 -0.3956047 -0.29156208 -0.097714275 -0.6645526 -0.2562047
-0.64649826 -0.16477773 -0.54839116 -0.41485924 -0.3721134 -0.72105294 -0.37609085 -0.68048936
-0.40722772 -0.38256177 -0.63574564 -0.40919316 0.058695205 -0.11491527 -0.31295207 -0.32963634
-0.4552146 -0.45211554 -0.2839028 -0.3884147 -0.28243506 -0.41203517 -0.51128966 -0.4807931
-0.28381088 0.004577614 -0.33795962 0.11667017 -0.67878824 -0.34748092 -0.44109443 -0.39176515
-0.5624692 -0.15879916 -0.4205301 -0.35258728 -0.64790136 -0.60128576 -0.11807895 -0.2637404
0.07312745 -0.5910207 -0.5694362 -0.3250441 -0.5329522 0.018005665 -0.17532763 -0.2699204
-0.18303035 -0.36991927 -0.7583027 -0.30401754 -0.36937377 -0.3051094 -0.3010498 -0.24391584
-0.41888288 -0.4327463 -0.49160907 -0.29650474 -0.48216993 -0.49036452 -0.2699307 -0.64264536
0.0093226265 -0.56064 -0.6504209 -0.107918054 -0.84687257 -0.22390214 -0.5669393 -0.732802
-0.12439799 -0.7162375 -0.22639167 -0.50673294 -0.0095159095 -0.650077 0.34846443 0.08621402
-0.6657607 -0.56680614 -0.5285201 -0.95056015 0.2559532 -0.0319519 0.044492766 0.023331625
-0.8627293 -0.55264544 -0.097223796 -0.35910276 0.08095264 -0.4631172 -0.33625683 -0.37982062
-0.2846057 -0.62544 0.00697139 -0.47411448 -0.37575325 0.3428119 -0.60587656 -0.4975212
-0.7752995 -0.10135635 -0.13696404 -0.08634616 0.098167896 -0.022382777 -0.26044977 -0.62846166
-0.6568237 -0.20288596 -0.30819097 -0.4879058 0.25137714 -0.12217709 -0.12504171 0.06382897
-0.08684668 0.06066737 -0.034835484 -0.1905073 -0.21878546 -0.344618 -0.3827188 -0.15559587
-0.50734043 -0.6116307 -0.71679324 0.24394311 -0.7012467 -0.6316103 -0.14870015 -0.64954615
-0.027246747 -0.19921027 -0.645687 0.03015337 -0.18550736 -0.6427308 -0.5843104 -0.29776
-0.29865375 -0.6494096 -1.0245677 -0.287316 -0.63256234 -0.6348559 -0.21072303 -0.61301947
00000000: 7c2e 7d3d d493 f9be 022c 43be cac4 01bf
00000010: cd10 f3be 7b60 a1be 25f3 8abe 021a 9fbe
00000020: cd65 9fbe 9008 08bd dad8 ffbe 1544 ef3c
00000030: 9f5d 26bf 607a f4bd dec8 2fbf c741 06bf
00000040: bafe 0bbf 4da7 b6be 1e4a 0d3e ab1b b5be
00000050: 8c1a 44bf fcff f3be 9187 f3be e87c 2ebf
00000060: 05e9 ec3c 4911 e8be c0b3 edbe 2aee 0dbf
00000070: f6f7 8dbe ef8a 9cbe 0c79 d8be 7adc 6abe
00000080: ca25 13be 7889 87be 21ec 99be fbf2 c9be
00000090: 81b9 a7bd e50f 13bf 5e2a d5be 1f99 e0bd
000000a0: 0b5c 9ebe 48b5 dc3d 2acc e3bd c381 37bd
000000b0: 1d93 1e3e 29e9 c5be fcde ea3d b07f d3be
000000c0: 7d98 73be eb75 37bf f326 633d db0f d4be
000000d0: 361f 19be 3d54 643e 2395 81be a519 353d
000000e0: a8ca 17bd 524d 12be a193 8bbc 484d 15bf
000000f0: dfd8 44be cdcd 83be 6a20 c2be 2bdb 26bf
00000100: 1fa2 87be 95f5 b2be 51df b73e 4ca3 c0be
00000110: dc7d b5be f8d6 1fbf 9a5b 3bbf 2c9c 24bf
00000120: 46db 2abf 9a15 d4be d7bc 41bf 6d6f 70bd
00000130: 3393 14bf 09d6 cbbe 76f9 e6be d37c f8bd
00000140: a1e3 10bf a876 18bf 188a c5be 37e4 39bf
00000150: a229 41bf 083a 49be 5c51 19bf a250 c33d
00000160: 3df8 afbe c316 8cbc c984 14bf e7dd 88be
00000170: 140c eabc f9ab 803e 3d13 84be f461 cfbe
00000180: 6616 c2bc b46d 0dbf d75c 72be b38c cabe
00000190: a047 95be 6c1e c8bd 1f20 2abf 432d 83be
000001a0: e980 25bf 7ebb 28be 5d63 0cbf 6e68 d4be
000001b0: a685 bebe ed96 38bf fb8e c0be 8d34 2ebf
000001c0: 2780 d0be 23df c3be 3ac0 22bf c481 d1be
000001d0: 626a 703d b258 ebbd 413b a0be 18c6 a8be
000001e0: e311 e9be b07b e7be b55b 91be 4bde c6be
000001f0: 549b 90be 46f6 d2be e1e3 02bf 832a f6be
00000200: a94f 91be cfff 953b 0b09 adbe c5f0 ee3d
00000210: 11c5 2dbf 05e9 b1be 21d7 e1be 7195 c8be
00000220: fbfd 0fbf 3f9c 22be b94f d7be 5286 b4be
00000230: dddc 25bf dded 19bf 60d3 f1bd fb08 87be
00000240: d8c3 953d 224d 17bf 92c6 11bf 2e6c a6be
00000250: 8e6f 08bf 9e80 933c 1689 33be 0233 8abe
00000260: 4f6c 3bbe 0f66 bdbe 2020 42bf 30a8 9bbe
00000270: 8f1e bdbe 4d37 9cbe 3323 9abe 13c5 79be
00000280: d177 d6be ec90 ddbe 2fb4 fbbe 78cf 97be
00000290: fade f6be 0f11 fbbe 5b34 8abe 6884 24bf
000002a0: eebd 183c 1a86 0fbf fc81 26bf 2404 ddbd
000002b0: a4cc 58bf 9a46 65be ef22 11bf e998 3bbf
000002c0: 60c4 febd 575b 37bf 38d3 67be 40b9 01bf
000002d0: 9ee8 1bbc 726b 26bf ee69 b23e fa90 b03d
000002e0: 4b6f 2abf 351a 11bf 184d 07bf e957 73bf
000002f0: 4c0c 833e ffdf 02bd 0c3e 363d f721 bf3c
00000300: d4db 5cbf 2c7a 0dbf 451d c7bd 51dc b7be
00000310: 7fca a53d b31d edbe db29 acbe d977 c2be
00000320: d7b7 91be d61c 20bf 4270 e43b 22bf f2be
00000330: bb62 c0be 0b85 af3e ba1a 1bbf 19bb febe
00000340: 077a 46bf eb93 cfbd 4d40 0cbe 41d6 b0bd
00000350: 400c c93d 165c b7bc ac59 85be dde2 20bf
00000360: 9925 28bf 56c1 4fbe 35cb 9dbe cace f9be
00000370: 81b4 803e fb37 fabd ef0a 00be c3b8 823d
00000380: acdc b1bd 597e 783d a7af 0ebd 5814 43be
00000390: 4c09 60be c571 b0be b8f3 c3be 8654 1fbe
000003a0: 10e1 01bf d493 1cbf c37f 37bf 39cc 793e
000003b0: e784 33bf 36b1 21bf da44 18be a848 26bf
000003c0: 9234 dfbc c7fd 4bbe be4b 25bf 3304 f73c
000003d0: a4f5 3dbe 018a 24bf 5e95 15bf 0074 98be
000003e0: 25e9 98be b53f 26bf 0925 83bf 151b 93be
000003f0: 9bef 21bf eb85 22bf c7c7 57be d8ee 1cbf

l2.weight f4 [300, 400]
0.0066968887 -0.056245223 -0.034396052 -0.027684897 -0.038171206 -0.022193706 -0.08459767 -0.090620585
-0.004886881 0.043007173 -0.04055793 -0.014400108 -0.089819774 0.023918778 -0.05812293 -0.0067343987
-0.072758116 -0.027912397 -0.002714903 -0.0272941 0.01708139 -0.047936678 -0.05356764 -0.028916389
-0.07143103 -0.04024821 -0.022405451 -0.04830775 -0.05110614 -0.035113387 -0.09271581 0.008294879
-0.069337584 0.027187226 -0.033289585 -0.09044451 -0.02546793 -0.027974373 -0.08048678 2.9627741e-05
-0.027095277 0.012744252 -0.03495333 -0.012550721 -0.058334358 -0.03967634 -0.055165682 -0.0816124
-0.037549306 -0.045819096 -0.07580598 -0.040686574 -0.008954717 -0.07603457 -0.02957893 -0.009126006
-0.051536214 -0.0810334 -0.0036695385 -0.069033094 0.047220387 -0.026343703 -0.054075327 0.03545358
-0.006698795 -0.08094968 -0.08425979 -0.07531769 -0.047092814 0.010173757 0.015698355 0.020623162
-0.055900145 -0.011191168 0.03499736 -0.008339915 -0.07073845 -0.065290704 0.015191902 -0.031828962
-0.0034812228 -0.008155251 0.019261815 -0.10797253 0.031334706 -0.060223464 0.03137765 -0.052656006
-0.051617697 0.008424419 -0.043980807 -0.01580343 -0.04858267 0.0031678285 -0.03382911 -0.03198374
0.041735567 0.031574216 -0.08415226 -0.02813798 -0.07180286 -0.021285845 -0.0712488 -0.0258232
0.0059367497 -0.05915112 -0.0287791 -0.070156544 -0.08616199 -0.0596281 -0.017012406 -0.07037748
-0.068435535 -0.01315806 -0.02944581 -0.024878727 -0.058186468 -0.039593406 -0.056137573 0.0362255
-0.10493185 -0.055700548 -0.061736483 -0.054388463 -0.0028601636 0.010761516 0.024410443 -0.07857591
-0.034058735 0.01277256 0.0012007392 -0.0869482 -0.020216271 0.0004588499 -0.0066028778 -0.037430976
-0.016702484 -0.07000062 -0.022985008 -0.033152208 -0.029032163 -0.033584516 -0.017463839 -0.061445057
-0.00073241163 -0.08396052 -0.082445376 -0.004914265 -0.036465097 -0.10410547 -0.030791942 -0.019105762
-0.055868674 -0.04914587 0.017250678 -0.019667545 0.028560681 -0.0531531 -0.00041571388 -0.029937003
0.009964444 -0.020241085 -0.096336305 0.036189266 -0.054005638 -0.12393858 -0.025855409 -0.03258258
-0.07474814 0.013471637 -0.028444886 -0.0202227 0.034042813 0.006041969 -0.038644936 -0.05224914
-0.054667663 -0.037741132 0.020877883 -0.021720154 -0.065682076 -0.014791925 -0.062792204 -0.08023727
-0.017413592 -0.055376697 0.012031984 0.016227523 0.026790038 0.044471674 -0.05778981 -0.043915182
-0.09655718 -0.031371806 0.01963311 0.0087275 -0.0032418193 -0.0019303808 -0.008230551 -0.074344344
0.0355248 0.018541198 -0.045538247 0.0071874787 -0.009975005 -3.960325e-05 0.012777117 -0.081662506
-0.030243812 0.03732868 -0.038231432 -0.09236405 0.035639495 0.068057664 0.01499094 -0.043961935
-0.00281233 -0.02921161 -0.06765806 -0.027145954 -0.05004686 -0.05611704 -0.03306247 -0.0045127315
0.007144662 -0.02041796 -0.023272196 -0.018377505 -0.011256128 0.0069446154 -0.03121462 -0.07831947
0.01677163 -0.034468573 -0.07631839 0.012593016 0.007683957 -0.048238825 0.011949873 -0.0055505685
-0.034714077 -0.014352389 -0.04134137 -0.08969618 -0.047006868 -0.044977244 -0.016497495 0.02627132
0.02110589 0.00956085 -0.016825069 -0.07104952 -0.053605143 -0.026408765 -0.045748647 -0.008026739
00000000: 9371 db3b 6461 66bd e0e2 0cbd 70cb e2bc
00000010: 6959 1cbd 93cf b5bc 8b41 adbd 4997 b9bd
00000020: 2122 a0bb 4a28 303d 1220 26bd 6eee 6bbc
00000030: 6ef3 b7bd 50f1 c33c 4f12 6ebd 3bac dcbb
00000040: 3502 95bd 8aa8 e4bc 84ec 31bb e097 dfbc
00000050: 45ee 8b3c 4059 44bd be69 5bbd 10e2 ecbc
00000060: 6f4a 92bd 4fdb 24bd a38b b7bc 59de 45bd
00000070: ac54 51bd 0ed3 0fbd c9e1 bdbd 3fe7 073c
00000080: dd00 8ebd bfb7 de3c a95a 08bd f93a b9bd
00000090: 1fa2 d0bc 832a e5bc 41d6 a4bd 1789 f837
000000a0: eaf6 ddbc 44cd 503c 392b 0fbd 8aa1 4dbc
000000b0: 02f0 6ebd a883 22bd 69f5 61bd 6724 a7bd
000000c0: 4dcd 19bd ceac 3bbd 2a40 9bbd f7a6 26bd
000000d0: ceb6 12bc 03b8 9bbd 834f f2bc 3e85 15bc
000000e0: a317 53bd d7f4 a5bd a47c 70bb 3961 8dbd
000000f0: 2a6a 413d c0ce d7bc 177e 5dbd c637 113d
00000100: 9181 dbbb f2c8 a5bd 6690 acbd 2940 9abd
00000110: 65e4 40bd d4af 263c d699 803c e8f1 a83c
00000120: 8df7 64bd 295b 37bc 6459 0f3d 24a4 08bc
00000130: 52df 90bd 22b7 85bd 75e7 783c 165f 02bd
00000140: 3a25 64bb 9a9d 05bc f4ca 9d3c b420 ddbd
00000150: d258 003d e1ac 76bd da85 003d d3ad 57bd
00000160: 146d 53bd 9306 0a3c 3825 34bd 3276 81bc
00000170: 9ffe 46bd 589b 4f3b 6590 0abd 6201 03bd
00000180: eaf2 2a3d f753 013d 0558 acbd 9f81 e6bc
00000190: 610d 93bd a75f aebc e4ea 91bd 2d8b d3bc
000001a0: 1189 c23b 7248 72bd 26c2 ebbc 3cae 8fbd
000001b0: b375 b0bd 983c 74bd 9a5d 8bbc 1122 90bd
000001c0: ee27 8cbd e794 57bc 5738 f1bc 79ce cbbc
000001d0: ef54 6ebd b22c 22bd 83f0 65bd 3161 143d
000001e0: 83e6 d6bd 4226 64bd 65df 7cbd 70c6 5ebd
000001f0: 9571 3bbb 1251 303c 69f8 c73c 68ec a0bd
00000200: 2c81 0bbd 0044 513c 1f62 9d3a e611 b2bd
00000210: 989c a5bc cb91 f039 f45c d8bb 3951 19bd
00000220: a6d3 88bc 7c5c 8fbd 0e4b bcbc 9cca 07bd
00000230: dcd4 edbc eb8f 09bd 5310 8fbc d0ad 7bbd
00000240: 50ff 3fba 7ef3 abbd 1fd9 a8bd d807 a1bb
00000250: 6d5c 15bd 4035 d5bd 623f fcbc b083 9cbc
00000260: 8dd6 64bd 2e4d 49bd 4b51 8d3c d51d a1bc
00000270: 17f8 e93c 11b7 59bd 2cf4 d9b9 723e f5bc
00000280: e841 233c a2d0 a5bc f84b c5bd 323b 143d
00000290: 0435 5dbd 83d3 fdbd b9ce d3bc 5075 05bd
000002a0: 8e15 99bd 24b8 5c3c 4005 e9bc 13aa a5bc
000002b0: 7a70 0b3d b6fb c53b 274a 1ebd 3203 56bd
000002c0: 33eb 5fbd 7296 1abd 1808 ab3c 77ee b1bc
000002d0: 5384 86bd d559 72bc 3399 80bd 7053 a4bd
000002e0: f3a6 8ebc add2 62bd cc21 453c 95ef 843c
000002f0: c876 db3c ee27 363d 02b5 6cbd 68e0 33bd
00000300: c5bf c5bd b97f 00bd 9ed5 a03c cafd 0e3c
00000310: b474 54bb d504 fdba 6fd9 06bc d941 98bd
00000320: 7482 113d b6e3 973c 5086 3abd f184 eb3b
00000330: 346e 23bc aa1b 26b8 1d57 513c ac3e a7bd
00000340: dfc1 f7bc f5e5 183d 9098 1cbd 5d29 bdbd
00000350: b8fa 113d d161 8b3d 8f9c 753c 6e11 34bd
00000360: 114f 38bb 304d efbc 4f90 8abd 3161 debc
00000370: f0fd 4cbd fbda 65bd 836c 07bd 89df 93bb
00000380: c51d ea3b 9143 a7bc 55a5 bebc 6c8c 96bc
00000390: 9f6b 38bc a88f e33b ceb5 ffbc f565 a0bd
000003a0: a864 893c eb2e 0dbd d14c 9cbd f052 4e3c
000003b0: b4c9 fb3b 1396 45bd 66c9 433c 8be1 b5bb
000003c0: 5930 0ebd 4826 6bbc 9255 29bd a1b2 b7bd
000003d0: 468a 40bd 0f3a 38bd c125 87bc f436 d73c
000003e0: 42e6 ac3c 1da5 1c3c bad4 89bc 6982 91bd
000003f0: 1191 5bbd 3257 d8bc ef62 3bbd 9582 03bc

l2.bias f4 [300]
-0.07078242 -0.014725462 -0.16833661 0.14942107 -0.077185534 -0.12165377 -0.3259147 -0.2293866
-0.15278225 -0.09716011 -0.32955423 -0.026969373 -0.020583421 -0.21365324 -0.08500798 -0.2609124
-0.35966527 -0.008071044 0.26805612 -0.30474815 -0.29966596 -0.30368719 -0.0070977253 -0.23160473
-0.06940271 -0.08514861 -0.055794187 -0.041479554 -0.09174428 -0.024541738 -0.24251032 -0.11101513
-0.14414488 0.007019491 -0.1852137 0.15484267 -0.042469308 -0.15068914 -0.07767549 -0.061263908
-0.09046164 -0.057595655 0.0030437706 -0.13511813 0.0027014173 0.13850956 -0.20093143 -0.023941547
-0.011178144 0.17459187 -0.29964247 -0.5128644 -0.173783 -0.0934588 0.11552572 -0.10090712
-0.36920998 -0.24143384 0.102586985 -0.092439294 -0.11518272 -0.047439214 0.091343574 -0.09885589
-0.03040587 0.10291228 -0.049620785 -0.08770087 0.10629362 -0.094439 -0.30292836 -0.1894352
-0.22629718 -0.14193702 -0.043248933 -0.35609287 -0.06101218 -0.1619777 -0.057801433 -0.019108405
-0.27438605 -0.16244496 0.10361573 -0.2997012 0.1416841 0.085007176 -0.058957182 0.20433988
-0.08016129 -0.16468453 -0.07914207 -0.10164103 -0.3244891 -0.19175619 -0.13615508 -0.36860856
-0.56428385 0.018720275 -0.055255663 -0.0062873024 -0.32451013 -0.043136463 -0.13563795 -0.10093881
-0.0700527 -0.093374215 -0.2209436 -0.12002534 -0.03765336 -0.056809437 0.033149447 0.07854486
-0.21239437 0.16731247 -0.06991201 -0.26548362 -0.0993828 -0.5984191 -0.13838284 -0.44034642
-0.2538872 -0.10438366 -0.012101844 -0.09920051 -0.03907666 -0.062115826 -0.30388933 -0.06227525
-0.20932737 -0.23563051 -0.02851861 -0.07483006 -0.011761043 -0.043826718 0.0063278773 -0.030635884
-0.18307966 -0.12102094 -0.26094714 -0.04810553 0.012538417 -0.022862248 -0.2420946 0.17791782
-0.048380833 -0.37600577 -0.05811221 -0.10645502 -0.3824199 -0.05927444 0.01568384 -0.12722687
-0.29803798 0.037660033 0.0717848 -0.13040063 0.07971538 -0.2630981 -0.03209794 -0.284696
-0.052094582 -0.14008503 -0.047946833 0.06350769 -0.035881136 -0.057034735 -0.4378047 -0.10819431
-0.06811326 -0.19305985 0.23768951 -0.37824723 -0.09777916 -0.07409734 -0.09391693 -0.15049498
-0.021392765 0.07427343 -0.08629903 -0.24694796 -0.36916155 0.19255166 -0.41357234 -0.15196094
-0.10160345 -0.10080717 -0.24278463 -0.004993045 -0.32944328 -0.07482965 -0.33098742 -0.27712965
-0.13957356 -0.41868263 -0.03961441 0.045566786 -0.0746764 0.060968775 -0.5573747 -0.048259284
-0.25575462 -0.05948812 -0.1298503 -0.004770961 -0.16085377 -0.28381938 -0.015253146 -0.13968213
-0.095212735 0.0316231 -0.25950938 -0.05546127 -0.023067389 -0.0057022553 -0.19777328 -0.10586532
-0.23395215 0.19910792 -0.3442688 -0.31655627 -0.07116561 -0.37729332 -0.18326369 -0.058230836
-0.26714328 -0.20852347 0.032185875 -0.08127813 -0.09114858 -0.05180924 0.018405585 -0.06623624
-0.39190555 0.15092593 -0.018420786 -0.1001585 -0.054326087 -0.30392146 -0.048988804 -0.099268764
-0.30297452 -0.035362415 -0.36609215 -0.16688707 0.038521737 -0.09041431 -0.3481021 -0.044483505
-0.08141287 -0.04970804 0.037870135 -0.00980943 -0.19334641 0.19226399 -0.09797523 -0.03962375
00000000: 60f6 90bd 1043 71bc 6f60 2cbe d601 193e
00000010: 7313 9ebd 9d25 f9bd 4bde a6be 52e4 6abe
00000020: f372 1cbe e1fb c6bd 55bb a8be e0ee dcbc
00000030: 909e a8bc eac7 5abe aa18 aebd 4f96 85be
00000040: 0c26 b8be 6a3c 04bc a73e 893e f307 9cbe
00000050: d16d 99be e37c 9bbe 0994 e8bb ca29 6dbe
00000060: 0223 8ebd 6562 aebd 7288 64bd 77e6 29bd
00000070: 6de4 bbbd c10b c9bc a054 78be e75b e3bd
00000080: b79a 13be c203 e63b a9a8 3dbe 148f 1e3e
00000090: 4cf4 2dbd 414e 1abe 5414 9fbd ddef 7abd
000000a0: f443 b9bd 6ce9 6bbd ff79 473b 685c 0abe
000000b0: 430a 313b 73d5 0d3e f8c0 4dbe 1021 c4bc
000000c0: 8924 37bc 36c8 323e bd6a 99be 154b 03bf
000000d0: 2cf4 31be 5467 bfbd c098 ec3d 64a8 cebd
000000e0: 1709 bdbe 6f3a 77be 2019 d23d d050 bdbd
000000f0: ebe4 ebbd 9f4f 42bd 5712 bb3d f574 cabd
00000100: bb15 f9bc acc3 d23d 2a3f 4bbd 849c b3bd
00000110: 78b0 d93d 3c69 c1bd 6d19 9bbe 4dfb 41be
00000120: 73ba 67be f057 11be cb25 31bd ce51 b6be
00000130: e8e7 79bd 7bdd 25be 32c1 6cbd 3b89 9cbc
00000140: 547c 8cbe f957 26be 7c34 d43d 7072 99be
00000150: a315 113e 3e18 ae3d 167d 71bd 793e 513e
00000160: 9a2b a4bd 10a3 28be 3d15 a2bd 2c29 d0bd
00000170: 6f23 a6be bc5b 44be 3d6c 0bbe 43ba bcbe
00000180: e874 10bf 435b 993c c353 62bd b705 cebb
00000190: 3126 a6be dcaf 30bd ade4 0abe 02b9 cebd
000001a0: ca77 8fbd fb3a bfbd 0a3f 62be d8cf f5bd
000001b0: 693a 1abd 03b1 68bd b7c7 073d 21dc a03d
000001c0: e97d 59be f653 2b3e 072e 8fbd 78ed 87be
000001d0: 3689 cbbd fe31 19bf 3bb4 0dbe 1675 e1be
000001e0: 81fd 81be 1ac7 d5bd d046 46bc a329 cbbd
000001f0: d90e 20bd 2a6d 7ebd 6297 9bbe 5514 7fbd
00000200: ea59 56be 2049 71be dc9f e9bc 8140 99bd
00000210: 64b1 40bc a583 33bd 155a cf3b 1bf8 fabc
00000220: 3c79 3bbe d4d9 f7bd dd9a 85be 4e0a 45bd
00000230: ef6d 4d3c 9c49 bbbc a6e7 77be 1730 363e
00000240: fb2a 46bd d483 c0be 1207 6ebd 1705 dabd
00000250: 8bcc c3be c1c9 72bd 657b 803c c347 02be
00000260: 6f98 98be 6841 1a3d e903 933d be87 05be
00000270: d141 a33d cbb4 86be 2179 03bd adc3 91be
00000280: 2161 55bd 7372 0fbe e663 44bd 5210 823d
00000290: 19f8 12bd 419d 69bd f027 e0be fa94 ddbd
000002a0: f77e 8bbd 7bb1 45be e164 733e 9fa9 c1be
000002b0: 7140 c8bd 59c0 97bd 8557 c0bd 5b1b 1abe
000002c0: e13f afbc ab1c 983d 8cbd b0bd eddf 7cbe
000002d0: be02 bdbe 432c 453e c1bf d3be a69b 1bbe
000002e0: 7815 d0bd fd73 cebd 899c 78be b29c a3bb
000002f0: caac a8be 4a40 99bd 2f77 a9be f0e3 8dbe
00000300: 5fec 0ebe 925d d6be b842 22bd 3da4 3a3d
00000310: f1ef 98bd 65ba 793d 1cb0 0ebf 87ab 45bd
00000320: 45f2 82be d1a9 73bd 7af7 04be b955 9cbb
00000330: dab6 24be c650 91be 55e8 79bc d508 0fbe
00000340: e5fe c2bd 3987 013d 6ade 84be 5b2b 63bd
00000350: d2f7 bcbc fcd9 babb 1485 4abe ebcf d8bd
00000360: 2791 6fbe f2e2 4b3e 0044 b0be aa13 a2be
00000370: 46bf 91bd 972c c1be 7aa9 3bbe 7583 6ebd
00000380: 01c7 88be 2d87 55be 56d5 033d 2675 a6bd
00000390: 1bac babd ed35 54bd 4fc7 963c dea6 87bd
000003a0: d8a7 c8be 548c 1a3e 30e7 96bc e61f cdbd
000003b0: 0885 5ebd 989b 9bbe 7ca8 48bd 6c4d cbbd
000003c0: 7a1f 9bbe 2ed8 10bd 6e70 bbbe 72e4 2abe
000003d0: f8c8 1d3d 232b b9bd 703a b2be 5634 36bd
000003e0: cabb a6bd a89a 4bbd b71d 1b3d bbb7 20bc
000003f0: 9afc 45be dae0 443e 3da7 c8bd 834c 22bd

l3.weight f4 [4, 300]
-0.019729188 -0.033805545 0.14102377 -0.4911621 0.011016989 0.13484275 -0.09558907 -0.009517167
-0.21677436 -0.15183248 0.5554593 -0.022704829 0.04603016 0.29517552 -0.02185947 -0.31055164
-0.10587774 -0.09637252 0.27159625 -0.08971797 -0.020084215 -0.03187852 0.107213415 -0.06455497
-0.08661162 -0.081447795 -0.026717028 0.0067948615 -0.37828347 0.031478662 0.17961328 -0.0453091
0.19786693 0.16508104 -0.19903865 1.0768994 0.04016045 0.21471973 0.18185176 0.48403025
0.0016884431 -0.037687726 -0.022183271 0.25593674 0.40480918 0.20339267 0.06953234 -0.0013066705
-0.09484935 -0.41082814 0.1532477 -0.028498024 0.14848563 -0.24074861 0.31792012 0.042490438
0.24009241 -0.25522652 -0.11555978 -0.045186587 0.088665396 -0.23894495 0.3050148 -0.071417876
-0.013316163 -0.22893988 0.39892256 0.012302715 -0.21415538 -0.42324638 0.039000425 0.34496287
0.5973861 -0.0026701312 0.023267725 0.115779005 -0.09810123 0.35047925 0.010459338 -0.09262166
0.15329868 0.1389678 -0.21935597 0.15852953 -0.053971786 0.038226496 -0.025780898 0.53495294
0.031294804 -0.021825228 -0.22772445 0.024883287 0.046023402 -0.072456576 -0.231554 0.14859681
0.039610863 0.40271148 0.090063855 -0.2514467 0.118040696 -0.44710714 0.05071195 -0.026529493
0.2754135 0.07629063 0.052207533 -0.0062729893 0.019801816 -0.034299962 -0.40728965 0.5358152
-0.18324701 -0.18056126 0.28459653 0.062841155 0.16142723 0.4443157 0.0007390039 0.03022514
0.264249 0.0016609025 0.10917822 -0.14334327 -0.11356777 -0.16078687 0.30079156 0.0419861
0.5423642 -0.061579376 -0.021648131 0.018599518 0.28647405 -0.027899446 0.031135816 0.04588889
0.19548912 0.21435593 -0.015038434 0.042758506 -0.31172597 -0.018816661 -0.16740647 0.211849
0.07671799 -0.05903629 -0.014598951 -0.39887553 0.008718033 -0.033840824 0.02419307 -0.04345993
0.17256927 -0.12656854 -0.1596516 -0.3951247 0.011602369 -0.16997348 -0.17987244 -0.056811716
0.05616348 0.027147274 0.013591146 -0.012498709 0.2005772 -0.0146053415 -0.094633624 -0.028928194
0.051815182 0.025705988 0.4875621 0.23789865 0.00027511024 -0.32623976 -0.0132689625 0.4043875
0.34932393 -0.38505787 -0.26126754 0.12869681 -0.031097142 -0.39626366 0.076987796 0.014155321
0.006063268 -0.008531703 -0.26071483 0.053472817 -0.06804742 -0.22779939 0.23723897 0.11826162
-0.033337146 0.12756671 -0.16003975 0.47405595 -0.12025312 -0.19164747 0.13405454 -0.0005875516
0.5686993 0.057238232 -0.095990255 -0.14874695 -0.24979995 -0.059195727 -0.01221097 0.012677184
0.26450586 0.07187906 0.21701948 -0.034302916 0.048935495 0.027528403 0.36468524 -0.050247084
0.15229799 0.010141161 -0.0694557 0.10191694 -0.087438196 0.14027071 0.047693647 -0.03770893
-0.068050094 0.017134309 0.34538493 0.033248603 -0.03963186 -0.06511248 0.26321346 -0.029014692
-0.09310045 0.2985541 0.05690488 0.02322345 -0.046965264 -0.061839387 -0.034247592 -0.26940575
-0.41944122 -0.03620459 0.1265857 0.13706669 -0.022386547 0.023441194 -0.035541825 0.015370717
0.035177536 0.040536087 -0.04224439 0.02282552 0.108394206 -0.17858711 -0.06715904 0.030120581
00000000: 1b9f a1bc af77 0abd 8968 103e 9979 fbbe
00000010: 9a80 343c 3814 0a3e 34c4 c3bd e4ed 1bbc
00000020: 19fa 5dbe f979 1bbe 9532 0e3f 7aff b9bc
00000030: 1f8a 3c3d 3f21 973e a212 b3bc a000 9fbe
00000040: 6ed6 d8bd f55e c5bd aa0e 8b3e 0ebe b7bd
00000050: a787 a4bc 0d93 02bd b592 db3d 6535 84bd
00000060: 6f61 b1bd 1ace a6bd abdd dabc 6ea7 de3b
00000070: 5fae c1be c5ef 003d 8bec 373e 0996 39bd
00000080: a19d 4a3e 010b 293e cad0 4bbe d7d7 893f
00000090: 497f 243d 7ddf 5b3e 5937 3a3e d0d2 f73e
000000a0: c04e dd3a 725e 1abd b1b9 b5bc 240a 833e
000000b0: 2643 cf3e 2b46 503e f966 8e3d 9644 abba
000000c0: 6040 c2bd 1158 d2be f7ec 1c3e b074 e9bc
000000d0: 9e0c 183e ce86 76be 6dc6 a23e 740a 2e3d
000000e0: c9da 753e 0dad 82be 9baa ecbd 9215 39bd
000000f0: 3496 b53d fcad 74be e62a 9c3e 8943 92bd
00000100: 092c 5abc 376f 6abe 943f cc3e 5491 493c
00000110: 8c4b 5bbe c0b3 d8be e9be 1f3d f99e b03e
00000120: 4cee 183f 5efd 2ebb f59b be3c 8b1d ed3d
00000130: 4ce9 c8bd 0472 b33e a55d 2b3c 6db0 bdbd
00000140: 54fa 1c3e 934d 0e3e da9e 60be 9155 223e
00000150: 8511 5dbd 6393 1c3d 7632 d3bc adf2 083f
00000160: fb2e 003d d2ca b2bc 9930 69be 09d8 cb3c
00000170: 0983 3c3d 1d64 94bd 7e1c 6dbe c329 183e
00000180: 003f 223d 3330 ce3e 6673 b83d 9fbd 80be
00000190: 52bf f13d 3aeb e4be 55b7 4f3d 6154 d9bc
000001a0: 0003 8d3e 433e 9c3d 91d7 553d a68d cdbb
000001b0: 6b37 a23c 1e7e 0cbd 4588 d0be 2f2b 093f
000001c0: 1ba5 3bbe 0de5 38be a3b6 913e ddb2 803d
000001d0: 2e4d 253e 597d e33e b6b9 413a b69a f73c
000001e0: a54b 873e a4b2 d93a d598 df3d 94c8 12be
000001f0: 3896 e8bd 50a5 24be 5a01 9a3e 9ef9 2b3d
00000200: 61d8 0a3f a83a 7cbd 6c57 b1bc 045e 983c
00000210: baac 923e 618d e4bc 8a10 ff3c fdf5 3b3d
00000220: 4d2e 483e 1f80 5b3e c463 76bc 8b23 2f3d
00000230: 8c9a 9fbe 6625 9abc 9a6c 2bbe f2ee 583e
00000240: 521e 9d3d 09d0 71bd 7030 6fbc 6a39 ccbe
00000250: 15d6 0e3c ad9c 0abd 8c30 c63c 0a03 32bd
00000260: 00b6 303e 2f9b 01be b67b 23be c94d cabe
00000270: dd17 3e3c 870d 2ebe 7b30 38be 67b3 68bd
00000280: ad0b 663d f663 de3c 66ad 5e3c 63c7 4cbc
00000290: 1c64 4d3e 3e4b 6fbc 46cf c1bd d2fa ecbc
000002a0: 283c 543d 5d95 d23c bda1 f93e b49b 733e
000002b0: ac3c 9039 e608 a7be 1066 59bc e10b cf3e
000002c0: 96da b23e 4e26 c5be dcc4 85be 19c9 033e
000002d0: 6fbf febc 12e3 cabe c7ab 9d3d b8eb 673c
000002e0: 61ae c63b 8ec8 0bbc 6a7c 85be 5006 5b3d
000002f0: 725c 8bbd 3e44 69be c6ee 723e 2633 f23d
00000300: 888c 08bd d9a0 023e 76e1 23be 76b7 f23e
00000310: 4547 f6bd 3c3f 44be 9845 093e ec05 1aba
00000320: 4796 113f a372 6a3d 8a96 c4bd 1f51 18be
00000330: 8fcb 7fbe 3877 72bd 8510 48bc f7b3 4f3c
00000340: 506d 873e 5435 933d 5b3a 5e3e 3781 0cbd
00000350: 9670 483d 3f83 e13c 06b8 ba3e e3cf 4dbd
00000360: 01f4 1b3e 1d27 263c ca3e 8ebd d4b9 d03d
00000370: cc12 b3bd 20a3 0f3e 6a5a 433d ae74 1abd
00000380: d95d 8bbd 405d 8c3c 4bd6 b03e b02f 083d
00000390: 0455 22bd b159 85bd eac3 863e 38b0 edbc
000003a0: 73ab bebd 15dc 983e 1715 693d 1b3f be3c
000003b0: a65e 40bd 4c4b 7dbd 3447 0cbd 8def 89be
000003c0: 00c1 d6be 444b 14bd af9f 013e 365b 0c3e
000003d0: fe63 b7bc bf07 c03c 4e94 11bd 76d5 7b3c
000003e0: 5216 103d 2b09 263d 7408 2dbd 96fc ba3c
000003f0: c8fd dd3d 8adf 36be ae8a 89bd 70bf f63c

l3.bias f4 [4]
-0.09758622 -0.0314041 0.1233495 0.23285036
00000000: 49db c7bd 96a1 00bd aa9e fc3d 5370 6e3e
