TD3/saves/lasttry_actor.pth (torch, 518693 bytes, 6 tensors)

l1.weight f4 [400, 18]
0	0x3f9c3c64	1.220593
1	0xbee2541e	-0.442048
2	0x3dd9c72f	0.106336944
3	0x3e67f9d4	0.22653896
4	0x3d923a77	0.071400575
5	0xbe2cfbb1	-0.16892888
6	0xbf978dbb	-1.1840128
7	0xbf23f965	-0.6405242
8	0xbe0b3a09	-0.13596357
9	0x3e5bfbfd	0.21482845
10	0xbdba8a41	-0.09108401
11	0xbf8dbb33	-1.1072754
12	0xbea242e6	-0.31691664
13	0x3e04a16c	0.12952203
14	0x3de4681b	0.11152669
15	0xbe05ddac	-0.13072842
16	0xbf3b7cfc	-0.73237586
17	0x3f3aa4bb	0.7290761
18	0x403d96ad	2.9623215
19	0x3fd0bcfe	1.6307676
20	0x3d87c1df	0.06628775
21	0x3ec6a17f	0.38795087
22	0x3e122999	0.14273681
23	0xbea76247	-0.32692167
24	0xbf753b1d	-0.95793325
25	0xbdf00189	-0.11719043
26	0x3f6aa7da	0.9166237
27	0x3ca5cd3c	0.020239465
28	0x3eb3bbe3	0.35104284
29	0x3df1a1cd	0.11798439
30	0x3f093168	0.5359101
31	0xbe30d72f	-0.17269586
32	0xbe9e4902	-0.30915076
33	0xbd83603a	-0.06414838
34	0x3f0eb2f4	0.5574181
35	0xbf0f898c	-0.56069255
36	0x3eb0f0ab	0.34558615
37	0xbe26f5d7	-0.16304718
38	0x3f59292f	0.84828466
39	0xbe7a21c2	-0.2442694
40	0x3ec226d8	0.3792026
41	0x3e312ef1	0.17303063
42	0xbfa5c3cb	-1.2950376
43	0xbf55bbbd	-0.8348959
44	0x3e8c2530	0.27372122
45	0xbebd4d56	-0.36973065
46	0x3ef633dc	0.4808644
47	0x3d08f057	0.03343233
48	0x3f8253e9	1.0181857
49	0x3e88bf59	0.26708487
50	0x3e0283c4	0.12745577
51	0xbf12bbe7	-0.57317966
52	0xbf0ed1a2	-0.55788624
53	0x3daedd97	0.08538359
54	0xbe98ed77	-0.2986867
55	0x40147143	2.319413
56	0xbfe694d0	-1.8014164
57	0xbe080014	-0.1328128
58	0x3e191d6c	0.1495263
59	0x3d1d2fc8	0.038375646
60	0xbf8b09d9	-1.086238
61	0x3f082c00	0.5319214
62	0xc056b662	-3.3548818
63	0x3ddbd1b0	0.10733354
64	0xbdc81d14	-0.09771171
65	0xbd08c0b2	-0.033386894
66	0xbf7021cc	-0.9380157
67	0x3f6e7ad7	0.9315619
68	0x3d35ad47	0.044354703
69	0xbc0a7d77	-0.008452765
70	0xbde2fad2	-0.110829964
71	0xbfbcfb55	-1.47642
72	0x3f78cd03	0.97187823
73	0x3e0c34f5	0.13692077
74	0x3e9e338f	0.3089871
75	0x3e21924a	0.15778461
76	0xbd73a1ad	-0.059480358
77	0x3f3c0acb	0.7345397
78	0xbf659cf9	-0.89692646
79	0xbf934853	-1.1506447
80	0xbf764a81	-0.96207434
81	0x3e7f44d6	0.24928603
82	0xbdd05275	-0.101719774
83	0x3ecd31bd	0.4007701
84	0x3f14a45b	0.58063287
85	0xbf515d2a	-0.8178278
86	0xbdc228ae	-0.09480415
87	0xbe84bad8	-0.259238
88	0xbdad1762	-0.084517255
89	0xbfc996ad	-1.5749108
90	0x3fb5d916	1.4206874
91	0x3f766edd	0.96262914
92	0x3e2b83b1	0.16749455
93	0xbf3ee32b	-0.7456538
94	0x3d51fec0	0.05126834
95	0x3e437538	0.19087684
96	0xbfc82a47	-1.5637902
97	0xbf7c4824	-0.9854758
98	0x3fed4fd8	1.8539991
99	0xbf18c671	-0.596778
100	0x3e517935	0.20456393
101	0xbf517f59	-0.8183494
102	0xbdc6a48e	-0.09699355
103	0xbe23358f	-0.159384
104	0xbe1e3adf	-0.15452145
105	0xbe03fafb	-0.1288871
106	0xbc30ded6	-0.010795316
107	0x3ed7c116	0.421395
108	0x3fd080de	1.6289327
109	0x3f4a5a62	0.79044163
110	0xbfb3a758	-1.4035444
111	0x3da1cbb8	0.079001844
112	0xbdf7790f	-0.12083637
113	0x3e16b975	0.14719184
114	0xbf623a3e	-0.8837012
115	0x3d8bd5df	0.06827902
116	0xbfa52f32	-1.2905028
117	0xbf372726	-0.7154411
118	0x3ee63367	0.44961092
119	0x3f4355e8	0.7630296
120	0x3ebc6618	0.3679664
121	0xbfb48e0c	-1.4105849
122	0xbd76c019	-0.060241792
123	0x3ca6ffcd	0.020385647
124	0xbfc56063	-1.542004
125	0xbf466af3	-0.7750694
126	0x3fc1cbaa	1.5140278
127	0x3f5dee87	0.8669209
128	0xbf0c544c	-0.54816127
129	0xbe730c07	-0.23735057
130	0xbe13d766	-0.14437637
131	0xbe466947	-0.19376098
132	0xbfc47613	-1.5348533
133	0x3fca7268	1.5816164
134	0x3fbc92b5	1.4732271
135	0x3eb2b24d	0.34901658
136	0x3c243d13	0.010024327
137	0x3f0d9faf	0.5532178
138	0x3f5b37d8	0.85632086
139	0xbf1412b6	-0.5784105
140	0x3dc3444c	0.09534511
141	0xbdef62d8	-0.11688775
142	0x3df85475	0.12125484
143	0xbf3e86a7	-0.74424213
144	0x3f93587f	1.1511382
145	0x3fc57236	1.542548
146	0x3d9dc134	0.07702866
147	0x3e0321f6	0.12805924
148	0x3e899967	0.2687485
149	0x3e6af64d	0.22945519
150	0xbfed1b71	-1.8524
151	0xbdae877f	-0.085219376
152	0x3f8ffe1c	1.1249423
153	0x3c948dc8	0.018134013
154	0x3e9065e8	0.28202748
155	0xbe3aa7b7	-0.1822804
156	0xbe35ef94	-0.17767173
157	0xbf2a3351	-0.6648455
158	0xbe1f5bdc	-0.15562385
159	0xbf141315	-0.57841617
160	0xbf5d2252	-0.86380494
161	0xbde30c05	-0.11086277
162	0x40026301	2.0372927
163	0x40277690	2.6166115
164	0xbd3cd616	-0.046102606
165	0x3e73418c	0.23755473
166	0x3e2490e3	0.16070895
167	0xba83c0c0	-0.0010051951
168	0x3f7074bb	0.93928117
169	0x3ecd397d	0.40082923
170	0x3e8edbc4	0.27902043
171	0x3d394039	0.045227263
172	0x3db9f412	0.09079756
173	0x3e936aac	0.28792322
174	0xc03add88	-2.9197712
175	0xbfeac34c	-1.834085
176	0xbea08edf	-0.31359002
177	0xbdbaf0c0	-0.09127951
178	0xbf69820f	-0.9121408
179	0x3ddc2b0f	0.107504
180	0x3fbd53ff	1.4791259
181	0x3cc57c45	0.024107108
182	0x3ff977a8	1.9489641
183	0xbea133a5	-0.31484714
184	0x3eaa69dd	0.33283892
185	0xbb9cf961	-0.0047904705
186	0xbf95923c	-1.1685252
187	0xbefe7d80	-0.49705124
188	0x3f60bdd4	0.87789655
189	0xbe3f5c57	-0.18687569
190	0x3f0988dc	0.53724456
191	0x3ea0234b	0.31276926
192	0xbebba171	-0.36646608
193	0x3f46258c	0.7740104
194	0x3ddf4037	0.1090092
195	0x3e776798	0.24160612
196	0x3f14cd2c	0.5812557
197	0x3f32e361	0.698782
198	0x3e8496f3	0.25896415
199	0xbfa8f3dc	-1.319942
200	0x3e98b4de	0.2982549
201	0x3cf2fd29	0.029661732
202	0x3e7582d8	0.23975694
203	0x3d44cf23	0.048049103
204	0xbf84e180	-1.0381317
205	0x3f8cdad4	1.1004281
206	0x3f34e370	0.7065954
207	0xbe3b955c	-0.18318695
208	0x3e7e2672	0.24819353
209	0x3ed95638	0.42448592
210	0x3f8d145f	1.1021842
211	0x3eb6480b	0.3560184
212	0xbe885f74	-0.26635325
213	0x3e9ed367	0.31020662
214	0xbe8f15de	-0.2794637
215	0xbf1c75b1	-0.6111708
216	0x3f870e7d	1.0551296
217	0x3ff353d1	1.9009954
218	0xbf8e4f7a	-1.1118004
219	0xbea5f51f	-0.32413575
220	0xbea39849	-0.31952122
221	0xbd99ecf0	-0.07515895
222	0xbf7272cc	-0.94706416
223	0x3fbc36c0	1.4704208
224	0x3f14b2b0	0.58085155
225	0x3ea08ebe	0.31358904
226	0xbe37a763	-0.17934947
227	0xbe839a36	-0.2570359
228	0xbe9b430a	-0.30324584
229	0x40032d12	2.0496259
230	0xbe00fe07	-0.12596904
231	0x3f1816bd	0.59409696
232	0xbd0f139b	-0.034930807
233	0xbf4e2af1	-0.80534273
234	0xbecd6ed4	-0.40123618
235	0xbe2e642c	-0.170304
236	0xbf71cbee	-0.94451797
237	0xbf3e7100	-0.74391174
238	0xbe87e32c	-0.26540506
239	0xbdbf5b53	-0.093435906
240	0xbf4db4a8	-0.80353785
241	0x3f40bb07	0.7528538
242	0xbf5d48dc	-0.864393
243	0xbdab7680	-0.083722115
244	0xbce6c658	-0.02817075
245	0xbec32b3b	-0.3811892
246	0x3efba892	0.49152046
247	0xbfe1f1ad	-1.7651879
248	0xbea18d18	-0.31552958
249	0x3bfc1f66	0.0076941727
250	0xbf925f38	-1.1435308
251	0x3d981093	0.07425036
252	0x3fde9a8d	1.7390915
253	0x3f83e68d	1.0304734
254	0x3e40a11a	0.18811455
255	0xbec1d1f9	-0.3785551

l1.bias f4 [400]
0	0xbf66d6fa	-0.9017178
1	0xbf7c6115	-0.98585635
2	0xbf9b965c	-1.2155261
3	0x3ea6182b	0.32440314
4	0xbf8138a8	-1.0095415
5	0xbf83dfe5	-1.0302702
6	0xbf940b00	-1.1565857
7	0xbfa71e05	-1.3056036
8	0xbf8d0036	-1.1015689
9	0x3c94c03e	0.018158074
10	0xbfb8c24e	-1.4434297
11	0xbfe8786f	-1.8161753
12	0x3d85f74b	0.06541308
13	0xbfaf0cc7	-1.3675774
14	0xbf933503	-1.1500553
15	0xbf01a643	-0.5064432
16	0xbfa28de7	-1.2699555
17	0xbed24af7	-0.4107282
18	0xbf7e44c1	-0.9932366
19	0xbe37619f	-0.17908333
20	0xbfa8b8b2	-1.3181365
21	0xbfa4f2d1	-1.2886602
22	0xbedd3f9c	-0.43212593
23	0xbf323e86	-0.69626653
24	0xbf725f87	-0.94677013
25	0xbfb4e4d0	-1.4132328
26	0xbfd942b9	-1.6973487
27	0xbe8b30e4	-0.27185738
28	0xbf387cf9	-0.72065693
29	0xbf395a0a	-0.72403014
30	0xbdae897c	-0.08522317
31	0xbfb5d27b	-1.4204859
32	0xbfb3fa10	-1.4060688
33	0xbfa13eb2	-1.2597258
34	0xbfaf2019	-1.368167
35	0xbf605a39	-0.8763767
36	0xbd679918	-0.056542486
37	0xbe91e7d0	-0.2849717
38	0xbef08ebb	-0.46983895
39	0xbf989187	-1.1919411
40	0xbfe1a1d9	-1.7627517
41	0xbf89fc6f	-1.0780162
42	0xbfa2e1f9	-1.2725211
43	0xc003a568	-2.0569706
44	0x3df3fa9a	0.11913033
45	0xbf7d56ff	-0.9896087
46	0xbfbc672d	-1.4718987
47	0xbec4ed85	-0.38462463
48	0xbfd3da62	-1.655102
49	0xbf36d4b3	-0.71418303
50	0xbf8be10f	-1.0928057
51	0xbfc200c9	-1.515649
52	0xbfc6fb98	-1.554553
53	0xbf6c2013	-0.9223644
54	0xbf0386a3	-0.51377314
55	0xbf0fced6	-0.5617498
56	0xbfaea988	-1.3645487
57	0xbf866c8f	-1.050188
58	0xbfe01804	-1.7507329
59	0xbfb01dca	-1.3759091
60	0xbf8cb72a	-1.0993397
61	0xbf13ca8d	-0.5773094
62	0xbf19f91e	-0.6014575
63	0xbf85842d	-1.0430962
64	0xbf6cf5e6	-0.9256271
65	0xbfbd2d9c	-1.4779544
66	0xbfd0e64c	-1.6320281
67	0xbf0bd5ef	-0.5462331
68	0xbf96f3fd	-1.1793209
69	0xbf5ef8b4	-0.8709824
70	0xbf6109bf	-0.87905496
71	0xbf8084eb	-1.0040563
72	0xbf87fbc9	-1.0623714
73	0xbf5040f7	-0.8134913
74	0xbf904013	-1.1269554
75	0xbf857c8b	-1.0428632
76	0x3e397894	0.18112403
77	0xbfb35594	-1.4010491
78	0x3ec04e16	0.37559575
79	0xbeba9d20	-0.36448002
80	0xbfa9c3e3	-1.3262905
81	0xbfe31f72	-1.7743971
82	0xbf89806d	-1.0742317
83	0xbf85476b	-1.041242
84	0xbf96fc0c	-1.1795669
85	0xbe87dfd4	-0.26537955
86	0xbf1163ee	-0.56793106
87	0xbf1654fe	-0.5872344
88	0xbf86631e	-1.0498998
89	0xbfb42eb2	-1.407675
90	0xbe8502c1	-0.25978664
91	0xbd2ebadd	-0.042658675
92	0xbfb38c1b	-1.4027132
93	0xbee6d4cc	-0.45084226
94	0xbebc1a13	-0.36738643
95	0xbd745929	-0.059655342
96	0xbfa5e962	-1.2961848
97	0xbf9b7182	-1.2144015
98	0xbfae8813	-1.3635277
99	0xbf845673	-1.0338882
100	0xbf5578b4	-0.83387303
101	0xbeefca59	-0.46834067
102	0xbf320ebc	-0.6955373
103	0xbf2b3fde	-0.6689433
104	0xbf2a889d	-0.66614705
105	0xbcdd64b3	-0.027025556
106	0xbf7594dd	-0.9593027
107	0xbf8555fe	-1.0416868
108	0xbec4404b	-0.38330302
109	0xbf3db5d3	-0.74105567
110	0xbe90f25f	-0.28309914
111	0xbf4ba18c	-0.79543376
112	0xbf9b8a0b	-1.2151502
113	0xbf9399b6	-1.1531284
114	0xbfaadd00	-1.3348694
115	0xbf6050df	-0.876234
116	0xbf0e12bf	-0.55497354
117	0xbfb5a0c6	-1.4189689
118	0xbf41a190	-0.7563715
119	0xbea9e438	-0.3318193
120	0xbf902d7a	-1.1263878
121	0xbf62db06	-0.88615453
122	0xbf9be54f	-1.2179354
123	0xbfca9d6b	-1.582929
124	0xbee69df8	-0.45042396
125	0x3e3827d3	0.17983942
126	0xbe9922e5	-0.29909435
127	0xbf6d9a95	-0.92814
128	0xbf89eb95	-1.0775019
129	0xbdde9277	-0.1086778
130	0xbf9593ab	-1.168569
131	0xc005e90d	-2.0923493
132	0xbf971d44	-1.1805806
133	0xbfa4ac37	-1.2865056
134	0xc005a446	-2.0881515
135	0xbfcdfa2d	-1.6091973
136	0xbf7c1e26	-0.984835
137	0xbf95e11b	-1.1709322
138	0x3d9ade61	0.07561947
139	0xbf8e32b7	-1.1109227
140	0xbf115412	-0.56768906
141	0xbdcc24ee	-0.09967981
142	0xbfb44273	-1.4082779
143	0x3f3b6c74	0.7321236
144	0xbf401977	-0.75038856
145	0xbf1bb2df	-0.6081981
146	0xbe35c7b3	-0.1775196
147	0x3e5e3983	0.21701626
148	0xbf2b8622	-0.67001545
149	0xbf59df0b	-0.8510596
150	0xbede2f51	-0.43395475
151	0xbe2edbcc	-0.17076033
152	0xbf870694	-1.0548882
153	0xbfc9e84b	-1.5774015
154	0xbfc6a045	-1.551766
155	0xbfca4c99	-1.5804626
156	0xbf816e08	-1.0111704
157	0xbe271e04	-0.16320044
158	0xbd533716	-0.051566206
159	0xbfa8d777	-1.3190755
160	0xbdcc7118	-0.099825084
161	0xbe14c222	-0.14527181
162	0xbf547891	-0.8299647
163	0xbfb28bf8	-1.3948965
164	0x3fcb2a76	1.5872333
165	0x3df708ff	0.12062263
166	0xbf5ce490	-0.8628626
167	0xbefee9b8	-0.49787688
168	0xbf107c55	-0.56439716
169	0x3db07e8f	0.08617889
170	0xbfab95fd	-1.3405148
171	0xbf06b173	-0.52614516
172	0xbfb2be46	-1.3964317
173	0x3e017cea	0.12645307
174	0xbee7391e	-0.45160764
175	0xbf1ce639	-0.6128879
176	0xbef0419f	-0.46925065
177	0x3e45f67a	0.19332305
178	0xbf18f9b3	-0.5975601
179	0x3ef42c0d	0.47689858
180	0xbec1bb54	-0.37838233
181	0xbf63e74a	-0.89024794
182	0xbf8337fc	-1.025146
183	0xbfd3f9b0	-1.6560574
184	0xbf9053fa	-1.1275628
185	0xbf750f4a	-0.95726454
186	0xbee6b15c	-0.4505719
187	0xbf199007	-0.59985393
188	0xbfabc4fe	-1.3419492
189	0xbfa57b69	-1.2928287
190	0x3f37dfa4	0.71825624
191	0xbfb85e16	-1.4403713
192	0xbf613a0c	-0.879792
193	0xbf13f82b	-0.5780055
194	0xbf94a0cc	-1.1611571
195	0xbf6e4da4	-0.9308722
196	0x3f092e2e	0.5358609
197	0xbf0a7ccb	-0.5409667
198	0xbfbebcea	-1.4901402
199	0xbf59a303	-0.8501436
200	0x3f145c30	0.57953167
201	0xbf389983	-0.7210924
202	0xbeb90f6f	-0.36144587
203	0xbd1a9950	-0.037743866
204	0xbeb608e3	-0.35553655
205	0x3f11a0e6	0.56886137
206	0xbfb499c7	-1.4109429
207	0xbf3a7b42	-0.72844326
208	0xbe6d8244	-0.23194224
209	0xbf286a3c	-0.657871
210	0xbf8927de	-1.0715292
211	0xbf2cd05c	-0.6750543
212	0xbf599efd	-0.8500822
213	0xbfa83d11	-1.3143636
214	0xbf44bc00	-0.76849365
215	0x3dbb980e	0.091598615
216	0xbdb39775	-0.087691225
217	0xbf82758a	-1.019212
218	0xbf595c02	-0.8490602
219	0xbe8db940	-0.27680397
220	0xbf8fde18	-1.1239653
221	0xbf394005	-0.7236331
222	0xbf308c87	-0.6896443
223	0xbfc5df9b	-1.5458864
224	0xbeab68ec	-0.33478487
225	0xbd8ac89e	-0.06776546
226	0xbfbabbd9	-1.4588577
227	0xbf8e9858	-1.1140242
228	0xbf4a2a9f	-0.78971285
229	0xbfb3c0ae	-1.4043176
230	0xbf845ad0	-1.0340214
231	0xbf106eb7	-0.5641894
232	0xbf9843da	-1.1895707
233	0xbeba5e7d	-0.36400214
234	0xbf104238	-0.5635104
235	0xbfc6896a	-1.5510685
236	0xbf91eabf	-1.1399764
237	0xbf7fd124	-0.999285
238	0xbf6d8377	-0.92778724
239	0xbf78a70b	-0.9712989
240	0xbf7f496e	-0.9972142
241	0xbf0897f7	-0.5335688
242	0xbe9e50c3	-0.3092099
243	0xbeef6804	-0.46759045
244	0xbf315dc6	-0.6928371
245	0xbdb313af	-0.08743989
246	0x3d1b32f3	0.037890386
247	0xbfc8fffc	-1.570312
248	0xbf8f8039	-1.1211005
249	0xbf7d022a	-0.9883143
250	0x3db86173	0.09002962
251	0xbf2dc02b	-0.6787135
252	0xbf93006f	-1.1484507
253	0xbf5ce4a2	-0.86286366
254	0x3c819192	0.015816484
255	0xbfb2c2fc	-1.3965755

l2.weight f4 [300, 400]
0	0x3e87f7ae	0.26556152
1	0x3ea70884	0.32623684
2	0x3e82c1eb	0.25538573
3	0xbdaf4c0b	-0.08559426
4	0x3f0f9693	0.56089133
5	0x3e90b88a	0.28265792
6	0xbf90b33f	-1.1304702
7	0xbd933876	-0.071885034
8	0xbecd6bfe	-0.40121454
9	0xbfd53c63	-1.6659054
10	0x3c80ee59	0.015738653
11	0xbef80eba	-0.48448735
12	0xbe6740a0	-0.22583246
13	0x3d64b420	0.055835843
14	0x3dddce09	0.10830314
15	0x3d66fbc2	0.05639244
16	0x3f322652	0.6958972
17	0xbe26e789	-0.16299261
18	0xbd7d2d18	-0.061810583
19	0xbe85285d	-0.26007357
20	0xbf50ee63	-0.8161375
21	0xbd824b6f	-0.06362044
22	0xbed668c7	-0.41876814
23	0xbdd70681	-0.104992874
24	0xbfa9e9d1	-1.327448
25	0xbf4da717	-0.80333084
26	0x3dfd7cbb	0.12377306
27	0x3e31d1fe	0.17365262
28	0xbe934c77	-0.28769276
29	0xbd42d7b6	-0.047569
30	0xbecc4e74	-0.39903605
31	0xbf2746c7	-0.6534237
32	0xbde4f2ed	-0.11179147
33	0x3f0b78cc	0.54481196
34	0x3e0a9346	0.13532743
35	0xbff1a9f3	-1.8879989
36	0x3ec466eb	0.3835977
37	0x3f43f01c	0.7653825
38	0x3e702534	0.23451692
39	0xbebf8b25	-0.37410846
40	0xbef12b97	-0.4710357
41	0xbed9cdab	-0.42539725
42	0xbe7437e7	-0.2384945
43	0xbe13b217	-0.14423405
44	0xbec98cd4	-0.39365256
45	0xbe96ac01	-0.29428104
46	0xbfad2e01	-1.3529664
47	0xbf6de3f7	-0.9292597
48	0xbcaefb07	-0.021359934
49	0xbf084ea8	-0.5324502
50	0xbf6f0fc8	-0.93383455
51	0xbf4e3c36	-0.80560625
52	0xbfb0e3a7	-1.3819474
53	0x3e1314d6	0.14363417
54	0xbdddf292	-0.10837282
55	0xbe51acfa	-0.20476142
56	0x3f3ea654	0.74472547
57	0xbeda2385	-0.42605224
58	0xbe791a31	-0.24326397
59	0x3f5ca612	0.86190903
60	0xbfd030ca	-1.6264889
61	0xbf4c6ce8	-0.7985368
62	0xbfc9c1a7	-1.5762223
63	0xbeed9311	-0.46401265
64	0x3af88435	0.0018960299
65	0x3f31a5a2	0.6939336
66	0xbf570d9b	-0.84005135
67	0xbe367fa2	-0.17822126
68	0xbd4cef23	-0.050032746
69	0xbf4683c5	-0.77544814
70	0xbf84604e	-1.034189
71	0xbde0c0f5	-0.10974304
72	0xbd818bd7	-0.063255005
73	0x3f122420	0.5708637
74	0x3e917b40	0.28414345
75	0xbd9f4c02	-0.07778169
76	0xbd40e5d7	-0.047094192
77	0xbe3a3f5a	-0.18188229
78	0xbf04b8fd	-0.5184477
79	0xbf1487ed	-0.58019906
80	0xbe864d8b	-0.26231036
81	0x3e9bd01c	0.30432212
82	0x3ebd4fa5	0.36974826
83	0x3e996561	0.29960158
84	0xbf77b522	-0.9676076
85	0xbf778e6c	-0.96701694
86	0xbeab9fd4	-0.33520377
87	0x3e698f70	0.22808623
88	0x3f22ffba	0.6367146
89	0x3f34ed4a	0.70674574
90	0xbeac325f	-0.3363218
91	0xbd0a6655	-0.033788998
92	0xbf489d9d	-0.783655
93	0xbf1f22d5	-0.62162524
94	0xbf99f6bf	-1.2028426
95	0xbee194c9	-0.44058827
96	0xbf1a86f0	-0.6036215
97	0xbdaabec8	-0.0833717
98	0xbf0e06c8	-0.554791
99	0xbf19b291	-0.60038096
100	0xbf3d224d	-0.73880464
101	0x3e666926	0.22501048
102	0x3ea5f587	0.32413885
103	0xbfaaefac	-1.3354392
104	0xbfb2a089	-1.3955241
105	0xbf9533dd	-1.1656452
106	0xbef71b0c	-0.48262823
107	0xbf3d1e17	-0.7387404
108	0xbf1c12fe	-0.6096648
109	0x3fbccc16	1.4749782
110	0x3f234dcd	0.6379059
111	0xbfa862eb	-1.3155187
112	0x3ee9dd45	0.45676628
113	0x3e410e99	0.18853225
114	0xbe2c090f	-0.1680033
115	0xbf8b3850	-1.087656
116	0xbf066e0d	-0.52511674
117	0xbdadb513	-0.08481803
118	0xbf2938b0	-0.66102123
119	0xbeb9c21c	-0.36280906
120	0xbe9d0d28	-0.306741
121	0x3e1219fa	0.14267722
122	0x3f5beb6d	0.85906106
123	0xbda773f5	-0.08176414
124	0x3eaf120b	0.34193453
125	0x3f1f37a8	0.621943
126	0x3cf7d9dd	0.030255252
127	0x3eb9f926	0.36322898
128	0xbe32902d	-0.17437811
129	0x3f077816	0.5291761
130	0xbe41c475	-0.18922599
131	0x3f37f262	0.7185422
132	0x3df30d6b	0.11867794
133	0xbf112f04	-0.56712365
134	0x3faa1d54	1.32902
135	0xbe688447	-0.2270671
136	0x3ea10499	0.3144882
137	0x3d99401c	0.07482931
138	0xbeae758a	-0.3407405
139	0xbf0bde98	-0.54636526
140	0xbef48bf2	-0.4776302
141	0xbf87a654	-1.0597634
142	0x3f2a9659	0.6663566
143	0xbfa0314e	-1.2515047
144	0x3edd92cc	0.4327606
145	0xbdba520c	-0.090976804
146	0x3e9ab4ef	0.30216166
147	0xbf8e1b0b	-1.1102003
148	0xbf4d6c4f	-0.8024339
149	0xbf92cae4	-1.1468167
150	0x3e593ca6	0.21214542
151	0x3e3d1b73	0.18467502
152	0x3f402c7c	0.7506788
153	0xbeca60ce	-0.3952698
154	0xbdeff935	-0.11717454
155	0xbf0e6383	-0.5562059
156	0xbf35da30	-0.7103605
157	0xbf3424fd	-0.7036894
158	0xbf8af3a4	-1.0855603
159	0x3f844728	1.0334215
160	0xbe136152	-0.14392594
161	0xbf3b6069	-0.73193985
162	0x3dd1daef	0.102468364
163	0xbef880f9	-0.48535898
164	0xbe0871c2	-0.13324645
165	0xbdffea2e	-0.12495838
166	0x3e5750d6	0.2102693
167	0x3ce8b60d	0.028407121
168	0x3d5af59c	0.053456888
169	0x3cd3934e	0.025827076
170	0xbf296336	-0.6616701
171	0xbf091cca	-0.53559554
172	0xbec2d69e	-0.38054365
173	0xbe2cfeff	-0.16894148
174	0x3de34a20	0.110981226
175	0xbf50b376	-0.81523836
176	0xbe94141e	-0.28921598
177	0xbf76195e	-0.9613246
178	0xbf3f2aa3	-0.74674433
179	0xbf469461	-0.7757016
180	0xbf3a1192	-0.7268306
181	0x3dcce984	0.10005477
182	0xbea06b5e	-0.31331915
183	0x3e6b5192	0.22980335
184	0xbc17078f	-0.009218111
185	0xbf46668c	-0.77500224
186	0xbf66e1d3	-0.9018833
187	0xbecf0ceb	-0.40439543
188	0xbe986544	-0.2976476
189	0x3ef788de	0.4834661
190	0xbf04077f	-0.5157394
191	0x3e981635	0.29704443
192	0x3e5365d4	0.20644313
193	0xbefff8bf	-0.49994466
194	0x3f65d07f	0.89771265
195	0xbf5d16b0	-0.86362743
196	0xbef63384	-0.48086178
197	0x3f04c3ea	0.5186144
198	0xbee9768b	-0.45598254
199	0xbf42f0c1	-0.7614861
200	0xbfeeae58	-1.8646955
201	0xbec62448	-0.38699555
202	0x3efcad71	0.49351075
203	0xbf558e0b	-0.83419865
204	0x3d29a46d	0.041416574
205	0xbf41d443	-0.7571451
206	0xbf0eb639	-0.557468
207	0x3c32d681	0.0109153995
208	0xbfa1503d	-1.2602612
209	0xbf35cdf1	-0.71017367
210	0xbf10f311	-0.5662089
211	0x3f19a08c	0.600106
212	0x3ee113de	0.4396047
213	0xbed9eaab	-0.4256185
214	0xbf586d95	-0.8454221
215	0x3e2d2f28	0.1691252
216	0xbf3e1138	-0.74245024
217	0x3c2a269a	0.01038518
218	0x3e85fd8d	0.26170006
219	0xbd2d6890	-0.042336047
220	0xbf749da2	-0.9555303
221	0xbf42a62f	-0.76034826
222	0xbf256453	-0.6460621
223	0x3d79f0a3	0.061020505
224	0xbe540a81	-0.20707132
225	0xbf060017	-0.5234389
226	0x3f00b27b	0.5027234
227	0xbebd4b14	-0.36971343
228	0x3ea8a62b	0.32939276
229	0x3ed29765	0.4113113
230	0xbfb0022e	-1.3750665
231	0xbecb9c50	-0.39767694
232	0x3ea6ecb7	0.32602474
233	0xbfb25f57	-1.3935345
234	0xbdcf4627	-0.101208024
235	0xbdbe0389	-0.09278018
236	0x3e1e1bb9	0.15440263
237	0xbf75c7e3	-0.9600813
238	0xbf0e498b	-0.5558097
239	0xbeb2e766	-0.34942168
240	0x3e583abf	0.2111616
241	0x3dd357e0	0.10319495
242	0xbfb03de1	-1.3768884
243	0x3f625612	0.8841258
244	0x3f0275cf	0.5096101
245	0xbf0ecb6c	-0.5577915
246	0x3d6373ff	0.055530544
247	0xbdd7623b	-0.10516783
248	0x3ed88f11	0.4229665
249	0xbd328410	-0.043582976
250	0xbf6046db	-0.87608117
251	0xbfb61d14	-1.4227624
252	0xbdca2fee	-0.09872423
253	0xbf3720b4	-0.71534276
254	0xbea782f6	-0.32717103
255	0x3f5d42f4	0.8643029

l2.bias f4 [300]
0	0xbee28614	-0.44242918
1	0xbdb4de9c	-0.08831522
2	0xbeec2209	-0.46119717
3	0xbe06ca16	-0.13163027
4	0xbdbc4c11	-0.09194196
5	0xbf180d56	-0.5939535
6	0xbecfaf50	-0.4056344
7	0xbeeba744	-0.4602605
8	0xbeb08899	-0.34479216
9	0x3ebf7d98	0.37400508
10	0xbf127fbc	-0.5722616
11	0x3c720550	0.014771774
12	0xbd72023c	-0.059084162
13	0xbf652a81	-0.8951798
14	0xbdc29685	-0.095013656
15	0xbd14eeb2	-0.03636045
16	0xbe9a5b9c	-0.30148017
17	0xbd81b524	-0.06333378
18	0xbf44da10	-0.76895237
19	0xbe8d9604	-0.27653515
20	0xbe83962b	-0.25700507
21	0xbd9b7c80	-0.07592106
22	0xba57b746	-0.0008228909
23	0x3e6e5610	0.23275018
24	0xbc066078	-0.008201711
25	0xbf384543	-0.71980685
26	0xbf0012d5	-0.50028735
27	0xbce44fc3	-0.027870065
28	0xbe192f78	-0.14959514
29	0xbe830206	-0.2558748
30	0xbf2e7bba	-0.6815754
31	0xbbf8d864	-0.007594155
32	0xbc6c4b36	-0.014422229
33	0xbf423bfa	-0.75872767
34	0xbf237d3a	-0.63862956
35	0xbf3d6c38	-0.73993254
36	0xbf1c61ec	-0.61086917
37	0xbee64a05	-0.44978347
38	0xbd6fb252	-0.05851967
39	0x3ccda410	0.025102645
40	0xbf585f31	-0.8452025
41	0x3dc90171	0.09814728
42	0xbf06a02d	-0.5258816
43	0xbe4b11d9	-0.19831027
44	0xbd501385	-0.050799865
45	0x3db5ebf2	0.088828936
46	0xbe4cf0be	-0.20013711
47	0xbba190da	-0.0049305977
48	0xbf54a52c	-0.8306453
49	0xbcc4d665	-0.024028013
50	0xbdc7fa6f	-0.09764563
51	0xbe071477	-0.131914
52	0x3e1fa839	0.15591516
53	0xbe57480b	-0.21023576
54	0xbd809de5	-0.06280116
55	0xbf4afb37	-0.79289573
56	0xbcdd736a	-0.027032573
57	0xbedf69dc	-0.43635452
58	0xbe71d65a	-0.23616925
59	0xbf66f649	-0.9021955
60	0xbf1ccce6	-0.6125015
61	0xbedfbf22	-0.4370051
62	0xbd5b6ab6	-0.053568564
63	0xbcf60ef8	-0.030036435
64	0xbd230f6c	-0.03980963
65	0xbd672488	-0.056431323
66	0xbeda76d4	-0.42668784
67	0x3c77d9d0	0.015127614
68	0xbee18fea	-0.4405511
69	0xbf60f2b5	-0.8787034
70	0xbe0a291f	-0.13492249
71	0xbf0ec842	-0.5577432
72	0xbc78be6a	-0.015182117
73	0xbe4bc5f8	-0.19899738
74	0xbe9f41c3	-0.3110486
75	0xbf0cf69f	-0.55063814
76	0xbec7cf10	-0.39025164
77	0xbd4ff33a	-0.05076907
78	0xbe6973df	-0.22798108
79	0xbf641bae	-0.89104736
80	0xbe263eab	-0.16234843
81	0xbd5ae4c4	-0.053440824
82	0xbd964afe	-0.073385224
83	0xbd91e093	-0.07122912
84	0x3e93d9d5	0.2887713
85	0xbe45c9a1	-0.19315197
86	0xbee7ce17	-0.45274422
87	0xbf027291	-0.50956064
88	0xbd9a9775	-0.075484194
89	0xbd29c12a	-0.04144398
90	0x3b930555	0.0044867196
91	0xbd808205	-0.06274799
92	0xbf6700ae	-0.9023541
93	0xbed8ae4a	-0.42320472
94	0xbeede39f	-0.46462724
95	0xbd66db32	-0.056361385
96	0xbd2d936e	-0.042376928
97	0xbf042076	-0.5161203
98	0xbd96dfd7	-0.07366913
99	0xbd823479	-0.063576646
100	0xbd423718	-0.047415823
101	0xbd43e052	-0.04782135
102	0xbdc94d13	-0.09829154
103	0xbeae8f57	-0.34093735
104	0xbde92c94	-0.11385456
105	0xbfbd9b29	-1.4812976
106	0xbd552b7c	-0.052043423
107	0xbf80143d	-1.0006176
108	0xbf358369	-0.7090364
109	0xbd9017a2	-0.070357576
110	0xbe9e04f6	-0.3086316
111	0xbc568aed	-0.013094646
112	0xbc6bcd7f	-0.014392256
113	0xbe0e8a4f	-0.13919948
114	0xbe3c4314	-0.18384963
115	0xbd449070	-0.04798931
116	0xbd4347e9	-0.047676
117	0xbf2432f9	-0.6414028
118	0xbd950dd5	-0.07278029
119	0xbe5a803e	-0.21337983
120	0xbeefff59	-0.46874502
121	0x3b8859f5	0.0041611143
122	0xbea83821	-0.32855323
123	0xbdbd23f6	-0.09235375
124	0xbea5236e	-0.32253593
125	0xbd79b41d	-0.060962785
126	0xbe436923	-0.19083075
127	0xbcb8ff7f	-0.022582768
128	0xbf20fa4d	-0.6288193
129	0xbf19ff48	-0.60155153
130	0xbd8d18c2	-0.06889488
131	0xbd1a11dc	-0.03761469
132	0xbd624848	-0.055244714
133	0xbf0b11d8	-0.543241
134	0xbe6441fc	-0.22290796
135	0xbd38c4f8	-0.04510972
136	0xbeadbca8	-0.33932996
137	0xbf123a7f	-0.5712051
138	0xbd71a436	-0.058994494
139	0xbf73ae65	-0.9518798
140	0xbd39434a	-0.045230187
141	0xbebe601c	-0.371827
142	0xbd82aaac	-0.06380209
143	0xbe76d78d	-0.24105664
144	0xbf7cfdf4	-0.98825
145	0xbed756bb	-0.42058358
146	0xbf50a0a7	-0.81495136
147	0xbe876d51	-0.2645059
148	0xbe7a5b14	-0.24448806
149	0xbed61951	-0.4181619
150	0xbef8df99	-0.4860809
151	0xbeb9133c	-0.36147487
152	0xbf7013f3	-0.9378044
153	0xbeeb95b3	-0.4601265
154	0xbde3cf45	-0.11123518
155	0xbd9e03c0	-0.07715559
156	0xbd0adfaa	-0.03390471
157	0xbf439fdd	-0.76415807
158	0xbeab8174	-0.33497202
159	0xbe822f5c	-0.25426757
160	0xbcc42fac	-0.023948513
161	0xbf8cd9da	-1.1003983
162	0xbd929e1b	-0.071590625
163	0xbee577ac	-0.44817865
164	0xbd28c6c0	-0.041205168
165	0xbe8e17ae	-0.2775244
166	0x3da00f76	0.07815449
167	0xbeb511dc	-0.35365188
168	0xbf322cb8	-0.69599485
169	0xbdf861c3	-0.121280216
170	0xbdfe5fb9	-0.124206014
171	0xbf152431	-0.5825835
172	0xbe9850c7	-0.29749128
173	0xbe699ecd	-0.22814484
174	0xbe844c0d	-0.25839272
175	0xbd364de9	-0.044507895
176	0xbe940c7a	-0.2891577
177	0xbdc82104	-0.09771922
178	0xbd72c4c6	-0.05926969
179	0xbfa55a70	-1.2918224
180	0xbe95b48c	-0.2923931
181	0xbc3883d2	-0.011261897
182	0xbf01b620	-0.50668526
183	0xbd6d5026	-0.057937764
184	0xbcc2789c	-0.023739152
185	0xbf4e71af	-0.8064222
186	0xbd4c68e6	-0.049904726
187	0x3e6bd489	0.23030294
188	0xbf97dc99	-1.1864196
189	0xbd648ed6	-0.05580028
190	0xbd806f83	-0.06271269
191	0xbc8974d4	-0.01677934
192	0xbe1f2666	-0.15541992
193	0xbf0e5084	-0.5559161
194	0xbdcb77c6	-0.09934954
195	0x3ead7cc6	0.33884257
196	0xbd64654c	-0.055760667
197	0xbf698d3b	-0.91231126
198	0xbc9407b6	-0.018070083
199	0xbf2067c3	-0.6265833
200	0x3e279b53	0.16367845
201	0xbf3c64b4	-0.7359116
202	0xbdd3b877	-0.10337918
203	0xbfbdb12c	-1.4819694
204	0xbdabdec5	-0.08392099
205	0xbd99e7a1	-0.07514883
206	0xbf016d7a	-0.5055767
207	0xbe5c51ed	-0.21515627
208	0xbee78bf4	-0.45223963
209	0xbe30c15c	-0.17261261
210	0xbcd454ca	-0.025919337
211	0xbe457853	-0.19284181
212	0xbf08898d	-0.53334886
213	0x3e64df1d	0.22350736
214	0xbe6afa70	-0.22947097
215	0xbe9bd39c	-0.30434883
216	0xbf9eee7b	-1.2416528
217	0xbd89a4a5	-0.067208566
218	0xbe89284a	-0.2678855
219	0xbf478fd9	-0.7795387
220	0xbf6fd4c0	-0.93684006
221	0xbcd701c0	-0.026245952
222	0xbf32c6f9	-0.6983486
223	0x3e926fed	0.28601018
224	0xbf7517e3	-0.95739573
225	0x3e5fcb0f	0.21854804
226	0x3ec8eb71	0.39242128
227	0xbd739934	-0.059472278
228	0xbdb21d82	-0.086970344
229	0xbba8cf2d	-0.0051516504
230	0xbea8c2ae	-0.3296103
231	0xbd8b7fb3	-0.06811466
232	0xbf58e053	-0.8471729
233	0xbef2a36b	-0.47390303
234	0xbe93c6b8	-0.28862548
235	0xbf2653fe	-0.6497191
236	0xbce0313b	-0.027367225
237	0xbc8c8b51	-0.017156275
238	0xbd98c25d	-0.07458947
239	0xbdbad67c	-0.09122941
240	0xbe55686e	-0.20840618
241	0xbf00baf7	-0.50285286
242	0xbf5935ff	-0.84848017
243	0xbea5cdbc	-0.32383525
244	0xbf95a466	-1.1690795
245	0xbd95ddab	-0.073176704
246	0x3c0a3569	0.008435586
247	0xbdac5d1e	-0.08416198
248	0xbdfd9509	-0.12381942
249	0xbce3b28e	-0.027795102
250	0x3f31c950	0.69447803
251	0xbee6a9e4	-0.4505149
252	0xbdbe066d	-0.09278569
253	0xbee35c73	-0.4440647
254	0xbe87b078	-0.26501822
255	0xbdb07e31	-0.08617819

l3.weight f4 [4, 300]
0	0xbfa79cb3	-1.3094696
1	0xbd216d35	-0.03941079
2	0xbf30c05b	-0.6904351
3	0x3ddc344d	0.10752163
4	0x3c74729b	0.014919902
5	0x3e176b76	0.14787087
6	0x3e9ab647	0.30217192
7	0xbf3c3c79	-0.73529774
8	0xbf668ea5	-0.9006141
9	0xbed32687	-0.41240332
10	0x3d6fa251	0.058504406
11	0x3d89292a	0.066973045
12	0xbc1cdfd2	-0.009574847
13	0xbed7288b	-0.4202312
14	0x3ca431dc	0.020043306
15	0xbefb9709	-0.49138668
16	0x3d0c9792	0.034324236
17	0xbcf06106	-0.02934314
18	0xbe9d424e	-0.3071465
19	0x3df9495b	0.121721946
20	0x3ef71677	0.48259327
21	0x3bfe61ee	0.007763139
22	0x3c272f08	0.010204084
23	0x3e22ac13	0.15885954
24	0xbe9653fb	-0.29360947
25	0xbe216035	-0.15759356
26	0x3d2587ad	0.040412594
27	0xbf99d17c	-1.2017055
28	0xbd228d87	-0.039685752
29	0x3e808d9d	0.25108042
30	0x3eb2776d	0.3485674
31	0x3bd4c2e7	0.0064929607
32	0xbc7c3f11	-0.015395896
33	0xbe829b6d	-0.25509205
34	0xbf258030	-0.64648724
35	0xbebfb918	-0.37445903
36	0xbe8b8b95	-0.2725493
37	0xbf128c77	-0.5724558
38	0xbd029b20	-0.03188622
39	0xbbc973f5	-0.0061478564
40	0x3d92154b	0.071329676
41	0xbf011aa9	-0.50431305
42	0xbe8b310a	-0.2718585
43	0xbe3fe71b	-0.18740503
44	0xbcacc300	-0.021089077
45	0xbe944c32	-0.28964382
46	0x3de12789	0.10993869
47	0xbc7cd031	-0.015430496
48	0xbf019cb3	-0.5062973
49	0xbc7b14d6	-0.015324792
50	0x3d3d3964	0.04619731
51	0xbe7905c7	-0.2431861
52	0x3e01c6f0	0.12673545
53	0xbcc4ffc8	-0.024047747
54	0xbcd9f0f4	-0.026604153
55	0xbd97f8da	-0.074205115
56	0x3d3be0d1	0.0458687
57	0x3ea13a31	0.3148971
58	0xbf11568f	-0.567727
59	0xbe90c250	-0.2827325
60	0xbeb8f883	-0.361271
61	0xbf8957c1	-1.0729905
62	0x3d47fcfe	0.048825257
63	0xba85cf4f	-0.0010208878
64	0xbccbea8f	-0.02489212
65	0x3ca787e3	0.020450538
66	0xbd77fd2c	-0.060544178
67	0x3c961433	0.018320179
68	0x3f538c12	0.82635605
69	0x3f1b7beb	0.6073596
70	0x3db1c216	0.08679597
71	0xbfcab4dd	-1.5836445
72	0x3c06ea56	0.008234581
73	0x3ebafcb8	0.36520934
74	0xbde24e6b	-0.11050113
75	0xbea7ef39	-0.327997
76	0x3efdbc82	0.49557883
77	0xb92a5a48	-0.00016246096
78	0xbe089537	-0.13338171
79	0x3ed6f329	0.4198239
80	0x3f01efbd	0.50756437
81	0xbcb510ef	-0.022102801
82	0x3d70463f	0.058660742
83	0x3c270b0e	0.010195507
84	0xbf0273a6	-0.50957716
85	0xbeb43aac	-0.35201013
86	0x3e8dc33a	0.2768801
87	0xbcccc433	-0.024995899
88	0xbd92a51d	-0.07160399
89	0xbb2d1cea	-0.002641494
90	0xbf060ecc	-0.5236633
91	0x3d0d5477	0.03450438
92	0xbdfc9b31	-0.12334288
93	0x3d055c41	0.032558683
94	0xbd9c456d	-0.076304294
95	0xbc10c85d	-0.008836833
96	0xbd15db13	-0.03658588
97	0xbe26358e	-0.16231367
98	0xbd4cd81c	-0.050010785
99	0xbc8b5499	-0.017008113
100	0xbe54462b	-0.20729892
101	0xbd234216	-0.039857946
102	0x3d52b3c9	0.051440988
103	0x3f562fd4	0.8366673
104	0x3d962aec	0.073324054
105	0x3fb368be	1.401634
106	0x3d141a79	0.03615806
107	0x3f38d6f5	0.72203
108	0x3f313efb	0.69236726
109	0x3d1ceff0	0.03831476
110	0x3f07a6e4	0.5298903
111	0xbc81178a	-0.015758295
112	0xbc8db152	-0.017296467
113	0x3e177bf8	0.14793384
114	0xbe3a84b6	-0.18214688
115	0x3d87ddfc	0.06634137
116	0xbe74c760	-0.2390418
117	0xbe7e9202	-0.24860385
118	0x3bc1027d	0.005890189
119	0x3dbdc06d	0.09265218
120	0x3db9b39a	0.090674594
121	0x3ca2f7eb	0.019893607
122	0x3f306248	0.68899965
123	0xbce2cdc9	-0.027686017
124	0xbf1bdc63	-0.6088316
125	0x3b50e69a	0.003187573
126	0x3e2be144	0.16785151
127	0xbb03004b	-0.0019989188
128	0x3eadd89e	0.33954328
129	0x3e798cb4	0.2437008
130	0x3c31f3f3	0.010861385
131	0xbd000c83	-0.031261932
132	0x3c6ac9a9	0.014330306
133	0x3ddabe6e	0.10680853
134	0xbde52e23	-0.111904405
135	0xbc62045b	-0.013794984
136	0xbf08a928	-0.5338311
137	0xbf094317	-0.53617996
138	0xbb1b2c59	-0.0023677556
139	0x3d229662	0.039694197
140	0x3f09b134	0.53786016
141	0xbee6cb84	-0.45077145
142	0xbd173ce9	-0.036923323
143	0xbd112093	-0.035431456
144	0xbeff1942	-0.49823958
145	0x3e1d96a5	0.15389498
146	0xbe2e004c	-0.16992301
147	0x3e4055c9	0.18782724
148	0x3e29a78b	0.16567819
149	0xbe9b8d54	-0.30381262
150	0x3f35e018	0.71045065
151	0x3ed8eb25	0.423669
152	0x3eb26bd4	0.3484789
153	0xbf2e6f23	-0.6813833
154	0xbb8fa0fe	-0.0043832054
155	0x3a908829	0.0011026907
156	0xbd77d9f9	-0.06051061
157	0x3eb7e748	0.3591864
158	0xbf722bd4	-0.94598126
159	0x3de0b400	0.10971832
160	0xbd0195d7	-0.03163704
161	0x3e547c2f	0.20750497
162	0xbc9a81e1	-0.01886076
163	0x3ef400ae	0.4765677
164	0xbd3c5fc2	-0.04598976
165	0xbe4881cb	-0.19580762
166	0x3ef1e736	0.47246712
167	0xbd678193	-0.056520056
168	0x3f1dc295	0.61625034
169	0x3c2fd983	0.010733011
170	0x3bab2fc4	0.0052242
171	0xbdf7c326	-0.120977685
172	0x3e9674e1	0.29386047
173	0xbf194da0	-0.5988407
174	0x3e364c8f	0.17802642
175	0x3bf50067	0.0074768546
176	0x3df45893	0.11930957
177	0xbb136e4e	-0.0022496167
178	0xbd929829	-0.071579285
179	0x3c1431c7	0.009045071
180	0x3cde0d99	0.027106093
181	0x3b4172b2	0.0029517827
182	0xbf549f6e	-0.8305577
183	0x3d26ad40	0.040692568
184	0x3d18b785	0.037284393
185	0x3f53b5dc	0.8269937
186	0x3cbb0979	0.022831665
187	0x3f15ec41	0.5856362
188	0xbe96b8e6	-0.2943794
189	0x3c787448	0.015164442
190	0x3d582800	0.052772522
191	0x3cc988ca	0.024601359
192	0x3e5b0350	0.21387982
193	0x3b173148	0.0023070145
194	0xbc313bdb	-0.010817493
195	0x3cfbb450	0.030725628
196	0x3c4881a0	0.012237936
197	0x3dd85737	0.1056351
198	0x3d09e015	0.033660967
199	0x3f786b28	0.9703851
200	0xbe140226	-0.14453945
201	0xbec5d82c	-0.3864149
202	0xbdcfe2ed	-0.101507045
203	0x3cafa634	0.021441557
204	0x3bd039e9	0.0063545597
205	0x3c07a2a9	0.008278527
206	0x3de29590	0.11063683
207	0x3dd46066	0.10369949
208	0xbf22fe5b	-0.63669366
209	0xbe90cf30	-0.28283072
210	0x3cf30888	0.029667154
211	0x3bf4118c	0.007448381
212	0x3e561c1f	0.20909165
213	0xbddf5993	-0.10905757
214	0x3e8897c1	0.2667828
215	0x3e01409f	0.12622307
216	0x3f18e44a	0.5972334
217	0x3c375deb	0.011191825
218	0x3e8c45f4	0.2739712
219	0xbe66c4f8	-0.22536075
220	0xbfb17f08	-1.3866892
221	0x3d54c8b6	0.051949225
222	0xbe29dc3d	-0.1658792
223	0x3f8be479	1.0929099
224	0x3f8419f6	1.0320423
225	0xbd648863	-0.05579413
226	0x3e7d998a	0.24765602
227	0x3ec03c72	0.37546116
228	0xbc5d85bb	-0.013520653
229	0x3cad9d20	0.021193087
230	0xbf3bb6a7	-0.7332558
231	0x3d5c33b2	0.053760238
232	0x3e499f6b	0.1968972
233	0xbf410f08	-0.7541356
234	0x3e28fb28	0.16502059
235	0xbef154ee	-0.4713511
236	0x3c1e37c8	0.009656854
237	0x3bd5405d	0.006507917
238	0xbccbae53	-0.024863398
239	0x3d6cdba8	0.057826668
240	0xbdf67b53	-0.12035241
241	0xbd21d808	-0.039512664
242	0xbd5a5660	-0.05330503
243	0x3d3b8f3f	0.045790907
244	0xbea4cc35	-0.32187048
245	0xbd22654b	-0.03964738
246	0xbcedfdf1	-0.029051753
247	0x3cc2f16a	0.023796756
248	0x3c67203b	0.014106805
249	0xbcf773f6	-0.030206662
250	0x3e8e81f2	0.27833515
251	0x3f15a0d1	0.5844851
252	0x3c812ad2	0.015767489
253	0xbefe788c	-0.49701345
254	0xbd5167a3	-0.051124226
255	0x3ce83f76	0.028350573

l3.bias f4 [4]
0	0xbf044b81	-0.5167771
1	0xbeb7bba7	-0.35885355
2	0xbd4d001b	-0.05004893
3	0x3f8d486b	1.1037725
