TD3/saves/lasttry_actor.pth (torch, 518693 bytes, 6 tensors)

l1.weight f4 [400, 18]
000000 ed d4 ae 3f 15 4b a1 be d6 6a 16 bd 55 08 51 3e
       1.365873 -0.31502596 -0.03672298 0.20413335
000010 81 2f d2 bd db dc 0f be f8 b3 7c bf 21 60 0a bf
       -0.10262967 -0.14049093 -0.9871211 -0.5405293
000020 13 f5 1c bf 87 29 b6 3e 81 1c b2 3a 90 0d 80 bf
       -0.61311454 0.35578558 0.0013588817 -1.0004139
000030 2e 5c 9f be 00 e2 92 3d a9 b0 75 3e 87 66 3f bd
       -0.31125015 0.07172012 0.23993172 -0.046728637
000040 c6 02 3b bf cf 65 3d 3f 50 eb 35 40 a1 48 d2 3f
       -0.73051107 0.7398347 2.8424873 1.6428415
000050 f7 69 43 3d e3 04 45 3e e6 f5 6b 3e 02 08 10 bd
       0.047708478 0.19240145 0.23043022 -0.035163887
000060 b7 62 81 bf e9 e0 00 3e 14 74 35 3f b1 1b 5c 3d
       -1.010825 0.12585796 0.70880246 0.053737346
000070 dd fd ab 3c 5e f8 0c 3c bf cf cb 3e a7 73 01 3e
       0.020995075 0.008604137 0.39806935 0.12641774
000080 b4 88 31 be a9 e2 17 3c a4 cf 11 3f fe fc 11 bf
       -0.17337304 0.009270349 0.5695746 -0.5702666
000090 e2 4c f5 ba 79 2a b2 3d 03 52 2b 3f 6e 30 93 bd
       -0.001871493 0.08699507 0.66922015 -0.071869716
0000a0 4b bc c9 3e 53 3e 6a 3e fe 7f 9f bf 0d 65 32 bf
       0.3940147 0.22875337 -1.2460935 -0.6968544
0000b0 0d 22 82 3f 59 b6 23 be 38 5c 0d 3f 2d 59 81 3e
       1.0166641 -0.15987529 0.5521884 0.25263348
0000c0 80 1d 6d 3f 8e 55 0e 3d 05 57 ba 3d 74 cd 0f bf
       0.9262314 0.03474956 0.09098629 -0.5617287
0000d0 86 04 b3 be b3 95 b0 3e 75 f9 e9 bd 43 cd 11 40
       -0.3496439 0.3448921 -0.11424533 2.2781532
0000e0 bd 77 e8 bf 1f f1 c3 3c e7 db 86 bd a0 8b 4d 3d
       -1.8161541 0.023918686 -0.06584912 0.050181985
0000f0 02 cb 88 bf 1a fd be 3e 34 13 40 c0 3f 45 40 3d
       -1.0686953 0.37302476 -3.001172 0.04694104
000100 ea 04 5f bd 65 07 8f 3e 6e e9 7f bf 5a 51 68 3f
       -0.054448046 0.2793533 -0.9996556 0.9074913
000110 6a f6 0e bd 3a 8c ed 3c 56 4a 06 be 6b b3 aa bf
       -0.034902968 0.02899753 -0.13114294 -1.3336004
000120 3b 9c 38 3f 26 03 b4 3d 7a 10 0f 3f 6c 49 9c 3e
       0.7211339 0.08789663 0.55884516 0.30524766
000130 5a 4c 58 bc 96 3f 29 3f 2f 47 4e bf c0 f6 8a bf
       -0.013201797 0.6611265 -0.8057737 -1.0856552
000140 36 95 67 bf 96 d6 7a 3e 67 c2 d2 bd a6 0f 80 3e
       -0.9046205 0.2449592 -0.102909856 0.2501194
000150 76 31 5a 3f 3a d3 3f bf 26 21 6f be 99 7c 22 be
       0.8523172 -0.7493168 -0.23352489 -0.15867843
000160 a6 48 be bd 2c b8 c3 bf 62 3d 91 3f 36 b6 4a 3f
       -0.092912 -1.529058 1.1346858 0.7918428
000170 3b fa 32 3e ff 44 07 bf 5c 0e 82 bd dd 44 c1 3e
       0.17478268 -0.52839655 -0.06350395 0.3774785
000180 db be ae bf db 7b 90 bf 56 b8 d0 3f b3 4c 42 bf
       -1.3651994 -1.1287798 1.6306255 -0.75898284
000190 32 22 72 3e f3 2b 1f bf 4d 47 9b 3b cb 2c f9 be
       0.23645857 -0.62176436 0.0047387243 -0.48666987
0001a0 fd f9 20 be 1e 1a 21 bd 6a 56 98 be a3 41 d2 3e
       -0.15720363 -0.039331548 -0.2975343 0.41065702
0001b0 6f c4 d0 3f 70 3f 2e 3f 08 65 b2 bf 29 fc 9e bd
       1.6309947 0.6806555 -1.3937082 -0.077629395
0001c0 7a 52 9b be 07 0b 1a 3e af 97 54 bf f8 35 8f 3d
       -0.30336362 0.15043269 -0.8304395 0.069927156
0001d0 fc 1f 52 bf f8 a7 fd be e3 4a f2 3e 8b 69 44 3f
       -0.82080054 -0.49542212 0.4732276 0.76723546
0001e0 9b b9 e7 3e f1 d7 ad bf a4 53 c9 bc 52 88 a4 bd
       0.45258793 -1.3581525 -0.024576016 -0.080338135
0001f0 d4 03 af bf 1a 5f 95 be ab 26 ad 3f 12 9e 1e 3f
       -1.3673043 -0.2917412 1.3527426 0.61959946
000200 1b 54 1a bf e7 a0 80 be c5 f3 ff bd 65 71 af be
       -0.60284585 -0.2512276 -0.12497667 -0.342662
000210 62 da 9b bf 86 da b1 3f 29 eb e5 3f cf 1b 5d 3e
       -1.217602 1.3894813 1.796239 0.2159264
000220 ca 86 c6 3d 22 20 15 3f 91 d7 5a 3f bd 16 fd be
       0.09693678 0.58252156 0.8548518 -0.4943141
000230 64 ea 19 3d 7b 4d 80 bd d5 79 00 3e 13 36 56 bf
       0.037577048 -0.06264778 0.12546475 -0.8367626
000240 58 77 8d 3f bf d2 ac 3f 82 c5 a1 3e 37 21 b3 3e
       1.1052046 1.3501815 0.31596 0.34986278
000250 f6 68 13 3d f9 eb 84 3e 5e 4f d9 bf b5 9b 24 3e
       0.03598877 0.25961283 -1.6977346 0.16075023
000260 dc aa 9b 3f 72 ae b0 bd 26 27 9b 3e f1 5a 9c be
       1.2161517 -0.08627023 0.30303305 -0.30538133
000270 08 2d a2 be 37 d5 ce be 7f 0c 27 be 72 69 df be
       -0.3167498 -0.40397045 -0.1631336 -0.43635136
000280 af d0 25 bf c6 b5 e2 be 90 82 03 40 d2 4d 28 40
       -0.6477155 -0.44279307 2.054844 2.6297498
000290 67 95 b7 3b a4 8b 4a 3e 82 d6 54 3e fd 50 a1 3d
       0.005602527 0.19779831 0.20784953 0.078767754
0002a0 50 96 52 3f f0 2f 37 3e 57 a5 81 3e 1c 06 d8 bc
       0.8226061 0.1788938 0.25321457 -0.0263701
0002b0 7c 77 26 bc e4 7c 89 3d 79 b1 17 c0 ad 3f f6 bf
       -0.010160323 0.06713274 -2.370207 -1.9238182
0002c0 f7 f0 96 be 14 53 b5 bd 7b 77 8a bf 99 42 58 3e
       -0.29480717 -0.088537365 -1.0817713 0.21119155
0002d0 3d d0 b3 3f cb a5 1a 3e 9f 53 df 3f b7 10 1f be
       1.4047924 0.15102307 1.7447394 -0.1553372
0002e0 52 77 1b 3e 5e be 25 3d cb 0d 8f bf 9d b9 ef be
       0.15182236 0.04046475 -1.1176084 -0.468213
0002f0 65 8a 7a 3f f8 03 72 be 23 44 1f 3f 12 89 d2 3e
       0.97867423 -0.23634326 0.62213343 0.411202
000300 0f 7a b1 be 83 ae 1f 3f f3 79 26 bd 92 30 1b 3e
       -0.34663436 0.6237566 -0.040643644 0.15155247
000310 ee f7 fa 3e c9 5e 25 3f 9a fe 0d 3e 83 96 9c bf
       0.4901728 0.64597756 0.13866654 -1.2233433
000320 3d 12 25 3d 36 89 27 be c0 58 5a 3e 90 29 09 be
       0.040300597 -0.16360936 0.21322918 -0.13394761
000330 c3 79 5c bf da a5 8e 3f 3a ee 0b 3f de 1f 3e be
       -0.86123294 1.1144364 0.5466038 -0.18566844
000340 02 5e 78 3e 9f 57 3f 3e d7 52 96 3f f0 fd df 3e
       0.24254611 0.18685769 1.1744031 0.43748426
000350 09 1c 89 be a3 21 93 3e fc 06 1e be 44 be 14 bf
       -0.26779202 0.287366 -0.15432352 -0.5810282
000360 61 04 5c 3f 86 df e5 3f 6b 1d ba bf 38 46 17 be
       0.8594418 1.7958839 -1.4540228 -0.1477288
000370 81 6e b1 be 0b b3 0e be 46 5a 74 bf 76 a7 80 3f
       -0.3465462 -0.13935487 -0.95450246 1.0051105
000380 74 f0 1b 3e ee b4 ea 3e 24 e9 4b be 00 e0 c6 be
       0.15228444 0.45841163 -0.19913155 -0.38842773
000390 d1 b9 f5 be b7 ad e0 3f ef d0 41 be 38 d8 1d 3f
       -0.4799333 1.7553014 -0.18927358 0.6165805
0003a0 95 72 0a be 5c 37 1d bf 91 51 ae be 43 f8 4c bd
       -0.13520272 -0.61412597 -0.34046605 -0.05004145
0003b0 ef 3c 7b bf f1 7a d2 be 10 58 bd be 62 c4 d9 bb
       -0.9813985 -0.41109422 -0.3698125 -0.006645725
0003c0 28 2d 5c bf e3 2c 39 3f c1 fb 57 bf 14 e3 ee bd
       -0.860064 0.72334117 -0.8436852 -0.116644055
0003d0 c3 7c 1b 3e 23 da bf be 8f 21 db 3e 7f 07 c3 bf
       0.15184312 -0.37471113 0.4279904 -1.5236663
0003e0 9f 64 96 be 61 2d c6 bd 37 da 93 bf 80 b7 2b 3e
       -0.29373643 -0.09676624 -1.1550969 0.16769218
0003f0 d1 4c c2 3f f6 c6 6b 3f f9 6b 85 3e a2 56 ab be
       1.5179693 0.92100465 0.2605894 -0.33464533

l1.bias f4 [400]
000000 77 29 69 bf 6f cc 8d bf ab 23 74 bf b5 6d 8b 3e
       -0.91078895 -1.1078013 -0.95366925 0.27232137
000010 68 9c 67 bf e9 d7 92 bf 30 55 8c bf 35 24 97 bf
       -0.9047303 -1.147214 -1.0963497 -1.1807925
000020 b9 0f 8e bf b1 67 61 bd 0c 82 b9 bf 8d 90 c2 bf
       -1.1098548 -0.05503053 -1.4492812 -1.5200363
000030 9a 05 6e 3e 0e 64 ac bf 2a 01 8e bf 57 fe f4 be
       0.23244324 -1.3468034 -1.1094105 -0.47850296
000040 e7 a5 90 bf 6a ce 96 be 70 8b 4d bf ec 36 9f be
       -1.1300629 -0.29454356 -0.8029089 -0.3109659
000050 58 a8 99 bf 79 02 ac bf 58 fc ac be 61 de 1c bf
       -1.20045 -1.3438255 -0.33786273 -0.61276823
000060 d3 f8 6d bf 79 5a a9 bf c5 02 c9 bf 16 d9 ba 3b
       -0.929578 -1.3230735 -1.570397 0.005702148
000070 3f b4 17 bf 13 34 33 bf 78 2a ad be cc 11 a1 bf
       -0.5925941 -0.70001334 -0.33821464 -1.2583556
000080 73 5f 98 bf 1e e8 93 bf 86 73 b2 bf cb 00 70 bf
       -1.1904129 -1.1555212 -1.3941505 -0.9375121
000090 de 3c 58 bd da 19 f5 be 30 a6 e4 be 44 ed 95 bf
       -0.052792422 -0.47871286 -0.4465804 -1.1713033
0000a0 3a ce de bf ad 94 7b bf 07 76 9b bf 16 c4 dd bf
       -1.7406685 -0.98273736 -1.2145394 -1.7325466
0000b0 81 76 a8 3d f7 c1 19 bf 6e ff a2 bf e3 ce de be
       0.08225728 -0.6006159 -1.2734201 -0.43517217
0000c0 b8 f0 d1 bf 46 33 3a bf 2e c0 56 bf 0d e1 a6 bf
       -1.6401587 -0.7273449 -0.8388699 -1.303743
0000d0 39 15 b9 bf 88 5f 5e bf 23 38 17 bf 6a 0c 0a bf
       -1.4459602 -0.8686452 -0.5907003 -0.5392519
0000e0 cc bb aa bf cb fb 79 bf fa da c9 bf d6 8d 85 bf
       -1.3338561 -0.9764983 -1.5769951 -1.043391
0000f0 53 bf 8c bf 94 06 f9 be f2 cc fa be 52 39 7a bf
       -1.0995888 -0.4863783 -0.48984486 -0.97743714
000100 f3 5c 2b bf b3 1d ab bf bf 3f 9e bf db 10 00 bf
       -0.66938704 -1.3368438 -1.2363204 -0.5002572
000110 9d 85 84 bf 4e 0f 46 bf 76 16 59 bf 8c 3f 82 bf
       -1.0353276 -0.77367103 -0.847999 -1.0175643
000120 43 2e 8e bf b3 91 3a bf ce 0e 98 bf 61 f9 83 bf
       -1.1107868 -0.7287857 -1.1879518 -1.0310479
000130 94 e8 11 3b 9c b4 af bf ac 83 40 3e 99 61 17 bf
       0.0022263872 -1.3726993 0.18800229 -0.591333
000140 7b 6c 9f bf b3 07 be bf 7a 0c 6f bf 73 37 86 bf
       -1.2454981 -1.48461 -0.9337841 -1.0485672
000150 06 38 91 bf b7 ad 7b be 2e 6a e3 be ff c7 11 bf
       -1.1345222 -0.24577986 -0.44416946 -0.56945795
000160 03 ba 52 bf ec 2f 9b bf d3 29 81 be 4e c3 3b be
       -0.8231508 -1.2124 -0.25227222 -0.18336222
000170 19 4a 96 bf e1 f8 cc be 42 0b bd be 08 90 a0 3d
       -1.1741363 -0.4003363 -0.36922652 0.07839972
000180 eb 41 a9 bf f1 13 9b bf 68 91 99 bf 19 2a 81 bf
       -1.3223242 -1.2115461 -1.19975 -1.0090972
000190 09 78 29 bf f5 6a ee be e8 f4 57 bf ad a3 11 bf
       -0.66198784 -0.46565977 -0.8435807 -0.56890374
0001a0 6d 6d 0f bf 32 77 19 3e f5 fd 61 bf 5c 81 62 bf
       -0.56026345 0.14986876 -0.8827813 -0.88478637
0001b0 1a c9 b6 be f1 42 1e bf 71 f2 68 be 82 e8 49 bf
       -0.35700303 -0.61820894 -0.22748734 -0.78870404
0001c0 3c 35 8b bf 39 ab 77 bf 37 b1 a9 bf e5 b5 53 bf
       -1.0875621 -0.9674564 -1.3257207 -0.82699424
0001d0 21 c9 10 bf 44 25 97 bf 1a 75 53 bf 53 cd 0f be
       -0.565569 -1.1808248 -0.8260056 -0.14043169
0001e0 47 77 67 bf f3 96 3b bf b6 de a0 bf e1 45 cc bf
       -0.9041638 -0.73277205 -1.2567966 -1.5958825
0001f0 2f b0 d2 be 2e 53 52 3d cd ca 87 be a7 ad 80 bf
       -0.41150042 0.051348858 -0.26521912 -1.0052994
000200 09 c3 7e bf a9 d1 7a be 39 73 84 bf d6 6e df bf
       -0.9951635 -0.24494042 -1.0347663 -1.74557
000210 a8 55 86 bf cf d1 9d bf 38 a5 01 c0 6c 2b db bf
       -1.049489 -1.2329654 -2.0257092 -1.7122626
000220 9a 6b 6d bf ef 84 a4 bf 15 d4 74 3d 4d e1 96 bf
       -0.9274231 -1.2853068 0.05977257 -1.1787506
000230 d9 a3 0d bf 2d e7 3b be bb 4d b3 bf 14 b6 44 3f
       -0.55328137 -0.18349905 -1.4008096 0.7684033
000240 ec dc 21 bf 78 55 11 bf 1c 45 09 be 5b 88 76 3e
       -0.63227725 -0.5677104 -0.1340527 0.24075453
000250 5d f5 12 bf c7 92 33 bf 7c 74 a2 be 6c 95 37 3d
       -0.57405645 -0.7014584 -0.31729496 0.044820234
000260 3b 9a 8c bf 66 d3 c2 bf 39 06 b0 bf 7f d4 b7 bf
       -1.0984567 -1.5220764 -1.3751899 -1.4361724
000270 ca 70 7d bf 8f e2 d4 bd e2 1a d2 3d ea 9b 8b bf
       -0.9900023 -0.10394775 0.10259034 -1.0906956
000280 37 0c 63 be 33 87 22 be b2 34 48 bf e0 da a8 bf
       -0.22172628 -0.15871887 -0.78205407 -1.3191795
000290 bc 79 a2 3f c9 a8 7c 3e 3f eb 84 bf d5 cc 20 bf
       1.26934 0.24673761 -1.0384291 -0.6281255
0002a0 60 8a f1 be 9b 99 02 3e b7 90 a1 bf 5f e0 1a bf
       -0.47175884 0.12753908 -1.2622288 -0.60498613
0002b0 aa 7b be bf 3b 06 ef 3d 46 ca f0 be 71 3f 19 bf
       -1.4881489 0.1167111 -0.47029322 -0.5986243
0002c0 eb 01 6d be c8 24 85 3e 4d b4 03 bf fa 2a d2 3e
       -0.23145263 0.26004624 -0.5144699 0.41048414
0002d0 e8 52 eb be 02 e8 5d bf 2f ea 43 bf 16 4a b0 bf
       -0.4596169 -0.8668214 -0.7652921 -1.3772609
0002e0 1f 10 88 bf cf 60 77 bf 04 a9 ca be 01 3d f5 be
       -1.062992 -0.96632093 -0.39582074 -0.47898105
0002f0 4c 34 91 bf 15 84 86 bf 33 91 33 3f 71 4e 99 bf
       -1.1344085 -1.0509058 0.7014343 -1.1977063
000300 b7 14 2e bf 48 60 16 bf d4 04 89 bf be ed 3d bf
       -0.6800036 -0.58740664 -1.0704598 -0.7419089
000310 c0 e8 1b 3f 8e eb e9 be cc d9 b5 bf e9 fc 6f bf
       0.60902023 -0.45687526 -1.4207091 -0.93745285
000320 24 09 cc 3e 2a 38 2f bf 58 c7 58 be 48 b8 aa bd
       0.39850724 -0.68445075 -0.21169794 -0.0833593
000330 ee 10 f7 be 50 9a 28 3f 51 00 ab bf e1 c8 11 bf
       -0.48255104 0.6586046 -1.3359472 -0.5694714
000340 79 12 bd bd a0 1a 14 bf 79 45 98 bf e7 03 0f bf
       -0.09232039 -0.57853127 -1.1896201 -0.5586533
000350 e8 1a 10 bf 41 e2 90 bf 5e 06 18 bf a9 cf 55 3d
       -0.56291056 -1.1319047 -0.59384716 0.052199993
000360 c6 65 b8 be 32 b2 70 bf b3 85 5e bf ad 20 a0 be
       -0.36015147 -0.94021904 -0.8692276 -0.3127493
000370 35 57 7f bf 53 9d 31 bf 33 46 17 bf 46 7d b7 bf
       -0.9974244 -0.6938068 -0.5909149 -1.4335105
000380 dd b5 61 be d1 12 de bd 31 7e a8 bf da de 87 bf
       -0.22042032 -0.10843433 -1.316351 -1.0614884
000390 0f 05 46 bf 17 e7 9a bf bc b9 82 bf c2 e1 2e bf
       -0.7735147 -1.2101773 -1.0212932 -0.6831323
0003a0 2a 6c 86 bf a2 36 94 be 44 09 f4 be 14 e0 c6 bf
       -1.0501759 -0.28947932 -0.4766332 -1.5537133
0003b0 60 ab 7b bf 9b 79 81 bf ca 4b 76 bf fa 06 5c bf
       -0.9830837 -1.0115236 -0.96209395 -0.85948145
0003c0 43 f3 44 bf 65 84 e9 be dd c5 d7 be 43 c5 99 be
       -0.7693369 -0.45608822 -0.42143145 -0.3003331
0003d0 6d 87 49 bf dd bf 35 be 13 85 a3 3d 42 62 c3 bf
       -0.7872227 -0.17748971 0.07984366 -1.5264361
0003e0 9c 38 9a bf 9b 14 68 bf 27 98 08 3e b4 d2 1b bf
       -1.2048526 -0.9065644 0.13339292 -0.6086838
0003f0 a1 c0 81 bf 2a 68 79 bf 10 16 b0 bd 93 60 a2 bf
       -1.0136911 -0.97424567 -0.08597958 -1.2685722

l2.weight f4 [300, 400]
000000 c4 3c f3 3d c4 6f d0 3d f4 76 11 3e a8 16 03 be
       0.118768245 0.101775676 0.14205533 -0.12801611
000010 63 99 25 3f 34 f8 93 3e 5e 06 65 bf d5 8d 66 bc
       0.64687175 0.289003 -0.8946284 -0.014071901
000020 c0 4b d6 be 1f 0c d9 bf 63 fb 7e 3d 12 b1 c9 be
       -0.41854668 -1.6956824 0.06225146 -0.39392906
000030 a0 40 67 be 5e df b4 3d 87 34 a3 3d 1b 2b 4b 3e
       -0.22583246 0.088316664 0.07969003 0.19840662
000040 10 b8 e7 3e 2a 73 ca be 5b 61 e8 bc 56 c8 1b bf
       0.45257616 -0.39540988 -0.028366735 -0.60852563
000050 94 a8 10 bf 42 91 47 be 37 ef ca be 9d 3a ea 3d
       -0.5650723 -0.19489005 -0.3963563 0.11436961
000060 cb ed a4 bf 2f bb 19 bf 33 f5 49 3e 4e 09 2d bd
       -1.2885069 -0.60051244 0.19722442 -0.0422452
000070 05 e3 d5 be 4f 27 85 ba 50 73 6d be a5 0d 2b bf
       -0.41774765 -0.001015881 -0.2318852 -0.66817695
000080 cb e0 8b be 4c c3 ea 3e ae 43 24 3d 5a 08 c2 bf
       -0.2731994 0.45852125 0.040103607 -1.5158799
000090 3b 5b fb 3d 06 85 47 3e 8d 4e a4 3e 11 df 9c be
       0.1227326 0.19484338 0.3209118 -0.30638936
0000a0 64 df fc be 18 58 d3 be e0 00 89 be 11 25 57 be
       -0.49389184 -0.41278148 -0.2675848 -0.21010233
0000b0 43 c1 ac be f2 ea 8b be 1c 35 92 bf 41 cc 4e bf
       -0.33741197 -0.27327687 -1.1422458 -0.80780417
0000c0 0d df 8c be 14 4b 51 bf 8b ad 7d bf d8 a1 24 bf
       -0.27513924 -0.81755185 -0.9909293 -0.64309454
0000d0 43 d9 9b bf 77 82 ea 3d cb 7e 85 bd 34 97 b1 be
       -1.2175678 0.114506654 -0.065183245 -0.3468567
0000e0 f2 fc 1c 3f 24 66 bd be bf 36 ad be 56 ee 6b 3f
       0.61323464 -0.3699199 -0.3383083 0.92160547
0000f0 5b 68 bb bf f4 8d 33 bf 95 fc a8 bf eb 92 97 be
       -1.4641222 -0.7013848 -1.3202082 -0.29604277
000100 06 e2 cb 3d a7 fe 0f 3f 94 df 76 bf ab 7e c1 bd
       0.0995522 0.56247944 -0.96434903 -0.09447988
000110 cc e2 5f be 41 cd 5c bf a1 e5 8b bf d0 59 1f be
       -0.2186386 -0.8625069 -1.0929452 -0.15561604
000120 a1 69 09 3d 53 bc 1d 3f 98 b6 7f 3e b0 e0 d6 bd
       0.033548 0.61615485 0.24971998 -0.104920745
000130 0e 2d 65 be a8 f7 81 be 10 95 e7 be 31 79 33 bf
       -0.22380468 -0.2538426 -0.45230913 -0.701068
000140 4b 6b 04 be 3e b7 98 3e 6f cf 05 3f 84 a5 a2 3d
       -0.12931554 0.29827303 0.52269644 0.07941726
000150 42 2c 59 bf f2 1c 5c bf 71 a7 bc be ce 56 c9 3e
       -0.8483316 -0.8598167 -0.36846498 0.3932404
000160 58 2a 1d 3f bb e1 31 3f 1f 10 0c be 1b 5a 14 be
       0.61392736 0.6948506 -0.13678025 -0.14487498
000170 d8 f7 14 bf 03 42 ea be 02 5a 94 bf f5 3f c0 be
       -0.5819068 -0.45753488 -1.1589968 -0.37548795
000180 4a 45 17 bf dc 4d 0b be 6d 0d 0a bf 88 ae 0b bf
       -0.590901 -0.1360392 -0.53926736 -0.5456319
000190 90 09 50 bf 43 2d 88 3e 30 7e 99 3e ef 02 9a bf
       -0.8126459 0.26597032 0.29979086 -1.2032145
0001a0 41 24 af bf 65 00 67 bf b1 82 18 bf 79 76 4d bf
       -1.3682939 -0.90234977 -0.5957442 -0.802589
0001b0 1b 22 02 bf 55 9b b2 3f 45 78 89 3e 34 e9 9c bf
       -0.5083329 1.3953654 0.2684957 -1.2258668
0001c0 fe 01 ec 3e 0b 95 a7 3e 0f 09 2c be 83 ee 87 bf
       0.4609527 0.32730898 -0.1680033 -1.0619663
0001d0 0d 6e 06 bf ae 32 02 be eb c2 0e bf ac 05 25 bf
       -0.52511674 -0.12714645 -0.5576617 -0.6446178
0001e0 ab 3f ae be 59 a8 6c 3d dc a0 37 3f 33 03 31 be
       -0.3403295 0.057777736 0.71729827 -0.17286377
0001f0 c5 db bc 3e c2 9a 3f 3f 9d fa 65 bc 0f 3c 5f 3e
       0.3688642 0.74845517 -0.014036802 0.21800254
000200 54 8d 32 be c4 0f d2 3e 1c 89 74 be cc 63 fe 3e
       -0.17436725 0.41027653 -0.23880428 0.49685514
000210 49 21 57 bd 6b fb f8 be 89 51 87 3f b0 6c e5 bd
       -0.052521978 -0.48629317 1.0571758 -0.11202371
000220 da cd 16 3e e0 03 31 bd d5 7f e8 bd c0 5c 14 bf
       0.14726964 -0.043216586 -0.11352507 -0.57954025
000230 1a b1 f1 be 7e 10 8c bf a5 96 4b 3f c4 db a4 bf
       -0.4720543 -1.0942533 0.7952674 -1.2879567
000240 e0 1d dd 3e 7d b7 3b be d5 d5 93 3e 39 cd 88 bf
       0.43186855 -0.18331714 0.28874078 -1.0687629
000250 cb 5b 4b bf 9d 60 80 bf 8a b1 1d 3e 83 31 01 3e
       -0.7943694 -1.0029484 0.15399757 0.12616543
000260 7e 4c 27 3f 1a c9 b8 be 49 0b c2 bd 7e f2 ea be
       0.6535109 -0.36090928 -0.09474809 -0.45888132
000270 c0 bc 1c bf 13 61 3b bf 24 55 88 bf 3e ac 65 3f
       -0.6122551 -0.73195 -1.0650983 0.89715946
000280 2a 32 28 be 79 17 76 bf d1 d4 1a bc ce a2 cf be
       -0.16425386 -0.96129566 -0.009450153 -0.40553898
000290 cc 8c 0f be db 82 3d be b2 6c 1c 3e da 58 d2 3d
       -0.14018553 -0.18506949 0.15275839 0.10270853
0002a0 bf a0 6d be 6d 13 5e bd 53 2d 1e bf d8 c8 1f bf
       -0.23205851 -0.054217745 -0.6178791 -0.6241584
0002b0 33 40 b2 be 0d 7c 47 3d 9d 14 37 be 62 c5 1f bf
       -0.34814605 0.04870229 -0.17878957 -0.6241056
0002c0 65 29 c1 be 2b a6 2f bf cd 57 4d bf a7 e1 52 bf
       -0.37726894 -0.6861293 -0.802121 -0.8237557
0002d0 00 72 3c bf 05 15 82 bd 4e 64 2e be 52 ad 85 3e
       -0.7361145 -0.063516654 -0.1703045 0.26108795
0002e0 9e c4 85 bb 99 64 2a bf 13 e4 73 bf 00 23 da be
       -0.0040822765 -0.6655975 -0.9526989 -0.42604828
0002f0 96 1b ae be d6 6c 9c 3e 15 d4 f3 be 73 5d 29 3e
       -0.3400542 0.30551785 -0.47622743 0.16539554
000300 87 8d 60 3d 92 f1 cb be b4 c6 5d 3f dd 37 47 bf
       0.05482247 -0.3983274 0.8663132 -0.77819616
000310 16 8b b3 be 70 7f 09 3f 97 37 b5 be 00 51 0c bf
       -0.35067052 0.5371008 -0.35393974 -0.54811096
000320 3e 28 fa bf 62 dd d7 be ed a8 35 3f a0 77 16 bf
       -1.9543531 -0.4216109 0.70960885 -0.58776283
000330 4b 6f 1f 3e bd 6a 3b bf 1f f7 10 bf 88 71 59 3c
       0.15569799 -0.73209745 -0.56627077 0.013271697
000340 1e c1 af bf f3 8e 48 bf 2a d7 23 bf 18 10 0f 3f
       -1.373081 -0.78343123 -0.6400019 0.5588393
000350 03 74 81 3e cf 86 a1 be 1c b8 48 bf ac a5 95 3e
       0.25283822 -0.31548163 -0.7840593 0.2922796
000360 d7 c3 3d bf da d7 ea bd 45 b7 9c 3e fb 0b 84 bd
       -0.7412695 -0.11466952 0.30608574 -0.064475976
000370 2d 61 87 bf 55 10 2a bf 28 20 0f bf bb 83 26 3e
       -1.0576531 -0.6643117 -0.5590844 0.16261189
000380 d5 ad 33 be 72 f1 20 bf c4 4e d3 3e a8 a5 b7 be
       -0.1754678 -0.62868416 0.4127103 -0.35868573
000390 a2 55 f0 3e f3 e9 c3 3e 97 f7 af bf dd 5e a3 be
       0.46940333 0.38264427 -1.3747433 -0.31908312
0003a0 81 02 64 3d 69 ec 93 bf b3 fb 91 be 55 ce 01 be
       0.05566645 -1.1556522 -0.28512344 -0.12676366
0003b0 e3 ab ad 3c 6c b0 7f bf 7d 1e e0 be 74 9b a9 be
       0.021200126 -0.99878573 -0.4377326 -0.33126414
0003c0 44 17 10 3e 3b 15 58 bb da 1a 96 bf d7 bb 58 3f
       0.14071375 -0.0032971639 -1.1726944 0.8466162
0003d0 bb 1d e2 3e 82 6f f5 be ee 96 0d 3e 66 23 96 be
       0.44163308 -0.47936636 0.13827106 -0.29323882
0003e0 fe 82 f7 3e b9 cb d3 3c 43 bb 78 bf ef 53 b0 bf
       0.48342127 0.025853978 -0.9716074 -1.3775615
0003f0 b8 96 c9 bd f1 d6 e8 be 6f 45 d7 be 74 e6 18 3f
       -0.098432004 -0.45476487 -0.4204516 0.59726644

l2.bias f4 [300]
000000 ce aa f7 be 9c de b4 bd d6 9d d3 be db 6a 7b bd
       -0.483725 -0.08831522 -0.41331357 -0.061381202
000010 11 4c bc bd 93 4b b6 be cb 5d d3 be 92 94 f0 be
       -0.09194196 -0.35604534 -0.41282496 -0.4698835
000020 02 26 a5 be a9 99 cd 3d f6 a5 0a bf 6d 58 01 3e
       -0.3225556 0.10039074 -0.54159486 0.12631388
000030 3c 02 72 bd 4d 88 56 bf 85 96 c2 bd 48 b7 81 bd
       -0.059084162 -0.8380173 -0.095013656 -0.06333786
000040 a9 6f d4 bd 24 b5 81 bd f8 f3 4e bf 04 96 8d be
       -0.1037286 -0.06333378 -0.80841017 -0.27653515
000050 38 20 ac be 80 7c 9b bd 46 b7 57 ba 08 90 c1 3d
       -0.3361833 -0.07592106 -0.0008228909 0.094513
000060 16 ed 6e be 27 db 4d bf 5a 93 9f be a5 b7 04 be
       -0.23332629 -0.80412525 -0.31167108 -0.1296068
000070 78 2f 19 be 12 9c 9e bd 95 4e 18 bf 64 d8 f8 bb
       -0.14959514 -0.07744612 -0.59494907 -0.007594155
000080 36 4b 6c bc ce d7 47 bf ce a7 28 bf 94 93 45 bf
       -0.014422229 -0.78063667 -0.6588105 -0.7717831
000090 ef 2d 24 bf db 87 ee be 52 b2 6f bd 10 a4 cd 3c
       -0.6413259 -0.46588024 -0.05851967 0.025102645
0000a0 05 a2 25 bf c6 10 14 3e 15 e5 fc be 55 63 16 be
       -0.6470035 0.14459524 -0.49393526 -0.1468633
0000b0 85 13 50 bd 88 e9 cc 3b 8f f7 11 be da 90 a1 bb
       -0.050799865 0.006253425 -0.14254592 -0.0049305977
0000c0 fc a0 60 bf 65 d6 c4 bc 6f fa c7 bd a4 b3 c5 3d
       -0.8774564 -0.024028013 -0.09764563 0.09653404
0000d0 d7 6b 56 bc c9 5b 26 be e5 9d 80 bd 1b a7 3d bf
       -0.013087234 -0.16245951 -0.06280116 -0.7408311
0000e0 6a 73 dd bc 8d 1d a9 be 4a 0d 89 be 4b dc 3a bf
       -0.027032573 -0.33030358 -0.2676795 -0.7299239
0000f0 95 c1 3d bf 36 43 d1 be b6 6a 5b bd f8 0e f6 bc
       -0.7412351 -0.4087159 -0.053568564 -0.030036435
000100 6c 0f 23 bd 88 24 67 bd 21 17 96 be d0 d9 77 3c
       -0.03980963 -0.056431323 -0.2931452 0.015127614
000110 20 54 af be be 35 32 bf 1f 29 0a be 29 08 12 bf
       -0.3424387 -0.69613254 -0.13492249 -0.570437
000120 6a be 78 bc 58 91 fd bd c3 41 9f be 87 bf 16 bf
       -0.015182117 -0.12381238 -0.3110486 -0.58886
000130 a6 34 a8 be 3a f3 4f bd a9 ac 8a bd 90 1b 4c bf
       -0.32852668 -0.05076907 -0.067712136 -0.7972956
000140 58 3a 49 be 81 cb 4b 3d fe 4a 96 bd 93 e0 91 bd
       -0.19651163 0.049754623 -0.073385224 -0.07122912
000150 60 1e 96 bd 9e c5 b4 be 17 ce e7 be f9 e9 f1 be
       -0.07330012 -0.3530702 -0.45274422 -0.4724882
000160 75 97 9a bd 2a c1 29 bd 4f b2 50 bd 05 82 80 bd
       -0.075484194 -0.04144398 -0.0509513 -0.06274799
000170 7b 91 3a bf 4a ae d8 be 9f e3 ed be 32 db 66 bd
       -0.72878236 -0.42320472 -0.46462724 -0.056361385
000180 6e 93 2d bd 56 f1 f9 be d7 df 96 bd 79 34 82 bd
       -0.042376928 -0.48816937 -0.07366913 -0.063576646
000190 93 10 88 bd 52 e0 43 bd 13 4d c9 bd b5 62 7f be
       -0.06643786 -0.04782135 -0.09829154 -0.24939997
0001a0 94 2c e9 bd 17 c6 b3 bf 7c 2b 55 bd 43 24 78 bf
       -0.11385456 -1.4044827 -0.052043423 -0.9693033
0001b0 80 1b 03 bf a2 17 90 bd 42 35 b5 be ed 8a 56 bc
       -0.51213837 -0.070357576 -0.35392195 -0.013094646
0001c0 7f cd 6b bc c2 4a a9 bd 74 3c 0c be 70 90 44 bd
       -0.014392256 -0.08266212 -0.13694936 -0.04798931
0001d0 0f dd b3 bd 2b 4a 29 bf d5 0d 95 bd 3e 80 5a be
       -0.08782398 -0.66128796 -0.07278029 -0.21337983
0001e0 8a 7b 06 bf f5 59 88 3b b0 02 c9 be f6 23 bd bd
       -0.52532256 0.0041611143 -0.39259863 -0.09235375
0001f0 72 b4 c4 be 1d b4 79 bd fa 63 38 be 7f ff b8 bc
       -0.3841892 -0.060962785 -0.18006888 -0.022582768
000200 a0 7f d6 be eb a6 b4 be c2 18 8d bd dc 11 1a bd
       -0.41894245 -0.35283598 -0.06889488 -0.03761469
000210 48 48 62 bd 39 03 03 bf 25 1c 98 be f8 c4 38 bd
       -0.055244714 -0.5117679 -0.29708973 -0.04510972
000220 2c d9 61 be 9c 0d c3 be 36 a4 71 bd 26 93 56 bf
       -0.22055501 -0.3809632 -0.058994494 -0.8381828
000230 30 18 f1 bd c7 74 01 bf ac aa 82 bd 35 60 4f be
       -0.117721915 -0.50568813 -0.06380209 -0.20251544
000240 a0 b0 43 bf e5 cb 08 bf 2f b1 46 bf 61 8b 74 be
       -0.76441383 -0.5343612 -0.7761411 -0.23881294
000250 54 05 1c be 97 ce b2 be ef 6e e4 be 93 b8 89 be
       -0.15236408 -0.3492324 -0.44615886 -0.2689863
000260 c8 1d 2d bf e0 cc 89 be 45 cf e3 bd c0 03 9e bd
       -0.6762357 -0.2691412 -0.11123518 -0.07715559
000270 aa df 0a bd 82 5e 17 bf 2b 9a 9f be 5c 2f 82 be
       -0.03390471 -0.5912858 -0.31172308 -0.25426757
000280 ac 2f c4 bc 43 40 82 bf 1b 9e 92 bd 6f d2 64 be
       -0.023948513 -1.0175861 -0.071590625 -0.22345899
000290 c0 c6 28 bd 00 93 94 be 2f 40 ab 3d cd 0d a6 be
       -0.041205168 -0.29018402 0.083618514 -0.32432404
0002a0 a0 e5 1f bf c3 61 f8 bd b9 5f fe bd fc 5c 1e bf
       -0.62459755 -0.121280216 -0.124206014 -0.6186063
0002b0 e1 33 91 bd 3a ed f7 bd 1c 81 42 be e9 4d 36 bd
       -0.07089973 -0.12105794 -0.18994564 -0.044507895
0002c0 84 a1 86 be 04 21 c8 bd c6 c4 72 bd fe 9f 8a bf
       -0.26295102 -0.09771922 -0.05926969 -1.0830076
0002d0 94 e5 c1 bd d2 83 38 bc 37 27 fd be 26 50 6d bd
       -0.09467617 -0.011261897 -0.4944398 -0.057937764
0002e0 9c 78 c2 bc b6 2c 65 bf e6 68 4c bd c0 10 ab 3b
       -0.023739152 -0.8952135 -0.049904726 0.0052205026
0002f0 ae 86 6a bf d6 8e 64 bd 83 6f 80 bd d4 74 89 bc
       -0.91611755 -0.05580028 -0.06271269 -0.01677934
000300 86 5c 6b be 3c ec f2 be 44 b9 8a bd 02 83 1b 3e
       -0.22984514 -0.47445858 -0.06773618 0.15186694
000310 4c 65 64 bd 75 9c 63 bf b6 07 94 bc 8e c1 18 bf
       -0.055760667 -0.8891061 -0.018070083 -0.5967034
000320 0a 1a 06 3e 3c d9 38 bf f2 f0 e2 bd 05 f1 ab bf
       0.1309587 -0.72206473 -0.11081113 -1.3432928
000330 c5 de ab bd a1 e7 99 bd 95 a3 a7 be ed 51 5c be
       -0.08392099 -0.07514883 -0.3274199 -0.21515627
000340 3d 7b da be 6d 65 ca be ca 54 d4 bc 53 78 45 be
       -0.42672148 -0.39530507 -0.025919337 -0.19284181
000350 d4 a2 c9 be 48 95 37 3d 1f a1 a7 be e3 9f 9d be
       -0.3938204 0.0448201 -0.32740113 -0.30786046
000360 0b 55 3c bf a5 a4 89 bd 1e 0e 71 be 1d dd 1a bf
       -0.73567265 -0.067208566 -0.23540542 -0.6049364
000370 f7 3e 68 bf c0 01 d7 bc ed 5e fd be 73 97 32 3e
       -0.90721077 -0.026245952 -0.49486485 0.17440586
000380 8a 8a 52 bf cb ab c2 3d cb bf 6d 3e e6 5d ca 3c
       -0.82242644 0.09505423 0.23217694 0.024702977
000390 82 1d b2 bd 2d cf a8 bb 65 30 e8 bd b3 7f 8b bd
       -0.086970344 -0.0051516504 -0.113373555 -0.06811466
0003a0 d1 34 59 bf ae 0e f6 be 2a 10 b9 be 66 4a 30 bf
       -0.84846216 -0.48058075 -0.36145145 -0.68863523
0003b0 3b 31 e0 bc 51 8b 8c bc 5d c2 98 bd 7c d6 ba bd
       -0.027367225 -0.017156275 -0.07458947 -0.09122941
0003c0 6e 68 55 be 4c b4 e9 be 9b 37 75 bf 2d c1 4f be
       -0.20840618 -0.45645368 -0.9578797 -0.20288534
0003d0 56 ea 79 bf ab dd 95 bd 69 35 0a 3c 1e 5d ac bd
       -0.97623193 -0.073176704 0.008435586 -0.08416198
0003e0 09 95 fd bd 8e b2 e3 bc 5a d0 12 3f a7 32 c6 be
       -0.12381942 -0.027795102 0.5734917 -0.3871052
0003f0 6d 06 be bd 0f 78 04 bf 78 b0 87 be 31 7e b0 bd
       -0.09278569 -0.51745695 -0.26501822 -0.08617819

l3.weight f4 [4, 300]
000000 09 58 80 bf 35 6d 21 bd f8 73 1f bf d5 1e bb bb
       -1.0026866 -0.03941079 -0.6228633 -0.0057104626
000010 9b 72 74 3c c4 86 26 3e fd 3d 90 3e ed 3b 5b bf
       0.014919902 0.16262347 0.28172293 -0.85638314
000020 b9 94 31 bf 9c dc db be 10 d2 a5 bd 4f f7 59 3d
       -0.6936756 -0.4294175 -0.08096707 0.053214367
000030 d2 df 1c bc 91 7f cb be dc 31 a4 3c 2f 4a cd be
       -0.009574847 -0.39745763 0.020043306 -0.4009566
000040 76 cc be 3d 06 61 f0 bc 35 7c 10 be 5b 49 f9 3d
       0.093163416 -0.02934314 -0.14109881 0.121721946
000050 b5 96 01 3f ee 61 fe 3b 08 2f 27 3c c1 85 17 3e
       0.50620586 0.007763139 0.010204084 0.14797117
000060 ef 95 58 be 5f b7 0e be 77 11 1e be 81 e2 40 bf
       -0.21150945 -0.13937138 -0.1543635 -0.7534562
000070 87 8d 22 bd 79 cd a6 3e e6 7a ae 3e e7 c2 d4 3b
       -0.039685752 0.32578638 0.3407814 0.0064929607
000080 11 3f 7c bc 6f aa ae be 93 80 ff be 62 8f f3 bc
       -0.015395896 -0.34114406 -0.49902782 -0.029731456
000090 ae 72 56 be 7a 91 b5 be 20 9b 02 bd f5 73 c9 bb
       -0.20942184 -0.35462552 -0.03188622 -0.0061478564
0000a0 1f 87 0d be 46 00 82 be c8 21 2e be d9 57 a8 bd
       -0.13821076 -0.25390834 -0.17005074 -0.082198806
0000b0 00 c3 ac bc ac 7d b2 be 20 6e b8 3c 31 d0 7c bc
       -0.021089077 -0.34861505 0.02251345 -0.015430496
0000c0 a5 98 ba be d6 14 7b bc 64 39 3d 3d 37 12 81 be
       -0.36444584 -0.015324792 0.04619731 -0.2520921
0000d0 2b f2 02 3e c8 39 75 be f4 f0 d9 bc 47 0b a0 bd
       0.12787692 -0.23947823 -0.026604153 -0.07814651
0000e0 d1 e0 3b 3d 71 94 aa 3e be ca 11 bf 9d ef c8 be
       0.0458687 0.33316377 -0.56949985 -0.3924531
0000f0 ac a3 d3 bd a7 b0 71 bf fe fc 47 3d 4f cf 85 ba
       -0.10333952 -0.94410175 0.048825257 -0.0010208878
000100 8f ea cb bc e3 87 a7 3c 17 78 f1 3c 33 14 96 3c
       -0.02489212 0.020450538 0.029476209 0.018320179
000110 a3 25 2f 3f 59 ab ef 3e 16 c2 b1 3d 57 43 a7 bf
       0.68416804 0.46810415 0.08679597 -1.3067425
000120 56 ea 06 3c a3 17 89 3e 6b 4e e2 bd a7 89 a8 be
       0.008234581 0.26775846 -0.11050113 -0.3291752
000130 27 3e 54 3c 48 5a 2a b9 34 25 fa bd 24 1f c0 3e
       0.012954271 -0.00016246096 -0.12214127 0.37523758
000140 f6 c9 1f 3f fd a4 2f 3e 3f 46 70 3d 0e 0b 27 3c
       0.6241754 0.17152782 0.058660742 0.010195507
000150 bf 86 aa be 6b e1 f6 be 3a c3 8d 3e 18 81 bc 3d
       -0.33305928 -0.48218855 0.2768801 0.0920431
000160 1d a5 92 bd ea 1c 2d bb e0 04 00 bf 77 54 0d 3d
       -0.07160399 -0.002641494 -0.5000744 0.03450438
000170 b9 56 a7 be 41 5c 05 3d 6d 45 9c bd 5d c8 10 bc
       -0.32683352 0.032558683 -0.076304294 -0.008836833
000180 13 db 15 bd e8 d2 12 be 1c d8 4c bd 99 54 8b bc
       -0.03658588 -0.14338267 -0.050010785 -0.017008113
000190 bf 21 de bd 16 42 23 bd c9 b3 52 3d d8 47 1c 3f
       -0.1084628 -0.039857946 0.051440988 0.61047125
0001a0 ec 2a 96 3d 31 3f ec 3f 79 1a 14 3d ed 2f 27 3f
       0.073324054 1.8456784 0.03615806 0.65307504
0001b0 9d ef d2 3e f0 ef 1c 3d 6c b0 f8 3e 8a 17 81 bc
       0.41198435 0.03831476 0.485721 -0.015758295
0001c0 52 b1 8d bc e9 08 18 3e b6 4d 9e be fc dd 87 3d
       -0.017296467 0.14847149 -0.30918664 0.06634137
0001d0 c8 d5 90 bd 37 44 bf bc 7d 02 c1 3b 6d c0 bd 3d
       -0.070720255 -0.023347957 0.005890189 0.09265218
0001e0 1d af 58 3d eb f7 a2 3c 83 cd c4 3e c9 cd e2 bc
       0.052901376 0.019893607 0.38438043 -0.027686017
0001f0 f8 2e d5 be 9a e6 50 3b ed 8c 98 3e 4b 00 03 bb
       -0.41637397 0.003187573 0.29795018 -0.0019989188
000200 ab d7 62 3e f3 7b fc 3d f3 f3 31 3c 83 0c 00 bd
       0.22152583 0.12328329 0.010861385 -0.031261932
000210 a9 c9 6a 3c e3 0a cc be 36 d4 ac 3d 5b 04 62 bc
       0.014330306 -0.39852056 0.084389135 -0.013794984
000220 62 2e f3 be 33 34 05 bf 59 2c 1b bb c0 d4 29 bd
       -0.47496325 -0.52032775 -0.0023677556 -0.04146266
000230 6a 73 3e 3c a4 85 3d be e9 3c 17 bd 22 02 86 bd
       0.011624197 -0.18508011 -0.036923323 -0.065433756
000240 78 5b c0 be 01 ac 5a be d9 fc 95 3c f8 29 87 3e
       -0.37569785 -0.21354677 0.018309044 0.26399207
000250 70 08 0d 3d 08 84 f1 bc d8 12 2d 3f b8 06 d8 3e
       0.034431875 -0.029481903 0.6760688 0.42192626
000260 f1 af dd 3e db fd 20 bf fe a0 8f bb 29 88 90 3a
       0.43298295 -0.6288735 -0.0043832054 0.0011026907
000270 f9 d9 77 bd 30 19 14 3f 2a 52 6d bf 00 b4 e0 3d
       -0.06051061 0.57850933 -0.927035 0.10971832
000280 d7 95 01 bd f9 89 82 3e e1 81 9a bc 77 1d c3 3e
       -0.03163704 0.2549589 -0.01886076 0.38108417
000290 c2 5f 3c bd ea 41 d2 bc 96 55 dd 3e 55 b7 f0 be
       -0.04598976 -0.025666196 0.4322936 -0.4701487
0002a0 8c 66 21 3f 83 d9 2f 3c c4 2f ab 3b b5 84 4b be
       0.630471 0.010733011 0.0052242 -0.19874842
0002b0 9e b9 44 3e 7a 64 f0 be 62 ef 17 3f 67 00 f5 3b
       0.19211432 -0.46951658 0.59349644 0.0074768546
0002c0 76 ce bc bd 4e 6e 13 bb 29 98 92 bd 4f 57 9e 3d
       -0.09219067 -0.0022496167 -0.071579285 0.077314965
0002d0 59 d9 b4 bd b2 72 41 3b 27 f8 80 bf 40 ad 26 3d
       -0.08830518 0.0029517827 -1.007573 0.040692568
0002e0 85 b7 18 3d f5 9e 18 3f 79 09 bb 3c 84 7a 35 3f
       0.037284393 0.5961755 0.022831665 0.7089007
0002f0 a1 6d a0 be 48 74 78 3c 00 28 58 3d ca 88 c9 3c
       -0.3133364 0.015164442 0.052772522 0.024601359
000300 28 31 bc 3e 97 42 76 bd 03 9d 2a bd ad bf ba 3b
       0.36756253 -0.0601221 -0.041653644 0.005699119
000310 a0 81 48 3c 6e 6f 98 bd 15 e0 09 3d 78 e6 60 3f
       0.012237936 -0.074431285 0.033660967 0.8785167
000320 dc 6e 0d be 88 08 c4 be 0a a6 ea bd ff 48 23 be
       -0.13811821 -0.3828776 -0.11457451 -0.15945815
000330 e9 39 d0 3b a9 a2 07 3c 38 9d 92 3d 66 60 d4 3d
       0.0063545597 0.008278527 0.07158893 0.10369949
000340 b8 09 2e bf 04 95 9a be 88 08 f3 3c 8c 11 f4 3b
       -0.6798358 -0.30191815 0.029667154 0.007448381
000350 c3 e3 4b 3e b9 82 af bd 75 ef 14 3e d5 1a 7c 3e
       0.19911103 -0.08569855 0.1454447 0.2461961
000360 0e b0 59 3e eb 5d 37 3c 72 df ad 3d 64 37 44 be
       0.21258566 0.011191825 0.084898844 -0.19161755
000370 c3 f2 88 bf b6 c8 54 3d f8 58 6d be f5 1c 8b 3f
       -1.0699085 0.051949225 -0.2317847 1.0868212
000380 67 a6 4e 3f 30 56 67 bb 4f 03 9a 3e 09 75 b4 3e
       0.8072266 -0.0035299174 0.3008065 0.3524554
000390 bb 85 5d bc 20 9d ad 3c 53 37 16 bf b2 33 5c 3d
       -0.013520653 0.021193087 -0.5867817 0.053760238
0003a0 d2 7d 8f be fd 58 0c bf 36 4f 53 be a0 ac 97 be
       -0.2802568 -0.54823285 -0.20635685 -0.2962389
0003b0 c8 37 1e 3c 5d 40 d5 3b 53 ae cb bc a8 db 6c 3d
       0.009656854 0.006507917 -0.024863398 0.057826668
0003c0 53 7b f6 bd a2 14 9a bd 70 1b 82 bd 5e 2e 1e 3e
       -0.12035241 -0.07523467 -0.063528895 0.15447375
0003d0 8b 0e e1 be 4b 65 22 bd f1 fd ed bc 6a f1 c2 3c
       -0.43956408 -0.03964738 -0.029051753 0.023796756
0003e0 3b 20 67 3c f6 73 f7 bc c8 0e 1f 3f cb 56 1b 3f
       0.014106805 -0.030206662 0.6213193 0.6067931
0003f0 d2 2a 81 3c 3d bb f0 be a3 67 51 bd 76 3f e8 3c
       0.015767489 -0.4701785 -0.051124226 0.028350573

l3.bias f4 [4]
000000 64 58 49 be ba 47 d8 be 14 60 00 bd b6 a4 71 3f
       -0.19662625 -0.42242223 -0.031341627 0.94391954
