TD3/saves/loser_actor.pth (torch, 518693 bytes, 6 tensors)

l1.weight f4 [400, 18]
0.07089361 0.37545788 -0.78270537 -0.03865006 0.028598506 -0.10287839 0.22610368 0.047704186
0.6605181 -0.033602048 0.053821143 -0.020581916 -1.034127 -0.69530284 -0.19930239 -0.21804535
-0.36565602 -0.35183558 0.46886063 0.17365915 -0.050380405 -0.19724368 -0.023323031 -0.17377254
-0.17965618 0.4424315 0.8559648 -0.24892567 0.17966175 -0.09769273 -0.23830818 0.84827304
0.018225843 -0.189584 -0.35930324 -0.9105682 -0.03115119 0.55995744 -0.13687041 -0.11765523
-0.18082348 -0.0033450394 -0.7033947 -0.18645456 -1.1076293 -0.5675819 0.04511697 0.15541597
-0.07286491 -0.086332366 0.104251444 0.065749295 -0.23912194 0.30586633 1.1247506 -0.46161464
0.50833267 -0.22941987 -0.10037439 -0.13597323 -0.4973314 0.24516287 0.486124 -0.27238017
-0.20169905 0.35521924 0.6113176 -0.3885935 0.03584812 0.10419339 -0.42148617 0.35714415
0.7682607 0.2652724 1.1690056 0.08870227 0.25914255 -0.19129501 -0.24705042 -0.10326815
-1.557859 0.15521942 0.0841816 -0.3658183 -0.3417379 -1.0571238 0.13698821 -0.05738454
-0.4839826 -0.91077596 1.0365494 0.4149039 0.18842189 0.06722461 -0.45692098 -0.19979107
-0.6986343 -0.1296915 -0.7656273 0.20477004 0.058906544 0.11914179 -0.94677925 -0.21327016
0.0039721336 -0.13802643 -0.16347398 -0.32613117 -0.10277484 0.5482168 0.6719908 0.010765757
-0.06573884 -0.05056523 -0.20185505 -1.1427187 -1.5162182 -0.082557045 -0.053868204 -0.078238405
1.0704317 0.04679713 0.021203892 -0.19869018 0.23923203 -1.4930183 -0.6088127 -0.15976246
0.34511673 -0.0070946505 0.0032953834 -0.016793946 -0.7830191 -0.15734397 -0.3213311 -0.14372352
-0.25761858 -0.15096466 -0.38568035 1.3315936 0.009117397 0.24537335 -0.04561529 0.13117252
-0.33678067 -0.27953157 -0.32462576 -0.24930951 0.25490007 0.033321634 -0.9024676 -0.54083145
-0.070075616 0.17226478 -0.14447843 0.16751887 -0.10138284 -0.6475376 -0.024186216 -0.42246547
0.32382712 -0.9256992 0.76985085 0.6604266 0.5055621 -0.0324988 -0.1235435 -0.15989876
-0.68092024 -1.0610816 1.2405881 -0.26992238 0.5069162 -0.23153767 -0.3815211 -1.0494187
0.07597919 0.008996393 0.01894577 -0.8925161 0.771073 -0.2418548 0.1385648 0.2651901
0.13820401 -0.26408812 -0.7724017 0.09337373 -0.20847896 -0.2275471 -0.4359349 0.002661237
-0.58630127 -0.32500228 -0.04041998 0.045095317 -0.03320908 -0.8209203 0.49064285 0.032257006
0.5731638 0.4541086 -0.20796455 -0.18303314 -1.4995784 0.21043478 -0.4833529 0.3119371
-0.32547098 -0.03092091 -0.33372888 -0.35164946 -0.14947076 -0.09269131 0.19757171 0.25231043
0.68910956 -0.0085600335 0.6726052 -0.24364614 0.09048015 0.35987285 -0.5836109 0.6408109
0.10115285 0.42334083 -0.33995903 -0.17028984 0.12351951 -0.029733561 0.1519846 0.2023631
0.2623235 0.47758484 0.8910306 -0.12991619 0.47616062 -0.09490614 -0.24416406 0.23445898
-0.23655981 1.190391 0.03455145 -0.03936407 0.2133688 0.21862929 -0.2681728 0.37915173
0.045512572 0.02204499 0.11821575 -0.7234998 0.96265465 0.17925452 0.9078109 -0.23135749
00000000: ab30 913d 043c c03e 615f 48bf 864f 1ebd
00000010: 6a47 ea3c e8b1 d2bd b987 673e 7765 433d
00000020: b717 293f 4da2 09bd 8f73 5c3d 689b a8bc
00000030: 465e 84bf 5eff 31bf ed15 4cbe 4847 5fbe
00000040: 4437 bbbe cb23 b4be 800e f03e b4d3 313e
00000050: af5b 4ebd 3ffa 49be f10f bfbc 6ef1 31be
00000060: caf7 37be 6286 e23e 8220 5b3f 5fe6 7ebe
00000070: 40f9 373e 2013 c8bd 0f07 74be 6c28 593f
00000080: 5d4e 953c 4f22 42be 98f6 b7be ff1a 69bf
00000090: c830 ffbc 5f59 0f3f c227 0cbe 3af5 f0bd
000000a0: ca29 39be 7338 5bbb ad11 34bf f2ed 3ebe
000000b0: ccc6 8dbf 0c4d 11bf 92cc 383d 5d25 1f3e
000000c0: 333a 95bd 06cf b0bd c881 d53d 91a7 863d
000000d0: 62dc 74be 839a 9c3e d4f7 8f3f c158 ecbe
000000e0: 1722 023f 0bed 6abe 1791 cdbd 913c 0bbe
000000f0: 39a2 febe fa0b 7b3e 3fe5 f83e 6a75 8bbe
00000100: 328a 4ebe 4cdf b53e 4f7f 1c3f baf5 c6be
00000110: 7ad5 123d 5863 d53d 09cd d7be 99db b63e
00000120: bcac 443f c9d1 873e faa1 953f 89a9 b53d
00000130: 55ae 843e d7e2 43be c9fa 7cbe 407e d3bd
00000140: ec67 c7bf d7f1 1e3e 6767 ac3d 894c bbbe
00000150: 45f8 aebe d54f 87bf a346 0c3e 0d0c 6bbd
00000160: 91cc f7be 9d28 69bf a7ad 843f 496e d43e
00000170: abf1 403e 0ead 893d 8cf1 e9be 0896 4cbe
00000180: b3d9 32bf d9cd 04be 2700 44bf 3daf 513e
00000190: fd47 713d 9c00 f43d 2060 72bf 7e63 5abe
000001a0: ac28 823b cd56 0dbe b965 27be aafa a6be
000001b0: 9e7b d2bd f057 0c3f 9707 2c3f dc62 303c
000001c0: 16a2 86bd 7d1d 4fbd 17b3 4ebe 9b44 92bf
000001d0: 7013 c2bf ab13 a9bd e8a4 5cbd 753b a0bd
000001e0: e803 893f 59ae 3f3d c9b3 ad3c 7075 4bbe
000001f0: 3ef9 743e 391b bfbf 26db 1bbf c598 23be
00000200: 24b3 b03e 3e7a e8bb 5cf7 573b 7593 89bc
00000210: f173 48bf c71e 21be 8385 a4be 422c 13be
00000220: 95e6 83be 7b96 1abe e577 c5be a971 aa3f
00000230: 2261 153c 2743 7b3e 19d7 3abd 1752 063e
00000240: 846e acbe c31e 8fbe 5935 a6be fe4a 7fbe
00000250: 4382 823e 447c 083d 1e08 67bf ee73 0abf
00000260: ce83 8fbd 2e66 303e 27f2 13be 118a 2b3e
00000270: cea1 cfbd 06c5 25bf 2c22 c6bc 654d d8be
00000280: abcc a53e 9ffa 6cbf f214 453f b811 293f
00000290: 856c 013f 761d 05bd 6004 fdbd 80bc 23be
000002a0: ca50 2ebf 86d1 87bf 97cb 9e3f 4433 8abe
000002b0: 43c5 013f 3618 6dbe bc56 c3be 5a53 86bf
000002c0: fa9a 9b3d 9b65 133c 2934 9b3c ef7b 64bf
000002d0: 0a65 453f c9a8 77be eee3 0d3e ffc6 873e
000002e0: 5a85 0d3e 8f36 87be 1ebc 45bf ba3a bf3d
000002f0: 827b 55be 1b02 69be dc32 dfbe 2668 2e3b
00000300: d717 16bf b366 a6be 6c8f 25bd deb5 383d
00000310: 3f06 08bd d527 52bf 8a35 fb3e ec1f 043d
00000320: ddba 123f ec80 e83e a9f4 54be 0a6d 3bbe
00000330: 2ff2 bfbf 377c 573e 087a f7be 38b6 9f3e
00000340: 22a4 a6be d94d fdbc 83de aabe 660b b4be
00000350: dd0e 19be f1d4 bdbd 3d50 4a3e d52e 813e
00000360: 7c69 303f 623f 0cbc db2f 2c3f 607e 79be
00000370: a84d b93d 4141 b83e 8667 15bf 2f0c 243f
00000380: 3a29 cf3d 21c0 d83e 1c0f aebe 7660 2ebe
00000390: ccf7 fc3d cc93 f3bc daa1 1b3e 4638 4f3e
000003a0: 444f 863e 0086 f43e 951a 643f c008 05be
000003b0: 53cb f33e 265e c2bd 2506 7abe 0416 703e
000003c0: bc3c 72be bb5e 983f d285 0d3d 383c 21bd
000003d0: 5a7d 5a3e 5be0 5f3e f24d 89be 2d20 c23e
000003e0: 646b 3a3d b297 b43c 191b f23d 4837 39bf
000003f0: 8970 763f 7f8e 373e 4c66 683f fae8 6cbe

l1.bias f4 [400]
-0.032367043 -1.0936148 -0.99272937 -0.49995664 -0.55650157 -0.13223255 -0.1473827 0.6119071
-0.56619185 -0.42095655 -0.45491266 -0.0761884 -0.8209523 -0.30066788 -1.0878408 -0.86015946
-0.6587315 -0.41236314 0.33026347 -0.08769839 -1.3341898 -0.52034444 -1.159517 -0.6916509
-0.2081464 -0.49643144 -0.78184974 -0.24040864 0.35502204 -0.39534372 -0.48124826 -0.08806414
-0.7325252 -0.15169473 -0.35402146 -0.4747492 -0.28370038 -0.7761138 -0.24467635 0.0059396247
-0.6580148 -0.24120931 -0.056554668 -0.17016216 -0.46092024 -0.3238083 -0.46427992 -0.4891666
-0.56266147 -1.0461493 0.3629511 -0.6246211 -0.046230547 0.03637893 -0.70958054 -0.14648584
-0.6609718 -0.30392486 -0.21958818 -0.52352774 -0.8970571 -0.46953532 -0.27964467 -0.42021385
-0.5540869 -0.38060308 0.031030757 -0.28464535 0.038274605 -0.6434388 -1.1394777 -0.6318199
-1.0906471 -0.7424374 -0.62044495 -0.3494901 -0.21182492 -0.4987914 -0.6497338 -0.42418113
-0.8074554 -0.74746567 -0.40924513 -0.9261707 -0.52480954 -0.4489489 -0.76694083 -0.7066144
-0.8869467 -0.42142758 -0.431256 -0.23523298 0.034487635 -0.48395368 -0.5593853 -0.67403084
-0.2545731 -0.8112787 -0.110053666 -0.0973025 0.418021 -0.02597152 -0.28023648 0.39192513
-0.049459416 -0.21405654 -0.3029376 -0.92368466 -0.3424744 -0.95780313 -0.5610032 -0.9620091
-0.34999812 -0.1872462 -0.09818385 -0.001653403 -0.5805363 -0.34657523 -0.2004033 -0.9866764
-0.36389154 -0.8104723 -0.41369542 -0.62986845 -0.1497868 -0.7180511 -0.46980718 -0.44608867
-0.45557866 -0.46831405 -0.10420684 -0.3105149 -0.41580456 -0.8579018 -1.1666603 -0.38782737
-0.4685773 -0.11168984 0.23137277 -0.8367662 -0.8714422 -0.72540706 -0.8972615 -0.1553636
0.031011717 -0.660021 -0.33948195 -0.5933337 -0.44827828 -0.56041574 -0.63896716 -0.8215556
-0.079821244 -0.55544007 -0.88819313 -0.5064797 -0.28137782 -1.0341473 -0.11501831 -0.0071379836
-0.7680334 -0.08939245 -0.80071604 0.18805766 -0.49826774 -0.122133866 -0.5644099 -0.6990463
0.13255167 -0.62426656 -0.83314574 -0.33596414 -0.6829816 -0.13228217 -0.8650722 -0.4766406
-0.56739724 -1.1331211 -0.1317089 -0.5013 -0.3190341 -1.1336827 -0.041170802 -0.64758307
-0.66670203 -0.85334027 -0.6631711 -0.7390461 -0.4708673 -0.6727004 -0.04510304 -1.0562735
-1.1022686 -0.86330044 -0.4062027 -0.78273064 0.24496606 -0.53762853 -0.40876606 -1.0632161
-0.56223965 0.11986109 -0.64565563 -0.29258528 -0.4575213 -0.63604766 -0.7656377 -0.76524854
-0.86097044 -0.25533608 -0.086284876 -0.27003443 -0.50739753 -0.549347 -0.29005912 -0.2863607
-0.42877194 0.15320653 -0.48312706 -0.25036862 -0.46135405 -0.5371884 -0.10319844 -0.31460768
-0.11989565 -0.5748734 -1.1004062 -0.16521835 -0.21654066 -0.9008269 -0.16053568 -0.02355134
-0.58084357 -0.6070292 -0.8404122 -0.39701158 -0.5354768 -0.65569884 0.278536 -0.7007041
-0.5815611 -0.5210762 -0.97038245 -0.7869872 -0.1557863 -0.8100352 -0.69045514 -0.80995065
-0.7314293 -0.60445964 -1.2214884 -0.44477415 -0.34666774 -0.9811386 -0.7336775 -0.46833804
00000000: 4e93 04bd 92fb 8bbf 8323 7ebf 51fa ffbe
00000010: e376 0ebf f867 07be 7eeb 16be f2a5 1c3f
00000020: f3f1 10bf 9e87 d7be 50ea e8be aa08 9cbd
00000030: ee29 52bf 24f1 99be 5e3e 8bbf 6933 5cbf
00000040: a1a2 28bf 4321 d3be 4b18 a93e 379b b3bd
00000050: bbc6 aabf 4b35 05bf 0e6b 94bf 0910 31bf
00000060: 5424 55be 432c febe 4e27 48bf af2d 76be
00000070: 73c5 b53e 7e6a cabe 2c66 f6be f95a b4bd
00000080: c686 3bbf dd55 1bbe 4d42 b5be 5412 f3be
00000090: 2d41 91be 65af 46bf 708c 7abe 2fa1 c23b
000000a0: a873 28bf 93ff 76be dea5 67bd fd3e 2ebe
000000b0: bdfd ebbe 34ca a5be 19b6 edbe 0b74 fabe
000000c0: 950a 10bf 38e8 85bf bad4 b93e 2be7 1fbf
000000d0: 3e5c 3dbd 1302 153d 12a7 35bf 6200 16be
000000e0: 7335 29bf 0a9c 9bbe b9db 60be ea05 06bf
000000f0: 89a5 65bf ef66 f0be 962d 8fbe 4526 d7be
00000100: a4d8 0dbf 68de c2be 3734 fe3c 09bd 91be
00000110: d5c5 1c3d 68b8 24bf 68da 91bf f3be 21bf
00000120: 539a 8bbf 6110 3ebf 7bd5 1ebf 5ef0 b2be
00000130: a2e8 58be 9661 ffbe f454 26bf 452e d9be
00000140: 66b5 4ebf e959 3fbf 9488 d1be 8619 6dbf
00000150: eb59 06bf a1dc e5be 3c56 44bf aee4 34bf
00000160: f00e 63bf 5bc5 d7be 96cd dcbe eae0 70be
00000170: e842 0d3d c7c8 f7be e033 0fbf 498d 2cbf
00000180: 6857 82be f6af 4fbf d163 e1bd 8846 c7bd
00000190: d906 d63e 3ac2 d4bc 287b 8fbe 69aa c83e
000001a0: f595 4abd a331 5bbe a31a 9bbe 9976 6cbf
000001b0: ce58 afbe 9632 75bf e89d 0fbf 3a46 76bf
000001c0: f432 b3be 78bd 3fbe 9d14 c9bd 00b7 d8ba
000001d0: 079e 14bf 4f72 b1be 8636 4dbe d396 7cbf
000001e0: fe4f babe 1d7b 4fbf e3cf d3be 0f3f 21bf
000001f0: b661 19be 32d2 37bf 918a f0be bc65 e4be
00000200: 9b41 e9be dcc6 efbe 656a d5bd cffb 9ebe
00000210: 56e4 d4be 749f 5bbf 2055 95bf 4f91 c6be
00000220: 5de9 efbe a5bd e4bd fcec 6c3e 4f36 56bf
00000230: d616 5fbf 47b4 39bf eeb2 65bf a317 1fbe
00000240: 490c fe3c 23f7 28bf 94d0 adbe b8e4 17bf
00000250: bb84 e5be 6877 0fbf 5a93 23bf 7851 52bf
00000260: 5279 a3bd 5231 0ebf a060 63bf a7a8 01bf
00000270: c110 90be f05e 84bf b88e ebbd bfe5 e9bb
00000280: d69d 44bf 6413 b7bd bafb 4cbf 3092 403e
00000290: f31c ffbe 5221 fabd 2b7d 10bf b3f4 32bf
000002a0: a0bb 073e efcf 1fbf 0a49 55bf 7e03 acbe
000002b0: e2d7 2ebf fa74 07be 5f75 5dbf 3d0a f4be
000002c0: f240 11bf 1d0a 91bf b3de 06be 3255 00bf
000002d0: 7058 a3be 841c 91bf b7a2 28bd 01c8 25bf
000002e0: fcac 2abf 8274 5abf 95c5 29bf 2032 3dbf
000002f0: 8515 f1be 1836 2cbf f7bd 38bd f833 87bf
00000300: 2317 8dbf 4201 5dbf cdf9 cfbe 0961 48bf
00000310: 62d8 7a3e 06a2 09bf c949 d1be 7717 88bf
00000320: f0ee 0fbf bb79 f53d b049 25bf bdcd 95be
00000330: 3b40 eabe 05d4 22bf d500 44bf 54e7 43bf
00000340: 8f68 5cbf 69bb 82be 20b6 b0bd f441 8abe
00000350: cee4 01bf 01a2 0cbf a182 94be df9d 92be
00000360: ff87 dbbe 2ce2 1c3e 6e5c f7be 5130 80be
00000370: 9936 ecbe 2e85 09bf b459 d3bd 4214 a1be
00000380: da8b f5bd e72a 13bf 1cda 8cbf 002f 29be
00000390: d6bc 5dbe 979c 66bf 7763 24be bdee c0bc
000003a0: 2ab2 14bf 4466 1bbf 4125 57bf 1a45 cbbe
000003b0: 0215 09bf e1db 27bf 459c 8e3e 5861 33bf
000003c0: 30e1 14bf 4065 05bf fc6a 78bf fe77 49bf
000003d0: 7286 1fbe 785e 4fbf abc1 30bf ed58 4fbf
000003e0: f33e 3bbf debd 1abf bb59 9cbf 70b9 e3be
000003f0: 6f7e b1be e62b 7bbf 4ad2 3bbf 01ca efbe

l2.weight f4 [300, 400]
0.013021121 -0.04802968 -0.03005334 -0.039354216 -0.077525556 -0.001216467 -0.047567252 -0.14485401
-0.098598234 -0.001519548 -0.0106718205 -0.04107762 -0.05293964 0.025337787 -0.03717684 -0.044413134
-0.047635294 0.011399898 -0.013128558 -0.027098527 0.038067915 -0.036650177 -0.042953152 -0.01154868
-0.06681127 -0.009500001 0.0034317235 -0.021791525 -0.008031937 -0.05143837 -0.050296113 0.012782368
-0.033164866 0.011353215 -0.06252014 -0.052149057 -0.041845813 -0.031445235 -0.0842944 0.0069568027
-0.0049448092 0.009787227 -0.013761191 0.008918772 -0.053305693 -0.050690196 -0.045721184 -0.079415485
-0.09267834 -0.0050147963 -0.10411973 -0.027033318 -0.04704344 -0.02723995 -0.0060520694 -0.01937779
-0.043607008 -0.052200865 0.01675583 -0.08375215 0.028150827 0.00070029055 -0.018426638 0.008032249
0.00089820457 -0.07981697 -0.08566412 -0.06824521 -0.06576621 -0.026751991 0.013335492 0.001965425
-0.07859339 0.021533143 0.02057904 0.015120986 -0.022376368 -0.046737865 -0.03102907 -0.013292028
-0.017046953 -0.057524458 0.0012108284 -0.0717772 -0.030041212 -0.069279216 0.03165215 -0.054078817
-0.03486441 -0.017287543 -0.00062971056 -0.016846698 -0.003930084 0.0028460682 -0.040779307 -0.016210841
0.016786376 -0.015241425 -0.06979325 -0.09947651 -0.06490602 -0.057358634 -0.02078578 -0.026316557
-0.011207775 -0.070892006 -0.0055729947 -0.034469955 -0.076814465 -0.05609917 -0.03760069 -0.035264775
-0.07878707 -0.03779633 -0.030100085 0.0022237604 -0.045544777 -0.027496282 -0.07611418 -0.025938734
-0.08624198 -0.05401914 -0.061127096 -0.04959609 0.023397874 -0.0072186016 0.037335042 -0.0488885
-0.028808985 0.008279726 0.029930077 -0.09720301 -0.03737881 -0.038845267 -0.01954639 -0.024693793
-0.08070446 -0.06192107 -0.03258648 -0.03150332 -0.05769225 -0.025497396 0.014545558 -0.0035893158
-0.008101328 -0.11112014 -0.04756498 0.01821772 -0.020055259 -0.058831103 -0.01742963 -0.03517612
-0.07812564 -0.007906017 0.037097912 -0.00093460735 0.028215064 -0.044489115 -0.0019812558 -0.004336749
0.030516325 -0.06259734 -0.062092092 0.016115807 -0.078735165 -0.06803904 -0.030687222 -0.05228488
-0.06034931 0.012710956 -0.034580063 -0.0075552613 0.059638925 -0.054545846 -0.047963165 -0.0516507
-0.068324216 -0.062234998 0.0017101847 -0.03693631 -0.074430756 -0.03662527 -0.062050022 -0.025041807
-0.040914144 -0.009359245 0.018759992 0.0082625635 0.035871163 0.014209645 -0.06779987 -0.0028423234
-0.06973913 -0.03809814 0.011713656 0.0040780487 0.01118151 0.010254438 -0.005824264 -0.049491487
0.037277468 -0.012010175 -0.059438355 0.0017001788 -0.01879753 0.01845605 -0.035676505 -0.055630915
-0.021099966 0.009506753 -0.07129654 -0.117924504 0.034172658 0.0012634656 0.0135555 -0.02359219
-0.012677099 -0.09773508 -0.06308031 -0.016018363 -0.071033314 0.02599017 -0.059240077 -0.013388399
-0.05494944 -0.0055116466 0.019269416 0.015013441 -0.008605381 -0.00281872 -0.019777669 -0.09231483
-0.029961161 0.0010219386 -0.074133806 0.05740162 -0.036347013 -0.034894336 0.030722085 0.0016551701
-0.024835888 0.011883849 -0.036964707 -0.0679465 -0.0938164 -0.048902933 0.029640751 0.002425417
0.019121319 0.022798708 -0.030383576 -0.03228948 -0.07312746 -0.054474365 -0.07597063 0.004811053
00000000: 8a56 553c c5ba 44bd 6c32 f6bc e331 21bd
00000010: b8c5 9ebd dc71 9fba e1d5 42bd 9c54 14be
00000020: dfed c9bd 922b c7ba dcd8 2ebc 0241 28bd
00000030: 3cd7 58bd 3191 cf3c be46 18bd 8cea 35bd
00000040: 3a1d 43bd a3c6 3a3c 2a19 57bc bbfd ddbc
00000050: 1aed 1b3d 7f1e 16bd a5ef 2fbd ad36 3dbc
00000060: 59d4 88bd e4a5 1bbc c4e6 603b 2484 b2bc
00000070: 6398 03bc 0ab1 52bd 4c03 4ebd 236d 513c
00000080: e2d7 07bd d602 3a3c 8f0a 80bd 409a 55bd
00000090: 8466 2bbd b8cc 00bd 8ba2 acbd e4f5 e33b
000000a0: 1108 a2bb 9b5a 203c 9e76 61bc 0b20 123c
000000b0: 1257 5abd 86a0 4fbd 2346 3bbd 96a4 a2bd
000000c0: 24ce bdbd 2953 a4bb ba3c d5bd fa74 ddbc
000000d0: 9fb0 40bd 5126 dfbc 7050 c6bb 2cbe 9ebc
000000e0: 439d 32bd 93d0 55bd 8643 893c 3f86 abbd
000000f0: 909c e63c b493 373a 76f3 96bc b299 033c
00000100: 7d75 6b3a 1477 a3bd ac70 afbd 25c4 8bbd
00000110: 6fb0 86bd fe26 dbbc 1c7d 5a3c 5cce 003b
00000120: 92f5 a0bd 4666 b03c 6095 a83c 03be 773c
00000130: a54e b7bc 3470 3fbd ad30 febc cec6 59bc
00000140: 0da6 8bbc c49e 6bbd a9b4 9e3a edff 92bd
00000150: fd18 f6bc 43e2 8dbd afa5 013d c081 5dbd
00000160: fccd 0ebd 9b9e 8dbc 2913 25ba 1602 8abc
00000170: efc7 80bb 1a85 3a3b 3408 27bd 99cc 84bc
00000180: 9583 893c 2bb7 79bc c3ef 8ebd 57ba cbbd
00000190: 73ed 84bd e3f0 6abd f146 aabc d295 d7bc
000001a0: d1a0 37bc d42f 91bd ab9d b6bb 5e30 0dbd
000001b0: e750 9dbd 3ec8 65bd 2e03 1abd cc71 10bd
000001c0: 1e5b a1bd 53d0 1abd 7494 f6bc 82bc 113b
000001d0: 298d 3abd e23f e1bc c0e1 9bbd 787d d4bc
000001e0: a39f b0bd 2c43 5dbd 6860 7abd 4525 4bbd
000001f0: e6ac bf3c 058a ecbb a1ec 183d 4f3f 48bd
00000200: d200 ecbc b0a7 073c ec2f f53c 5f12 c7bd
00000210: 861a 19bd 371c 1fbd c01f a0bc a34a cabc
00000220: 6148 a5bd f3a0 7dbd 6779 05bd a009 01bd
00000230: b54e 6cbd eadf d0bc 7e50 6e3c ba3a 6bbb
00000240: 6fbb 04bc f592 e3bd 7fd3 42bd 543d 953c
00000250: ed4a a4bc e2f8 70bd 95c8 8ebc d614 10bd
00000260: 5600 a0bd 3d88 01bc fbf3 173d 7000 75ba
00000270: 4723 e73c 383a 36bd f5d7 01bb 4a1b 8ebb
00000280: 5ffd f93c 0933 80bd 4754 7ebd 4c05 843c
00000290: e73f a1bd 0d58 8bbd c563 fbbc ac28 56bd
000002a0: d730 77bd 9d41 503c d3a3 0dbd 2092 f7bb
000002b0: f247 743d 776b 5fbd 0675 44bd af8f 53bd
000002c0: 91ed 8bbd 20ea 7ebd 4728 e03a 874a 17bd
000002d0: 276f 98bd 6104 16bd 2a28 7ebd 7a24 cdbc
000002e0: 9795 27bd 8557 19bc 8eae 993c b45f 073c
000002f0: a4ed 123d 92cf 683c a9da 8abd 4646 3abb
00000300: 64d3 8ebd cc0c 1cbd a2ea 3f3c 27a1 853b
00000310: a732 373c 3b02 283c 78d9 bebb 96b7 4abd
00000320: 42b0 183d 53c6 44bc a275 73bd 89d8 de3a
00000330: 47fd 99bc 2431 973c 8721 12bd 3edd 63bd
00000340: d6d9 acbc 36c2 1b3c ec03 92bd 6782 f1bd
00000350: a1f8 0b3d df9a a53a e317 5e3c 6944 c1bc
00000360: 9bb3 4fbc 5429 c8bd 4030 81bd f138 83bc
00000370: ea79 91bd 56e9 d43c b9a5 72bd 045b 5bbc
00000380: aa12 61bd 0b9b b4bb e5da 9d3c f0fa 753c
00000390: 95fd 0cbc 46ba 38bb c704 a2bc 8f0f bdbd
000003a0: 1c71 f5bc 92f2 853a 77d3 97bd f61d 6b3d
000003b0: 9be0 14bd 5ded 0ebd e2ac fb3c 4bf2 d83a
000003c0: a274 cbbc 7ab4 423c 4e68 17bd 8927 8bbd
000003d0: d022 c0bd 714e 48bd 29d1 f23c bff3 1e3b
000003e0: 50a4 9c3c 5bc4 ba3c fae6 f8bc f941 04bd
000003f0: dac3 95bd 8320 5fbd 7d96 9bbd 0aa6 9d3b

l2.bias f4 [300]
-0.08249606 -0.23057453 -0.2912072 0.0013699343 -0.28441426 -0.015584673 -0.2779797 -0.025240613
-0.44337243 -0.17792559 -0.3308348 0.03138439 -0.0326812 -0.211889 -0.25256187 -0.021061042
-0.47784355 -0.072631955 -0.23759535 -0.0051748683 -0.05584732 0.10776078 0.1601748 -0.39187175
-0.28196615 -0.32639772 -0.02734629 0.32422078 -0.25805387 -0.04041328 -0.2188837 -0.20188007
-0.35464853 -0.2737281 -0.10692761 -0.016880628 0.33000675 -0.112150945 0.4838242 -0.031891283
-0.3756727 -0.15176895 -0.088025935 -0.07700097 0.28134283 0.2247118 -0.3200205 -0.22089984
-0.06260861 -0.24757428 -0.45485923 -0.33010048 -0.03792968 -0.0811225 -0.1578423 -0.0630245
-0.449545 -0.119932406 -0.30050242 0.24593699 -0.43938074 -0.03609345 -0.52257997 -0.36672646
-0.5137824 -0.32628897 -0.110812016 -0.085245565 -0.52768433 -0.11191416 -0.63582593 -0.0919529
-0.05196408 -0.18864453 -0.6562852 -0.07923366 -0.5509818 -0.10718431 -0.098925434 0.05101784
0.10092037 0.025207533 -0.47254908 0.5108417 -0.08318003 -0.409537 -0.094849095 -0.015376072
-0.29801467 -0.043772183 -0.07296992 -0.012436438 -0.23691146 -0.19159761 -0.032819744 -0.7065381
0.12925828 0.029794225 -0.113274746 -0.38790998 -0.22350125 -0.014492009 -0.39585108 -0.3818398
-0.25723678 -0.20557576 -0.033342667 0.3160458 -0.023432603 -0.15462548 0.043280117 -0.2844091
-0.04047946 -0.0677193 -0.14441408 -0.14155573 0.04296319 -0.03295277 -0.5177552 -0.18438616
-0.1186589 -0.19288918 0.21194611 -0.5418788 -0.12719482 -0.225321 0.23372844 0.12687688
-0.06676078 -0.4396016 -0.09334793 -0.07986031 -0.38045114 -0.25412315 -0.35522988 0.28998667
-0.1679679 -0.22053602 -0.17228568 -0.06395775 -0.46375054 0.07186993 -0.044507775 0.26834527
-0.07939187 -0.34321925 -0.11401 -0.2578326 -0.041383382 -0.4660408 -0.04679172 -0.2639071
-0.06543822 -0.27570271 -0.48911974 -0.37433004 -0.1813817 -0.23262604 -0.40745315 -0.104580626
-0.4424548 -0.09945798 -0.0024294092 0.020292357 -0.07196632 -0.39786056 -0.13429794 -0.11588893
-0.06969082 -0.17175725 -0.05547879 -0.44463697 -0.21838894 -0.23566036 -0.39456454 -0.22642586
-0.33812666 0.12827855 -0.57204974 -0.0746753 0.21140677 -0.1688479 -0.61225975 -0.39091867
-0.34330437 -0.15602046 -0.2393603 -0.03694064 -0.13638921 -0.048883464 -0.24409863 -0.1036492
-0.19112982 -0.02765371 0.37981117 -0.4137861 -0.57672334 -0.07393785 -0.043021657 0.1382774
-0.47419846 -0.4988258 -0.22778621 -0.56305 -0.036162626 -0.09631486 -0.33161965 -0.07071395
-0.04558111 -0.053523883 -0.41143307 -0.4150794 -0.37568226 -0.49853078 0.081651345 -0.20908856
-0.198147 -0.10303495 -0.10524647 -0.025096688 0.049503956 -0.09919751 -0.22435024 0.07654352
-0.10672813 -0.103434995 -0.08186295 -0.15474844 -0.10332586 0.11944546 -0.48880702 -0.46309245
-0.1057244 -0.58934015 -0.05008184 -0.38907933 -0.022895614 -0.054335184 -0.0037266437 -0.3123656
-0.022526387 0.037648242 -0.034997232 0.15488058 -0.36091274 -0.63675964 -0.13966285 -0.083503865
-0.06823961 -0.042268228 -0.26016876 -0.2592298 -0.5892671 -0.24624597 0.010485272 -0.09088456
00000000: b2f3 a8bd bb1b 6cbe 1c19 95be 5e8f b33a
00000010: bf9e 91be db56 7fbc 5b53 8ebe 67c5 cebc
00000020: b601 e3be 2032 36be 2e63 a9be eb8c 003d
00000030: b9dc 05bd 6ef9 58be ca4f 81be 3588 acbc
00000040: e9a7 f4be 10c0 94bd 324c 73be f191 a9bb
00000050: 29c0 64bd afb1 dc3d dd04 243e 6aa3 c8be
00000060: de5d 90be 9a1d a7be 5405 e0bc 4400 a63e
00000070: a31f 84be 6588 25bd 0c23 60be a6b9 4ebe
00000080: 7e94 b5be 1726 8cbe ddfc dabd 3e49 8abc
00000090: a5f6 a83e 65af e5bd ceb7 f73e 6fa0 02bd
000000a0: 2c58 c0be 5269 1bbe f146 b4bd afb2 9dbd
000000b0: 2b0c 903e da1a 663e bad9 a3be 9133 62be
000000c0: f138 80bd 1d84 7dbe 4fe3 e8be ee02 a9be
000000d0: 275c 1bbd 8e23 a6bd 69a1 21be fd12 81bd
000000e0: c32a e6be 1f9f f5bd 74db 99be e8d6 7b3e
000000f0: 83f6 e0be bad6 13bd cdc7 05bf 92c3 bbbe
00000100: 3e87 03bf 590f a7be 69f1 e2bd 3a95 aebd
00000110: 5216 07bf 4033 e5bd 7dc5 22bf cd51 bcbd
00000120: 4ad8 54bd 082c 41be 4f02 28bf 4245 a2bd
00000130: 250d 0dbf 7383 dbbd 6b99 cabd 15f8 503d
00000140: 57af ce3d 0780 ce3c f4f1 f1be 86c6 023f
00000150: 4b5a aabd d5ae d1be 3e40 c2bd eceb 7bbc
00000160: 6195 98be 764a 33bd 4171 95bd 34c2 4bbc
00000170: eb98 72be 2a32 44be ff6d 06bd aedf 34bf
00000180: 485c 043e 0513 f43c 97fc e7bd 239c c6be
00000190: 83dd 64be e46f 6dbc feac cabe 8280 c3be
000001a0: 8ab4 83be 7482 52be 5292 08bd c1d0 a13e
000001b0: bbf5 bfbc 2456 1ebe 7e46 313d 129e 91be
000001c0: cacd 25bd 6bb0 8abd 49e1 13be fcf3 10be
000001d0: 2bfa 2f3d 7cf9 06bd 9b8b 04bf bacf 3cbe
000001e0: 7003 f3bd be84 45be 6708 593e 92b8 0abf
000001f0: 5c3f 02be 8cba 66be 8256 6f3e 03ec 013e
00000200: e0b9 88bd 7613 e1be 332d bfbd cd8d a3bd
00000210: 7eca c2be 6e1c 82be b1e0 b5be 2279 943e
00000220: c7ff 2bbe 32d4 61be a86b 30be 48fc 82bd
00000230: b670 edbe 8b30 933d c94d 36bd 8d64 893e
00000240: 3498 a2bd 6fba afbe 137e e9bd a202 84be
00000250: 9f81 29bd e69c eebe ada8 3fbd d51e 87be
00000260: 7904 86bd e828 8dbe e76d fabe 30a8 bfbe
00000270: 20bc 39be 8535 6ebe b39d d0be 5e2e d6bd
00000280: 6f89 e2be a0b0 cbbd b936 1fbb 283c a63c
00000290: 1463 93bd 61b4 cbbe 6685 09be 2d57 edbd
000002a0: 10ba 8ebd 22e1 2fbe ba3d 63bd 75a7 e3be
000002b0: 5aa1 5fbe f350 71be 5d04 cabe 2edc 67be
000002c0: f01e adbe 745b 033e da71 12bf 5def 98bd
000002d0: 047b 583e 77e6 2cbe 0ebd 1cbf 7e26 c8be
000002e0: 97c5 afbe d4c3 1fbe de1a 75be 124f 17bd
000002f0: 9da9 0bbe 073a 48bd fef4 79be 0846 d4bd
00000300: 89b7 43be 098a e2bc 9c76 c23e c6db d3be
00000310: 24a4 13bf ba6c 97bd 7a37 30bd 9798 0d3e
00000320: 24ca f2be 1866 ffbe ca40 69be 0b24 10bf
00000330: 431f 14bd ba40 c5bd 0dca a9be 7ad2 90bd
00000340: 42b3 3abd dc3b 5bbd 5ba7 d2be 4a85 d4be
00000350: 6d59 c0be 6d3f ffbe d238 a73d 501b 56be
00000360: 0ce7 4abe fd03 d3bd 768b d7bd 9297 cdbc
00000370: a9c4 4a3d 1028 cbbd 12bc 65be d9c2 9c3d
00000380: 4794 dabd bad5 d3bd c3a7 a7bd 6076 1ebe
00000390: 829c d3bd d29f f43d ea44 fabe 741a edbe
000003a0: 0986 d8bd ffde 16bf 9e22 4dbd 6835 c7be
000003b0: 958f bbbc 928e 5ebd b53a 74bb 62ee 9fbe
000003c0: 4289 b8bc 0b35 1a3d 4259 0fbd 0499 1e3e
000003d0: 8ec9 b8be ae02 23bf c703 0fbe 1304 abbd
000003e0: 35c1 8bbd 7321 2dbd d734 85be c5b9 84be
000003f0: 35da 16bf e727 7cbe 6bca 2b3c af21 babd

l3.weight f4 [4, 300]
-0.014567629 -0.107172094 0.31201506 -0.5130312 0.07980848 0.004903863 0.24672504 -0.30460492
-0.6046151 0.3236878 -0.037081923 -0.29648805 -0.15076873 -0.101060815 -0.1545461 0.038998436
0.31089386 0.014789865 -0.27910346 0.4178927 0.030733256 -0.36938423 -0.08560692 0.05088713
0.056302313 0.061924014 0.47813213 -0.3129606 -0.3857843 -0.0145309 0.29753143 -0.039952897
-0.3876727 0.20599066 -0.027724488 -0.028738135 -0.2387706 -0.0062701274 -0.47756806 -0.051709887
0.17340083 -0.0933914 -0.15500951 -0.021595616 0.6784598 -0.6384854 -0.11712103 -0.08067578
0.04573541 0.119013794 -0.10200824 -0.5052675 -0.015763119 -0.08014818 -0.13004486 -0.12219182
0.5611745 -0.016216354 0.41217965 -0.2739925 -0.5257413 0.070207246 0.3477954 -0.52828604
0.024866201 -0.16790694 0.018348835 0.02487392 -0.16265817 -0.047039527 -0.087431744 0.072022475
-0.02385719 -0.07291691 0.06783278 0.060286764 0.12735349 0.028060097 -0.02008647 -0.051900607
0.10795282 0.5050742 -0.060933996 0.1689635 0.07766135 -0.38137767 -0.17351162 -0.026242299
0.35284996 0.227391 0.057100717 0.16904804 0.20905995 0.4936656 -0.026263928 0.06533298
0.23881373 0.029868856 0.017305639 -0.32946384 0.2975649 -0.011856833 -0.2103356 0.0046548285
0.20189883 -0.07703469 0.02351197 0.27816403 0.009104096 -0.22419994 0.18853047 -0.024887456
-0.021097243 0.008230259 -0.31286868 -0.019767264 -0.4440853 0.10748171 -0.37403944 0.02694221
0.14778592 -0.025998013 -0.72811466 -0.076638065 -0.52985626 -0.051002357 -0.51327664 0.2598741
-0.03316761 -0.019293852 -0.14868902 -0.0375422 -0.14591695 -0.0035822098 0.343475 0.19769235
0.10227952 0.090627424 -0.11907973 0.042922772 -0.43378723 0.23257199 0.062471103 0.5491359
-0.041970108 0.13646254 -0.030792043 0.24966972 0.057880085 -0.21590255 0.056223877 0.48689163
0.027484084 0.29610267 0.059984334 0.50254625 -0.032182064 -0.50262415 -0.20384006 0.0024855712
0.1363231 -0.24708332 0.046661627 0.09850942 -0.025168914 0.5388594 -0.36695284 -0.16522153
0.50744534 -0.07613251 -0.016249487 -0.08246214 0.29226953 0.22227699 0.12263547 0.3117626
0.0057409457 -0.2105092 0.28832516 -0.016754163 -0.023691634 0.013812127 0.25573817 -0.12760282
0.013195448 0.0443317 -0.112115495 0.019790208 0.4902663 0.018915158 -0.035043187 -0.14825736
0.2994239 0.014104275 -0.18859553 0.2675467 -0.015498122 -0.024274008 0.021203589 -0.049441617
0.038504474 -0.05732572 -0.032616064 0.099366166 0.04380611 0.07426747 -0.2291431 0.01794702
-0.056474116 0.025520084 -0.17304511 -0.407721 0.16835847 0.06655668 0.017178671 0.10581507
0.28343463 0.0041540796 0.3039255 -0.3469693 -0.01609037 0.025819652 -0.020090574 0.20399094
-0.34680644 0.067081235 0.030804858 0.33940327 0.01083397 0.022711048 0.21766484 0.26279896
-0.28317058 0.07778064 -0.011700929 0.29783517 -0.04181719 -0.03833372 -0.08875065 0.064221784
0.15609448 -0.027886236 0.25259155 -0.31075245 -0.26212025 0.05382994 -0.09773868 0.009045932
0.026525559 0.04039606 0.030315306 0.1895149 0.0755179 -0.49542907 0.005657837 0.010513546
00000000: 11ad 6ebc 0b7d dbbd 70c0 9f3e 0356 03bf
00000010: a172 a33d 96b0 a03b 7da5 7c3e 2df5 9bbe
00000020: 0ec8 1abf 68ba a53e 37e3 17bd 48cd 97be
00000030: 1e63 1abe f9f8 cebd 5541 1ebe d3bc 1f3d
00000040: 7b2d 9f3e 3151 723c a6e6 8ebe 08f6 d53e
00000050: 4fc4 fb3c ee1f bdbe ae52 afbd 066f 503d
00000060: 419d 663d 09a4 7d3d bccd f43e 5f3c a0be
00000070: 8585 c5be 0313 6ebc 0a56 983e a6a5 23bd
00000080: 097d c6be 37ef 523e 771e e3bc 3d6c ebbc
00000090: 4880 74be a475 cdbb cd83 f4be bfcd 53bd
000000a0: fd8f 313e fe43 bfbd d0ba 1ebe 4ae9 b0bc
000000b0: 8baf 2d3f c773 23bf 27dd efbd 5839 a5bd
000000c0: 0e55 3b3d 81bd f33d b2e9 d0bd 3659 01bf
000000d0: a821 81bc bb24 a4bd 7b2a 05be b43f fabd
000000e0: 22a9 0f3f 29d8 84bc 3609 d33e bf48 8cbe
000000f0: fb96 06bf d1c8 8f3d 3d12 b23e c13d 07bf
00000100: 34b4 cb3c ccef 2bbe 4c50 963c 64c4 cb3c
00000110: dd8f 26be 85ac 40bd 6a0f b3bd 8580 933d
00000120: 2770 c3bc 7655 95bd eaeb 8a3d 41ef 763d
00000130: f468 023e 4ade e53c 618c a4bc bb95 54bd
00000140: 5e16 dd3d 8b4c 013f ed95 79bd c504 2d3e
00000150: ea0c 9f3d ef43 c3be 08ad 31be 17fa d6bc
00000160: c0a8 b43e 30d9 683e 71e2 693d ee1a 2d3e
00000170: d013 563e bdc1 fc3e 7327 d7bc 4ccd 853d
00000180: 968b 743e 88af f43c 8ec4 8d3c 7caf a8be
00000190: 6d5a 983e 2943 42bc 3762 57be 8887 983b
000001a0: 91be 4e3e 5dc4 9dbd 2d9c c03c 846b 8e3e
000001b0: 5929 153c ab94 65be 220e 413e c7e0 cbbc
000001c0: 20d4 acbc 35d8 063c 5330 a0be f5ee a1bc
000001d0: 265f e3be 5f1f dc3d 1982 bfbe e9b5 dc3c
000001e0: 3155 173e c9f9 d4bc b965 3abf 6bf4 9cbd
000001f0: a9a4 07bf d9e7 50bd 1966 03bf 380e 853e
00000200: c3da 07bd 240e 9ebc ef41 18be dac5 19bd
00000210: 416b 15be 82c3 6abb f5db af3e dd6f 4a3e
00000220: ed77 d13d df9a b93d 13e0 f3bd cacf 2f3d
00000230: 5c19 debe 5a27 6e3e b3e1 7f3d 2c94 0c3f
00000240: d9e8 2bbd d6bc 0b3e 983f fcbc 6ba9 7f3e
00000250: ab13 6d3d 8f15 5dbe 024b 663d dc49 f93e
00000260: 4d26 e13c c59a 973e 22b2 753d dfa6 003f
00000270: 57d1 03bd faab 00bf 73bb 50be f7e4 223b
00000280: 4898 0b3e 6903 7dbe 4320 3f3d 4fbf c93d
00000290: 0a2f cebc b1f2 093f 3ee1 bbbe d52f 29be
000002a0: f0e7 013f 5deb 9bbd a51d 85bc e9e1 a8bd
000002b0: 5aa4 953e 949c 633e 4e28 fb3d 599f 9f3e
000002c0: 8b1e bc3b b98f 57be 5b9f 933e 0740 89bc
000002d0: f514 c2bc 424c 623c 1df0 823e 50aa 02be
000002e0: b831 583c 2895 353d cf9c e5bd 131f a23c
000002f0: 2f04 fb3e f6f3 9a3c 7289 0fbd c7d0 17be
00000300: 174e 993e 9e15 673c 301f 41be e2fb 883e
00000310: d6eb 7dbc 49da c6bc 26b3 ad3c 4b83 4abd
00000320: deb6 1d3d 60ce 6abd 6c98 05bd 7d80 cb3d
00000330: 096e 333d 8b19 983d 7da4 6abe a105 933c
00000340: 6751 67bd 7f0f d13c bd32 31be cfc0 d0be
00000350: 2a66 2c3e de4e 883d 49ba 8c3c 92b5 d83d
00000360: 581e 913e f21e 883b 209c 9b3e f6a5 b1be
00000370: f4cf 83bc bc83 d33c fd94 a4bc 00e3 503e
00000380: 9d90 b1be e361 893d 785a fc3c 44c6 ad3e
00000390: f780 313c 850c ba3c 88e3 5e3e 968d 863e
000003a0: bcfb 90be 754b 9f3d 41b5 3fbc da7d 983e
000003b0: 8048 2bbd d203 1dbd e7c2 b5bd b686 833d
000003c0: 3bd7 1f3e ad71 e4bc ae53 813e f21a 9fbe
000003d0: a034 86be c87c 5c3d 382b c8bd 6435 143c
000003e0: 214c d93c 5776 253d ce57 f83c 3210 423e
000003f0: 21a9 9a3d e1a8 fdbe 6065 b93b 0241 2c3c

l3.bias f4 [4]
0.043390803 0.0767934 0.07834915 -0.01880936
00000000: 8eba 313d dc45 9d3d 8575 a03d 1616 9abc
