TD3/saves/next_actor.pth (torch, 518693 bytes, 6 tensors)

l1.weight f4 [400, 18]
00000000: 6a11 7a3f d5e7 603e fc44 e4be ee53 583e
00000010: ae46 a2be d75b 38be 7a7c 4cbf a502 99bd
00000020: ae32 da3f c532 bd3c 2c8a adbd 46cd 6c3f
00000030: 5b1c eabc 7aa0 02bf f81a 503d 5a63 503e
00000040: 9ec7 d5be 6f7d 093f 725c 5a3d 6482 2cbe
00000050: 5d60 bf3d be64 0b3e f43f 0f3f 477c 083e
00000060: 607f 01be b902 23bf 025c 953f 3f91 1dbf
00000070: 74c5 c33d d50d 6ebc f98a 5fbe 76e5 a33e
00000080: d959 f2bd b90b 61be 47e1 d13e d28d cabe
00000090: 6a4d 8a3e 7c6a 0f3f 3bc8 05bf d2f8 023f
000000a0: 43a9 393d 1a25 ec3c dae3 74bf 46ec 133f
000000b0: 7aae 7bbf ed9e 23be 8222 fd3e 88a1 b93e
000000c0: 2c31 67be 88c2 4c3f ddc7 ce3d 8cb9 8dbd
000000d0: bcee a63e 94dd 183e 12af 0b3f da81 723e
000000e0: 1350 ac3d 1cd5 32bf 9313 96bd c651 333e
000000f0: 64c4 10bf 8d88 5f3f a921 27bf e4d0 bc3e
00000100: e3b0 88be 3965 29bf 57e8 c83e e4f5 16bf
00000110: b5da cf3c 344f 11bd 4e26 36bf d304 153e
00000120: 7249 683f 9689 b73d 5e88 673d ec90 3c3e
00000130: bca8 bb3d f482 db3e 2fdc 40bf 57b9 5bbf
00000140: 3716 41bf a220 d63e 976e 173f 25f0 cebe
00000150: d205 0fbe c34a d4bb a452 05bd 0736 f2bd
00000160: 3b32 6b3e 035c 00bf fd8c 903f 1df5 913d
00000170: e2ec cf3f 0fc7 39bd a72c 27bd 02ee d3bd
00000180: f019 85be 983a c9be bfca f83e e37f 51be
00000190: 1f5d 04bd 11db 1a3f 7789 253e 474a 56bf
000001a0: 83c3 f63d 9ee0 8fbe 136b 60be fb7a c43d
000001b0: f553 0d3e 6298 c33d 655d 4cbf d17c 8c3e
000001c0: 47d3 783e e77d ac3d 8258 6b3e 428d 8abf
000001d0: 650d 9dbf a57c 70be f9f8 503f ef5a 16bd
000001e0: adf0 523f d6de 413d 62ad 3dbd ce82 11bd
000001f0: 5d01 09bf 9fde 6bbf 447c 313e 035d e43e
00000200: 387b 443f 0399 16bf a1f5 c8be b3ff d4bd
00000210: fd00 5fbf 6972 a23f 0248 42bd 61cf dabe
00000220: f347 22bf 35cf cb3e d027 d43d 6fb9 873e
00000230: c755 c63d 90c4 b23e 9bec 02be 0863 ac3e
00000240: 7280 0dbf 6897 48bf 6dc2 7d3f 95f2 2b3d
00000250: 771c 363c a69c 193c 0b74 16be 159a 66bf
00000260: 36ee 583e bd08 b0bd ed6f 8c3f 3683 1dbf
00000270: 4f60 8ebe f369 6fbf 77ad 823b 1ff9 813d
00000280: 8bcc 07bf 393d e1be b056 0bbe 1a4e 9abe
00000290: d913 7f3f 28c7 ee3d 7772 bb3c 7b54 37bd
000002a0: 1882 78be e59d dd3d ba57 bdbf a263 b6be
000002b0: 20eb 3e3d 5f35 d9be bc5c 76bf 1e36 2e3f
000002c0: ba7a 063e f58c 6fbe aa55 9b3e f94c cfbe
000002d0: e3c3 9f3f 6d29 953e c1b8 613f e7f0 3fbe
000002e0: a7c4 d9bd f457 313e 79c9 aabe 4ab1 30be
000002f0: a401 9fbe 08d2 103e 1af6 f23e 53f7 853d
00000300: 0760 72bf f3a8 d03d a3bf 2ebe 4ff6 7b3e
00000310: b9ad ecbe ed72 a73e 4bac b23e f6fc 81bf
00000320: 7cfe 39bf 8390 ff3e 996f e23e 54bc 0a3d
00000330: dda5 68bf 9211 cb3e d27c 47bd 1055 66bd
00000340: b4fd 163e c8bc 9ebe fe05 9e3e 3e4c 2fbe
00000350: 9aad 2a3d a1d0 f5bc 7b94 473e 2585 77bf
00000360: ac66 273f 5014 3ebc b4a6 cd3e c8cc 8c3e
00000370: 5599 73be 721e 883e b318 e5be 0005 7f3e
00000380: 96c0 473e 00c1 0c3f 1d61 70be 1152 a03e
00000390: 0269 d9bd 948e af3e 8a71 bc3d b696 88bb
000003a0: bd1e 59bf 3164 06be 4a6d 543f ec04 e4be
000003b0: 5459 6d3f 5d66 a33e 9a56 b23e dfa4 f93d
000003c0: 1872 51be 8caf 613e 475d 15bf ab9c d1be
000003d0: 8d83 883e 5f6f 10be f006 bd3e 213d c73e
000003e0: 86c9 e23d 7fdf a83d 8dd1 97be 08f6 0b3e
000003f0: d979 783f cc51 08bf 6493 aabe 4496 9c3e
0.9768282 0.21963437 -0.4458388 0.21125767 -0.3169455 -0.18003784 -0.79877436 -0.074712075
1.7046716 0.023095498 -0.0847362 0.9250072 -0.028577974 -0.5102612 0.05080697 0.203504
-0.41753858 0.5370702 0.05331082 -0.16846615 0.09344552 0.13612649 0.5595696 0.13328658
-0.12646246 -0.6367603 1.1668704 -0.6154975 0.095591456 -0.014529665 -0.21830358 0.32011002
-0.11833543 -0.21977128 0.40992185 -0.39561325 0.27012187 0.5602186 -0.5225865 0.5116092
0.045327436 0.028826285 -0.95660174 0.577824 -0.98313105 -0.15978594 0.4944039 0.3625605
-0.22577351 0.7998433 0.10096715 -0.06920156 0.32604015 0.14928275 0.5456401 0.23682347
0.084137104 -0.6985643 -0.07327952 0.17511663 -0.5654967 0.87317735 -0.65285736 0.3687812
-0.26697454 -0.6617008 0.3923976 -0.5896895 0.025372842 -0.035475925 -0.711522 0.14552622
0.9073707 0.08961789 0.056526534 0.18414658 0.09163043 0.42873347 -0.75335974 -0.8582968
-0.7542452 0.41821772 0.5915312 -0.4041759 -0.13967064 -0.006478639 -0.032549515 -0.11826711
0.2296838 -0.501404 1.1293026 0.0712683 1.6244166 -0.045355853 -0.04081407 -0.10348131
-0.2599635 -0.39302516 0.48592183 -0.20458941 -0.03231537 0.6049052 0.1616572 -0.8370709
0.1204901 -0.28101057 -0.21915846 0.09593769 0.13801558 0.09550549 -0.7983001 0.27438977
0.24299346 0.084224515 0.22982982 -1.0824358 -1.2269713 -0.23485048 0.816299 -0.036707815
0.8239849 0.047331654 -0.04630793 -0.035525136 -0.53517705 -0.9213657 0.1733256 0.44602212
0.76750517 -0.5882723 -0.392499 -0.10400333 -0.87110883 1.2691165 -0.047431953 -0.42736343
-0.63391036 0.39806524 0.10359156 0.26508662 0.096843295 0.3491559 -0.1278557 0.33669305
-0.55274117 -0.7835603 0.99124795 0.04197939 0.011115185 0.009375727 -0.14692704 -0.9007886
0.2118462 -0.08595417 1.0971657 -0.61528337 -0.27807853 -0.9352104 0.003987964 0.06346344
-0.5304648 -0.43992022 -0.13607287 -0.30137712 0.9963966 0.1165908 0.02288173 -0.0447583
-0.24268377 0.108211316 -1.4792397 -0.3562289 0.04661095 -0.4242353 -0.9623525 0.68051326
0.13132754 -0.23393615 0.30338794 -0.40488413 1.2481655 0.29133168 0.8817254 -0.1874424
-0.106332116 0.17318708 -0.33356836 -0.1725513 -0.3105594 0.1414262 0.47453386 0.06541314
-0.94677776 0.101884745 -0.17065291 0.24605678 -0.4622629 0.3270487 0.34897074 -1.0155323
-0.7265394 0.4991494 0.44225767 0.03387101 -0.9087809 0.39661843 -0.048703022 -0.056233466
0.14745218 -0.31003404 0.30863947 -0.17118928 0.041669466 -0.030006709 0.19490235 -0.9668754
0.6539104 -0.011601523 0.40166247 0.27499986 -0.2378896 0.26585728 -0.44745407 0.24904251
0.1950706 0.54981995 -0.23474546 0.31312612 -0.10615732 0.34288466 0.09201343 -0.004168357
-0.8481253 -0.13124157 0.8297926 -0.44535005 0.9271443 0.31914034 0.34831697 0.1218965
-0.2045368 0.22039622 -0.58345455 -0.4093984 0.26662865 -0.14104985 0.36919355 0.38913825
0.11073594 0.082457535 -0.29652062 0.13668072 0.97060925 -0.5324981 -0.33315575 0.30583394

l1.bias f4 [400]
00000000: c1d2 b0be 681a d8be 59fe 39be 7f7d ffbe
00000010: ec36 41bf fb2a 07bf 31ae f3be ca73 86bd
00000020: a677 eb3d b328 273e e058 22bf 3962 82be
00000030: 7bed 58bf c287 03bf e6f4 66bf 2886 0ebf
00000040: 573e 82bf 1ff1 44bf 1545 0a3e bf24 c4be
00000050: a122 3cbf dece 8abf 8f58 36bf 8731 26bf
00000060: 482f 6e3e 3f54 2ebf 3c8c 7ebf d0aa 2fbf
00000070: dd0e 28bf 9b85 2cbf aa9b 4dbf f356 24bf
00000080: 5a69 ffbd 5003 fbbe f065 f5be 5265 11bf
00000090: 3e12 973e 803f e7be 7dad 5bbf 8b68 b5be
000000a0: f887 79bf 0764 84be 1efc 9fbe 038d f3bd
000000b0: b088 663e ad91 0abf 6de6 03bf 4728 04bf
000000c0: 243e 17bf ef92 47bf 0472 3c3e 0ecd b0be
000000d0: beae e8bd 2491 9f3e 73e4 c7be 6516 fcbd
000000e0: b37d 1cbe ed90 cbbe 50e3 85be 5ef5 23bf
000000f0: 69f6 adbe 21a2 a7be 0e2f 05bf b5cf 45bf
00000100: c3db 08bf 1eaa 9bbe fbae 15be eed5 31bf
00000110: 307f 15bf 7008 74bf b30a 8cbf 8cd4 8cbf
00000120: 4634 83bf 8bc8 9cbe 03f5 36bf 3e97 2ebf
00000130: 25df 36bf 96c7 21bf d5fc edbe 8efe 563e
00000140: d127 81bf 21ba 20bf d229 24bf f0b1 64bf
00000150: 39ad 77bf 3ec6 3fbe 0bae 2cbf 65d7 b4be
00000160: 7a15 f5be 8eb0 26be 1a7f 83bf d676 0cbf
00000170: 0180 86be 5b77 c83e 3fbc 69be 6b6d 5ebf
00000180: 6fb7 debe 36da 7ebf bb45 21bf 6f2f 25bf
00000190: 0079 c4be 848f 10bf 4b61 44bf 1fe2 10bf
000001a0: b0fd 71bf 2d20 9ebe 7aff 36bf f117 48bf
000001b0: a401 50bf 085f a0bf f99e e6be ea50 80bf
000001c0: 49ec 9abe 9d60 2abf a349 37bf 044f 4ebf
000001d0: 6812 eebd 2495 99be ebfe 31bf 1775 ffbe
000001e0: 0b6f 82bf f981 7abf 5141 56bf a0ed 4abf
000001f0: 92e4 0cbf 0742 34bf faa6 53bf 413a 49bf
00000200: 2984 b8be 4f4b 40be 580a fdbe 53d1 e23e
00000210: 7590 67bf df2f 77be 27f1 9abe 7ea6 f2be
00000220: 2568 39bf f96c aabe a295 debe 32a9 543b
00000230: 441a 83bf b310 61bf 53db d5be 06de d7be
00000240: feae 65be eb55 26bf a540 48bf a2a8 17bf
00000250: 87c1 1abf 13c6 68bd f68e 39bd 955f 00bf
00000260: 50e1 d4be 4699 a3be 5404 58bf 2284 1ebf
00000270: e987 0bbf 8cac 28bf dbb6 20bf f650 e4be
00000280: 088e 18bf 4b23 3dbf 4672 15bf d2c6 0fbf
00000290: a796 0cbf 6f61 2fbf 538a 7ebe b6a2 5cbf
000002a0: 9dfc cdbe f971 09bf 890b 89bf c73e 6bbe
000002b0: 22e9 93bf 7cbf 37bf efde 99bf 5654 a6bf
000002c0: eaf8 06bf a66d 4bbf 0454 53bf 13a5 17bf
000002d0: 2c81 34be 5553 2ebf 3ba9 fa3e bade 73be
000002e0: 6c86 71bf 6ab1 0abf 416e f6be 9fd3 91bf
000002f0: 9b4d 54be 6c0e eabd 4c29 efbe 1e09 c8bc
00000300: 82c5 8cbf 416a 3cbf 2108 8c3b 486e b9be
00000310: bf61 40be 5c63 1abf 8dfc 9bbe 746e 2abf
00000320: 2f2c 07bf 079f 7bbf 223d 203e 7334 15bf
00000330: 114a 1ebf 1cae 013f 8838 2fbf 7877 fcbe
00000340: 73e1 93bf 8e46 22bf bb43 723e da93 60be
00000350: 4b14 b33c 63ce cabe 859a 85be b0b3 2dbf
00000360: 2b56 4dbf 4c43 5abe a6b9 ffbe 6c69 fcbe
00000370: 867e bd3e ff06 1d3c 81a0 debe 5336 5b3e
00000380: 469e a0bd 86bb 05bf 38eb 7ebe e584 c4bd
00000390: 4d08 5cbe f875 1bbf 9d17 19bf 6684 80be
000003a0: 1c60 16bf 51f6 50bf 5e56 68bf df47 ea3e
000003b0: 770a 5dbf 8ac2 35bf 6f48 17bf bd61 5fbf
000003c0: 9851 10bf d64a b3be 4fbe 4cbf ee22 a53e
000003d0: 873b 29bf 1d03 80bf 5d5a 2fbf ca6c 1abf
000003e0: b214 d9be 0c29 8bbf 10c7 82bf 5db0 30bf
000003f0: 2880 3abf 3cf4 46bf 3201 83be 9b11 3dbf
-0.34535792 -0.42207646 -0.18163432 -0.49900433 -0.7547443 -0.5279996 -0.47593835 -0.06565054
0.114974305 0.1632412 -0.6341686 -0.25465563 -0.84737366 -0.51379025 -0.90217435 -0.55673456
-1.0175275 -0.7693042 0.13502915 -0.38309285 -0.7349034 -1.0844381 -0.7122888 -0.6491932
0.23260224 -0.680973 -0.9943273 -0.68620014 -0.6564768 -0.67391366 -0.8031565 -0.64195174
-0.12471266 -0.49025965 -0.47929335 -0.5679523 0.29506105 -0.45165634 -0.858116 -0.35431322
-0.97473097 -0.25857565 -0.31247038 -0.1189213 0.2251308 -0.54128534 -0.51523477 -0.5162396
-0.59079194 -0.7795858 0.18402869 -0.34531444 -0.113614544 0.3116542 -0.3904148 -0.12308959
-0.15282325 -0.39759007 -0.26149988 -0.64046276 -0.3397706 -0.32740882 -0.52024925 -0.7727006
-0.5346033 -0.30403227 -0.14617531 -0.69467056 -0.583972 -0.95325375 -1.0940765 -1.1002364
-1.0250328 -0.30621752 -0.7146761 -0.6819953 -0.7143424 -0.6319517 -0.46481958 0.20995542
-1.0090276 -0.6278401 -0.6412631 -0.8933401 -0.9674869 -0.18727967 -0.6745307 -0.35320583
-0.47867948 -0.16278288 -1.0273163 -0.5486883 -0.26269534 0.3915356 -0.22825716 -0.8688571
-0.43499324 -0.99551713 -0.62997025 -0.645255 -0.38373566 -0.5646899 -0.7671096 -0.56595033
-0.9452772 -0.30883923 -0.71483576 -0.7816153 -0.81252503 -1.2529001 -0.45043162 -1.0024693
-0.30258396 -0.6655367 -0.71596736 -0.8058932 -0.116246045 -0.29996598 -0.695296 -0.4989402
-1.0190138 -0.9785457 -0.83693415 -0.79268837 -0.5503627 -0.7041325 -0.8267666 -0.78604513
-0.3603833 -0.18778728 -0.49421954 0.44300327 -0.904548 -0.24139355 -0.3026211 -0.47392648
-0.72424537 -0.33286265 -0.43473536 0.003244948 -1.0242391 -0.87916106 -0.41768894 -0.42161578
-0.22430035 -0.6497485 -0.7822364 -0.5924169 -0.6045155 -0.056829523 -0.045302354 -0.50145847
-0.4157815 -0.31952876 -0.84381604 -0.6192037 -0.5450426 -0.65888286 -0.62779015 -0.44593018
-0.5959172 -0.7388198 -0.5837749 -0.5616275 -0.5491738 -0.68508047 -0.24857454 -0.8618578
-0.4023179 -0.53689533 -1.0706645 -0.22973166 -1.1555521 -0.71776557 -1.2021159 -1.2994487
-0.5272356 -0.79464185 -0.8255007 -0.5923626 -0.176274 -0.68095905 0.48957238 -0.23815432
-0.94345737 -0.5417696 -0.48130992 -1.1392707 -0.20732729 -0.11428532 -0.46711195 -0.02441841
-1.0997775 -0.7359963 0.00427343 -0.3621695 -0.18787287 -0.6030786 -0.30466118 -0.6657479
-0.52801794 -0.9828953 0.1564832 -0.58283156 -0.61831766 0.50656295 -0.68445635 -0.49309897
-1.1553177 -0.6338891 0.2365865 -0.21931401 0.021860262 -0.39610586 -0.26094452 -0.67852306
-0.80209607 -0.21314734 -0.49946326 -0.4929918 0.37010592 0.0095841875 -0.4348183 0.21407442
-0.07842688 -0.52239263 -0.24894416 -0.0959566 -0.21487541 -0.6072688 -0.59801656 -0.25101012
-0.587404 -0.8162585 -0.90756786 0.45757958 -0.86344093 -0.7099997 -0.590949 -0.8725851
-0.563745 -0.35018033 -0.7997789 0.32253212 -0.66106457 -1.000095 -0.6849726 -0.6032225
-0.42398602 -1.0871902 -1.0216999 -0.6901911 -0.728518 -0.7771642 -0.2558685 -0.7385499

l2.weight f4 [300, 400]
00000000: 9371 db3b 6461 66bd e0e2 0cbd 70cb e2bc
00000010: 6959 1cbd 93cf b5bc 8b41 adbd 4997 b9bd
00000020: 2122 a0bb 4a28 303d 1220 26bd 6eee 6bbc
00000030: 6ef3 b7bd 50f1 c33c 4f12 6ebd 3bac dcbb
00000040: 3502 95bd 8aa8 e4bc 84ec 31bb e097 dfbc
00000050: 45ee 8b3c 4059 44bd be69 5bbd 10e2 ecbc
00000060: 6f4a 92bd 4fdb 24bd a38b b7bc 59de 45bd
00000070: ac54 51bd 0ed3 0fbd c9e1 bdbd 3fe7 073c
00000080: dd00 8ebd bfb7 de3c a95a 08bd f93a b9bd
00000090: 1fa2 d0bc 832a e5bc 41d6 a4bd 1789 f837
000000a0: eaf6 ddbc 44cd 503c 392b 0fbd 8aa1 4dbc
000000b0: 02f0 6ebd a883 22bd 69f5 61bd 6724 a7bd
000000c0: 4dcd 19bd ceac 3bbd 2a40 9bbd f7a6 26bd
000000d0: ceb6 12bc 03b8 9bbd 834f f2bc 3e85 15bc
000000e0: a317 53bd d7f4 a5bd a47c 70bb 3961 8dbd
000000f0: 2a6a 413d c0ce d7bc 177e 5dbd c637 113d
00000100: 9181 dbbb f2c8 a5bd 6690 acbd 2940 9abd
00000110: 65e4 40bd d4af 263c d699 803c e8f1 a83c
00000120: 8df7 64bd 295b 37bc 6459 0f3d 24a4 08bc
00000130: 52df 90bd 22b7 85bd 75e7 783c 165f 02bd
00000140: 3a25 64bb 9a9d 05bc f4ca 9d3c b420 ddbd
00000150: d258 003d e1ac 76bd da85 003d d3ad 57bd
00000160: 146d 53bd 9306 0a3c 3825 34bd 3276 81bc
00000170: 9ffe 46bd 589b 4f3b 6590 0abd 6201 03bd
00000180: eaf2 2a3d f753 013d 0558 acbd 9f81 e6bc
00000190: 610d 93bd a75f aebc e4ea 91bd 2d8b d3bc
000001a0: 1189 c23b 7248 72bd 26c2 ebbc 3cae 8fbd
000001b0: b375 b0bd 983c 74bd 9a5d 8bbc 1122 90bd
000001c0: ee27 8cbd e794 57bc 5738 f1bc 79ce cbbc
000001d0: ef54 6ebd b22c 22bd 83f0 65bd 3161 143d
000001e0: 83e6 d6bd 4226 64bd 65df 7cbd 70c6 5ebd
000001f0: 9571 3bbb 1251 303c 69f8 c73c 68ec a0bd
00000200: 2c81 0bbd 0044 513c 1f62 9d3a e611 b2bd
00000210: 989c a5bc cb91 f039 f45c d8bb 3951 19bd
00000220: a6d3 88bc 7c5c 8fbd 0e4b bcbc 9cca 07bd
00000230: dcd4 edbc eb8f 09bd 5310 8fbc d0ad 7bbd
00000240: 50ff 3fba 7ef3 abbd 1fd9 a8bd d807 a1bb
00000250: 6d5c 15bd 4035 d5bd 623f fcbc b083 9cbc
00000260: 8dd6 64bd 2e4d 49bd 4b51 8d3c d51d a1bc
00000270: 17f8 e93c 11b7 59bd 2cf4 d9b9 723e f5bc
00000280: e841 233c a2d0 a5bc f84b c5bd 323b 143d
00000290: 0435 5dbd 83d3 fdbd b9ce d3bc 5075 05bd
000002a0: 8e15 99bd 24b8 5c3c 4005 e9bc 13aa a5bc
000002b0: 7a70 0b3d b6fb c53b 274a 1ebd 3203 56bd
000002c0: 33eb 5fbd 7296 1abd 1808 ab3c 77ee b1bc
000002d0: 5384 86bd d559 72bc 3399 80bd 7053 a4bd
000002e0: f3a6 8ebc add2 62bd cc21 453c 95ef 843c
000002f0: c876 db3c ee27 363d 02b5 6cbd 68e0 33bd
00000300: c5bf c5bd b97f 00bd 9ed5 a03c cafd 0e3c
00000310: b474 54bb d504 fdba 6fd9 06bc d941 98bd
00000320: 7482 113d b6e3 973c 5086 3abd f184 eb3b
00000330: 346e 23bc aa1b 26b8 1d57 513c ac3e a7bd
00000340: dfc1 f7bc f5e5 183d 9098 1cbd 5d29 bdbd
00000350: b8fa 113d d161 8b3d 8f9c 753c 6e11 34bd
00000360: 114f 38bb 304d efbc 4f90 8abd 3161 debc
00000370: f0fd 4cbd fbda 65bd 836c 07bd 89df 93bb
00000380: c51d ea3b 9143 a7bc 55a5 bebc 6c8c 96bc
00000390: 9f6b 38bc a88f e33b ceb5 ffbc f565 a0bd
000003a0: a864 893c eb2e 0dbd d14c 9cbd f052 4e3c
000003b0: b4c9 fb3b 1396 45bd 66c9 433c 8be1 b5bb
000003c0: 5930 0ebd 4826 6bbc 9255 29bd a1b2 b7bd
000003d0: 468a 40bd 0f3a 38bd c125 87bc f436 d73c
000003e0: 42e6 ac3c 1da5 1c3c bad4 89bc 6982 91bd
000003f0: 1191 5bbd 3257 d8bc ef62 3bbd 9582 03bc
0.0066968887 -0.056245223 -0.034396052 -0.027684897 -0.038171206 -0.022193706 -0.08459767 -0.090620585
-0.004886881 0.043007173 -0.04055793 -0.014400108 -0.089819774 0.023918778 -0.05812293 -0.0067343987
-0.072758116 -0.027912397 -0.002714903 -0.0272941 0.01708139 -0.047936678 -0.05356764 -0.028916389
-0.07143103 -0.04024821 -0.022405451 -0.04830775 -0.05110614 -0.035113387 -0.09271581 0.008294879
-0.069337584 0.027187226 -0.033289585 -0.09044451 -0.02546793 -0.027974373 -0.08048678 2.9627741e-05
-0.027095277 0.012744252 -0.03495333 -0.012550721 -0.058334358 -0.03967634 -0.055165682 -0.0816124
-0.037549306 -0.045819096 -0.07580598 -0.040686574 -0.008954717 -0.07603457 -0.02957893 -0.009126006
-0.051536214 -0.0810334 -0.0036695385 -0.069033094 0.047220387 -0.026343703 -0.054075327 0.03545358
-0.006698795 -0.08094968 -0.08425979 -0.07531769 -0.047092814 0.010173757 0.015698355 0.020623162
-0.055900145 -0.011191168 0.03499736 -0.008339915 -0.07073845 -0.065290704 0.015191902 -0.031828962
-0.0034812228 -0.008155251 0.019261815 -0.10797253 0.031334706 -0.060223464 0.03137765 -0.052656006
-0.051617697 0.008424419 -0.043980807 -0.01580343 -0.04858267 0.0031678285 -0.03382911 -0.03198374
0.041735567 0.031574216 -0.08415226 -0.02813798 -0.07180286 -0.021285845 -0.0712488 -0.0258232
0.0059367497 -0.05915112 -0.0287791 -0.070156544 -0.08616199 -0.0596281 -0.017012406 -0.07037748
-0.068435535 -0.01315806 -0.02944581 -0.024878727 -0.058186468 -0.039593406 -0.056137573 0.0362255
-0.10493185 -0.055700548 -0.061736483 -0.054388463 -0.0028601636 0.010761516 0.024410443 -0.07857591
-0.034058735 0.01277256 0.0012007392 -0.0869482 -0.020216271 0.0004588499 -0.0066028778 -0.037430976
-0.016702484 -0.07000062 -0.022985008 -0.033152208 -0.029032163 -0.033584516 -0.017463839 -0.061445057
-0.00073241163 -0.08396052 -0.082445376 -0.004914265 -0.036465097 -0.10410547 -0.030791942 -0.019105762
-0.055868674 -0.04914587 0.017250678 -0.019667545 0.028560681 -0.0531531 -0.00041571388 -0.029937003
0.009964444 -0.020241085 -0.096336305 0.036189266 -0.054005638 -0.12393858 -0.025855409 -0.03258258
-0.07474814 0.013471637 -0.028444886 -0.0202227 0.034042813 0.006041969 -0.038644936 -0.05224914
-0.054667663 -0.037741132 0.020877883 -0.021720154 -0.065682076 -0.014791925 -0.062792204 -0.08023727
-0.017413592 -0.055376697 0.012031984 0.016227523 0.026790038 0.044471674 -0.05778981 -0.043915182
-0.09655718 -0.031371806 0.01963311 0.0087275 -0.0032418193 -0.0019303808 -0.008230551 -0.074344344
0.0355248 0.018541198 -0.045538247 0.0071874787 -0.009975005 -3.960325e-05 0.012777117 -0.081662506
-0.030243812 0.03732868 -0.038231432 -0.09236405 0.035639495 0.068057664 0.01499094 -0.043961935
-0.00281233 -0.02921161 -0.06765806 -0.027145954 -0.05004686 -0.05611704 -0.03306247 -0.0045127315
0.007144662 -0.02041796 -0.023272196 -0.018377505 -0.011256128 0.0069446154 -0.03121462 -0.07831947
0.01677163 -0.034468573 -0.07631839 0.012593016 0.007683957 -0.048238825 0.011949873 -0.0055505685
-0.034714077 -0.014352389 -0.04134137 -0.08969618 -0.047006868 -0.044977244 -0.016497495 0.02627132
0.02110589 0.00956085 -0.016825069 -0.07104952 -0.053605143 -0.026408765 -0.045748647 -0.008026739

l2.bias f4 [300]
00000000: 60f6 90bd 17ad 5ebe d7ab c9be a9da a8be
00000010: 7313 9ebd 35ce 83be 3615 74be 7fd4 b4be
00000020: d5c1 16be 6681 da3c b0c8 4cbf e0ee dcbc
00000030: 909e a8bc 057e 01be 62d6 edbd e8dd 94be
00000040: 2976 04bf 6f3b 9c3e 0d78 9d3e f307 9cbe
00000050: 7680 34be 5cb8 95be 7d17 123d 8509 16bf
00000060: 63b7 e73c 6562 aebd 5302 95bd 77e6 29bd
00000070: fef0 5abe c12d ca3c b500 9f3d e75b e3bd
00000080: 1be9 9bbd e471 0abf 10b8 babe 775d 8cbe
00000090: 4cf4 2dbd 414e 1abe d1c8 acbe 5528 f9be
000000a0: f443 b9bd 6ce9 6bbd 24b9 2a3e c586 8cbe
000000b0: 53e9 8ebd 1f85 a3bc f404 14be 1021 c4bc
000000c0: c968 a8bd ad0a a9bc d7ac d3be c2fa fcbe
000000d0: f4e3 8abe cf17 06bf 4a54 643d 64a8 cebd
000000e0: dab2 f3be afe5 a1be 2335 97bd 23d4 d4bb
000000f0: bf08 1cbd e698 30be a174 18be edfd 98be
00000100: bb15 f9bc 7f41 2c3e d33f a8be 849c b3bd
00000110: 5c78 4ebd 5ba4 15be 6d19 9bbe 3758 a03c
00000120: f61f 24bf 9907 3bbe 7876 97bd a421 09bf
00000130: 5069 76be a479 7cbe 32c1 6cbd 7e89 3abe
00000140: 854e f7be 2b3c bebe 31de 7f3c c039 72be
00000150: 3a1d ccbd 31f5 85be 167d 71bd f33d ca3e
00000160: 9a2b a4bd 10a3 28be 9cd3 d7be 2c29 d0bd
00000170: 6f23 a6be fe0f 19bf 04fa 20be b20e 19bf
00000180: 7c40 09bf 6d3e c5bd 3878 4e3d cb33 cebe
00000190: 12c8 b4be a6bb 08be ade4 0abe 02b9 cebd
000001a0: 2e9b 2ebe fb3a bfbd 0a3f 62be d8cf f5bd
000001b0: 693a 1abd 03b1 68bd e923 e3be 4529 3ebe
000001c0: f1ff 62be 576e c3be 584f 70be 1f6d 1ebf
000001d0: 1e4e c9bd fdcb 37bf 3bb4 0dbe 1675 e1be
000001e0: de43 03bf 1ac7 d5bd d50f 6f3d 09bb 6dbe
000001f0: b8ce 3bbe cccc 84be f640 0bbf 5514 7fbd
00000200: 0a10 8cbe 6d1a 81be dc9f e9bc 8140 99bd
00000210: 2fa1 78be a583 33bd 155a cf3b cce2 c0bc
00000220: 49f9 b4be 477d 3abe ec80 26be b039 9ebd
00000230: be58 483b 9c49 bbbc 7596 73bc aa6a 5a3e
00000240: 4454 41be 44bc 9abe 1207 6ebd 512d 30be
00000250: bfc9 ebbe ca6e b9bd 657b 803c c347 02be
00000260: d61e c2be 8469 5e3d 05ee abbd 4aad dfbd
00000270: ddc4 933d 14f6 013e ffaf 433e adc3 91be
00000280: 2161 55bd 2aae 4d3e 5800 0d3d 6b98 02be
00000290: be96 95be 419d 69bd f14d c0be fa94 ddbd
000002a0: 0c61 c5bd 98b9 01bf df47 1e3e 779b 02bf
000002b0: 7140 c8bd 1216 81bd 8557 c0bd ee66 56be
000002c0: b941 9f3d 3788 dfbe 1efb e6be 5dac 23bf
000002d0: f3b4 b6be 4880 8fbd 21e8 0cbf 389a 37be
000002e0: 7815 d0bd fd73 cebd c321 47bf 43a4 e2bc
000002f0: 9569 c2be 5d5a dfbd 8289 02bf f43b 2ebe
00000300: 91dc 9bbe 6d57 d9be 7775 72be 19d6 533d
00000310: 5f8d 8e3d f963 5e3e dd00 30bf fa9a b6be
00000320: d0ec a0bd d1a9 73bd 9ab8 b0be 1f0d 5fbe
00000330: f560 ccbe c088 a8be 7849 bfbb d508 0fbe
00000340: d37b cebd 93af 543e 26b8 4cbe 5b2b 63bd
00000350: 29e4 bebe c630 eabc ac37 c7be ebcf d8bd
00000360: dae2 e6be 8294 513e 6833 86bf 1b00 02bf
00000370: 588d fdbd 4266 e3be 7aa9 3bbe 7583 6ebd
00000380: 84b8 e8be 537a c9be 3bba bdbd 8aa5 67be
00000390: 1bac babd ed35 54bd 6367 bdbd dea6 87bd
000003a0: e800 e8be 1f47 8a3e 30e7 96bc e61f cdbd
000003b0: 0885 5ebd 5dc5 87be 9642 a4bd 640c 6abe
000003c0: f035 d7be 0732 87bd 02c5 b9be 72e4 2abe
000003d0: f8c8 1d3d 232b b9bd 7a7a 16bf 4ad1 90be
000003e0: cabb a6bd a89a 4bbd d344 243d bbb7 20bc
000003f0: 840f 7ebe 64ff ea3d 3766 b9bc 834c 22bd
-0.07078242 -0.21745716 -0.39388916 -0.32979324 -0.077185534 -0.2574326 -0.23836216 -0.35318372
-0.14722379 0.02667303 -0.79993725 -0.026969373 -0.020583421 -0.12645729 -0.11613156 -0.2907555
-0.517428 0.30514094 0.30755654 -0.30474815 -0.17627129 -0.29242218 0.03566693 -0.58608276
0.028285688 -0.08514861 -0.07275834 -0.041479554 -0.21380994 0.02468002 0.07763807 -0.11101513
-0.07612821 -0.54080033 -0.36468554 -0.27415058 -0.042469308 -0.15068914 -0.3374696 -0.48663583
-0.09046164 -0.057595655 0.16672188 -0.2744657 -0.06978097 -0.019960938 -0.14455014 -0.023941547
-0.08223111 -0.020634973 -0.41342804 -0.49410063 -0.2712704 -0.5238008 0.055744447 -0.10090712
-0.4759739 -0.31620547 -0.07383182 -0.006495015 -0.03809428 -0.17245826 -0.1488824 -0.2988123
-0.03040587 0.1682186 -0.32861194 -0.08770087 -0.050407752 -0.14613478 -0.30292836 0.019573314
-0.6411127 -0.18264617 -0.07395643 -0.53566957 -0.24063611 -0.24655777 -0.057801433 -0.18216512
-0.48302093 -0.3715528 0.015616939 -0.23654842 -0.09966512 -0.2616363 -0.058957182 0.39500389
-0.08016129 -0.16468453 -0.42153633 -0.10164103 -0.3244891 -0.5979003 -0.15720373 -0.5978805
-0.5361402 -0.096310474 0.05040762 -0.4027389 -0.35308892 -0.13352832 -0.13563795 -0.10093881
-0.17051384 -0.093374215 -0.2209436 -0.12002534 -0.03765336 -0.056809437 -0.44363335 -0.1857043
-0.22167946 -0.3817012 -0.23467767 -0.61885256 -0.09829353 -0.71795636 -0.13838284 -0.44034642
-0.5127543 -0.10438366 0.058364708 -0.2321588 -0.18340576 -0.25937498 -0.54396 -0.06227525
-0.27355987 -0.25215474 -0.02851861 -0.07483006 -0.24280237 -0.043826718 0.0063278773 -0.023545645
-0.3534644 -0.18211852 -0.16260117 -0.07725847 0.0030570473 -0.022862248 -0.014867415 0.21329752
-0.18879801 -0.3022176 -0.05811221 -0.17204787 -0.46052358 -0.090543345 0.01568384 -0.12722687
-0.3791415 0.054299846 -0.08395008 -0.10921724 0.07215283 0.12691528 0.19110106 -0.284696
-0.052094582 0.2008597 0.034424156 -0.12753455 -0.2921657 -0.057034735 -0.37559465 -0.10819431
-0.09637651 -0.5067382 0.15457104 -0.5101847 -0.09777916 -0.06303038 -0.09391693 -0.20937702
0.077762075 -0.4365861 -0.45113462 -0.6393488 -0.35684928 -0.070068896 -0.550417 -0.17929924
-0.10160345 -0.10080717 -0.7778589 -0.027666217 -0.37971178 -0.10905907 -0.5099107 -0.17015058
-0.30441716 -0.42449513 -0.23677622 0.05171785 0.06960558 0.21717824 -0.6875132 -0.35665113
-0.078576684 -0.05948812 -0.3451584 -0.21782349 -0.39917722 -0.32916832 -0.0058376156 -0.13968213
-0.10082211 0.20770101 -0.19992122 -0.05546127 -0.37283447 -0.02858771 -0.38909662 -0.10586532
-0.4509495 0.20466807 -1.0484438 -0.5078141 -0.12380475 -0.44413954 -0.18326369 -0.058230836
-0.45453274 -0.39351138 -0.09264036 -0.22621742 -0.09114858 -0.05180924 -0.09248235 -0.06623624
-0.4531319 0.27007386 -0.018420786 -0.1001585 -0.054326087 -0.26517764 -0.08020513 -0.22856289
-0.4203334 -0.06601339 -0.36283118 -0.16688707 0.038521737 -0.09041431 -0.58780634 -0.28284675
-0.08141287 -0.04970804 0.0401047 -0.00980943 -0.24810606 0.11474493 -0.022631748 -0.03962375

l3.weight f4 [4, 300]
00000000: 1b9f a1bc 7ae8 8dbd 0fa8 ec3e b96e 25bf
00000010: 9a80 343c 7e79 debc d9a0 a6bd fc37 463e
00000020: 49b8 0dbe 0ca0 b7be 89c2 2b3f 7aff b9bc
00000030: 1f8a 3c3d 2583 423f 047f e63b 02ce 0ebe
00000040: f9b5 003f 58d3 7cbd 3cda 733e 0ebe b7bd
00000050: cbef 22be 29b0 acbe 98e4 4cbe 9328 0b3d
00000060: 02a8 0a3b 1ace a6bd 666c 1abd 6ea7 de3b
00000070: b9ea 6b3d b4c5 343f c00f 643e 0996 39bd
00000080: 1f30 3e3f 2e85 96bd 24c1 41be dc94 893f
00000090: 497f 243d 7ddf 5b3e 680f 65be 34d5 023f
000000a0: c04e dd3a 725e 1abd b801 723e dfe6 863e
000000b0: 3c75 4a3f 004c d63d fff2 793e 9644 abba
000000c0: af88 103b 4ee1 8bbe 1cc0 3bbc 7876 8c3e
000000d0: 6fc6 db3e 7169 9bbd 505e 9e3e 740a 2e3d
000000e0: 77fe 9d3d 84d0 59bf f967 7c3c 93bd 7bbe
000000f0: b4e8 993c a452 33be 311b 813e 52cc 84be
00000100: 092c 5abc 8fb2 85be 3131 073f 5491 493c
00000110: 9f2d c6be 1f76 23bf e9be 1f3d 54fe 103f
00000120: e0f2 473f c39d 5abe 18b2 c03c 0ab8 b63d
00000130: 8c90 72be 89a9 ac3e a55d 2b3c 9f04 73be
00000140: 7efe 763e 0657 0ebd 7ccf d4be 5c3c 873d
00000150: 85cc 3d3c 4267 4b3e 7632 d3bc a440 2b3f
00000160: fb2e 003d d2ca b2bc 3a97 52be 09d8 cb3c
00000170: 0983 3c3d f016 95be fc14 30bb 8d5c b93d
00000180: 57f7 913e 85dd 0e3f 50f0 143e a32b 293e
00000190: 4f15 f03d 7513 12bf 55b7 4f3d 6154 d9bc
000001a0: e8b4 023f 433e 9c3d 91d7 553d a68d cdbb
000001b0: 6b37 a23c 1e7e 0cbd 7e32 62bf 7795 3e3f
000001c0: b2de 64be 61ac 003e 4500 04bd b04f 61be
000001d0: e20f ef3d e9d9 233f b6b9 413a b69a f73c
000001e0: 78c9 073f a4b2 d93a df90 c1bd 3807 98bd
000001f0: 851a 1d3c 9a71 e3be 34e4 37be 9ef9 2b3d
00000200: 6eff f43e b27a 14bd 6c57 b1bc 045e 983c
00000210: 79bf a33d 618d e4bc 8a10 ff3c 30c5 be3d
00000220: 74f8 433e dc74 703f c30f 1bbd 5034 2f3d
00000230: 66d2 20bf 6625 9abc fe45 353e 229f 173f
00000240: 12e7 10bd 0bac 01bf 7030 6fbc 9e3f c9be
00000250: 1546 383e 6cdc 06bd 8c30 c63c 0a03 32bd
00000260: a813 b33e 10f7 dabe a178 923c 8fc9 d1be
00000270: 9554 6f3d 28b6 5bbd b751 413d 67b3 68bd
00000280: ad0b 663d b059 713c c0b9 ffbd 6f23 b53d
00000290: a7a3 073f 3e4b 6fbc 4cb1 e93e d2fa ecbc
000002a0: e33a 543d bbbd 663e 1ec6 e53e caf2 f3bc
000002b0: ac3c 9039 b006 f9be 1066 59bc 862a 0c3f
000002c0: 9bb2 983e 9d34 e0be 39d8 79be f12d 62ba
000002d0: 93b2 5f3d b375 22bf d1e1 af3c b8eb 673c
000002e0: 61ae c63b 8ec8 0bbc 0978 9fbe 94fb b13c
000002f0: 277b d5be 7a7a 10bf 65df 3f3e 5c96 f0bc
00000300: c28e 8c3e 4686 3f3d 04a1 65be 28c3 e23e
00000310: e938 293d 0f4b 01bf 7577 eb3d 0078 debd
00000320: 9ac5 4d3f a372 6a3d c9d7 babd 9f94 4ebe
00000330: ea60 2abf f5a3 a7be 7d26 4d3e f7b3 4f3c
00000340: c501 8f3e b8b2 c63e f82d c13e 3781 0cbd
00000350: 105d 993e 0a03 463b bf62 bb3e e3cf 4dbd
00000360: b9dd 0abe f97d aebe f298 cfbe 7131 683e
00000370: 7bd6 15be ae7e 123e 6a5a 433d ae74 1abd
00000380: 00e8 28be 83ac cbbc f16f 7b3e 4f0e 493e
00000390: 0455 22bd b159 85bd 86c8 1e3e 38b0 edbc
000003a0: c944 a6bd 0d99 243f 1715 693d 1b3f be3c
000003b0: a65e 40bd d8ba d9bc f18f 0fbd 9d00 abbe
000003c0: 7010 afbe b4bc e33b 5256 d13d 365b 0c3e
000003d0: fe63 b7bc bf07 c03c 43cc a3be db1b 30be
000003e0: 5216 103d 2b09 263d 26d3 e0bc 96fc ba3c
000003f0: 1bab 07bf daa6 27be 29c5 d7be 70bf f63c
-0.019729188 -0.06929107 0.4622197 -0.64622074 0.011016989 -0.027157541 -0.08136148 0.19357294
-0.1383983 -0.35864294 0.6709371 -0.022704829 0.04603016 0.7598136 0.0070341844 -0.13945773
0.5027767 -0.06172499 0.23813719 -0.08971797 -0.15911786 -0.3372815 -0.20009077 0.03397424
0.002115727 -0.081447795 -0.037701033 0.0067948615 0.057596896 0.7061417 0.22271633 -0.0453091
0.74292177 -0.07349621 -0.18921334 1.0748553 0.04016045 0.21471973 -0.22369158 0.5110657
0.0016884431 -0.037687726 0.23633468 0.26348016 0.79085135 0.104637146 0.24409102 -0.0013066705
0.0022054126 -0.2732033 -0.011459377 0.27434134 0.4292483 -0.07588471 0.3093133 0.042490438
0.07714551 -0.85083795 0.015405648 -0.24584036 0.01878772 -0.17511994 0.25216058 -0.25937134
-0.013316163 -0.26112792 0.52809435 0.012302715 -0.3870668 -0.63852113 0.039000425 0.56638074
0.7810497 -0.21349244 0.023522422 0.089218214 -0.23687953 0.33723095 0.010459338 -0.23732232
0.24120519 -0.03475096 -0.41564548 0.066033095 0.011584406 0.19863608 -0.025780898 0.6689551
0.031294804 -0.021825228 -0.20565501 0.024883287 0.046023402 -0.29119062 -0.0026867976 0.09050856
0.28509018 0.5580676 0.14544797 0.16520552 0.11722814 -0.5706094 0.05071195 -0.026529493
0.5105729 0.07629063 0.052207533 -0.0062729893 0.019801816 -0.034299962 -0.88358295 0.74446815
-0.22350577 0.12565757 -0.03222682 -0.22003055 0.11672951 0.6400438 0.0007390039 0.03022514
0.5304179 0.0016609025 -0.0945146 -0.07423252 0.009588842 -0.4442261 -0.17958146 0.0419861
0.47851127 -0.036249824 -0.021648131 0.018599518 0.07995505 -0.027899446 0.031135816 0.09314954
0.19137746 0.93928313 -0.03785683 0.0427745 -0.6282104 -0.018816661 0.17702481 0.5922719
-0.035376616 -0.5065314 -0.014598951 -0.3930635 0.17995484 -0.032925054 0.02419307 -0.04345993
0.34975934 -0.4276662 0.017879786 -0.4097409 0.058430273 -0.053640515 0.04719707 -0.056811716
0.05616348 0.014730856 -0.12486601 0.08844649 0.5298409 -0.0146053415 0.4564308 -0.028928194
0.05181397 0.22533314 0.44877714 -0.029778857 0.00027511024 -0.48637915 -0.0132689625 0.54752386
0.29823765 -0.4379014 -0.24398889 -0.00086280616 0.05461366 -0.63460845 0.021469982 0.014155321
0.006063268 -0.008531703 -0.31146267 0.021726407 -0.4169552 -0.56436884 0.18737562 -0.029368572
0.27452666 0.046758913 -0.22424704 0.44289517 0.04131404 -0.50505155 0.11497394 -0.10862732
0.8037964 0.057238232 -0.09123189 -0.20173882 -0.6655413 -0.32742277 0.20034213 0.012677184
0.27931038 0.38808227 0.37730384 -0.034302916 0.29953814 0.0030214214 0.36598775 -0.050247084
-0.13561143 -0.34080485 -0.40546376 0.2267511 -0.14632599 0.14306137 0.047693647 -0.03770893
-0.16494751 -0.024862533 0.24554421 0.19634365 -0.03963186 -0.06511248 0.15506181 -0.029014692
-0.081185885 0.64296037 0.05690488 0.02322345 -0.046965264 -0.026578352 -0.035049383 -0.33398905
-0.34192228 0.0069499854 0.102215424 0.13706669 -0.022386547 0.023441194 -0.31991777 -0.17198126
0.035177536 0.040536087 -0.027444433 0.02282552 -0.5299546 -0.16372243 -0.4214261 0.030120581

l3.bias f4 [4]
00000000: ae9e 63be 1a40 073e 7ef0 9b3e 3e8d ce3d
-0.222285 0.13208047 0.30456918 0.100855336
