TD3/saves/smallhall_actor.pth (torch, 518693 bytes, 6 tensors)

l1.weight f4 [400, 18]
00000000: af38 323f 16a5 c6be 3dd8 cf3e 8aa3 8bbd
00000010: a475 31be fe1d 90be a45f 64bf 9ca9 97be
00000020: 8591 40be 05ea 803e 21d3 1ebe 6ae2 19bf
00000030: 5486 b4be 73bb 173e 385c 4a3e a9a3 2c3e
00000040: c0af f9bd f640 dd3c 8e12 053f 5c9e a93f
00000050: 641d 3c3f bfc5 60bc 5c65 1ebe b0d2 243e
00000060: ba38 c2bd 2f38 16bf 0eb9 6c3e 9392 4b3d
00000070: 1790 513e 9f16 63be 39f9 c2be d9d0 583d
00000080: 7af4 c83d 34f7 f5bc e083 c53c 7baf 523e
00000090: f47f 1d3f 6a71 993e b03b 4bbf bbcb dc3e
000000a0: 0327 d33d 5329 78be aafa 0bbf 3a97 23be
000000b0: 1cb0 dfbe 8e7a 3a3e d69f 393d 2346 d33e
000000c0: dfe3 423f 0969 8cbd 1394 f3bc 457c 1fbe
000000d0: 732c c03e fbff 67bd 490e eb3e c385 e63e
000000e0: 9da2 bebe 81d0 873d 56e8 9f3e 4d99 51be
000000f0: 0e77 14bf 815e 943d 7dc2 56bf d328 b7be
00000100: c973 163d e9ec 3f3e 5106 1abf f2d2 fbbe
00000110: 0ce1 5f3d b2c6 f8bc 152d 783e b170 b5be
00000120: 29e3 c53e ac10 533f 9ea1 413f b281 d73e
00000130: 10ec 27be 8f9f 20be fba7 18bf bceb c1be
00000140: 21ad 603e f9d8 95bd 58e9 a5be ea28 943e
00000150: f980 ab3e b3e5 29bd 4585 e0bc 4072 643d
00000160: 8cda 16be 96f6 37bf e695 eebd 456c 57bd
00000170: ee5c ad3e 1814 a33d 7930 9ebe 79dd 69be
00000180: 47ea 0fbf 7958 97bf daa7 843f 73ea a83e
00000190: b204 d73d 48c8 52be 68b3 bbbb 2de0 a6bf
000001a0: a854 95bc 2f68 32be 2574 d5be fa4d efbe
000001b0: d157 40bd a70f b6be c7e8 a63e 8ff1 6a3e
000001c0: d4fa 523d 89d3 d93b c1e4 f23d 3f67 3dbf
000001d0: 6c6a 78be efe0 063e 9983 343e 16a6 1abf
000001e0: 87bc 903c 1673 d3bf 6124 b63d 0921 f83c
000001f0: 247d 66bf 1912 b0bc 9ee6 e53e 0920 ae3e
00000200: 0368 44bf b916 6abe 581f 3dbe 7faf afbd
00000210: 72c4 07bf 0a3d 50bf de73 45be e65b ba3d
00000220: 7406 a83e 4b9c 82be 7509 bfbe 1f3c 0abf
00000230: 8aa9 013d f072 1a3e 623f 55bf ecb2 573e
00000240: e60b 063f 9443 4c3f 55ea af3e 0f27 ddbc
00000250: b7b2 053e 8fd0 6f3d f270 35bf 6625 9d3e
00000260: b74f 213f b044 46be 0a7e 68be 9ab1 2ebf
00000270: a753 b9be c22c 313e 7cbd 1dba de18 a83c
00000280: cc8e 0cbf f179 4e3e e16e 123f 52ef d13e
00000290: 34cb d63d ea51 0bbd 8661 2ebe c958 a4bd
000002a0: 8dcf 3cbd 7700 bcbe 838e 8cbe b847 0d3c
000002b0: a9c4 a4be 7ec5 0a3f 37c7 143e 48fd b5bd
000002c0: 189b febc 5425 86be d233 73bf debf 49bf
000002d0: f1d8 f3be 2c7d 26bf be70 bc3e 044e 16be
000002e0: e025 b8bd 4d97 2dbd 59e6 5bbe d75d 083f
000002f0: d4dc 75bf e69a 983e bdae 90bd 7b71 5d3e
00000300: 48f1 4c3f 56c8 103f 26c4 6abc 8c5f 7e3d
00000310: 2588 10bf 0823 a4be 9944 523f 1ba5 3f3f
00000320: bede 95bf a98d 683e 35bf e33c 3000 a13b
00000330: 955c a4be 90ef b7be 827b 0dbf 7422 4bbd
00000340: b9cc b5be ab47 913e d927 c23d 4389 c43e
00000350: 5e7a 0fbe 106c 483e 05e8 90be effb 66be
00000360: 45a5 6fbd f4b2 89bf e604 d5be 7818 bd3e
00000370: aeac 183e bea9 253d 1abf a1be 6b39 e9be
00000380: 3b5d 823d 75a2 9f3e 5eb8 d4bd cc5d 4cbe
00000390: 362b 3f3d 59b8 323f 49c4 90bd f6ac 803e
000003a0: 0a5e 00bf 90b2 9f3d e228 86bd 66cf 033e
000003b0: 7a6e 71bf 9617 7bbd a737 973e 3f91 7fbe
000003c0: 838a b0be 516f 69bf 7ce6 1fbf f2fb 473e
000003d0: 6bdc d8bd e063 30be 10c2 3f3f 51b2 81bd
000003e0: d4ec d5bd 5df2 d7bd 6955 85bd 16d3 7dbe
000003f0: e45b 1e3f 99c4 a23e ec92 873d c56b 423e
0.6961774 -0.38797826 0.40594664 -0.06818302 -0.17330033 -0.28147882 -0.89208436 -0.2962159
-0.18805511 0.25178543 -0.15510227 -0.60111105 -0.35258734 0.148176 0.19761741 0.16859306
-0.12191725 0.027008515 0.5198144 1.3251452 0.73482347 -0.013719021 -0.15468353 0.16095996
-0.09483476 -0.5867948 0.23117468 0.04970033 0.20465122 -0.22176598 -0.38080767 0.052933548
0.09812255 -0.030025102 0.024110734 0.20574753 0.61523366 0.2996934 -0.7938795 0.43124184
0.10310175 -0.24234514 -0.5467936 -0.15975657 -0.43689048 0.18210813 0.045318447 0.41264448
0.76128954 -0.06855971 -0.029733693 -0.15574749 0.37533912 -0.056640606 0.45909336 0.45023927
-0.3723344 0.06631566 0.31231946 -0.20468636 -0.57994163 0.07244588 -0.83890516 -0.35773334
0.036731515 0.18742718 -0.6016589 -0.49184376 0.05465798 -0.030368183 0.24235947 -0.3543754
0.38649872 0.82447314 0.75637233 0.42091137 -0.16398644 -0.15685867 -0.5963132 -0.37875164
0.21941043 -0.07316775 -0.3240459 0.28937465 0.33496836 -0.041478824 -0.027407298 0.05577302
-0.14731807 -0.71860635 -0.116496846 -0.05259349 0.33859962 0.07962817 -0.30896357 -0.22838391
-0.56216854 -1.1823875 1.0363724 0.3299137 0.104989424 -0.20584214 -0.005728174 -1.3037163
-0.018228844 -0.17422555 -0.41690174 -0.4673918 -0.04695875 -0.35558817 0.3259947 0.2294371
0.05150874 0.0066475314 0.118600376 -0.73985666 -0.24259347 0.13171743 0.17628326 -0.6040968
0.017668022 -1.6519496 0.088936575 0.03028919 -0.900347 -0.021493005 0.4490251 0.34008816
-0.7672121 -0.2286023 -0.18468988 -0.08578395 -0.53034127 -0.8134314 -0.19282481 0.090995595
0.32817423 -0.25509867 -0.37311903 -0.5399799 0.031655826 0.15082908 -0.8329984 0.21064347
0.52361906 0.79790616 0.3435847 -0.026996164 0.13056456 0.058548506 -0.70875466 0.30692595
0.6301226 -0.1936214 -0.2270433 -0.6823975 -0.36196634 0.1730223 -0.000601731 0.02051967
-0.5490539 0.20163704 0.5720044 0.410029 0.10487977 -0.034013666 -0.1702939 -0.08024747
-0.046096373 -0.36719105 -0.27452478 0.008623056 -0.3218129 0.542076 0.1452912 -0.088862
-0.031079814 -0.26200354 -0.95000947 -0.7880839 -0.4762645 -0.6503475 0.36804765 -0.14678198
-0.08991599 -0.04238062 -0.2147459 0.5326819 -0.9604008 0.29805678 -0.07064579 0.2162532
0.80055666 0.5655569 -0.014328992 0.06210284 -0.5645774 -0.32057977 0.8213592 0.74861306
-1.17086 0.22710289 0.027801136 0.0049133524 -0.32101884 -0.3592496 -0.5526658 -0.049593404
-0.35507753 0.2837499 0.094802566 0.38385972 -0.14011523 0.19572473 -0.28302017 -0.22557043
-0.058507223 -1.0757737 -0.416053 0.3693273 0.14909622 0.040445082 -0.3159111 -0.4555162
0.063654386 0.31178632 -0.10386728 -0.19957656 0.04667207 0.6981254 -0.070686884 0.2513196
-0.5014349 0.0779773 -0.065507665 0.12872085 -0.943092 -0.06130179 0.29534647 -0.2495775
-0.34480676 -0.9118548 -0.62461066 0.19529703 -0.105889164 -0.172256 0.7490549 -0.06332839
-0.10445562 -0.10544274 -0.06510431 -0.24787554 0.61858964 0.31790617 0.0661982 0.18986423

l1.bias f4 [400]
00000000: 463b 85be d14a 6fbf c0d9 5dbb 298c e93e
00000010: 04a5 eebe 08f4 f4be ba2b 1e3e e7c1 07bf
00000020: c619 c93d 1028 5cbf a425 5d3d 47a9 3abf
00000030: 6400 63be 7f1d 4cbe 1c9e 1abf de41 e0be
00000040: e026 c3bc c069 afbe 2903 d4be f66b a8be
00000050: 6285 09bf ce03 06bf 1375 f7be 19e4 babe
00000060: dc84 06bf b51a 50bf 9e3f 85be d7f5 2dbf
00000070: c4ba e0be 7086 49be aae6 8dbe 983b 223e
00000080: d1d0 a8be 81a0 3abe 67ba e0be 08f1 08bf
00000090: 20d0 22be 52cc febe ea69 5bbf 576e 4dbf
000000a0: c5c7 d3be c448 a8be 54e5 3abf e01d 12bf
000000b0: 4da3 efbd 7233 57ba 676b 13bf 2812 ccbe
000000c0: 4d63 83bf 2842 5fbe 239b 97be 5246 13bf
000000d0: 00f5 55bf 7cae 63bf c665 1bbf dac3 4ebf
000000e0: b273 85bd a7ab 13bf 33cf 31bf bbce a4be
000000f0: 8a6f 0abf 38ea 81be 5389 cabe 739b 92be
00000100: 6d2b b7be da02 6bbf 5c71 10bf c9fa 05bf
00000110: 09f5 a6be 4343 03bf 6236 91be e0e9 86be
00000120: 1f01 4dbf 29b3 3abf ea06 c33e 9dfa dbbd
00000130: 54a5 bbbe e30b cabe 78cb 02bf 31ae 68bf
00000140: a98d 4dbe 6172 43bf abc9 a4be c192 19bf
00000150: f359 c3be 1577 0abf 0c50 e0be 858d 9ebd
00000160: 334b 01bf c2d7 32bf 58d5 17bf fd32 dabe
00000170: a523 27bf 3231 8fbe a480 0dbf b152 6dbe
00000180: 1f11 89be a181 b9be 360b acbe 6511 a9be
00000190: 0028 bebd 6fa0 03be 78c6 0cbf 5e76 40be
000001a0: fcf4 20bf d36d 81be 0ad0 f3bd 538a 02bf
000001b0: aa2e 3abf c270 eabe 97cf a4bd 0d6e e1bc
000001c0: 0c16 acbe 0882 efbe 93d2 2cbf c448 30bf
000001d0: 14e2 7ebe 9bbf 62bf 89e2 733d d31f e5be
000001e0: fd58 a9be 42be 2d3e 2c23 27bf fdc7 1dbf
000001f0: fc9e 66be c49a a13e 402e edbd fc35 bd3d
00000200: 9014 b1be 3dd3 27be 873e 36bf 35e0 6abf
00000210: b7cd d13d 0724 e6be 5f35 20bf cc72 b4bd
00000220: cb8c 69be 3306 11be 297c a3be 573c b3bd
00000230: 48c8 60be 6e9b debe aff6 a8be ae0d bbbd
00000240: 5e96 883e 59a8 b4be 602d 14bf 394b 33be
00000250: ff8b f9be d3ae 3dbe b81c d2be 5eb6 23be
00000260: 3ca6 d9be 0c1f 18bf 3ec3 233c 2526 08bf
00000270: 58a7 b1be d171 04bf 4582 033e 8d43 c4be
00000280: a0fe c1be 2f71 b6be bee9 b5be 8316 e3be
00000290: 30c7 99be df76 de3c 70dd 44bf a396 b9be
000002a0: 194b c8be 1a1d c0be 3175 15bf da24 1bbf
000002b0: 3030 37bf 9d3e 2cbf ac9d 0dbf a9a6 febd
000002c0: 96a3 6fbe 1fac 7ebe 1a17 40be 50b6 eebd
000002d0: 9775 76be 183e 92be 3257 f2be 4aa7 2abf
000002e0: 3f85 92be d6a9 33bf c9c1 19bf e890 0cbf
000002f0: ad5a 49bf d2f0 48bf 5b75 21be 9d62 19bf
00000300: ed77 f6be 1dac 48bf b05c 93be 26e4 59be
00000310: cab1 0c3f 9452 e7be 303e 30bf 33f8 0cbf
00000320: 71b1 fdbe 002e f4be ce18 713e 77ef bbbe
00000330: 13a9 12bf 3573 ffbd 1743 cdbe 2634 94be
00000340: cf7e c8be 3f31 67bf 3d8d f8be d5c2 2bbf
00000350: e661 a7be 90af 27bf 7322 73be f28f 9bbe
00000360: e885 e83e 0dff c1be d5dd dcbe 93f2 bc3d
00000370: 4ee1 30bf 0f27 e8be 76f9 16bf 325e abbe
00000380: 56ca a9be 8a34 77bd a855 08bf 260c 44be
00000390: 4a4a e9be 3420 06bf a6d8 45bf 32ad e2bd
000003a0: a7d1 093d a257 d1be 72bb febe 7c2d 1fbf
000003b0: af36 fcbe 042e 27bf 5b1f b33d 1960 fdbe
000003c0: f335 fdbe a0e2 07be e805 cdbe 180e 1c3c
000003d0: 6a58 abbe fdb4 d8be 3339 21bf 8ff3 4abf
000003e0: 647a 2dbf 4ffc 08be 4e6f fbbe 77c5 4fbf
000003f0: 5275 bfbe b082 433d ca0a fbbe fa53 6e3e
-0.26021785 -0.93473536 -0.0033851713 0.45614746 -0.46610272 -0.4784243 0.15446368 -0.53030246
0.09819369 -0.8599863 0.053990975 -0.72914547 -0.22168118 -0.19933127 -0.60397506 -0.43800253
-0.023822248 -0.34260368 -0.4140866 -0.32894868 -0.5371915 -0.52349555 -0.48331508 -0.3650215
-0.5254648 -0.8129075 -0.260251 -0.67953247 -0.4389249 -0.1968019 -0.27715045 0.15843046
-0.32971814 -0.1822529 -0.43892214 -0.53492785 -0.15899706 -0.4976526 -0.8570849 -0.8024649
-0.4136335 -0.32868016 -0.73006177 -0.57076836 -0.11701069 -0.0008209265 -0.5758576 -0.39857602
-1.0264679 -0.2180258 -0.29610547 -0.57529175 -0.83576965 -0.8893812 -0.6070217 -0.80767596
-0.06516208 -0.57683796 -0.69456786 -0.32188973 -0.54076445 -0.25374007 -0.39557895 -0.28634223
-0.3577532 -0.91801226 -0.5642297 -0.5233579 -0.32608822 -0.5127451 -0.28361803 -0.26350307
-0.80079836 -0.72929627 0.38091213 -0.1074116 -0.36649573 -0.39462194 -0.5109172 -0.90890795
-0.2007357 -0.76346403 -0.3218511 -0.59989554 -0.38154563 -0.54087955 -0.4381107 -0.077418365
-0.5050537 -0.6986047 -0.5930991 -0.42617026 -0.65288764 -0.2796722 -0.55274415 -0.23176076
-0.26770875 -0.36231712 -0.33602303 -0.33021083 -0.09284973 -0.1285417 -0.5499034 -0.18795153
-0.62873816 -0.25279102 -0.11904915 -0.50992316 -0.72727454 -0.45789152 -0.08047407 -0.027518297
-0.3361057 -0.46778893 -0.6750881 -0.6886103 -0.2489093 -0.88573617 0.059542213 -0.44750842
-0.33075705 0.16967109 -0.65288043 -0.6163328 -0.22521585 0.3156339 -0.11581087 0.09238812
-0.34586 -0.16389175 -0.7118916 -0.9174836 0.10244315 -0.44949362 -0.6258144 -0.08810958
-0.22807615 -0.14162521 -0.31930664 -0.08751743 -0.21951401 -0.43477958 -0.33000705 -0.091334686
0.2667722 -0.3528469 -0.57881737 -0.17509164 -0.4873962 -0.18523721 -0.41037536 -0.15987536
-0.4250964 -0.59422374 0.00999528 -0.53183204 -0.34697986 -0.5173617 0.12842663 -0.38332787
-0.37889576 -0.35633227 -0.35529894 -0.44353113 -0.3003478 0.027156292 -0.76900387 -0.3624774
-0.39119795 -0.37522203 -0.58381945 -0.60603106 -0.71557903 -0.6728304 -0.55318713 -0.12434132
-0.23402247 -0.24870346 -0.18758813 -0.11655867 -0.24068294 -0.28563 -0.4733215 -0.6666151
-0.28617284 -0.70181024 -0.6006132 -0.5490861 -0.78653985 -0.7849246 -0.15767424 -0.59916097
-0.4813837 -0.78387624 -0.28781652 -0.21278438 0.54958785 -0.4518019 -0.6884489 -0.5506622
-0.4954944 -0.47691345 0.23544618 -0.36706135 -0.57289237 -0.12473146 -0.40090248 -0.28946036
-0.39159247 -0.9030952 -0.48545256 -0.67094165 -0.32691878 -0.6550226 -0.2374361 -0.3038326
0.45414662 -0.378899 -0.43137994 0.09225955 -0.6909379 -0.453423 -0.589744 -0.33470303
-0.33162183 -0.06035284 -0.532557 -0.1914526 -0.4556449 -0.5239289 -0.77283704 -0.11068191
0.033647206 -0.4088717 -0.49752384 -0.6217878 -0.4926047 -0.6530459 0.08746215 -0.4948738
-0.49455222 -0.13270044 -0.4004357 0.009524845 -0.33465892 -0.42325583 -0.62977904 -0.7927789
-0.6776488 -0.13377498 -0.49108356 -0.8116068 -0.37394196 0.047732055 -0.4903167 0.23274222

l2.weight f4 [300, 400]
00000000: 6116 8abe c887 273e e11d bfbe 6ed9 09bf
00000010: 2221 56be 36ef 09be e095 03be 902d a4be
00000020: 8b09 87bd bfbd 893e 36ab 2fbf a0e8 81be
00000030: 3917 803b f7f4 313e 9fd0 333e 5a0d fdbd
00000040: b729 9fbe 5f51 3fbd 0162 e83d 1b51 c63d
00000050: 7686 ca3e 996c 8b3e ab93 dbbd fdcc b93d
00000060: 499c 08be c4d0 a4be e4d2 fa3d bd0a afbc
00000070: 60d7 0e3e 0b79 3ebf ef3c 00bd ac06 9cbd
00000080: b057 d43e 7ea0 d2bd 4956 053e bf61 aebe
00000090: 9e35 2a3d 5ee5 38be 9824 243d 26ea 2b3e
000000a0: cd8e 7fbe d8be 083f 11e3 92be 51e6 c93d
000000b0: 4d0e a4be 6ea0 c33d 7765 903d d070 17be
000000c0: e8cf 243d 431d d5be 0b32 573d 3e8c b2be
000000d0: a7e4 e13b b7f6 673d ab11 5d3e 547c 593e
000000e0: 6c44 9b3e 42ad 083d f123 f0bb 3960 e03d
000000f0: fb31 e3bd 804d 5dbe 4b0d 0b3e 8dea 793d
00000100: a041 00bf 25c8 633d 7eba 00bf 6122 12be
00000110: a7ef 42bd aa03 9d3e 47d2 323e cc75 023e
00000120: 631d bcbe bf03 f83d c3c4 8c3e 89ba 83bd
00000130: d0f2 8b3e 6df5 69be 046e 94b9 8bf8 2d3d
00000140: 166d b23d 9a8f 633d b046 3abf 378a be3d
00000150: 5535 8f3d 22b5 b1be 629c acbe df11 54bd
00000160: 7c43 27be 995f db3d 4dd3 a1be 349c 72bf
00000170: 1d89 183e 46ff 8b3e 6345 043f 5abf 5ebe
00000180: 5f23 813e 6516 ab3d 7642 a1be 32a1 d03e
00000190: c79d b23e 7b1c 9bba 0635 53be 7572 673d
000001a0: dd77 e5bd 8587 aabd 64a6 79be 8176 383a
000001b0: e5b8 b63d f1fb 90bb 6e7b ab3e eab3 4bbf
000001c0: 70d3 913e 240d 933d a89a c2b9 3602 c83d
000001d0: de59 0d3e 9702 793e fede 8ebe 08ab 0f3e
000001e0: 5b91 f13c d983 d0be 4c04 0dbf ccff f93c
000001f0: 144d 0abf 3c7b 1bbe 3ef7 923d 0dae de3c
00000200: 70bb 42bd f40d 29be fa15 25be 9246 ebbe
00000210: d3f7 96be df57 d83d 3576 1b3e 6299 3cbf
00000220: 9460 4fbe 65d4 363e 2d9b 8e3e b35e 063f
00000230: 5c7d cb3e bbe3 543e 078d e0be 41d8 e03d
00000240: 2727 1abd 6306 49be cc8b 0b3d 13ef e8bc
00000250: b850 00bf d57f 453e a192 743e f088 37bc
00000260: d26b f53e e7e5 0a3e b43a 84bf f60c 0cbe
00000270: 5b2b 373d 1f2d 0cbd 5a87 3a3c dce8 743e
00000280: 6930 78be 1687 96be 2854 6ebe f87e 5f3e
00000290: 2aa6 c6be 57ff 58be 9c2d 243d c819 9abd
000002a0: d364 7b3d bd44 433e 2e12 5d3e c18d 5c3d
000002b0: 7815 94be 1de5 903d 83b5 dd3b a289 9ebe
000002c0: 7848 5fbe ad30 c23e 4a94 db3c 99ec c6be
000002d0: 7c77 063e 04ea bdbe d2d3 88be df15 2a3f
000002e0: 4506 d3be 67d6 eb3d fb74 f9be b368 b73e
000002f0: fdf2 04be a18f 233e 7892 803e 1203 4d3e
00000300: 4f3f 223e d32e 4b3d bb7c 68bf 776f a4bd
00000310: 0391 e5be a97a 30be 5b0c 26be cd1c 6a3e
00000320: 407c 043d 883d d5bd db15 d3be fe6e c03d
00000330: 70bb d03d 133a 4e3d b326 033e 98ca edbe
00000340: cedb 253e a57a e23e 0788 35be 60b2 933d
00000350: 98e1 dfbe 0950 bc3d 2d59 af3d 4e6c 01be
00000360: 1464 9abe e05f 41bf 5b64 8bbe 774f a23e
00000370: 786d 5ebe 6b9d d2be 19a8 b9bc 16c2 0cbf
00000380: f062 463d b78c ab3d dc95 75bf 28cc 193e
00000390: b402 c9be 0944 de3d 517d c93c 0957 d33d
000003a0: 9d48 eebe b7de 133b 8ab3 11be 0008 3ebf
000003b0: 5b1d 573e 53d7 f73d 6d7b c93c a418 6ebc
000003c0: 6d51 ddbb 35e7 9fbd 9750 d6be a8f1 11be
000003d0: 97d9 9b3e 09e6 c63d 4956 c4bb 0e36 fe3d
000003e0: 9079 f2ba 9d7f b7be 5de1 91bd 689f a2bd
000003f0: 17fc 07be 43ff a2be 8ba2 80be b437 093e
-0.269702 0.1636039 -0.37327483 -0.53847396 -0.20911077 -0.13470158 -0.12850142 -0.3206601
-0.06593617 0.26902577 -0.6862062 -0.2537279 0.0039090184 0.17378603 0.17560051 -0.12356062
-0.31086513 -0.04670846 0.11346818 0.096834384 0.3955571 0.2723129 -0.10721525 0.090723015
-0.13340868 -0.32190526 0.122472554 -0.021367425 0.13949347 -0.74403447 -0.03130811 -0.0761846
0.4147315 -0.10284518 0.13021196 -0.3405895 0.04155504 -0.18056247 0.04007396 0.1678854
-0.24956818 0.53416204 -0.28688863 0.098583825 -0.3204216 0.09552084 0.07050603 -0.14789128
0.040237337 -0.41623887 0.05253796 -0.3487262 0.0068937126 0.05663177 0.21588771 0.21238834
0.3032564 0.033368357 -0.0073285033 0.10955853 -0.110935174 -0.21611595 0.1357929 0.0610147
-0.50100136 0.055610795 -0.50284564 -0.14270927 -0.04759183 0.30666858 0.17463027 0.12740248
-0.3674117 0.121100895 0.27493867 -0.06432063 0.2733369 -0.22847529 -0.00028310728 0.042473357
0.08712213 0.05555687 -0.7276411 0.09303706 0.06992594 -0.34708506 -0.3371306 -0.051774856
-0.16334337 0.10711593 -0.31606522 -0.947696 0.14896055 0.27343196 0.51668376 -0.21752682
0.25222299 0.08353881 -0.31496018 0.40747982 0.34886 -0.0011834049 -0.20625696 0.05650564
-0.11204503 -0.083266295 -0.24379879 0.00070367014 0.089219846 -0.004424565 0.33492607 -0.795714
0.28481627 0.07180241 -0.0003711779 0.09766047 0.13803813 0.24317394 -0.27904505 0.14030087
0.029488256 -0.40725592 -0.5508468 0.030517481 -0.5402386 -0.15183729 0.07176064 0.027182603
-0.047542036 -0.16509229 -0.16121665 -0.45952278 -0.2948595 0.10563635 0.15181811 -0.73671544
-0.20251685 0.1785446 0.27852765 0.5248825 0.3974408 0.20789997 -0.43857595 0.10978747
-0.037634995 -0.19631343 0.034068868 -0.028434312 -0.5012317 0.19287045 0.2388406 -0.011202082
0.47933823 0.13564263 -1.0330415 -0.13676819 0.04471908 -0.03422272 0.011384809 0.23916954
-0.24237217 -0.29399937 -0.2327429 0.21825778 -0.38798648 -0.21191154 0.04008256 -0.07524449
0.06137545 0.1906919 0.21588966 0.053846125 -0.2892263 0.0707495 0.0067660226 -0.3096438
-0.21804988 0.37927762 0.026804108 -0.38852385 0.13131517 -0.37092602 -0.26724106 0.6643962
-0.4121572 0.115155034 -0.48722062 0.35822067 -0.12983318 0.15972759 0.25111747 0.20020702
0.15844463 0.049605202 -0.90815324 -0.08029073 -0.44837198 -0.17234291 -0.1621565 0.22862549
0.032345057 -0.10412127 -0.41227612 0.0939617 0.10192001 0.050348353 0.12807731 -0.4644363
0.1619713 0.44234195 -0.17727672 0.07211757 -0.43726802 0.09194953 0.08561931 -0.12638971
-0.3015448 -0.7553692 -0.27225003 0.31701252 -0.21721447 -0.41135725 -0.022663163 -0.5498365
0.048434198 0.083764486 -0.9593179 0.15019286 -0.39259875 0.108528204 0.024595888 0.10319335
-0.46539775 0.0022563168 -0.14228645 -0.7423096 0.21007292 0.12101617 0.024594987 -0.014532242
-0.0067540915 -0.07807771 -0.4185836 -0.14252341 0.30439445 0.097118445 -0.0059917313 0.12412654
-0.0018499363 -0.3583955 -0.07123063 -0.079405606 -0.13279758 -0.31835374 -0.2512401 0.13400155

l2.bias f4 [300]
00000000: e8bc 17bd 20c9 b43d d400 23be 743a ee3b
00000010: 4791 9ebd d9f2 a93d 1ce1 11bd febc dfbd
00000020: fee3 eebd ab0b ddbd f947 6b3c 02a0 9abd
00000030: a3f0 3cbe 19b3 7abe 0aaf 18bf 0d59 8abd
00000040: b784 0cbf c3cd 46be c74d 99ba 0d88 08be
00000050: 4475 623d d6df d1bd 9d3f 933c 035b a3be
00000060: 39c9 d3be f8a3 8fbd a790 9b3e 56c8 92be
00000070: ca6c 6a3c 9617 a0bd d8a8 40be 92a9 bd3d
00000080: bc11 50be 72da 143e c88f 16bf 6bf3 13be
00000090: 7adc 7d3e 8b8e 8bbd 4b79 3ebd 94b3 f5bb
000000a0: 753f a5bd 3021 aebd c9b1 b5bd be7e a2bc
000000b0: d633 32be bedd 0dbe daa6 79bd ac52 923d
000000c0: 63f5 543e 84a0 84bd a097 143e b855 a8bc
000000d0: 7d42 5abe 3b66 543e 7de4 03be 6b5d abbe
000000e0: 4721 873e ebd2 87be e1f7 963c c00d e4bd
000000f0: 5bf6 fcbc 6ea0 6d3e ba88 ddbd fe93 63be
00000100: 80b1 3bbe 4ba3 53be 8617 77bd 3663 c7bd
00000110: b021 68be c3bb 2d3e b473 90bd 3ce0 4d3d
00000120: 7be7 95bd 1bdc a5bd 79f8 ebbd 51b1 3dbe
00000130: 4ca1 25bb 0a4d 94bd 026c 15be 1d73 24be
00000140: 4a45 6cbd 52ab 99bd ed5f 293e 5170 8d3e
00000150: 76b7 f1be 629f a8bd 9418 f53d e306 f0be
00000160: 22ac 23bd f944 a23d 1efe 0bbe 2564 74bd
00000170: 8ba3 0b3c 5959 e2bd af7a 80be e327 01be
00000180: 0100 8bbe 99b8 943e ba3a 78bd 33b2 52bd
00000190: 5ba6 d0bd 5ce5 4cbd 5f5f b2bd 6f36 9bbe
000001a0: f33a adbe aec9 8dbd 1d7a 10be a9a9 3cbe
000001b0: bc68 dabe 037a 30be 408e 01bd 2d6f 8d3d
000001c0: 91d3 79bc 522b a7bd 8584 003d b491 3c3e
000001d0: eb55 473e 41bf c53b 1320 68bd 6b77 063d
000001e0: 9003 58bd 5eeb 8fbd 7401 00be d3ed 94bd
000001f0: 73bf 8dbe 64c8 59be 2d35 b9bd 27d3 873e
00000200: e239 e6bc 382a 00be f5e7 993c e0db 9cbe
00000210: 19f6 75bd 331e f9bd 3a39 86bd 50a6 79be
00000220: b4d2 6bbd 5c3e 5ebd d06c 20bf fa08 36be
00000230: ef1c bf3c e4f8 b7bd f630 6ebe c139 aabc
00000240: 8b1e 4dbd cded 2d3e 7b3e 24bd 9326 f5be
00000250: d215 86bd 77c4 a3be c8a5 5f3e 9918 9cbd
00000260: 8e8d 22bf 4365 78bd c753 4ebd c6c0 43bd
00000270: d54c babe 056e d1bd 49a1 60be e837 5cbd
00000280: 89c5 31bd ad62 82bc 4348 cfbd d9a8 993b
00000290: fc30 6dbc d063 4f3d ed53 cbbd 5710 8a3e
000002a0: eadc 13bc 3a73 07be c481 cbbe 7e38 b6bd
000002b0: cf6a eebd 9ff8 043d fe75 3ebd 2957 80bd
000002c0: ea47 93bd bff5 a8be 31e6 d6be 8b30 b6be
000002d0: afa9 533e f908 23be cc0c c4bd 828f 53be
000002e0: c81a cfbd f502 b8bd 18d0 93be 4ab5 54bd
000002f0: 0229 a1be 2be7 b7bd 8af3 143e bc26 bfbe
00000300: 3e63 5bbe 1f07 c3be 5910 95bd 82d4 f23c
00000310: 5709 a2be 9d99 15be 6076 c2be c8ab 513e
00000320: 631f 32be 6707 893d 4a1e 50be 1462 1ebe
00000330: 6c4a babd 0d88 a2bd bf8a d8bd 2187 c83c
00000340: fc35 b3bd 7645 b0bd 17be 1f3d a84f ff3c
00000350: 4bfc 723e cf62 07be a3f8 7ebe a16b e7be
00000360: 8fa6 08be 7d42 953e 937e 84bd cc23 9abe
00000370: 61ee 173d efd2 65be a19c 5cbe b7fd a5bd
00000380: cdaa 69bd ac43 91bd af62 82be f918 31be
00000390: dc91 5dbe c69f 9abe 04cb 01be 06bf 85bd
000003a0: 8f80 90bc 5d6d e6bd a650 8dbd add0 e6be
000003b0: 1800 443e 8bd1 25bc f6df dcbd c889 fcbd
000003c0: 744d 9bbe 4acd 803d ca1e bfbd bf13 e5be
000003d0: 581b 1d3e 19c9 6e3e fb8f c9bd 26f5 0b3e
000003e0: 2987 9fbd 77f2 2dbd af01 74bd fbed acbe
000003f0: 6a5a 71be c03a 1e3d 5d6d 93bd b6c8 aebe
-0.03704539 0.08827424 -0.15918285 0.0072701517 -0.07742553 0.08298273 -0.03561507 -0.10924719
-0.1166458 -0.10793241 0.014360421 -0.0755005 -0.1845117 -0.24482383 -0.5964209 -0.06755266
-0.54890007 -0.1941443 -0.0011696153 -0.13333149 0.055287614 -0.102477714 0.01797467 -0.31905374
-0.41364458 -0.070136964 0.30383798 -0.2866847 0.014308164 -0.07816999 -0.18814409 0.092608586
-0.20319265 0.14536455 -0.5881314 -0.14448325 0.24791136 -0.06814297 -0.046502393 -0.007498214
-0.08068744 -0.08502424 -0.088718005 -0.019835826 -0.17402586 -0.13854119 -0.060950138 0.07144675
0.20796733 -0.064759284 0.14510965 -0.020548686 -0.21314426 0.20742123 -0.1288013 -0.3346971
0.26392576 -0.26528105 0.018428745 -0.11135435 -0.03087919 0.2320573 -0.10817094 -0.22224423
-0.1832943 -0.2066776 -0.060325168 -0.0973572 -0.22669101 0.16966157 -0.070533186 0.050262675
-0.07319542 -0.080986224 -0.11522002 -0.18524672 -0.0025273142 -0.072412565 -0.14591983 -0.16059537
-0.057683267 -0.0750338 0.16540499 0.27624753 -0.47210282 -0.08233525 0.119675785 -0.46880254
-0.03995908 0.07923312 -0.13671157 -0.059665818 0.008522878 -0.11052198 -0.250936 -0.12612872
-0.2714844 0.29047087 -0.06060288 -0.051439475 -0.1018798 -0.05002342 -0.08709597 -0.30314967
-0.33834037 -0.06923233 -0.14109083 -0.18424095 -0.4265803 -0.17234044 -0.0316298 0.06905971
-0.015248195 -0.081625596 0.03137638 0.18414956 0.19466369 0.006034762 -0.056671213 0.03282873
-0.052737772 -0.070273146 -0.12500554 -0.07271924 -0.27685127 -0.21267849 -0.090433456 0.26528284
-0.028103773 -0.12516105 0.018787364 -0.306365 -0.06004915 -0.12163963 -0.06553884 -0.2437985
-0.05757399 -0.05425869 -0.62666035 -0.17776862 0.023329226 -0.08983019 -0.23260865 -0.020779492
-0.050077956 0.16985245 -0.04009865 -0.47880992 -0.06547131 -0.31985828 0.21840584 -0.07621879
-0.63497245 -0.060643446 -0.050372865 -0.047791265 -0.36386743 -0.10226063 -0.21936525 -0.053764254
-0.043401275 -0.015916193 -0.10121205 0.0046893177 -0.014477011 0.050632298 -0.09928117 0.2696559
-0.009024838 -0.13227549 -0.3974744 -0.08897494 -0.11641466 0.032463666 -0.046499245 -0.062666245
-0.07191451 -0.3299999 -0.41972497 -0.3558391 0.20670198 -0.15921392 -0.09572753 -0.20660213
-0.1011253 -0.08984939 -0.288697 -0.051930703 -0.314766 -0.08979639 0.14546028 -0.3733424
-0.21424577 -0.3809137 -0.07278509 0.029642347 -0.3164775 -0.1460938 -0.37980938 0.20475686
-0.17394786 0.06690865 -0.20324054 -0.15467101 -0.09096226 -0.07936106 -0.10573339 0.024478497
-0.08750531 -0.086069986 0.038999643 0.031165913 0.23729055 -0.13221286 -0.24899535 -0.45199302
-0.13344787 0.2915229 -0.064694546 -0.30105436 0.03709257 -0.22443746 -0.21544124 -0.08105033
-0.057047654 -0.070929855 -0.25465915 -0.17294683 -0.21637672 -0.30200022 -0.126751 -0.065305755
-0.017639427 -0.11251328 -0.06900148 -0.45081082 0.19140661 -0.01012076 -0.10784905 -0.12330967
-0.3033253 0.06289156 -0.093320444 -0.44741628 0.15342462 0.233189 -0.09841915 0.13667735
-0.07789452 -0.04246756 -0.059571918 -0.33775315 -0.23569646 0.038630247 -0.07198594 -0.34137505

l3.weight f4 [4, 300]
00000000: 92a4 273d 0bb0 55bd bf8f c63c 372d 7b3a
00000010: ad74 75be 216d 7bbe 998e 1f3c 4353 c9bd
00000020: af15 31be 9982 c1bd cefe 15be 03d6 ee3d
00000030: 3fa6 0abe 09b3 9a3e 137d c2bd 755c 41be
00000040: 2365 c63d 596b bb3d df74 663b f2de 893c
00000050: 151f ec3d f1e0 eb3c 458a 193d d062 aabe
00000060: c182 d73e 9016 283d 66f8 86be 0a8d 873e
00000070: 8761 dcbb 9548 843c 3b34 86bd 1280 8c3d
00000080: 785e bb3e 0ea5 333f 8519 c53e bccf e13d
00000090: 0add e63e 9929 e1bc d3c1 023c 3735 c13b
000000a0: 3412 36bd b067 4a3d c91b 7dbc 8197 4e3d
000000b0: 0ab5 873e 700f 073d 6c07 0bbe c7be 1b3c
000000c0: d201 b23d e3c5 fcbe 8650 923e 7382 013d
000000d0: 914d 063f b248 1abd f854 75be 8e59 23be
000000e0: 085f 323e d7f0 94be c328 edbd 0b37 a03d
000000f0: b386 4f3d 6fb2 823e 0cb0 8c3d 6c53 463f
00000100: 4666 3abe 48e2 ee3e 0a7a 77bc 7453 bbbe
00000110: 7b66 cb3e 734e 843e bb9a f6bc 06b7 ccbd
00000120: 7800 cfbd c977 fbbd aa9e c33e 0b94 703e
00000130: 00f8 d3bd cca8 c43b 518f 843d 8630 46bd
00000140: c5b5 6fbd b820 a33c 0606 443e 9b93 97b9
00000150: 3940 a5be ee1e 15bc bc3c ac3e a09a d7be
00000160: 19c4 4c3b bf3b a8be 2c9f 0a3f b4f7 913c
00000170: fb09 fa3d 97a7 aabe 80fc c83d 972e 443e
00000180: 3fa5 86be 62cf f23e 5c95 4dbd 3263 ab3c
00000190: da51 c53e d318 05bf d84a 703d f9db b53e
000001a0: 2299 69be b6b7 2fbb 0cfd 383f 4eeb fd3d
000001b0: 95c2 d63e e12b 3cbe 734a 013e 7227 03bf
000001c0: f78c 5e3c 8bb6 3d3d 0672 95be ecbb 6c3e
000001d0: 22a3 ce3e 375b 85bc 5b98 113b cf06 ea3c
000001e0: ee50 e23e 216b 9cbe 6def 9fbe d9a8 0fbd
000001f0: c92b d73e cee4 e8be 79c6 043e c676 f83e
00000200: c4da 14bf 5560 a0bd f6ac 303e 89a8 2ebf
00000210: 3e37 17be 5b04 5c3d fb50 ca3d c640 4cbe
00000220: 3bd3 c93b 28f9 af3c e292 1ebd 8ad7 123f
00000230: a0bb 073e c778 1fbf f2be 663d 8903 29bd
00000240: 3fc8 fb3c 6bce dd3e 1617 ae3d b249 053f
00000250: ab7e 283d 5658 b13e 00fd 87be 0dee 0cbc
00000260: 2dd5 04bf 230c 493c 3c02 073d 1faf dfbc
00000270: b035 c9bd 09c1 e63c 1cdb ebbd 5e0c 01bd
00000280: f5ca 0abd 1a55 193e 24c7 3cbf 7c1a ef3e
00000290: 5396 52bd 47d8 79be 3e1e 0b3e 5581 f2be
000002a0: 22af 123d cb8a 403f 3d97 63bd 7d42 413e
000002b0: 0940 c03d 4de9 dd3e 0f50 753c b89f 623d
000002c0: 149f 4fbc 8f0b bbbd 9841 eabe 20ce c5be
000002d0: 4d47 ab3e 9984 04be 67cb b1bd effa 00be
000002e0: 8dcb dfbe b5a5 a63c 8663 493d 39fc 843e
000002f0: df34 21bf 4cc8 0fbe 6861 653e c0af 8abd
00000300: 42bc a7bd 9928 843d c3ca 8c3e 7639 d1be
00000310: 1be8 48be 4013 9a3e 196f 60be e060 023f
00000320: a84c f23e ce17 78be fc40 393b e3f1 a1be
00000330: e7e7 193c e9ae e7bc 3112 2f3e 9196 5cbd
00000340: ee8b c639 7885 cf3e 6ff6 be3e 8d03 923e
00000350: 7f04 1e3c d2a7 233e 6657 7a3d f0e4 f23e
00000360: 73d6 a23e 757c 5ebf bff4 1c3e 5ff6 32bf
00000370: 04c1 5fbe 6965 093f ef0d 923e 4dfb 283d
00000380: b5d0 3cbd 9b50 3b3d c98c 1bbe e323 4ebd
00000390: d133 28be b432 87be 80cc 163e d4c6 893d
000003a0: 4bc3 603c c99f 033e aebc 433d f92c fcbe
000003b0: 5b14 dbbd a378 95bc 8e75 703d b6b4 563e
000003c0: 23a5 73bc 48ab 403e 4766 653e 5db3 603d
000003d0: 90c1 bdbe a6b3 8bbe d260 84bc 65cb d7be
000003e0: 3af7 e5bb 37d0 a4bc 75c2 fcbb 759b 1abf
000003f0: 22d9 ee3e 32c0 c9bd 691d d4be b45f e23b
0.04092843 -0.05216984 0.024238465 0.00095816277 -0.2397029 -0.24553348 0.009738588 -0.09830334
-0.17293428 -0.09448738 -0.14647982 0.11661913 -0.1353998 0.30214718 -0.09496512 -0.18882926
0.09687259 0.09151334 0.0035164875 0.016829941 0.11529366 0.028793784 0.03748538 -0.33278513
0.42091945 0.041037142 -0.26361388 0.26474792 -0.0067254934 0.016147891 -0.06552931 0.06860365
0.3659551 0.7017373 0.38496032 0.1102595 0.45090514 -0.027485656 0.007980782 0.0058962363
-0.044450954 0.04941529 -0.015448519 0.050437454 0.2650531 0.032973707 -0.1357705 0.009505934
0.086917534 -0.49369726 0.2857706 0.031618547 0.52462107 -0.037666984 -0.23958194 -0.15952131
0.17419064 -0.29089996 -0.1158004 0.078229986 0.05066557 0.2552676 0.06869516 0.7747104
-0.18203077 0.46657014 -0.01510478 -0.36587107 0.39726624 0.25841102 -0.030103078 -0.099958465
-0.10107511 -0.122787066 0.3820699 0.23493974 -0.103500366 0.0060015675 0.06472648 -0.04838612
-0.05852296 0.019913062 0.19142923 -0.0002891094 -0.3227556 -0.0091016125 0.33640087 -0.42110157
0.0031244813 -0.32858083 0.54149127 0.01781831 0.12208935 -0.33330986 0.098137856 0.19158398
-0.26297948 0.47423846 -0.05019127 0.020921323 0.3853901 -0.51991004 0.058665127 0.35519388
-0.22812322 -0.002681238 0.7226112 0.123983964 0.4194533 -0.18376113 0.12626056 -0.51232064
0.013583413 0.046316665 -0.29188555 0.23118562 0.40358835 -0.016278846 0.0022216055 0.0285677
0.4420237 -0.30550483 -0.31237355 -0.035073135 0.42025593 -0.45487064 0.12966336 0.48528117
-0.5814631 -0.07830874 0.1725348 -0.68225914 -0.14767167 0.05371509 0.09878727 -0.19946584
0.006159214 0.021481112 -0.038714297 0.57360137 0.13255167 -0.62293667 0.056334443 -0.041263137
0.030735133 0.43321547 0.08500497 0.52065575 0.041136425 0.34637707 -0.2656021 -0.008601678
-0.5188778 0.01227096 0.032961115 -0.027305184 -0.09824693 0.028168218 -0.11516401 -0.031505935
-0.03388496 0.1497387 -0.73741364 0.46699893 -0.05141289 -0.2439891 0.13585755 -0.47364298
0.03581155 0.7521178 -0.055564154 0.1887302 0.09387214 0.43342057 0.014972701 0.0553281
-0.0126722045 -0.09133064 -0.4575317 -0.38633823 0.33452836 -0.12941207 -0.08681374 -0.12595724
-0.43709984 0.020342687 0.04916718 0.2597368 -0.629713 -0.14041251 0.22400439 -0.06771803
-0.08190204 0.06453056 0.27498445 -0.40864152 -0.19619791 0.30092812 -0.2191738 0.5092907
0.4732411 -0.24227831 0.0028267493 -0.31629857 0.009393669 -0.028281646 0.17096783 -0.05385453
0.0003786976 0.40531516 0.3729739 0.28518334 0.009644627 0.15981987 0.061118506 0.4744029
0.31804237 -0.86908656 0.15327738 -0.6990718 -0.21850973 0.53670365 0.28526255 0.041255284
-0.046097476 0.04573117 -0.15190424 -0.050327193 -0.16426016 -0.2640587 0.14726448 0.067273766
0.0137184365 0.12853922 0.04778736 -0.4925306 -0.10697242 -0.018246 0.05870586 0.20967373
-0.014870915 0.18815339 0.22402297 0.054858554 -0.3706174 -0.27285498 -0.016159449 -0.42147365
-0.007017997 -0.020118816 -0.007713611 -0.6039346 0.46650034 -0.098511115 -0.41428688 0.0069083814

l3.bias f4 [4]
00000000: 4d9d d1be 740f b03e 0c84 a3bc 521b 3b3e
-0.40940323 0.3438679 -0.019960426 0.1827214
