TD3/saves/stronger_actor.pth (torch, 518693 bytes, 6 tensors)

l1.weight f4 [400, 18]
1.7881202 0.44163954 -0.34764186 -0.11701893 -0.7182522 0.09742189 -0.15828927 -0.9773537
0.49007177 -0.25226024 0.78296494 0.1981704 -0.751897 0.25654715 -0.07569279 0.23534976
-1.2025349 -0.30963424 -0.8856437 -1.4882536 2.0696294 -0.16866717 -0.11898469 -0.04697693
-1.7322471 -0.5130905 -0.14586017 0.23109438 0.104691416 0.3348767 -0.38604435 0.22317319
0.029684229 -0.09868963 0.2302796 -0.7354992 -0.9677485 -0.06528079 -0.4425372 -0.12161325
-0.043061025 -0.07352211 0.030758603 0.055088196 -0.12243947 0.047246493 -0.09721358 0.20202214
0.80278194 0.19591741 0.12515908 0.15545048 0.51899797 -1.2062916 1.0730356 -0.3943508
1.0594481 0.00012721273 -0.1895037 0.16547242 -0.5405485 0.872656 -2.0261223 0.08471282
0.1827496 0.03347024 0.54429555 2.2268841 0.24891433 0.23679005 -1.5157696 0.081331745
1.2782778 0.13460168 1.2896291 -0.26599753 0.054748654 0.22528283 -1.1289849 -0.4162784
-0.9074881 -0.035665475 -0.4030538 0.48820946 -0.5746698 -0.942417 -0.12011053 -0.08078358
-0.18026379 -0.6995983 0.44580904 0.6225743 0.102223925 0.13348792 -0.2503348 0.2851611
-0.24081935 -0.030500988 0.72095466 -0.7410878 -0.08406954 -0.82037836 0.25002053 -0.5454475
-0.060859654 -0.013022757 -1.2670925 -0.91847813 -0.38894707 0.31978914 -0.8271951 -0.07418202
-0.31944722 0.2421046 -0.6572061 0.027616566 -0.05906041 -0.35267228 -0.064210415 0.09403956
1.6530703 -0.6920531 -0.14673798 -0.09441842 -1.1567693 -1.1752278 0.9049855 1.4872133
1.2498982 -0.070412084 0.45294276 -0.31512794 -1.3586335 -0.89921826 -0.965354 0.13086098
-0.14726059 -0.32591826 1.3799894 -0.61887515 0.15938865 -0.019269237 0.12072258 0.027972901
0.8136135 -0.49054313 -0.5243848 0.3523256 0.08045744 -0.6921878 -0.9617871 -0.57684785
0.65824485 -0.06255181 0.0056230617 0.05655571 -0.06504976 -0.14886175 0.21872623 0.026839765
0.30433273 -0.2297134 -0.5373176 -1.2826886 -0.4075334 -0.10919162 0.20481068 0.11765418
-0.8187184 -0.76580846 2.2798946 -0.28581882 0.3641755 -0.1809488 0.52105236 0.49777025
-0.07747645 0.021151444 -0.60476327 -0.9936093 0.61026186 0.91324484 -0.15154834 -0.4336546
0.35531318 0.043672957 -0.21186951 -1.6613183 -0.6232377 0.1804617 0.24052456 -0.065293185
-0.7183199 -0.2714419 0.18246445 -0.09517206 0.57815766 -0.67281497 2.3710043 -1.5048677
0.49641246 0.18437897 -0.21078867 0.063466825 -0.7963134 0.82719773 -0.8274953 -0.1894987
-0.1611367 -0.50679564 -0.553971 0.06995974 0.028281877 0.14150697 0.029230572 0.6548916
-0.061470743 0.5103859 -0.036531404 -0.07770397 0.018486321 0.6059428 -1.2073833 0.07718507
-0.8839964 -0.019419376 -0.5350035 -0.31144884 -0.52788365 -0.3819811 0.20516345 0.022780921
-0.081717975 -1.0035806 0.71473795 0.67054325 0.04835557 -0.32571495 -0.084168255 -0.05772062
-0.5344022 0.9294417 0.3548346 -0.04410683 -0.0691003 -0.4880246 2.1516476 -0.20843571
0.27036938 0.12516528 -0.89232737 -1.0316513 0.34720343 -0.50976694 -1.6703166 -0.055110663
00000000: 1fe1 e43f 941e e23e 1dfe b1be 9fa7 efbd
00000010: 60df 37bf 2185 c73d 9516 22be da33 7abf
00000020: b0ea fa3e 4128 81be 6470 483f 2eed 4a3e
00000030: 527c 40bf 265a 833e d204 9bbd 87ff 703e
00000040: aaec 99bf 6188 9ebe 8cb9 62bf 187f bebf
00000050: cf74 0440 16b7 2cbe 3fae f3bd e26a 40bd
00000060: 46ba ddbf e659 03bf 5e5c 15be 01a4 6c3e
00000070: 7468 d63d f574 ab3e 9ba7 c5be 8387 643e
00000080: 572c f33c ca1d cabd 6ace 6b3e ad49 3cbf
00000090: 5ebe 77bf efb1 85bd 3c94 e2be 5e10 f9bd
000000a0: c260 30bd c392 96bd 77f9 fb3c 29a4 613d
000000b0: 8bc1 fabd 8a85 413d ea17 c7bd e4de 4e3e
000000c0: 1e83 4d3f 939e 483e b429 003e 692e 1f3e
000000d0: 0ddd 043f c367 9abf 3b59 893f 59e8 c9be
000000e0: ff9b 873f 6864 0539 420d 42be 9a71 293e
000000f0: 6361 0abf 6266 5f3f fdab 01c0 ea7d ad3d
00000100: b622 3b3e 1718 093d f456 0b3f 4585 0e40
00000110: 66e3 7e3e 1779 723e bd04 c2bf 4291 a63d
00000120: 9b9e a33f 06d5 093e 9112 a53f d430 88be
00000130: 2040 603d 8bb0 663e 9482 90bf 7122 d5be
00000140: 2451 68bf f615 12bd 115d cebe 97f6 f93e
00000150: 8f1d 13bf 3e42 71bf 82fc f5bd dd71 a5bd
00000160: 1297 38be e018 33bf 1541 e43e 0861 1f3f
00000170: c75a d13d 0fb1 083e e22b 80be a300 923e
00000180: 5999 76be 35dd f9bc 7c90 383f eeb7 3dbf
00000190: a72c acbd 5104 52bf b102 803e 73a2 0bbf
000001a0: f947 79bd 675d 55bc 1630 a2bf 6221 6bbf
000001b0: 1224 c7be 67bb a33e 0fc3 53bf beec 97bd
000001c0: 968e a3be 45ea 773e a93e 28bf 233c e23c
000001d0: 54e9 71bd 7691 b4be c080 83bd d097 c03d
000001e0: cf97 d33f 642a 31bf 7b42 16be 725e c1bd
000001f0: 0411 94bf dd6d 96bf 21ad 673f 015d be3f
00000200: aafc 9f3f 3634 90bd 1de8 e73e 7358 a1be
00000210: b4e7 adbf 2b33 66bf 7121 77bf 6c00 063e
00000220: 7bcb 16be c2de a6be 7ea3 b03f 9a6e 1ebf
00000230: c736 233e 85da 9dbc 663d f73d 6d27 e53c
00000240: f948 503f 7828 fbbe 153e 06bf 0564 b43e
00000250: dfc6 a43d 3833 31bf ae37 76bf 4dac 13bf
00000260: bc82 283f 2a1b 80bd a941 b83b f6a6 673d
00000270: cf38 85bd 376f 18be c5f9 5f3e 11df db3c
00000280: 80d1 9b3e fd39 6bbe a58d 09bf 242f a4bf
00000290: 38a8 d0be db9f dfbd e4b9 513e adf4 f03d
000002a0: 8797 51bf 060c 44bf cbe9 1140 d856 92be
000002b0: 3675 ba3e a44a 39be b063 053f bedb fe3e
000002c0: f9ab 9ebd cb45 ad3c c4d1 1abf 2e5d 7ebf
000002d0: 1f3a 1c3f 6aca 693f 7d2f 1bbe fa07 debe
000002e0: 9ceb b53e 6ae2 323d 52f4 58be 14a6 d4bf
000002f0: 828c 1fbf f4ca 383e 124c 763e 6fb8 85bd
00000300: d0e3 37bf 6ffa 8abe f6d7 3a3e 92e9 c2bd
00000310: 2402 143f 9a3d 2cbf 89be 1740 819f c0bf
00000320: c629 fe3e d7cd 3c3e fcd8 57be e5fa 813d
00000330: 32db 4bbf 3bc3 533f bbd6 53bf f20b 42be
00000340: 0501 25be 5cbd 01bf 0bd1 0dbf 0d47 8f3d
00000350: 65af e73c 34e7 103e f474 ef3c faa6 273f
00000360: bfc8 7bbd a6a8 023f f4a1 15bd 4223 9fbd
00000370: a070 973c 111f 1b3f 898b 9abf 3513 9e3d
00000380: 974d 62bf 6215 9fbc fdf5 08bf 3976 9fbe
00000390: 6223 07bf 0793 c3be 5e16 523e 0e9f ba3c
000003a0: c15b a7bd 5475 80bf 11f9 363f b9a8 2b3f
000003b0: 7d10 463d 1cc4 a6be 6860 acbd 756c 6cbd
000003c0: 95ce 08bf e4ef 6d3f e1ac b53e 5da9 34bd
000003d0: 7584 8dbd 5cde f9be 98b4 0940 2c70 55be
000003e0: db6d 8a3e 542b 003e 916f 64bf 260d 84bf
000003f0: a6c4 b13e 1680 02bf efcc d5bf b8bb 61bd

l1.bias f4 [400]
-0.672456 0.25426587 0.2605705 -0.51422864 -0.63813114 -0.52032757 -1.2507493 0.36478642
-1.1189665 -0.87275994 -0.96568376 0.14802387 -1.1078688 -0.73053974 -1.1941898 -0.90948135
-0.8295063 -1.4297771 -0.5863947 -0.14900117 -1.9353129 -0.47997656 -1.3800317 -0.90843356
-1.1395779 -0.46859235 -0.5050699 -0.93116534 0.65554684 -0.2812467 -0.7623414 -0.680495
-1.052076 0.6186288 -0.87643653 -0.60191476 -1.0418295 -0.8739719 -0.3529114 -0.8126809
-0.7631871 -0.25602037 -0.15635923 -0.274119 -0.14328314 -0.92363006 -0.6729589 -1.5600448
-0.34608257 -1.8028028 0.7270751 -0.6429576 -0.21767323 -0.9639398 -0.49800128 -0.32877114
-0.2756797 -1.4287797 -0.5067576 -0.43562797 -0.89919573 -0.81368864 -0.71193504 -1.1095831
-1.1349907 -0.9666421 0.093642175 -0.847579 -1.8924848 -1.1301262 -1.0927666 -0.4523607
-0.9181783 -1.2424666 -0.9646482 -0.26877448 -0.18613999 -1.2971946 -0.72798955 -1.3873994
-1.1784865 -1.5127212 -0.060672585 -1.1588136 -0.6608979 -1.3006301 -1.4572264 -0.20969257
-1.3440082 0.33485252 -0.5141136 -0.4229975 -0.56811243 -0.27690867 0.5136054 -0.89769804
-0.8216087 -1.6098304 0.605452 -0.047207113 -0.39505592 -0.95264876 -0.745596 -1.1693991
-0.34377286 -0.9473416 -1.1580694 -0.58147675 -0.5821241 -0.5902166 -0.0666905 -0.9766199
-0.7533815 -0.34339592 -0.7509938 -0.62070584 -0.7328669 -1.7494712 -0.08345254 -1.2449657
-1.156108 -0.48969468 -1.1834255 -0.9443265 -1.6927246 -1.1342642 -1.0895795 -0.5690279
0.8033039 -0.33283445 -0.523771 -0.06911229 -1.2052106 -0.07513299 -1.9347551 -0.7098812
-1.464296 0.6413497 0.41940677 -1.3417305 0.15512452 -1.0088637 -0.89903086 0.4708632
0.76161087 -1.4357852 -1.2859089 -0.7788148 -0.7133714 -1.1332371 -0.885194 -0.25591248
-1.4740216 -0.8771423 -0.8479751 -1.3958638 -0.67331064 -1.3394575 -0.7491234 -0.6692572
-1.4200191 -0.44382045 -0.7909625 -0.21067457 -0.4853126 -0.5833434 -0.06250004 -0.35569045
-0.7023176 -1.1139022 -0.8150156 -1.0175889 -1.6763856 -0.5476086 -0.55871135 -1.5420707
-0.57831556 -1.765141 -0.42756316 -1.5642762 -1.4827216 -1.8938289 -0.69899917 -0.67007196
0.0006103552 -0.9389179 -0.43844685 -1.1148354 -0.73421776 -0.023056734 0.12942457 -0.44670126
-1.289947 -1.3847696 -1.1104833 0.32620496 -0.3067245 -1.6263502 -0.6697818 -1.848376
0.16167194 -1.1103169 -0.99660534 -1.2526474 -0.6164586 -0.28450698 -0.8159484 -0.36447397
-1.0026722 -0.7634107 1.7363873 -1.4062381 -0.9114609 -1.2007678 -0.6118585 -1.1637411
-1.5814517 -0.7622449 -0.63319767 -0.6903337 -0.7115655 -0.4445698 -0.14856543 -0.60588926
-0.39178273 0.5153365 -0.7993261 -1.3939953 -0.7893845 -1.0234206 -1.0444008 -1.0492764
-0.9365956 -1.3022566 -1.3856126 0.018003777 -0.43360054 -0.7404266 -0.96767735 -1.6882104
-0.694828 -1.2206019 -0.9881033 -0.9452518 -0.70812064 -2.1300929 -0.9978796 -0.42816857
-0.9830381 -0.62216884 -1.2037393 -0.18671972 -0.8436446 -1.4821838 -0.18274541 -2.4288568
00000000: 1426 2cbf 232f 823e 7f69 853e 7da4 03bf
00000010: 905c 23bf 3034 05bf 8e18 a0bf 49c5 ba3e
00000020: 4b3a 8fbf 326d 5fbf 0d37 77bf 9293 173e
00000030: a5ce 8dbf a704 3bbf 36db 98bf c5d3 68bf
00000040: 865a 54bf f002 b7bf f71d 16bf c393 18be
00000050: 55b8 f7bf 7dbf f5be e1a4 b0bf 1a8f 68bf
00000060: b0dd 91bf 56eb efbe 434c 01bf da60 6ebf
00000070: ebd1 273f 91ff 8fbe ce28 43bf ec34 2ebf
00000080: 6daa 86bf 755e 1e3f 255e 60bf 1617 1abf
00000090: ab5a 85bf 9fbc 5fbf ceb0 b4be db0b 50bf
000000a0: 3b60 43bf 1a15 83be a21c 20be 5359 8cbe
000000b0: d1b8 12be 0573 6cbf 0947 2cbf 8caf c7bf
000000c0: bc31 b1be 3ec2 e6bf 9821 3a3f df98 24bf
000000d0: bbe5 5ebe c2c4 76bf 06fa febe b154 a8be
000000e0: e425 8dbe 41e2 b6bf deba 01bf a10a dfbe
000000f0: b131 66bf e64d 50bf 6041 36bf d206 8ebf
00000100: 6047 91bf db75 77bf 78c7 bf3d f0fa 58bf
00000110: f13c f2bf faa7 90bf c7df 8bbf d29b e7be
00000120: bc0d 6bbf 2509 9fbf 2ff3 76bf cf9c 89be
00000130: 7b9b 3ebe 790a a6bf 865d 3abf 4e96 b1bf
00000140: a5d8 96bf d9a0 c1bf d183 78bd 0154 94bf
00000150: 9b30 29bf 0c7b a6bf 6586 babf a6b9 56be
00000160: 7608 acbf ca71 ab3e f39c 03bf 2193 d8be
00000170: d16f 11bf f9c6 8dbe a57b 033f 8acf 65bf
00000180: f354 52bf ec0e cebf e7fe 1a3f 3f5c 41bd
00000190: c544 cabe cae0 73bf 61df 3ebf dfae 95bf
000001a0: ff02 b0be fb84 72bf 9e3b 94bf a9db 14bf
000001b0: 1606 15bf 6f18 17bf 0795 88bd c303 7abf
000001c0: 9cdd 40bf 97d1 afbe 2141 40bf 94e6 1ebf
000001d0: 2a9d 3bbf acee dfbf 2ae9 aabd 095b 9fbf
000001e0: 59fb 93bf 43b9 fabe 7d7a 97bf 62bf 71bf
000001f0: 33ab d8bf 922f 91bf 5777 8bbf d0ab 11bf
00000200: 53a5 4d3f 4769 aabe db15 06bf bf8a 8dbd
00000210: 5744 9abf 53df 99bd 0ea6 f7bf c6ba 35bf
00000220: 0d6e bbbf 7e2f 243f 7cbc d63e d3bd abbf
00000230: f6d8 1e3e 7222 81bf e326 66bf fb14 f13e
00000240: eef8 423f cfc7 b7bf aa98 a4bf 6860 47bf
00000250: 829f 36bf ea0d 91bf 139c 62bf f606 83be
00000260: bdac bcbf 668c 60bf e514 59bf aaab b2bf
00000270: 165e 2cbf 5873 abbf 8dc6 3fbf 7154 2bbf
00000280: 30c3 b5bf 6f3c e3be 857c 4abf 13bb 57be
00000290: e57a f8be fe55 15bf 0500 80bd 0f1d b6be
000002a0: 16cb 33bf 5994 8ebf dda4 50bf 5a40 82bf
000002b0: ce93 d6bf 1430 0cbf b507 0fbf 9362 c5bf
000002c0: 7d0c 14bf 24f0 e1bf 8fe9 dabe 343a c8bf
000002d0: d2c9 bdbf fc68 f2bf 9cf1 32bf d689 2bbf
000002e0: 3e00 203a ec5c 70bf 1b7c e0be edb2 8ebf
000002f0: b2f5 3bbf 7ae1 bcbc e087 043e 07b6 e4be
00000300: fc1c a5bf 2140 b1bf 5124 8ebf 5604 a73e
00000310: fe0a 9dbe 3e2c d0bf d276 2bbf 9697 ecbf
00000320: 548d 253e dd1e 8ebf 8721 7fbf c056 a0bf
00000330: 3bd0 1dbf e6aa 91be ffe1 50bf 559c babe
00000340: 9057 80bf e26e 43bf f041 de3f 9cff b3bf
00000350: 8055 69bf c2b2 99bf c2a2 1cbf 78f5 94bf
00000360: 026d cabf 7b22 43bf 3e19 22bf b6b9 30bf
00000370: 2829 36bf a79e e3be 8921 18be 8f1b 1bbf
00000380: bf97 c8be 18ed 033f a3a0 4cbf 706e b2bf
00000390: 1a15 4abf 72ff 82bf edae 85bf b04e 86bf
000003a0: bbc4 6fbf 58b0 a6bf c15b b1bf a87c 933c
000003b0: e400 debe 998c 3dbf b4b9 77bf 4717 d8bf
000003c0: 3fe0 31bf af3c 9cbf 56f4 7cbf 06fc 71bf
000003d0: 6547 35bf 7153 08c0 0a75 7fbf e938 dbbe
000003e0: 63a8 7bbf 7546 1fbf 2114 9abf 7433 3fbe
000003f0: 18f9 57bf 33b8 bdbf 9d21 3bbe 6472 1bc0

l2.weight f4 [300, 400]
-0.77646005 0.17070529 0.23206586 0.3834814 0.3553583 -0.1123834 -0.15949053 0.49185443
0.23598726 -0.6394489 0.650408 -0.16377567 -0.23180838 0.13266864 -0.07235209 -0.15654835
-0.26352543 -0.16792597 0.12016061 -0.20036685 0.31807175 -1.1290846 0.854548 -0.32365608
-0.27015653 -0.0619082 -0.68639773 0.13010229 -0.6102564 -0.52495563 0.04439736 -0.07666607
-0.10524116 0.17794918 -0.06837979 0.7193837 0.7065897 -0.25916144 0.8003805 -0.30496982
0.34593946 -0.6444615 -0.03126176 -0.9438367 -1.4531438 0.23968877 -0.06668459 -0.021843703
0.76434153 -0.13115974 0.86487734 -0.3486503 -0.3696764 -0.46438673 -0.08889248 0.4898396
-0.45975843 0.30591178 -0.031230973 -0.11344724 -0.28579676 -0.70654744 0.08952665 -0.26661187
-0.59883004 0.687874 -1.6651838 0.69588953 0.18347463 0.44860736 0.38515085 0.9333418
-0.31921706 -1.0517185 -0.72541285 -0.8254063 0.30798492 0.6492348 -0.38520685 0.013209044
-0.9083957 0.08259491 0.053873323 -0.082406804 -0.5866817 -0.6305635 0.63906395 -0.06621451
-1.0410503 0.055445693 0.12660454 -0.1294378 -0.002704264 -0.49802276 -0.7381256 0.25217637
0.38279647 -0.6339892 -0.23775159 -0.12433301 0.34020185 -0.19792193 -1.1127144 -0.529418
-0.22519925 -0.46546465 -0.010685074 -0.26985803 0.7443918 0.27006653 0.24647848 -1.3735555
-0.65742433 -0.61198074 -0.2514687 0.7319563 0.04284453 0.32339734 -0.17904963 0.028090453
0.04149513 0.07698711 0.21710604 -1.2519373 -0.4326529 0.14339162 -0.36143243 0.2789225
-1.6036391 -0.23187193 0.10279929 -0.86844563 0.7732755 -0.8525051 -0.44001976 -0.2900616
-0.12111247 0.087749735 0.035889015 -0.5745496 -0.24630228 -0.63836277 0.5337145 0.5671844
0.39095032 -0.5381444 0.13800737 0.35154548 0.3610231 -0.26988858 0.72293913 -2.832807
-0.1489366 0.5551366 -0.5187964 0.6099422 -0.08054861 -0.26644194 -0.42431718 0.2745053
-1.0021768 -0.94352436 -0.09318364 -0.08806974 0.6666451 -1.4878647 -0.48822883 0.19197132
0.33620638 -0.55122644 0.055340912 -0.44912255 -0.56157136 0.34909403 -0.30178493 0.099022634
-0.20790203 -0.13613236 1.7231656 -0.3300805 -0.68508613 0.9950204 -0.93071467 0.59818906
-0.13241893 0.39567527 -0.5021318 0.17320584 0.14378296 -1.9974765 -0.38048333 0.40562683
-0.91558576 -0.021305664 -0.5610964 -0.2575481 0.17584105 1.0805086 -0.22146584 0.56638134
0.10731891 0.20733027 -0.17667231 0.048099894 0.2840913 -0.135275 0.29649815 0.31829306
-0.1337348 -0.33722895 -0.007175701 0.06212255 -0.09410745 -0.23669565 0.102488115 -0.48752668
0.7728326 -0.10326301 0.020116637 -0.047847718 0.405796 -0.00861729 0.7971362 -0.06104124
-0.3027936 -0.19151601 -0.24928054 -0.38935646 -0.36178663 0.23835777 0.15967624 0.5714993
0.18860921 -0.9913027 0.7804908 -1.4534472 -0.7529509 -0.078619406 0.090373605 -0.03135219
0.43488342 -0.49616376 -0.06116746 -0.39037955 0.6446261 -0.2951333 0.054245006 -0.07996344
-0.4165161 -0.64680266 -0.094614275 -0.6149561 0.18819241 0.70500344 -0.49932107 -0.22420448
00000000: 16c6 46bf 5ecd 2e3e aca2 6d3e ad57 c43e
00000010: 86f1 b53e 4529 e6bd 7c51 23be 58d4 fb3e
00000020: a5a6 713e ecb2 23bf 2481 263f cfb4 27be
00000030: 2d5f 6dbe 4ada 073e 552d 94bd 364e 20be
00000040: ceec 86be c9f4 2bbe c416 f63d f82c 4dbe
00000050: 4dda a23e d885 90bf a8c3 5a3f 40b6 a5be
00000060: f551 8abe 7493 7dbd c3b7 2fbf 8939 053e
00000070: c339 1cbf 7e63 06bf 02da 353d 1a03 9dbd
00000080: ad88 d7bd 4f38 363e b40a 8cbd 8829 383f
00000090: 10e3 343f cfb0 84be bde5 4c3f 0125 9cbe
000000a0: fa1e b13e 6efb 24bf 550c 00bd 489f 71bf
000000b0: 9e00 babf f970 753e ee91 88bd 91f1 b2bc
000000c0: e3ab 433f bd4e 06be 9a68 5d3f 4b82 b2be
000000d0: 3a46 bdbe 19c4 edbe 430d b6bd 42cc fa3e
000000e0: 7565 ebbe 78a0 9c3e 19d8 ffbc 0757 e8bd
000000f0: f453 92be 4be0 34bf c059 b73d 5a81 88be
00000100: ed4c 19bf 8318 303f be24 d5bf d125 323f
00000110: c6e0 3b3e ddaf e53e 7e32 c53e 7def 6e3f
00000120: 6b70 a3be b69e 86bf a8b4 39bf d44d 53bf
00000130: 33b0 9d3e 4034 263f d539 c5be bf6a 583c
00000140: 9f8c 68bf 8527 a93d 46aa 5c3d e6c4 a8bd
00000150: c630 16bf 9c6c 21bf b299 233f 799b 87bd
00000160: 2341 85bf 061b 633d 9fa4 013e 588b 04be
00000170: 053a 31bb d7fc febe cdf5 3cbf 431d 813e
00000180: e6fd c33e 1e4d 22bf 2775 73be 4ea2 febd
00000190: f02e ae3e 0cac 4abe 6d6d 8ebf f087 07bf
000001a0: a29a 66be 6251 eebe 7310 2fbc d52a 8abe
000001b0: 7690 3e3f 2946 8a3e db64 7c3e abd0 afbf
000001c0: f64c 28bf c5aa 1cbf 81c0 80be 7d61 3b3f
000001d0: bf7d 2f3d 5694 a53e c958 37be f31d e63c
000001e0: ccf6 293d 6bab 9d3d 0c51 5e3e 7b3f a0bf
000001f0: ae84 ddbe 41d5 123e ac0d b9be eece 8e3e
00000200: 0c44 cdbf d66f 6dbe 6f88 d23d 7452 5ebf
00000210: 62f5 453f c63d 5abf 454a e1be f482 94be
00000220: d109 f8bd 22b6 b33d 5c00 133d af15 13bf
00000230: aa36 7cbe be6b 23bf 83a1 083f ff32 113f
00000240: a42a c83e d5c3 09bf ce51 0d3e c5fd b33e
00000250: 05d8 b83e d62e 8abe 8a12 393f b64c 35c0
00000260: d682 18be 6f1d 0e3f d7cf 04bf 2c25 1c3f
00000270: abf6 a4bd 146b 88be 1a40 d9be f58b 8c3e
00000280: 5447 80bf d08a 71bf 10d7 bebd e85d b4bd
00000290: 41a9 2a3f 5a72 bebf 21f9 f9be 2194 443e
000002a0: 3e23 ac3e 2d1d 0dbf 27ad 623d 64f3 e5be
000002b0: 24c3 0fbf 74bc b23e 8e83 9abe 61cc ca3d
000002c0: 45e4 54be 4866 0bbe b190 dc3f 5000 a9be
000002d0: ce61 2fbf a8b9 7e3f 5143 6ebf eb22 193f
000002e0: d498 07be f395 ca3e b68b 00bf df5c 313e
000002f0: d73b 133e 4fad ffbf b6ce c2be 52ae cf3e
00000300: d463 6abf 3789 aebc 03a4 0fbf 58dd 83be
00000310: ad0f 343e 1b4e 8a3f f1c7 62be 5efe 103f
00000320: 04ca db3d 634e 543e 96e9 34be 6504 453d
00000330: 6a74 913e 8885 0abe 9bce 973e 4ff7 a23e
00000340: c7f1 08be 46a9 acbe 2522 ebbb 3774 7e3d
00000350: 68bb c0bd 5860 72be 4ae5 d13d 199d f9be
00000360: 5bd8 453f 8f7b d3bd a5cb a43c f8fb 43bd
00000370: 7ec4 cf3e 892f 0dbc 1e11 4c3f 6106 7abd
00000380: c307 9bbe c61c 44be 6643 7fbe bb59 c7be
00000390: 193c b9be 0f14 743e 2b82 233e c74d 123f
000003a0: c622 413e 04c6 7dbf 3fce 473f 8f0a babf
000003b0: 64c1 40bf 3603 a1bd cc15 b93d 276b 00bd
000003c0: 0aa9 de3e 2d09 febe bb8a 7abd d4df c7be
000003d0: 3706 253f b61b 97be 0330 5e3d dfc3 a3bd
000003e0: 9941 d5be dc94 25bf 21c5 c1bd c36d 1dbf
000003f0: 83b5 403e 1b7b 343f 03a7 ffbe dc95 65be

l2.bias f4 [300]
0.5131565 -0.54950583 0.005791881 -1.0552297 -0.1402215 0.71950984 0.17984809 -0.0818968
-0.11555855 -0.2183649 -0.2512205 -0.9037389 -0.6642226 -0.5300207 0.34815195 -0.19169724
-0.5265821 -0.3246521 -0.049881782 -0.62948877 0.09758651 0.24527025 -0.06626444 0.106688924
-0.73005897 -0.08005461 -0.5767938 -0.6214874 0.24750338 -0.18281466 -0.8621062 -0.29898497
-0.4295934 -0.043215252 0.50006664 -0.20555234 -0.08920369 -0.4322369 0.595263 -0.8436732
-0.11613495 -0.0906473 0.09435775 -0.08727465 -1.1182617 -0.44579828 -0.9087922 -0.027484939
-0.5201036 0.67061466 -0.91988546 -1.1889583 0.1562953 0.53756696 -0.19355802 -0.59438807
-0.3627815 -0.18016204 -0.40849188 0.12766875 0.14219314 -0.069719024 -0.13525106 -0.7447832
-0.93108225 0.16250141 -0.29636553 -0.54237044 -0.04485417 0.351264 0.17452013 -0.53163147
-0.06378139 0.39321575 -1.1339979 -0.8939826 0.21379921 0.24085732 -0.27386272 -1.0287316
-0.3196573 -0.2982168 0.62874174 -0.71346116 -0.052898947 -1.0290858 -0.10389618 -0.62770474
-0.105996326 -0.11395845 -0.08142735 -0.106305435 -0.2323995 -0.18580565 -0.029742092 -0.14769773
-0.30738306 -1.0358257 -0.75811285 0.00037326934 -0.4203753 -0.027950149 -0.2345645 -1.4903181
-0.11302139 -0.42069057 0.00012571947 -0.06312646 -0.25260913 -0.0945381 -0.65679985 -0.35665333
-0.64027107 -0.85514325 -0.77940834 -0.741767 0.17116833 0.8179661 -0.3172001 -0.17682792
-0.12270063 0.09522396 -0.20251632 0.11695679 -0.4893282 -0.5626244 0.68027574 0.21113656
-0.034303844 -0.21071403 -1.9989452 0.051292993 0.008194053 0.2211928 -1.1207604 0.46075085
-1.4809203 -0.077568635 -0.07854329 -0.48813435 -0.66052693 -0.7163206 -0.108024225 -0.06295247
0.58885205 0.18267666 -0.5671286 -0.55653477 -0.082202986 -0.10615899 -0.048820987 0.43905592
-0.068290755 -0.8419194 -0.6050936 -0.6771423 0.3460838 -0.89932746 -0.33890983 -0.12247992
-0.04364076 0.008234937 0.89426345 -0.063983485 -1.18205 -0.07329367 -1.1309037 -0.21732005
-0.07241867 0.1515681 -0.550355 -1.4433074 -0.099576116 -0.80103916 0.15825179 -0.11528902
-0.29430085 -0.7705266 -0.6549379 -0.05001619 0.024018548 -1.0263987 -0.17503406 -0.945969
-0.06592742 -1.0645239 -0.8155314 -0.19574302 -0.8868714 -1.3238924 -0.10553659 -0.05800749
0.036033563 -0.4952415 -0.24657103 -0.019982502 0.16186155 0.26032695 0.04449255 -0.23766153
-0.3682291 -0.054572165 -0.47960696 0.18279864 0.18651812 -0.24236317 -0.81675714 0.55923694
-0.13617943 -0.2799911 -0.2761095 -0.5466276 -0.5532587 -0.12917285 -1.0013125 -0.11127081
-0.043096215 -0.16426657 -0.049679976 -0.70686513 -0.65958124 -0.45533016 -0.02888775 0.25437778
-0.219974 -0.67354566 -0.8655684 -0.027444689 -0.56802785 -0.580353 0.13408302 -0.118158296
-0.07598421 -0.38239658 0.45026344 -0.82816964 -0.48910475 -0.26980427 -0.29478773 -0.5333646
-0.825665 0.44421816 -0.32854328 -1.0571197 0.9366753 -0.5976575 -0.63643664 -0.5376601
-1.1014961 -0.06804783 0.03221085 -0.6982763 -0.4970743 -1.3745404 -0.8665121 0.5861185
00000000: 395e 033f 6aac 0cbf d2c9 bd3b c411 87bf
00000010: 3a96 0fbe cc31 383f 192a 383e 82b9 a7bd
00000020: f6a9 ecbd 0c9b 5fbe f99f 80be 6f5b 67bf
00000030: 7e0a 2abf 70af 07bf f940 b23e 484c 44be
00000040: 16ce 06bf cd38 a6be d750 4cbd 2d26 21bf
00000050: 70db c73d 2028 7b3e a7b5 87bd b97f da3d
00000060: 25e5 3abf acf3 a3bd c2a8 13bf cc19 1fbf
00000070: 8771 7d3e c433 3bbe feb2 5cbf 8f14 99be
00000080: abf3 dbbe 7a02 31bd 5e04 003f 507c 52be
00000090: 6db0 b6bd 284e ddbe 2863 183f f8fa 57bf
000000a0: 29d8 edbd 4ba5 b9bd a33e c13d 0dbd b2bd
000000b0: 3323 8fbf ac3f e4be 9ba6 68bf 1828 e1bc
000000c0: 8225 05bf 67ad 2b3f 9d7d 6bbf c92f 98bf
000000d0: e00b 203e fd9d 093f 1334 46be d129 18bf
000000e0: 7fbe b9be 667c 38be d925 d1be 99bb 023e
000000f0: 149b 113e d9c8 8ebd 417f 0abe 1daa 3ebf
00000100: 685b 6ebf c566 263e 39bd 97be cad8 0abf
00000110: 02b9 37bd e0d8 b33e 68b5 323e 0019 08bf
00000120: d19f 82bd 9353 c93e d826 91bf 0bdc 64bf
00000130: 2eee 5a3e 4da3 763e bc37 8cbe 7aad 83bf
00000140: 1faa a3be dfaf 98be 38f5 203f 64a5 36bf
00000150: 91ac 58bd 15b9 83bf 85c7 d4bd 42b1 20bf
00000160: 9a14 d9bd 0c63 e9bd 62c3 a6bd aab6 d9bd
00000170: 22fa 6dbe d643 3ebe b0a5 f3bc 133e 17be
00000180: 5061 9dbe f095 84bf af13 42bf 5db3 c339
00000190: 6e3b d7be b6f7 e4bc ad31 70be bec2 bebf
000001a0: c277 e7bd c164 d7be 90d3 0339 7248 81bd
000001b0: fc55 81be 319d c1bd 0924 28bf 449b b6be
000001c0: cee8 23bf abea 5abf 4e87 47bf 71e4 3dbf
000001d0: c046 2f3e 3a66 513f 0d68 a2be 6112 35be
000001e0: 784a fbbd c804 c33d 7060 4fbe 0b87 ef3d
000001f0: 3a89 fabe 2708 10bf 8d26 2e3f 2f34 583e
00000200: 3082 0cbd 6bc5 57be 70dd ffbf 9a18 523d
00000210: 5940 063c 5e80 623e 1475 8fbf 89e7 eb3e
00000220: cc8e bdbf 4edc 9ebd 4edb a0bd bfec f9be
00000230: 4b18 29bf c960 37bf ce3b ddbd 39ed 80bd
00000240: 02bf 163f 970f 3b3e 572f 11bf 1079 0ebf
00000250: 0a5a a8bd e269 d9bd 84f8 47bd f0cb e03e
00000260: 06dc 8bbd 0888 57bf 6ae7 1abf 3359 2dbf
00000270: e531 b13e 533a 66bf 9785 adbe c1d6 fabd
00000280: a7c0 32bd d4eb 063c 73ee 643f c609 83bd
00000290: 6a4d 97bf fe1a 96bd 74c1 90bf 2689 5ebe
000002a0: 3d50 94bd ab34 1b3e 11e4 0cbf 4cbe b8bf
000002b0: 90ee cbbd e710 4dbf c20c 223e a61c ecbd
000002c0: 9aae 96be 3b41 45bf 03aa 27bf c7dd 4cbd
000002d0: 8cc2 c43c 0861 83bf 213c 33be 062b 72bf
000002e0: f504 87bd 5242 88bf aac6 50bf dc70 48be
000002f0: 010a 63bf 4e75 a9bf 9123 d8bd 4399 6dbd
00000300: ee97 133d 4b90 fdbe 1e7d 7cbe 58b2 a3bc
00000310: 09bf 253e 9349 853e d23d 363d 8b5d 73be
00000320: 8688 bcbe 1087 5fbd 0b8f f5be 912f 3b3e
00000330: 9bfe 3e3e 0d2e 78be ff16 51bf 272a 0f3f
00000340: 9f72 0bbe fe5a 8fbe 395e 8dbe c9ef 0bbf
00000350: 5da2 0dbf e345 04be 022b 80bf f3e1 e3bd
00000360: a885 30bd 7f35 28be 3b7d 4bbd 1df5 34bf
00000370: 51da 28bf 0921 e9be 01a6 ecbc ce3d 823e
00000380: dd40 61be 7d6d 2cbf e495 5dbf afd3 e0bc
00000390: 466a 11bf 0492 14bf 0f4d 093e fafc f1bd
000003a0: 9c9d 9bbd 7cc9 c3be ee88 e63e ed02 54bf
000003b0: f06b fabe c923 8abe 6bee 96be 958a 08bf
000003c0: c85e 53bf 9070 e33e d336 a8be b34f 87bf
000003d0: f4c9 6f3f 1500 19bf 83ed 22bf 18a4 09bf
000003e0: d3fd 8cbf a95c 8bbd 86ef 033d 3cc2 32bf
000003f0: 8680 febe f1f0 afbf bdd3 5dbf dd0b 163f

l3.weight f4 [4, 300]
-0.12021804 -0.31029564 -0.10195376 0.006768757 -0.18056916 0.11113342 -0.2799762 -0.0006989349
0.12180213 -0.23490956 -0.09870195 -0.32686892 -0.25750872 0.3792685 0.5705938 0.008054904
-0.11001988 0.18910897 0.02792778 -0.53364015 0.2926918 -0.11090013 -0.050742898 0.10906067
0.44118914 -0.0018416973 -0.047274414 0.058051664 -0.6048002 -0.37143108 0.61608124 -0.03421688
0.4062957 0.0757969 -0.25698453 0.1396265 0.019195145 0.25231582 -0.09961776 0.33381084
-0.011348879 -0.035306472 -1.0775996 -0.04852714 0.058877055 0.115503326 0.34654713 -0.037552368
0.25537443 0.23797566 0.47977033 -0.03481869 0.47821146 0.71923 0.050748013 -0.011455913
0.1443097 -0.02095364 -1.0622222 -0.5012233 0.32328594 0.0041281073 0.04005896 0.004591684
0.07066451 -0.022267394 0.31501985 -0.30000058 0.009647459 0.13766614 -0.14956172 0.5201706
0.023195317 0.54389775 -0.06583252 0.20024073 -0.55678207 0.6460345 0.14248061 0.18856496
-0.37658638 0.18247712 -0.4232959 0.03421773 0.021201015 -0.09247365 0.013154846 -0.05046236
-0.001524161 0.039084528 -0.04995743 0.0019149403 -0.47932854 0.48206946 -0.005854004 -0.19920452
-0.03030847 0.246406 0.3028686 0.03494942 -0.22606716 -0.04726071 0.19117792 -0.03684871
-0.096787415 -0.043861046 0.103439115 0.008040759 0.11212951 -0.013196405 0.053301524 0.16446102
-0.024415722 -0.11448224 -0.3382431 0.17623273 -0.24193767 -0.12074171 -0.31413862 -0.5758488
-0.025732018 -0.1459671 0.0078184055 0.24179846 -0.044892184 -0.1172732 0.888781 1.369882
0.018325249 -0.19335283 0.468427 0.11856304 -0.02726949 -0.19941206 0.26987973 0.11365687
0.009768292 -0.003495728 -0.014436144 0.07110881 0.12503013 -0.07134039 0.06663427 0.014702497
-0.11432162 -0.51364636 -0.016614286 0.3816136 -0.020426448 -0.024566593 0.024309542 -0.18723325
0.0034993684 0.058719378 -0.0080427 -0.16875623 -0.49800658 0.11230593 -0.10145598 0.061647035
-0.0070302533 0.15460417 0.060273957 0.016240576 0.34595406 0.0023459839 0.008652778 -0.10985035
-0.01625166 0.046563685 -0.14727926 0.09315267 0.04191803 -0.24757089 0.008805509 -0.8902774
-0.1559936 -0.27125397 -0.016563462 0.17279942 -0.067273535 -0.087199405 0.059911646 -1.1158854
-0.6694547 0.098816015 -0.24818085 0.9024125 0.7408732 -0.13397299 -0.39146873 0.07392864
-0.17610218 -0.12775162 -0.432826 0.035909154 -0.35504118 -0.6671535 0.03788937 0.09329329
-0.14311765 0.00018718134 0.16978979 0.38991424 -0.31909916 0.07846295 0.20181444 -0.3937408
-0.27283207 -0.6283473 -0.5432715 -0.05272145 0.31931865 0.07271228 -0.110407606 0.010980783
0.04424685 0.20855758 0.0136970645 0.07096887 -0.48004496 0.05816125 0.022018941 -0.2517596
0.09039662 0.2915696 -0.64613134 0.58288854 0.08024599 -0.11996512 0.022622086 -0.019233603
0.045802124 -0.005900788 0.4486861 0.015619967 -0.059043497 0.057754073 0.2086995 0.65654933
-0.2702698 0.21815321 -0.6357282 -0.11199389 0.11115676 -0.058455393 -0.18371247 -0.12366643
0.67695785 0.057163082 -0.6191628 0.36004865 0.41672266 -0.5719229 -0.17875472 -0.11821998
00000000: e034 f6bd 12df 9ebe 22cd d0bd 73cc dd3b
00000010: 1fe7 38be eb99 e33d 0a59 8fbe ba38 37ba
00000020: 6573 f93d 228c 70be 3f24 cabd 5d5b a7be
00000030: 2fd8 83be 7b2f c23e 6f12 123f b7f8 033c
00000040: 1a52 e1bd c8a5 413e cdc8 e43c a49c 08bf
00000050: b3db 953e 9b1f e3bd c9d7 4fbd 335b df3d
00000060: 8be3 e13e 1b65 f1ba d1a2 41bd 95c7 6d3d
00000070: 30d4 1abf 372c bebe 80b7 1d3f 0027 0cbd
00000080: fd05 d03e 683b 9b3d 7a93 83be 40fa 0e3e
00000090: 233f 9d3c 8a2f 813e 6504 ccbd 41e9 aa3e
000000a0: a6f0 39bc 859d 10bd c9ee 89bf 65c4 46bd
000000b0: 1129 713d 028d ec3d a06e b13e 83d0 19bd
000000c0: 70c0 823e e4af 733e 75a4 f53e 0b9e 0ebd
000000d0: 22d8 f43e 751f 383f 26dd 4f3d 95b1 3bbc
000000e0: ecc5 133e f8a6 abbc e6f6 87bf 2c50 00bf
000000f0: bc85 a53e 1345 873b dd14 243d d675 963b
00000100: 8eb8 903d 1c6a b6bc 484a a13e ad99 99be
00000110: 6010 1e3c 5af8 0c3e b526 19be e729 053f
00000120: 1b04 be3c e23c 0b3f 33d3 86bd e80b 4d3e
00000130: 4589 0ebf 8462 253f 70e6 113e 2c17 413e
00000140: eecf c0be 48db 3a3e 3dba d8be e427 0c3d
00000150: c0ad ad3c d362 bdbd 6c87 573c 9fb1 4ebd
00000160: 5bc6 c7ba 1917 203d 2aa0 4cbd bcfe fa3a
00000170: 8d6a f5be cfd1 f63e f2d2 bfbb 45fc 4bbe
00000180: 7849 f8bc db51 7c3e 9811 9b3e 1f27 0f3d
00000190: 267e 67be 7294 41bd 25c4 433e acee 16bd
000001a0: 7b38 c6bd a4a7 33bd e3d7 d33d 63bd 033c
000001b0: 28a4 e53d bc35 58bc b352 5a3d 7868 283e
000001c0: 7b03 c8bc aa75 eabd 332e adbe 5a76 343e
000001d0: 82be 77be 6e47 f7bd c7d6 a0be d46a 13bf
000001e0: f4cb d2bc 6678 15be c518 003c 049a 773e
000001f0: dee0 37bd ee2c f0bd 2787 633f 4b58 af3f
00000200: d51e 963c 49fe 45be aad5 ef3e 2ed1 f23d
00000210: 4464 dfbc ad32 4cbe ad2d 8a3e efc4 e83d
00000220: 300b 203c 9518 65bb 9485 6cbc 7fa1 913d
00000230: e607 003e e91a 92bd 8c77 883d bee2 703c
00000240: 7421 eabd 547e 03bf af1a 88bc dc62 c33e
00000250: 5e55 a7bc e13f c9bc ce24 c73c 13ba 3fbe
00000260: a955 653b bb83 703d 87c5 03bc 6fce 2cbe
00000270: b8fa febe a700 e63d 27c8 cfbd 9a81 7c3d
00000280: 0a5e e6bb 8e50 1e3e d3e1 763d f50a 853c
00000290: e420 b13e 14bf 193b 62c4 0d3c 38f9 e0bd
000002a0: 3422 85bc 90b9 3e3d 60d0 16be d4c6 be3d
000002b0: 3db2 2b3d 3983 7dbe fb44 103c 38e9 63bf
000002c0: c9bc 1fbe cde1 8abe 19b0 87bc 55f2 303e
000002d0: b5c6 89bd 9a95 b2bd ea65 753d 55d5 8ebf
000002e0: 6261 2bbf 0d60 ca3d 1f23 7ebe 8104 673f
000002f0: dea9 3d3f 3730 09be 976e c8be e667 973d
00000300: 2154 34be 52d1 02be 5f9b ddbe 7a15 133d
00000310: f5c7 b5be 92ca 2abf e231 1b3d 8d10 bf3d
00000320: 6f8d 12be 1c46 4439 60dd 2d3e d7a2 c73e
00000330: f760 a3be 2fb1 a03d 72a8 4e3e 6598 c9be
00000340: a5b0 8bbe 5edb 20bf d713 0bbf 72f2 57bd
00000350: bc7d a33e 2dea 943d 621d e2bd bee8 333c
00000360: 2f3c 353d 1e90 553e a769 603c 2058 913d
00000370: 74c8 f5be 7e3a 6e3d 1161 b43c a2e6 80be
00000380: dd21 b93d 9c48 953e dd68 25bf 2f38 153f
00000390: 0258 a43d 46b0 f5bd f451 b93c ca8f 9dbc
000003a0: 029b 3b3d 665b c1bb 2fba e53e e4ea 7f3c
000003b0: 98d7 71bd 898f 6c3d 52b5 553e 9e13 283f
000003c0: ce60 8abe 8e63 5f3e 15bf 22bf 0d5d e5bd
000003d0: 28a6 e33d ec6e 6fbd 1f1f 3cbe d344 fdbd
000003e0: 1c4d 2d3f d623 6a3d 7481 1ebf 4c58 b83e
000003f0: ac5c d53e 8a69 12bf 7a0b 37be 511d f2bd

l3.bias f4 [4]
0.09062364 -0.3176664 -0.059500493 0.15292974
00000000: e398 b93d 2ca5 a2be cab6 73bd 9d99 1c3e
