TD3/saves/strong_actor.pth (torch, 518693 bytes, 6 tensors)

l1.weight f4 [400, 18]
00000000: d11c a53f db4c b23e c58b e1bd 0c8c 15be
00000010: 55fb 3ebf b8fc b73c d1bd 80be a9a8 35bf
00000020: 21a5 1f3f 63b0 d1bd e920 c23e 113c d33d
00000030: 58c7 16bf d6d4 9a3e 95e3 1e3d 4d86 943e
00000040: 1896 82bf 1c0f 16bf 9e35 20bf 9255 90bf
00000050: b638 cc3f 30f4 0cbe 38bc 85bd 4b9a b83d
00000060: 13a0 b0bf 0637 0cbf 25ff b43c 78e2 8fbb
00000070: d2e9 8ebc 9cec 413e bcef b4be 6be9 963e
00000080: 4c36 97bc 19b8 78bd 78e2 4c3e 40df 4dbf
00000090: 17fd 26bf 9594 c2bd 42ba 58be aff7 27be
000000a0: 74ed 31bd 3851 45bd 05ab c33d f19b dcbc
000000b0: 5397 08be d8f7 8abd 6e80 83bd 6435 453e
000000c0: 597e 6e3f 2985 d03e 9df1 543e 6631 3a3e
000000d0: 1b0c f73e 8807 97bf 1e11 763f 38f3 d03d
000000e0: d78a 3c3f 690d a13d 2ad4 c3bd 6e6e d73d
000000f0: 44e2 0fbf 8999 293f 189f cabf d8cf 653e
00000100: a2f3 343d 8f1d 23be 11bb cd3e 0b29 d23f
00000110: 8811 a43d 090c 963e 7a75 b2bf d82e 543e
00000120: 7f48 9e3f 0a58 cd3e bcf5 a33f a434 56be
00000130: 6773 8dbc 2004 b43d 9f55 69bf c0af b7be
00000140: 1f19 06bf 7a1c 3e3d 93ab bbbe ef53 043f
00000150: ed8c 55be 0320 a9be eea7 09be 2d5e b3bd
00000160: c5b4 10bd 6bf0 8ebd 3649 053f c469 bd3e
00000170: bae3 e43e 6215 9e3c 8ba4 1fbe ac3b 3c3c
00000180: faa0 8dbe b0d0 813e 207e 983e 916b 5abf
00000190: 15c2 1abe bb76 99be c322 283e 0ec7 29be
000001a0: 94ee 99bc 9dde afbd 778e 67bf 110a 16bf
000001b0: 4801 69be 77f9 d83e 3e6b 09bf 2342 0d3e
000001c0: 514d c4be 5689 193e 97e4 9dbe b4fe 19be
000001d0: 9da3 aa3d efc0 debd 7e20 efbd 4fca e63d
000001e0: 123e d93f bc5c 05bf d6f2 163d 3799 4e3c
000001f0: fe3d 8cbf e762 93bf 89a1 453f bf14 903f
00000200: 15ac 8b3f 767d 9c3b ce68 9f3e e11a 70bc
00000210: 2953 a3bf bb15 efbe ffc6 b2bf a348 563d
00000220: c14c ebbe 2a32 77be 8cbc 4e3f 8bcf c9be
00000230: 4532 b33d 4a2f 1f3d 694f 34bc 10f8 cf3e
00000240: 24d8 1b3f 2055 93bd b80e fdbe 7731 b33e
00000250: 932c 133e 42db 0cbf 1f3d 2bbf 7ba5 23be
00000260: 0472 f53e 43af 21be a3c5 ec3d 8aa6 93bd
00000270: d796 a9bd 4de8 843e da97 3a3e 35a1 403c
00000280: 4833 0c3e 1385 c9bc 2cf7 14bf 450d 82bf
00000290: 2ba4 fcbe 6941 2d3d 7d6f fb3d d524 e5bc
000002a0: 7c67 21bf 3587 24bf 6a94 0c40 0c55 a9bd
000002b0: 4e82 1bbc cc16 b2bc 9fdb 453e 5e69 0e3f
000002c0: ae1b 0cbe 439a a8bc 8684 90be 40fd c9be
000002d0: 7427 163f 4731 2e3f 20f5 47bd e826 adbe
000002e0: 7f65 463e 2d77 abbd 37ad 96be f978 aabf
000002f0: a269 96be 44b3 b83e 560b 903e 0604 013c
00000300: 18c8 32bf d825 52be 2783 823d 4485 f8bd
00000310: 1bf6 033f 9079 09bf 70ce 0040 7dab 88bf
00000320: b37d 113f 1ba5 8e3d 48da 20be 8ed5 5c3d
00000330: db17 28bf cce9 413f 8233 26bf a7b8 76be
00000340: bb19 53bc 24f3 afbe 054c 0abf 9165 0cbe
00000350: 792a 20bd 3b5b be3d 1c5e c03c 3ce8 fc3e
00000360: ecab a5be fb1e 183f 4ae7 923e 6561 d2bc
00000370: e628 c8bc 1847 0b3f 9438 61bf 4aa6 993e
00000380: bd7c 3cbf 8591 153d bd1a bbbe c9e5 a3be
00000390: a220 11bf 8fe4 98be 22ff e33d 1e20 8b3d
000003a0: b891 21be 5d11 40bf 9787 0a3f 4b32 883c
000003b0: 521b 08bd 1a79 00be fef0 60bc e79a 5e3e
000003c0: 7969 cfbe 37db 5f3f fa99 bebe 16f3 cebd
000003d0: b10c 4e3e 1fc7 53be f5d5 da3f 1b3f 6c3d
000003e0: 81b0 0e3e 34c5 353d 8c29 3dbf 1192 6abf
000003f0: 7198 843e 3a0d 49be 4bff 4fbf 40b4 0dbe
1.2899419 0.3482426 -0.11012987 -0.14604205 -0.7460225 0.022459373 -0.25144818 -0.7096048
0.6236134 -0.10238721 0.37915733 0.10314191 -0.58897924 0.30240506 0.038791258 0.29008713
-1.0202055 -0.58616805 -0.62581813 -1.1276114 1.5954807 -0.13765025 -0.065300405 0.09013804
-1.3798851 -0.5477146 0.022094319 -0.004391011 -0.017445479 0.18937916 -0.35339153 0.2947496
-0.018458508 -0.060722444 0.20008266 -0.8041878 -0.65229934 -0.09500996 -0.21164802 -0.16403078
-0.043439344 -0.04817316 0.09554104 -0.026929827 -0.13338976 -0.06785554 -0.064209804 0.19258648
0.9316154 0.40726593 0.20795293 0.18182907 0.48251423 -1.1799173 0.9611987 0.1020264
0.7364935 0.07863886 -0.095619515 0.1051911 -0.5620463 0.662499 -1.5829802 0.22442567
0.04417766 -0.15929244 0.40181783 1.6418775 0.08011156 0.29306057 -1.3942101 0.20720994
1.2365874 0.4010623 1.2809367 -0.20918518 -0.017266942 0.08789849 -0.9114627 -0.35876274
-0.5238208 0.046413876 -0.36654338 0.5169057 -0.2085454 -0.33032236 -0.13442966 -0.08758197
-0.035328645 -0.0697945 0.52064836 0.36994755 0.44704992 0.019297305 -0.15590112 0.011488836
-0.27661878 0.25354528 0.29783726 -0.85320383 -0.15113099 -0.29973397 0.1641951 -0.1657984
-0.01879052 -0.08587382 -0.9045176 -0.5860911 -0.22754395 0.42377827 -0.53679264 0.1379476
-0.38340238 0.14993796 -0.30838463 -0.15038568 0.08331988 -0.10876643 -0.11676119 0.11269056
1.6972067 -0.52094626 0.03685268 0.012609771 -1.0956419 -1.1514558 0.7719961 1.1256331
1.091189 0.0047756983 0.31134647 -0.014654846 -1.2759753 -0.46696267 -1.3966979 0.052315366
-0.45956996 -0.2414023 0.8075645 -0.39416155 0.087498225 0.038863458 -0.011005261 0.40618944
0.6087668 -0.07193971 -0.49425292 0.34998676 0.14372472 -0.5502206 -0.6689014 -0.15981095
0.4793855 -0.15789513 0.11561134 -0.07209499 -0.082807235 0.2595848 0.1822199 0.011757185
0.13691437 -0.024599588 -0.58189654 -1.01603 -0.49344 0.042298708 0.12277124 -0.027971664
-0.6304853 -0.6426881 2.1965585 -0.082681745 -0.009491516 -0.021739386 0.1932206 0.5562953
-0.13682434 -0.02058137 -0.28226107 -0.39451027 0.5865395 0.6804394 -0.048817754 -0.33818746
0.19374655 -0.0837234 -0.29429027 -1.3318168 -0.29377466 0.3607427 0.2813365 0.007874494
-0.6983657 -0.20522249 0.063726716 -0.121347934 0.515474 -0.53701115 2.0126 -1.0677334
0.56832427 0.06965085 -0.15708268 0.0539146 -0.656614 0.7574737 -0.64922345 -0.24093877
-0.012884553 -0.3436519 -0.54022247 -0.1371062 -0.039103005 0.092947446 0.023482375 0.4939593
-0.32357728 0.5942227 0.28692085 -0.025681207 -0.024433564 0.54405355 -0.87976956 0.3000968
-0.73627836 0.03651573 -0.36543837 -0.3201125 -0.5669042 -0.29861876 0.11132647 0.06793235
-0.15778244 -0.75026494 0.54113144 0.016625544 -0.03322918 -0.12546197 -0.013729332 0.21738778
-0.40510157 0.8744387 -0.3722685 -0.10104959 0.20122029 -0.20681427 1.7096545 0.05767737
0.13934518 0.04437752 -0.7389152 -0.9162913 0.25897554 -0.19633952 -0.8124892 -0.13838291

l1.bias f4 [400]
00000000: 4c56 19bf d764 ba3d d44f bb3d 0f09 ffbe
00000010: 92cd 1fbf 35c9 53bf d5e8 5abf c58e 8e3e
00000020: e71a 95bf b619 1cbf 1d70 5dbf ce70 ea3d
00000030: 749b 3dbf ce7a 44bf 6f1b 61bf dace 44bf
00000040: 4e38 4fbf 04b6 85bf 4c38 c2be c095 05be
00000050: eb6a aebf 3704 debe a0ce 8bbf 9dee 53bf
00000060: 0f0f 6dbf 5ee4 cebe faf3 1bbf 5373 2ebf
00000070: 8b39 133f ee44 f7be 4060 3bbf e8fe 4abe
00000080: 0a12 ecbe 8ee2 863e 6ace 21bf a0b4 09bf
00000090: 2f60 3ebf 310e 62bf 52a3 d7be 59db e3be
000000a0: a374 0dbf 539e 57be 963c 0ebe acb7 5bbe
000000b0: 2486 afbd cbfb 3fbf 54a1 3cbf 14f5 8ebf
000000c0: a449 0ebe c12b bbbf d98e 073f 5f40 31bf
000000d0: 6c86 6bbe c00e 40bf 264c 06bf 626f 02bf
000000e0: fe84 fbbe c29d 63bf 6cdf 11bf 612c 06bf
000000f0: 0c9b 72bf 5145 00bf e86f 2dbf 21f0 6fbf
00000100: d31d 65bf 7fb4 3fbf 0a87 8fbe 79cc 42bf
00000110: e449 aabf f187 5bbf 4b96 4fbf ee9d cdbe
00000120: 5cc3 55bf 3dc3 a7bf 7010 8ebf 4a6d 91be
00000130: 05f4 74be 102b 58bf b7d4 0dbf 7bbc 94bf
00000140: f7ad 3ebf 959a a2bf 1d09 863d 7d80 4ebf
00000150: 52c9 40bf c983 5abf e36c 95bf 7c35 9abe
00000160: 9d1b 4bbf a7c8 53bd 0990 0abf 0f79 d5be
00000170: 65ca 23bf f21a 87be 5396 d83e 1637 29bf
00000180: 7e04 21bf fb82 a7bf 00b6 ec3e 5f40 253c
00000190: 68eb 91be c775 50bf 4803 30bf c72a 8cbf
000001a0: 82ba d5be 8e9b 3fbf 9f3d 62bf 5f5e 01bf
000001b0: b77f 84be 6441 1dbf 9a1a 443c 9d15 74bf
000001c0: 3fe3 16bf 66b0 71be a180 2dbf 7dcf 08bf
000001d0: 005c 3fbf 77d6 a4bf 8735 1f3d 81d5 84bf
000001e0: 658c 87bf 9aeb 92be a772 80bf 657d 40bf
000001f0: 3b84 99bf e60f 66bf 8c88 65bf 590a 34bf
00000200: 5ef9 083e 1c82 09be 262e 9ebe e7a5 c03c
00000210: 8182 91bf ce5a 8dbe 3ab0 d5bf 91ef b3be
00000220: d39e 9abf 1c8e 073f 639c a33e 867f 92bf
00000230: f3e4 82be c98f 81bf 2b9d 34bf 5e95 a43e
00000240: dc83 d23e bb17 9cbf 5eab 73bf 2f42 2ebf
00000250: e9eb 0dbf 53e6 88bf 8a47 21bf 6958 97be
00000260: 11f4 7bbf bd24 10bf 637b d4be fdbc 93bf
00000270: 5315 febe 4dd4 90bf 7ffd 1abf 70c5 e6be
00000280: 068a 83bf 8d99 33bf 8ac6 28bf ee93 22be
00000290: 07c1 c0be df92 fbbe 3cea 1ebe 7ef0 ddbe
000002a0: 11ba 39bf 07e4 54bf 3790 14bf 9d8b 48bf
000002b0: bd56 a4bf f5cb 0fbe 146b 1fbf ce7a 9cbf
000002c0: 6a68 e8be 3670 ccbf a463 acbe 20fb 8dbf
000002d0: 4580 34bf 2140 b5bf 2e57 2ebf 548a 15bf
000002e0: 1a21 e0bc d2e5 61bf b46c e5be 6d78 8bbf
000002f0: c84a 05bf 6eb0 e8bd 5f9f a03d 0234 aabe
00000300: 892d 6dbf 3b4c 9ebf 443e 42bf 032a 2c3e
00000310: b467 d1be 3c82 adbf 8383 2abf 8888 b2bf
00000320: fea8 8f3d 4e72 6bbf 2278 47bf 7bb5 86bf
00000330: 155d 0ebf aec9 a2be 67a7 45bf 7879 cfbe
00000340: fcdb 5bbf 073e 6abf 3837 743f 14a7 92bf
00000350: 785b 57bf b969 80bf 72f5 0fbe ec19 6ebf
00000360: fd4e 89bf 7a7a 04bf 7933 0dbf 6d95 efbe
00000370: 8b14 4dbf 5bcd aabe b545 0ebe f77b d0be
00000380: be61 c6be 8da5 043e 0498 3dbf 3410 98bf
00000390: 1562 edbe 53a6 54bf e02b 5fbf cc22 43bf
000003a0: 4443 57bf 1cc9 86bf dd4d 9cbf c53e be3c
000003b0: f808 01bf f057 35bf 44fb 38bf b4bc 8fbf
000003c0: 80c2 bdbe 10d8 58bf f5f9 36bf 97b9 37bf
000003d0: ff6b 15bf d43e cabf e5ad 62bf 008c 1bbf
000003e0: ff2d 7ebf dde8 05bf e30f 8ebf bf5e b1bd
000003f0: 070c 3abf abbc 89bf d452 85be 5484 e5bf
-0.59897304 0.09101265 0.091460854 -0.498116 -0.6242305 -0.8272889 -0.85511523 0.278433
-1.1648835 -0.6097673 -0.86499196 0.11447297 -0.7406533 -0.76749885 -0.87932485 -0.7687813
-0.8094529 -1.0446172 -0.37933576 -0.13045406 -1.3626379 -0.4336259 -1.0922432 -0.8278597
-0.926011 -0.40408605 -0.60919154 -0.6814472 0.5750968 -0.48294777 -0.7319374 -0.19823802
-0.46107513 0.26344723 -0.6320559 -0.53791237 -0.74365515 -0.88302904 -0.4211679 -0.44503286
-0.552561 -0.2105649 -0.13890299 -0.21456784 -0.08570507 -0.7499358 -0.7368367 -1.1168542
-0.13895279 -1.4622728 0.52952343 -0.6923885 -0.23000497 -0.75022507 -0.52459943 -0.50951207
-0.49124902 -0.88912594 -0.5698154 -0.52411467 -0.9476783 -0.5010577 -0.6774888 -0.9372578
-0.89498633 -0.7488479 -0.28032714 -0.7609325 -1.33038 -0.85754305 -0.81088704 -0.40159553
-0.8350122 -1.3106457 -1.1098766 -0.28403693 -0.23921211 -0.8444071 -0.554027 -1.162002
-0.744842 -1.2703425 0.06544707 -0.8066481 -0.7530719 -0.8535734 -1.1673855 -0.3011893
-0.7933901 -0.05170503 -0.5412603 -0.41693923 -0.63980705 -0.26387745 0.42302188 -0.6609968
-0.6289748 -1.3086847 0.46232605 0.010086148 -0.28499913 -0.81429714 -0.68755007 -1.0950555
-0.41743857 -0.7484673 -0.88375276 -0.50534624 -0.2587869 -0.61427903 0.011969233 -0.9534548
-0.589405 -0.23602447 -0.677744 -0.534416 -0.74749756 -1.287795 0.038869407 -1.0377656
-1.058972 -0.28695375 -1.0034989 -0.75191337 -1.1993479 -0.8986801 -0.8966148 -0.7032829
0.13376376 -0.13428539 -0.30894583 0.023516608 -1.1367952 -0.2760834 -1.6694405 -0.35143712
-1.2079719 0.52951217 0.3195525 -1.1445167 -0.255653 -1.0122005 -0.7055232 0.32145208
0.41116226 -1.2194742 -0.9518336 -0.6806974 -0.55438095 -1.0695289 -0.62999785 -0.2955964
-0.9841929 -0.5630606 -0.41500387 -1.154205 -0.49625644 -1.1314789 -0.60543054 -0.45072508
-1.0276496 -0.70156175 -0.65927947 -0.15876743 -0.37647268 -0.4913549 -0.15519041 -0.43347543
-0.7254954 -0.8316044 -0.58032554 -0.7833803 -1.283897 -0.14042647 -0.62272763 -1.2224977
-0.45392162 -1.5971744 -0.3366977 -1.1092262 -0.70508224 -1.4160196 -0.68101776 -0.58414197
-0.027359534 -0.882413 -0.44809496 -1.0896126 -0.5206723 -0.11361776 0.078428976 -0.33242804
-0.92647606 -1.2367014 -0.7587626 0.16812901 -0.40899432 -1.3555369 -0.6660692 -1.3947916
0.070146546 -0.9197129 -0.77917683 -1.0524133 -0.5561078 -0.31794494 -0.7720856 -0.4052236
-0.85882545 -0.91500896 0.9539676 -1.1457238 -0.84123945 -1.0032264 -0.14058474 -0.93008304
-1.072723 -0.51749384 -0.55156666 -0.4679369 -0.8010947 -0.333598 -0.13893779 -0.40719578
-0.38746446 0.12953778 -0.7406008 -1.1879945 -0.46363893 -0.8306629 -0.8717632 -0.7622497
-0.84087014 -1.0530124 -1.2211262 0.02322329 -0.5040431 -0.70837307 -0.722584 -1.1229463
-0.37062454 -0.84704685 -0.71475154 -0.7176756 -0.58367914 -1.5800424 -0.8854659 -0.607605
-0.99288934 -0.52308446 -1.1098598 -0.086606495 -0.726746 -1.0760702 -0.26039755 -1.7931008

l2.weight f4 [300, 400]
00000000: 0f3e 6fbf f335 68bd 9ca4 2f3e aeef 633e
00000010: ec78 953c d557 96be c75c 84bd 753d ac3e
00000020: 711e 92bd c397 2ebf e505 243f 8551 2c3d
00000030: a000 96be f374 8dbe 8e2d e9bd 057b 1ebf
00000040: f6b3 35be 99ca 52be f679 c23e 29fa ee3e
00000050: 5d9c 9ebe d82d 5ebf a0c5 b83e 6c1c debd
00000060: 8d6b 9b3e 9aab 14be f5f3 3dbf 5c76 133e
00000070: 24f5 e4be 0c48 70bf 47aa 11be dee8 143e
00000080: 608d 11bf ce90 e93e 8a2d 2e3d d690 2b3f
00000090: 19f7 303e a6d8 41be 545a 883e 0890 62be
000000a0: 86c6 353e 2eb0 52bf f211 ec3d c2ae 3bbf
000000b0: b6de 61bf 198a 65be c611 a6bd f241 d8bd
000000c0: 06e5 bb3e 509e d7bc 5d56 573e da3c c4be
000000d0: d281 95be 2750 e9be 5a92 e5bd b521 4d3f
000000e0: a7aa 3dbd 7594 1c3f 5c76 ee3d 3290 12bf
000000f0: be98 e7bd 73a0 d7be 774d 5b3e cfd6 22be
00000100: d368 18bf e636 343f 56c6 06c0 9f8e ba3e
00000110: fa5c 453e 0755 873d 50c6 9d3e 111e 3b3f
00000120: 3e43 253e ab05 5abf 6190 0abf f8dc a0be
00000130: 9f53 633e 7dd9 d63e b7a2 0abe 1374 26be
00000140: de6b 11bf c360 413e 6210 873e 7352 aabe
00000150: 168c cbbe fa51 11bf 6aad e53e bcd1 9dbd
00000160: a7e2 78bf bcaa 14bd 75d0 043d 8612 f8bd
00000170: bf37 d33d 0ab6 09bf d3bd a1bf 3b3d 063e
00000180: 2dff 733e 58fb fabe 72d1 bdbd febd 973d
00000190: 72c4 113f 7077 1fbe e0c0 9abf 6c1d eabd
000001a0: e96e 76bf 6d9e cdbd c7d3 8c3d 1088 d73d
000001b0: 66bb 293f 9846 7b3e c900 2b3e fa6f 3cbf
000001c0: 179b 71be ab6c 6fbe b0a7 713c bacd 9a3e
000001d0: 4284 d33e 4751 ad3e 6cbf d33c 5090 043f
000001e0: 0ec4 2f3f f96c 063e eb65 593e 6c3d 96bf
000001f0: 12a1 21bf 5a32 8e3d 9399 e7be 07d7 ca3e
00000200: 4e28 21bf bbe3 ddbe cd80 e3be 52e0 29bf
00000210: a4c5 423e ce68 49bf adc1 edbe 955c bcbe
00000220: 0762 183d 15fd 34be 4f90 b93e 9eda f8bc
00000230: cca2 4bbe b769 abbe 1bd9 f13e 73a0 2b3f
00000240: 0531 d83e badc 91be 7b32 5a3e 4c0e ad3e
00000250: 0605 d13e d267 b1bd 80ed ca3e 36b6 9dbf
00000260: 1761 ab3e faf0 053f 446f 45be 877c c03e
00000270: cd7f a1be cc02 0ebd 389f acbe 2927 5b3d
00000280: 8897 97bf 3d59 37bf 8023 b5bd 7143 77bd
00000290: 2e87 4fbd 1953 4ebf f3f6 343e 8104 a83e
000002a0: 26e7 ea3e c4d8 53be f090 913e 4888 35be
000002b0: de5f a5be 95a4 43be df7a 94bd 8d5d 383e
000002c0: 2689 a6bd 4841 41be be5b 863f 8219 a6bd
000002d0: 9e15 34bf 872e ec3e bfd2 b93c 819a d03e
000002e0: ed3e 24be b6be 783e e619 19bf 0f88 9f3e
000002f0: 6857 7a3e 6b75 a7bf e7cb 6ebd 3e28 a23e
00000300: 7ca3 f8be e9e7 903e d1ad b0be 1d22 35be
00000310: af86 293e cbf0 483f dd43 c8bd bf96 b93e
00000320: c8f8 873e 7249 35bd 63af 9bbd 18bb 943e
00000330: 378b 88be 91f3 8bbe 6b91 793e 514d dc3d
00000340: 9b07 163d c44b e3be 4f4b 223e 1971 0a3f
00000350: a9f7 01bf 65ea 91be e9c4 db3d 7f79 1bbf
00000360: 80f8 013f 9218 0fbe 5052 353e 5988 6d3b
00000370: d0f4 343f 5cbd 653e 21be cf3e 9670 d13e
00000380: 2bf0 6cbe c711 0f3d 64ad f03d d51c 83be
00000390: f37b bcbe 1499 bb3e 4967 303e 1e1b 653e
000003a0: 8a22 b2be 14c1 9bbf 7ba4 d63e 43e4 c8be
000003b0: a71d 19bf 053b 5d3e bff3 183e 6843 db3d
000003c0: 0489 973e f43f 76bc dd7c 5b3e c975 51bf
000003d0: 436c 0f3e 9a31 f8be 99e8 483d 06bc 39bf
000003e0: 954e bcbc 6c96 4abe 514f 4ebe e801 1cbf
000003f0: 9126 d73e 9f18 8c3e 7911 37bf c53f 12be
-0.9345407 -0.056692075 0.17152637 0.222594 0.018246137 -0.29363886 -0.064630084 0.33640638
-0.071347125 -0.6820032 0.64071494 0.04206993 -0.29297352 -0.27628288 -0.11385642 -0.6190646
-0.17744431 -0.20585097 0.37983674 0.46675232 -0.3097867 -0.867887 0.36088276 -0.10845265
0.30355492 -0.14518586 -0.74200374 0.1440062 -0.44718277 -0.93859935 -0.14225112 0.14541957
-0.56856346 0.4561829 0.0425239 0.6701788 0.1728176 -0.18930301 0.26631415 -0.22125256
0.17751512 -0.8230008 0.1152686 -0.73313534 -0.88230455 -0.22415961 -0.08108859 -0.10559453
0.3669817 -0.026320606 0.21029039 -0.38327676 -0.29200608 -0.45568964 -0.11209555 0.8012956
-0.046305325 0.6116403 0.11643669 -0.57251275 -0.1130843 -0.421146 0.21416269 -0.15902255
-0.5953495 0.7039627 -2.1058555 0.36436936 0.19273749 0.066080146 0.30815363 0.7309275
0.16138932 -0.851649 -0.54126555 -0.31418586 0.22199868 0.41962805 -0.13538633 -0.16255216
-0.5680522 0.18884568 0.26379687 -0.3326603 -0.39755315 -0.5676571 0.44858867 -0.07706019
-0.97220844 -0.036295637 0.032425363 -0.12112908 0.10313367 -0.53793395 -1.2636055 0.13109295
0.2382781 -0.49019885 -0.09268464 0.07409285 0.56940377 -0.15572906 -1.2090111 -0.11431393
-0.96262985 -0.10039983 0.06876331 0.10523999 0.6630157 0.24538648 0.16699518 -0.7360836
-0.23594318 -0.23381297 0.0147494525 0.30235082 0.41311842 0.33851072 0.025848113 0.51782703
0.6865853 0.13127507 0.21230285 -1.1737494 -0.631364 0.069431975 -0.45234355 0.39617178
-0.62952125 -0.43337807 -0.44434205 -0.6635791 0.19020706 -0.78675544 -0.46436825 -0.36789384
0.03720286 -0.17674668 0.3624291 -0.030377682 -0.19886321 -0.33479092 0.4723595 0.670417
0.422249 -0.28488714 0.2130832 0.3379997 0.40824145 -0.0866238 0.39634323 -1.2321231
0.3347251 0.52320826 -0.19280726 0.37595007 -0.31542817 -0.034670636 -0.33715224 0.053504143
-1.1843119 -0.7162054 -0.08844662 -0.06036705 -0.050666027 -0.80595547 0.17672329 0.32815936
0.45879477 -0.20688158 0.2843089 -0.17727768 -0.32299703 -0.19105752 -0.07249998 0.18004437
-0.08131628 -0.18872559 1.0496747 -0.08110334 -0.70345485 0.46129248 0.0226835 0.40742877
-0.1603963 0.242915 -0.5980514 0.31158492 0.24447405 -1.3082708 -0.058299925 0.31671327
-0.4856223 0.28301933 -0.3450761 -0.17688794 0.16555284 0.7849242 -0.09778569 0.36247823
0.26556993 -0.044259496 -0.07601812 0.2904899 -0.26668712 -0.27334264 0.24371879 0.107569344
0.036628347 -0.44393742 0.1584904 0.54078823 -0.50768524 -0.2849914 0.10730917 -0.60732263
0.50769806 -0.13974217 0.17707181 0.00362446 0.70686054 0.22435516 0.40574744 0.4090621
-0.23138492 0.034929063 0.11751822 -0.25607935 -0.36813316 0.36640227 0.172269 0.22373626
-0.34791976 -1.2168298 0.41922364 -0.3923665 -0.5981087 0.21604545 0.14936732 0.10706216
0.29596722 -0.015029896 0.2143435 -0.8182035 0.14006142 -0.48475343 0.049049947 -0.72552526
-0.02298669 -0.19783944 -0.20147444 -0.6094041 0.4202161 0.27362534 -0.71511036 -0.14282139

l2.bias f4 [300]
00000000: 7bc8 0a3f 93dc 05bf 24d7 d43d a89b 78bf
00000010: 7687 093e e9e5 f63e 7e0f 923c 82b9 a7bd
00000020: e43f adbd c85a b4be 5f89 49be 35ba 3fbf
00000030: 0ec5 35bf 4579 97be fa23 ac3e 484c 44be
00000040: 1d12 42be 9262 e2be d750 4cbd 01ee d8be
00000050: 0e4b 4abd 32ce 8b3e a7b5 87bd c6fa edbd
00000060: 4fe0 ffbe acf3 a3bd d63f 4abe 8bf5 fabe
00000070: a05b 823d 36e7 3bbd 7704 fdbe 08f4 27be
00000080: 1b95 93be 5282 19bd e9be 113f 507c 52be
00000090: 6db0 b6bd b93e bebe dcd0 f23e 0bd0 20bf
000000a0: 29d8 edbd 4ba5 b9bd 9317 703d 0dbd b2bd
000000b0: c9bb 5ebf 4d66 8abe bf20 34bf 1828 e1bc
000000c0: 9646 cabe 0428 fc3e 5d8e 37bf c98d 78bf
000000d0: b0fa c03e 1165 d43e c364 05be 2f67 08bf
000000e0: 6681 80be 667c 38be dfa2 f9be f61a 6a3e
000000f0: 217d 583e d9c8 8ebd 417f 0abe a17a 48bd
00000100: e0cb c9be 716c 6c3a bd53 83be 7804 9dbe
00000110: e584 efbd e078 823e 84d2 85bb 8acd ffbe
00000120: d19f 82bd 0a64 1d3f 32ae 9bbf 7c70 8ebf
00000130: 119f af3d ab71 9f3c c7ee a0be 2f61 35bf
00000140: ca56 01bf 0161 7abe 1272 973e 3267 debe
00000150: 91ac 58bd 6674 46bf 2836 9dbd 3fdf b4be
00000160: 9a14 d9bd b277 14bc 62c3 a6bd aab6 d9bd
00000170: e125 2fbe 00df e2bd b0a5 f3bc da9e fcbb
00000180: cae9 71be ce61 1bbf 9d37 35bf 5db3 c339
00000190: 64b8 e4be b6f7 e4bc c230 a2be fe79 9bbf
000001a0: c277 e7bd b41d f2be 8b38 5abd f260 7fbe
000001b0: b601 a4be 319d c1bd f387 c7be c9c4 b0be
000001c0: 82ff 00bf a3c1 44bf 8ddf 10bf 166f b5be
000001d0: 2143 3abe f0c4 f23e b3bb 91bd 2ee8 16be
000001e0: 784a fbbd b693 993d 46df 2b3d 3f17 2f3d
000001f0: 5427 00bf 1ef8 bbbe a118 9a3e 75e6 403e
00000200: 3082 0cbd c4a7 6cbd e2aa bdbf 7328 f23d
00000210: 5940 063c 62da 1c3c a7da 45bf 5966 a83e
00000220: 76eb 5bbf 4edc 9ebd 4edb a0bd 0c22 99be
00000230: ee20 a3be 22be 3bbf 49e7 9cbd 39ed 80bd
00000240: c9c6 f73e bbfa 6a3e 235d 08bf 344d ddbe
00000250: 1e75 20bd e269 d9bd 8073 1cbc 8bda 253e
00000260: 06dc 8bbd 6257 07bf 60a5 fbbe 846a cdbe
00000270: b219 eb3e 61e2 32bf a262 eabd c1d6 fabd
00000280: a7c0 32bd e19c 75bc beb6 2e3f c609 83bd
00000290: 9889 53bf fe1a 96bd 99e8 57bf ce1a afbe
000002a0: 3d50 94bd 3e4a 813c b96d f5be 8e6b 7fbf
000002b0: 90ee cbbd 9054 56bf 29d1 4f3e 8241 43be
000002c0: f876 97be c0b3 36bf 6c68 e9be 6e22 9a3a
000002d0: 2313 ffbd 3b55 3bbf 213c 33be 717c 28bf
000002e0: 0e24 17be f709 02bf ed28 d9be 9fdb 62be
000002f0: d508 26bf 1512 93bf 9794 1cbe 4399 6dbd
00000300: 5e3d 8cbd f129 1cbf 1945 853d 58b2 a3bc
00000310: 03e9 adbd 6feb a43e a2d0 92bd 8edc f1bd
00000320: 02e3 79be 1087 5fbd 0b8f f5be b9aa 973e
00000330: cdea 83bd f567 bcbd b472 09bf fbbe 1a3e
00000340: bca1 b1bd da2d 2dbe 5c22 a2be ad84 d7be
00000350: e2da 12bf e345 04be 6f7a 22bf f3e1 e3bd
00000360: 8cfa 4fbc 94bb c1bd d137 37bd e9d7 2ebf
00000370: c199 2dbf d299 00bf 01a6 ecbc 94d6 db3d
00000380: dba8 f6bd ac17 3ebf 5f02 02bf db03 563d
00000390: ed0c c0be ab36 bbbe a1a5 753e fafc f1bd
000003a0: 9c9d 9bbd c1de 06be 621f d93e 0890 0fbf
000003b0: 0047 c7be c923 8abe 6bee 96be b160 cdbe
000003c0: ddda 32bf db2d 793e ddeb 81be d4f6 38bf
000003d0: 07c2 1b3f e133 04bf ffcb e7be 080f 90be
000003e0: a6dc fabe a95c 8bbd b281 2a3e ec41 cfbe
000003f0: 767d c0be b230 73bf e48f ccbe 434e a83e
0.5421216 -0.52289695 0.10392597 -0.9711251 0.1343058 0.48222283 0.017829653 -0.0818968
-0.08459452 -0.3522551 -0.19681309 -0.74893504 -0.71003807 -0.2958471 0.33621198 -0.19169724
-0.18952222 -0.44215828 -0.049881782 -0.42369083 -0.049387984 0.27305752 -0.06626444 -0.11620097
-0.4997582 -0.08005461 -0.19750914 -0.4901546 0.06365132 -0.045874797 -0.4941747 -0.16401684
-0.28824696 -0.0374778 0.5693193 -0.20555234 -0.08920369 -0.3715723 0.47424972 -0.6281745
-0.11613495 -0.0906473 0.058616232 -0.08727465 -0.8700529 -0.27031174 -0.70362467 -0.027484939
-0.39506978 0.4924928 -0.71701604 -0.97091347 0.3769126 0.41483358 -0.13026719 -0.53282446
-0.25098723 -0.18016204 -0.48757073 0.22861847 0.21141483 -0.069719024 -0.13525106 -0.048945073
-0.39413357 0.00090188446 -0.25649825 -0.30667472 -0.116952695 0.25482845 -0.0040839333 -0.499615
-0.06378139 0.6148077 -1.2162535 -1.1128078 0.085752614 0.01946338 -0.31432173 -0.70851415
-0.50523055 -0.24451067 0.29579216 -0.43438107 -0.052898947 -0.7752136 -0.07676345 -0.35326573
-0.105996326 -0.009061741 -0.08142735 -0.106305435 -0.17104293 -0.1107769 -0.029742092 -0.0077093663
-0.2362434 -0.60696113 -0.70787984 0.00037326934 -0.4467193 -0.027950149 -0.31677824 -1.2146604
-0.11302139 -0.47288287 -0.05327658 -0.24939325 -0.32032555 -0.0945381 -0.3897091 -0.34525135
-0.50389874 -0.76857966 -0.5659111 -0.35436314 -0.1818967 0.47415876 -0.07115879 -0.14737007
-0.12270063 0.07498877 0.041960977 0.04274678 -0.5006001 -0.36712736 0.30096915 0.18837912
-0.034303844 -0.05777718 -1.4817774 0.11824121 0.008194053 0.009573551 -0.7728676 0.32890585
-0.8590616 -0.077568635 -0.07854329 -0.29908788 -0.3186106 -0.73336995 -0.07661302 -0.06295247
0.4839385 0.22947209 -0.53267115 -0.43222964 -0.03917419 -0.10615899 -0.009549022 0.16196649
-0.068290755 -0.5286771 -0.4914961 -0.40120327 0.4591804 -0.69876677 -0.11444594 -0.12247992
-0.04364076 -0.014991016 0.6824759 -0.063983485 -0.82631826 -0.07329367 -0.8433929 -0.34200138
-0.07241867 0.015782472 -0.47935274 -0.9977349 -0.099576116 -0.8372278 0.20294632 -0.19067958
-0.29582953 -0.71368027 -0.4558748 0.0011759528 -0.12454822 -0.73176926 -0.17503406 -0.6581488
-0.14759848 -0.50796455 -0.42414036 -0.22154091 -0.64857227 -1.1489893 -0.15291058 -0.05800749
-0.06847642 -0.610015 0.0650732 -0.019982502 -0.08491709 0.32210872 -0.071687 -0.118096456
-0.24403003 -0.054572165 -0.47960696 0.2962244 -0.06441269 -0.09199516 -0.5369065 0.15111916
-0.086734265 -0.16912022 -0.3166684 -0.4209341 -0.5736524 -0.12917285 -0.6346807 -0.11127081
-0.012694012 -0.09459606 -0.044730965 -0.682982 -0.67812735 -0.5023471 -0.02888775 0.10734287
-0.120439254 -0.7425487 -0.5078487 0.05224977 -0.37509862 -0.36565146 0.23988964 -0.118158296
-0.07598421 -0.13170911 0.42406756 -0.5607915 -0.38921356 -0.26980427 -0.29478773 -0.40112832
-0.6986521 0.24333899 -0.25375262 -0.7225163 0.6084294 -0.5164166 -0.45272824 -0.28136468
-0.48996466 -0.06804783 0.16651037 -0.40479982 -0.3759572 -0.9499618 -0.3995353 0.3287221

l3.weight f4 [4, 300]
00000000: ca19 d43c 6f5b e8be c703 24be 24c0 02bc
00000010: 9a7b 92be 2099 54bc 7b9f ccbe ba38 37ba
00000020: e4f4 19bc aa86 d3be 142f 023c 1dfa 34be
00000030: ac3d c7bd a969 ea3e f797 ad3e b7f8 033c
00000040: 19ea a4bd 3eb4 b0bd cdc8 e43c 4cda 93bd
00000050: 3182 493e f060 2fbd c9d7 4fbd 7a35 903d
00000060: 4e47 f73e 1b65 f1ba 3214 9bbd c333 8c3d
00000070: c1be b6be d18f a0be 5945 cc3e 3a7e a2bd
00000080: 4a98 7b3e 64a7 853c 9bdd e9bd 40fa 0e3e
00000090: 233f 9d3c f44c d33d fb07 4fbd d7c5 683e
000000a0: a6f0 39bc 859d 10bd 066b 1abf 65c4 46bd
000000b0: a570 2cbc 6f98 c93d c27b d33e 83d0 19bd
000000c0: f42d d03d 07ff d43e 0ef5 313d 8fb2 4fbd
000000d0: 3428 873e 0f78 e63e 2828 fc3c f508 5abc
000000e0: 2f9b e6bd f8a6 abbc 2cae 26bf dc42 3ebf
000000f0: ed6d 593e 1345 873b dd14 243d 582a 9f3b
00000100: 6512 833d cc27 75be c646 e73e bcfe 7cbd
00000110: d44c 90bd 7b4d 87bd 0349 3bbd 3c88 f23e
00000120: 1b04 be3c 8b3d 4c3f 026d 2b3c 449c 533e
00000130: 7eb8 97be 9eb5 053f e4eb d63d 8362 f93d
00000140: 136d aebe f07c 8a3e 2919 d6be e80c 63bd
00000150: c0ad ad3c 9401 15be b3d7 21bc b125 70bd
00000160: 5bc6 c7ba a3a3 483d 2aa0 4cbd bcfe fa3a
00000170: c035 adbe a59c 623e f2d2 bfbb beac 59be
00000180: 87b4 70be 3031 583e 0218 843e 1f27 0f3d
00000190: 4a9e 1fbe 7294 41bd 1088 f83c 2c1e c7bd
000001a0: 7b38 c6bd 7a13 a4bd 75a4 943c 1d40 313d
000001b0: a6c6 07bf bc35 58bc cf74 b13c c074 063e
000001c0: 0d20 dfbc c364 bbbd e9e1 60be 6f71 0d3e
000001d0: 377b 0ebe f826 b3bd 3f45 6cbe 195c c6be
000001e0: f4cb d2bc 84c4 b6bd 3154 6dbd 53b9 c03e
000001f0: e22c 713e 09dd 01be 41f2 013f db2d 963f
00000200: d51e 963c a941 f8bd f64a 923e 0de7 f1bc
00000210: 4464 dfbc dfd9 79be 7668 9e3e 4def 8a3e
00000220: adfd b23d 9518 65bb 9485 6cbc b7c1 e63d
00000230: b4d5 863e 7be9 d9bc ba79 883d bee2 703c
00000240: 666b 1bbe f9c0 25bf efbc 653c 9ede a33e
00000250: b59d 84bd e13f c9bc 9f3c 493d 4be4 c4be
00000260: a955 653b de50 353d 5094 90bd 34eb 25be
00000270: 86df 7cbe a229 8cbe ceb8 14be 9a81 7c3d
00000280: 0a5e e6bb 61b3 19be 469f 823e f50a 853c
00000290: 383b 423e 14bf 193b 6aa1 efbd c4ef 52be
000002a0: 3422 85bc 6ba6 2c3e 5153 9abe 9c50 f93c
000002b0: 3db2 2b3d 7f00 71be 04c3 e7bd ff87 96be
000002c0: 9efb 73bd fa1f 92be 9a45 31be 21c4 373e
000002d0: da31 5abd 4b69 24bd ea65 753d 18cb 31bf
000002e0: 2b61 debe bb0c b33c 3dbd 013e eeb3 783f
000002f0: b940 e53e e503 783e 71dd f0be e667 973d
00000300: 5e8a 33be b598 11be 1deb 2dbe 7a15 133d
00000310: e6b4 c2bd b178 01bf 2ff7 f43c f7e5 47bd
00000320: 7935 95bd 1c46 4439 60dd 2d3e b29d dc3e
00000330: 228d 4ebe 5896 773d 75b4 b63b 297b edbd
00000340: d97e ecbd f247 9fbe f458 a0be 9812 a83c
00000350: 1f71 903e 2dea 943d 5fb1 98bd bee8 333c
00000360: 2f3c 353d 3e47 b33d 69cb 5d3c 04ba f83d
00000370: d642 6dbe ff11 4bbd 1161 b43c 403c 73be
00000380: d106 aa3d 1d63 6a3d b396 a9be a9f4 ce3e
00000390: 0080 163d 4e3c 9f3d 493a 303d ca8f 9dbc
000003a0: 029b 3b3d f1d6 87bd 1a3a b63e 3e81 dd3c
000003b0: 0e7a 66bd 898f 6c3d 52b5 553e 0726 9e3e
000003c0: 0264 3fbe a5b2 8f3d f64a 06bf 3d65 b5bd
000003d0: dfec a43c 0478 a53c f182 a63c 83e5 14be
000003e0: 6586 e33e d623 6a3d 7d6e dcbe cf78 843e
000003f0: 68b6 a83e 16b2 d3be ee22 46bd 521c 12be
0.025891203 -0.45382258 -0.16017066 -0.00798038 -0.28609926 -0.012975961 -0.39965424 -0.0006989349
-0.009396765 -0.41313678 0.007945795 -0.17673536 -0.0972856 0.45783737 0.33905002 0.008054904
-0.08052463 -0.086281285 0.02792778 -0.07219371 0.1967857 -0.042817056 -0.050742898 0.0704145
0.4829659 -0.0018416973 -0.07572211 0.0684581 -0.3569241 -0.31359723 0.39896658 -0.07934232
0.24569812 0.01631517 -0.11419221 0.1396265 0.019195145 0.10317412 -0.05054472 0.2273172
-0.011348879 -0.035306472 -0.60319555 -0.04852714 -0.010524903 0.098435275 0.41305357 -0.037552368
0.10165015 0.4160082 0.043446593 -0.050707396 0.2639786 0.45013472 0.030780867 -0.0133078
-0.11260068 -0.02095364 -0.65109515 -0.7432077 0.2123334 0.0041281073 0.04005896 0.0048573427
0.06399993 -0.23940963 0.45171183 -0.06176637 -0.07045904 -0.06606575 -0.045723926 0.47369564
0.023195317 0.7978141 0.010463001 0.2066508 -0.29632944 0.5223025 0.10494211 0.12176993
-0.34067592 0.27048445 -0.4181607 -0.05543223 0.021201015 -0.14551383 -0.009878087 -0.058629695
-0.001524161 0.04898418 -0.04995743 0.0019149403 -0.3383007 0.22130068 -0.005854004 -0.21257302
-0.23506366 0.21112514 0.25799567 0.03494942 -0.15587726 -0.04726071 0.030338317 -0.09722552
-0.096787415 -0.08011527 0.018144825 0.043274034 -0.5303749 -0.013196405 0.021662144 0.13130474
-0.027236963 -0.09150078 -0.21961178 0.13812803 -0.1391419 -0.08747667 -0.2307329 -0.3874214
-0.025732018 -0.08924201 -0.05794162 0.3764139 0.23552278 -0.12681974 0.50760275 1.1732744
0.018325249 -0.12121899 0.28572816 -0.029529119 -0.02726949 -0.24399517 0.30939072 0.27135697
0.08739791 -0.003495728 -0.014436144 0.11267417 0.26334918 -0.02660059 0.066638425 0.014702497
-0.15177688 -0.6474758 0.014022096 0.3200578 -0.06475393 -0.024566593 0.04913008 -0.38455424
0.0034993684 0.044266574 -0.07059538 -0.16203004 -0.24694642 -0.27375513 -0.14523622 0.061647035
-0.0070302533 -0.15009834 0.2551214 0.016240576 0.18967903 0.0023459839 -0.11700709 -0.20599276
-0.01625166 0.16860358 -0.3014169 0.030433945 0.04191803 -0.23535345 -0.11316493 -0.29400632
-0.059566133 -0.2854002 -0.17311707 0.17945911 -0.0532702 -0.040139478 0.059911646 -0.6945052
-0.43433508 0.021856656 0.12669845 0.9714955 0.44775942 0.24220236 -0.47043946 0.07392864
-0.17533252 -0.1421841 -0.1698422 0.035909154 -0.0950716 -0.50574785 0.029903023 -0.048803296
-0.0728559 0.00018718134 0.16978979 0.43089062 -0.20171025 0.060446113 0.0055757114 -0.115957566
-0.11547632 -0.31109577 -0.31317866 0.020516679 0.28211305 0.07271228 -0.07455706 0.010980783
0.04424685 0.08753823 0.013537266 0.12144855 -0.23170027 -0.04957771 0.022018941 -0.23753452
0.083020814 0.057223428 -0.33122787 0.40421036 0.036743164 0.07775174 0.043024335 -0.019233603
0.045802124 -0.06632794 0.35591203 0.027039167 -0.056268744 0.057754073 0.2086995 0.30888388
-0.18690494 0.070164956 -0.5245813 -0.088572 0.02013248 0.02019883 0.02032611 -0.14540677
0.44438472 0.057163082 -0.43053046 0.2587342 0.32951665 -0.41346806 -0.048373155 -0.14268616

l3.bias f4 [4]
00000000: 374c fa3d 7110 05bd 7563 3a3e 0584 fc3b
0.12221568 -0.032486383 0.18202002 0.0077061676
