TD3/saves/superagent_actor.pth (torch, 518693 bytes, 6 tensors)

l1.weight f4 [400, 18]
00000000: bbd6 563f ac45 8dbf 301a 03be 29b1 cbbd
00000010: c346 893e 2b68 09bd 20ae 09c0 ea53 c13f
00000020: 28a9 57c0 8809 afbf ce6e 7a3e 8c24 02bf
00000030: 7af3 82bd 4baf ac3f d3e7 9fbd 3204 2e3e
00000040: e6a8 75be b07e 863f ed02 a33f 83e4 e93f
00000050: 9d0c 5abf b62a 39bf 2edd e5be c0aa 8f3e
00000060: f649 e6bf 1d10 9fbf d058 e63f 21d5 7b3e
00000070: 1513 aa3c f03d e93d 0e27 d6be 22f6 e8be
00000080: 01d6 62be b253 383d 75ca 943f 25b4 093e
00000090: 8291 153f f46b 39c0 fad7 9b3f aeec d13c
000000a0: d9cc 1cbf b4be c5bd c121 50bf 3b19 96bf
000000b0: 12bf a13f 8ac4 7fbd 0898 863e 9f6f 8bbe
000000c0: d160 dc3f 3cc5 4fbf c4a4 e23e ade2 bebe
000000d0: 2acc 76bf bb3d 1a3f 6c26 0040 11fe d73e
000000e0: c744 a1bd 0d29 0dbf 75ba 17bf bae9 76be
000000f0: 6bbf 13c0 f918 39bf cc61 01bf 36b9 0c3d
00000100: 384a 163f a777 253f 3568 193e dc49 8dbe
00000110: bd26 b03e 185d e839 a602 223e 672d a3bf
00000120: 4bda 9a3f f3ad 8a3f 8953 c3be 5d32 a23e
00000130: 9700 a43e 64bf 303e 9b90 a1bf 806f 7abe
00000140: a33a 893f b7cb 2abf e5ae f1bb b88b 143f
00000150: 22b4 e83f ba4e 4abf 7868 d73e 669c 07be
00000160: 4582 43bf 6c76 2abf 3eb6 bc3d 1156 49bf
00000170: 3857 fb3f 8c95 a9be f3e7 92be 3771 f5be
00000180: 0aad 0bc0 1f90 f43f a16d 043d 6ec3 84be
00000190: e963 eabe 475c 153e 1077 cf3e 71d8 0abf
000001a0: d80b 333e 33b4 93bb efa8 a5bf 1a17 4abf
000001b0: 4b58 9b3e f10b c73e 6f16 8abf 7b1a bfbf
000001c0: e77d 45bf e046 dc3e 6473 08c0 49c8 3f3e
000001d0: c6e7 353f 0117 7d3e 45e0 17bd 64f7 4ebf
000001e0: 6fd2 07bf df2f 94bf 40f1 4fbd a84d 663e
000001f0: 8fd1 89be 08a0 a5bf 6126 3d40 9853 10bd
00000200: e186 7cbf 321a 08bf ae60 9bbe d585 c1be
00000210: 892c 99bf 6606 203f 2492 1f3f 5472 cf3d
00000220: 72d0 173e 50bc b03e c6d6 843e 9226 77bd
00000230: e017 3bbe d646 bcbe bb7c 8fbe d474 6dbf
00000240: 4b69 813f 0431 b83f 57d0 0f3e 1fbf 093f
00000250: a89a afbe 192c 1e3c 9acc c0bf 0d9c 1ebf
00000260: 449f 10bf 65c1 fb3e 218f 2fbf 3974 5a3d
00000270: cefd 033f 471d ecbd 8b24 96bd 619d b83e
00000280: c0fa 08bf 7543 4cbf 705e d93f a0d8 dcbe
00000290: 5da3 cdbe e644 213f de05 7d3e 2103 11bd
000002a0: d45a 133d a868 973f 3261 7a3d 56b6 713e
000002b0: 3933 083f a2d0 183e e28a a7bf 32a7 833f
000002c0: 59af 873e a7b8 8a3e 801d 51bf fd9b 58bf
000002d0: d0a4 1fc0 0f0f 6ec0 dffe bd3f 0da3 a4be
000002e0: a9d6 34bf 8ba9 ea3d 46c0 7a3f 563b ca3e
000002f0: 3e44 74be ac35 ee3e 47c6 763b e92b f93d
00000300: 4b19 353f 4099 a13e c526 60bd 30d1 17be
00000310: 6fad 77be f4d3 e93e b872 ba3f 4cce f23e
00000320: 45ec 30c0 5ebb 81be ed0d b0be 0ab9 50bd
00000330: 5680 afbf 1c65 f9bf d30c 893b e2a0 22bf
00000340: 65bf 8abe 62fc 083f cfcc a0bd d3e6 c53e
00000350: 54f9 f63d 5d09 96be 80e0 50bf 9cc5 ecbc
00000360: 30cc 5c3f 0b89 08c0 c9f1 3cbf 0feb fd3e
00000370: 2304 edbe 50d5 acbe 175c 0fc0 b5f0 f8be
00000380: a4a8 553e f25c 3abf 195d 11bf f696 923e
00000390: 3050 b03f ab23 2f3f 9898 f53e 7667 29be
000003a0: cff8 76bf a08c 45bf 7115 c53e 9ea3 293f
000003b0: eebd 17bf 687a dc3e b56f 153e 96f1 633e
000003c0: 8a5d 20c0 0600 9d3c ad57 183f 7fa7 aa3d
000003d0: 2354 ffbd dd7a d0be 8b90 803f bc88 373f
000003e0: 9f04 8e3d 2128 60be 4502 28bf f0da a9be
000003f0: af09 1c3f af0c 9a3e f6e3 503f 6ef1 e93e
0.839214 -1.1036887 -0.12802958 -0.099459 0.268118 -0.033546608 -2.1512527 1.5103734
-3.3696995 -1.3674784 0.24456331 -0.50837016 -0.06394096 1.3490995 -0.07807889 0.16993788
-0.23990211 1.0507412 1.2735268 1.8272861 -0.85175496 -0.72330797 -0.4489531 0.2805996
-1.7991321 -1.2426792 1.7995853 0.24593021 0.020761052 0.11388767 -0.4182667 -0.45500284
-0.22151949 0.045001693 1.1624285 0.13447626 0.5842515 -2.897214 1.2175286 0.025625553
-0.6125007 -0.09655514 -0.81301504 -1.172645 1.2636435 -0.062443294 0.26287866 -0.27233598
1.7217046 -0.8116033 0.4426633 -0.37282315 -0.9640528 0.60250443 2.002345 0.42186025
-0.07874446 -0.55140764 -0.59268886 -0.24112597 -2.3085582 -0.7230373 -0.5053985 0.03435632
0.58707 0.646357 0.14981158 -0.27595413 0.34404555 0.00044319849 0.15821323 -1.2748231
1.2097868 1.0834335 -0.3814967 0.3167905 0.320317 0.1726051 -1.2622255 -0.24456596
1.072102 -0.66717094 -0.0073755854 0.58025694 1.8179972 -0.7902638 0.4207189 -0.13243255
-0.7637065 -0.6658695 0.092144474 -0.7864695 1.9635992 -0.33121908 -0.28692588 -0.4793794
-2.1824365 1.9106482 0.032331113 -0.2593035 -0.4577935 0.14585982 0.40520525 -0.54236513
0.17484987 -0.0045075654 -1.294218 -0.789415 0.303408 0.38876298 -1.0788096 -1.4929956
-0.77145237 0.43022823 -2.132043 0.18728746 0.71056783 0.24715807 -0.037079114 -0.8084624
-0.5305547 -1.1577109 -0.050767183 0.22490561 -0.26917693 -1.2939463 2.9554675 -0.03523597
-0.9864331 -0.5316497 -0.30347198 -0.37797418 -1.1966716 0.62509763 0.6233237 0.10129228
0.1482561 0.3451867 0.2594511 -0.060339518 -0.18270826 -0.36772794 -0.2802485 -0.9275639
1.0110258 1.4389958 0.14044319 0.5380725 -0.3429768 0.009654068 -1.506244 -0.61956865
-0.5649302 0.49170986 -0.6857777 0.053333495 0.5155915 -0.11529022 -0.07331189 0.3605757
-0.53507614 -0.7979043 1.6981945 -0.43134022 -0.401637 0.62995756 0.2470927 -0.035403375
0.035975292 1.1828814 0.06112785 0.23604712 0.5320316 0.14923337 -1.3089259 1.0285399
0.26500967 0.27094004 -0.8168564 -0.8461302 -2.4944344 -3.719669 1.4843405 -0.32155648
-0.70640045 0.11458119 0.97949636 0.39498395 -0.23854157 0.46525323 0.0037654804 0.12166578
0.7074172 0.31562233 -0.054724474 -0.14825892 -0.24187253 0.4566952 1.4566259 0.47423017
-2.7644207 -0.25338262 -0.34385625 -0.050957717 -1.371104 -1.9483981 0.004182437 -0.6352674
-0.27099147 0.53510106 -0.07851564 0.38652667 0.12059274 -0.2930402 -0.8159256 -0.028902821
0.86249065 -2.1333644 -0.73806435 0.49593398 -0.4629222 -0.33756495 -2.2399957 -0.48621145
0.20865113 -0.72798073 -0.5678268 0.286308 1.3774471 0.684138 0.47967982 -0.16543373
-0.964734 -0.771677 0.3849292 0.66265285 -0.59274185 0.4306214 0.14593394 0.22260126
-2.5057092 0.01916505 0.5950878 0.083327286 -0.1246722 -0.40718737 1.0044111 0.71693015
0.06934475 -0.21890308 -0.65628463 -0.3317485 0.60952276 0.30087802 0.8159784 0.4569201

l1.bias f4 [400]
00000000: 57f1 4ebf ff70 86bf 1904 95be 8bae a1bf
00000010: 9a26 9bbf d773 63bf 4df7 57bf 948e a2bf
00000020: b85a c3bf 0f82 aebf cad3 5b3f 7b7b ccbf
00000030: 6294 39be 16d9 5ebf 704d bebf 3cdd 6ebf
00000040: 5a3a 07c0 2858 0bbf 70ea e8bf 5791 7bbf
00000050: f932 d1bf 4084 843f c11e 84bf 2fc2 593e
00000060: bd64 81bf dfa5 9ebf 040e 67bf 255d b8bf
00000070: dafc 90bf 9c74 69bf 9198 b8bf cac3 97bf
00000080: cbad f3bf 06d4 b2bf f2d8 5fbf 3682 483e
00000090: 6e9f 80bf 6eaa d5bf 4c19 dcbf f64d a8bf
000000a0: 9603 82bf b9fe debf 6640 9fbf 61ba 98bf
000000b0: bcee 26bf 841c 9dbf cbd4 c4bf 9d5b 95bf
000000c0: a57e dbbf 86a2 92bf fa46 87bf 30da 54bf
000000d0: 628f 11c0 7035 9bbf 2e03 f0bf fbb1 c3bf
000000e0: cbf1 4d3f 6fcc 80bf d8f7 02c0 0ecd 7dbf
000000f0: 89ab cfbe acdc 803f fcf8 5abf 1af6 10bf
00000100: aea1 10bf cbc4 85bf f61c 683e 4c6a 3dbf
00000110: 6743 12bf 8f4c 79bf 363b 99bf b888 33bf
00000120: 514e 31bf b649 08bf 01ab cdbe 1b00 7abf
00000130: e5da e9bf 91f7 73bf 99b5 41bf dbe1 d2bf
00000140: 5eb2 c2bf f75a 84bf f1fe 93bf 2e38 19bf
00000150: fb09 2ebe 5ac6 d1bf a8bd 8cbf 369c c9bf
00000160: 9c98 4f3f d164 3abf f15c f3bd 7997 cfbd
00000170: 8348 e1bf 0645 b0bf ac5d b8be b811 76bf
00000180: 51ca 06bf 8495 3fbf b04c e4bf 074a 243d
00000190: 9c19 90bf d54a b1be dae1 7cbf 9df8 ddbf
000001a0: decc 11bf d5e1 a2bf 758b b1bf bf14 15be
000001b0: a17e 92bf f03a b8bf 11a8 3ebf 91e6 62bf
000001c0: 26a1 09bf 118a babf db1a 49be 164a c9be
000001d0: 08f1 d53d 6334 08c0 253a 1fbf 2783 88bf
000001e0: fc65 54bf e966 593e 4faf 98bf 1a56 a1bf
000001f0: 15b1 abbf 4180 443f dcdc 52be 0dbb c1bf
00000200: 8849 55bf 2b80 01bf 0fc2 bfbf 3ee1 abbf
00000210: f6ec 8d3e f6c9 cebf d4f9 75bd 6e46 14c0
00000220: 075d a1bf 71a8 94bf 68d5 69bf 1b64 f2be
00000230: efef a6bf 592c 1fbf 2731 15bf bce6 873f
00000240: 2f77 62bf 1b5a fdbd 7b94 00c0 7c3d cebf
00000250: 8329 dfbe 2d6d e6be e0dd f7bf f50d cebf
00000260: c94c 69bf 82f3 39bf 7094 8bbf 30fe 54bf
00000270: 361c d9be 6087 8fbf 9f87 9c3e 8d9c ce3e
00000280: 841b 98bf f6f4 bebf 6139 97bf a2cd e3bf
00000290: 431d a6be 9a6f a2bf b77e 8abf 3d0b d8bf
000002a0: 6e5e 59bf 8b62 54bf b883 10bf f77f 92be
000002b0: 415e e6bf a508 8fbe c20f 4ebf e1a9 a9be
000002c0: 2de7 abbf c302 43bf 477f 80bf da93 383c
000002d0: 36f8 01bf f971 3dbf 627c bfbf 6b17 56bf
000002e0: d350 ca3e 2c13 4fbe 62fd d2bf d8d4 d5be
000002f0: c0d3 a0bf e7a5 debf 2e04 bebd fcb4 adbf
00000300: bb6b 27be 6bf5 1b3f 3a2b e63d af72 86bf
00000310: b68d ddbe 3ad7 943e 3e63 c7bf e547 abbf
00000320: 421d 9abe 4213 40bf 8165 9cbf 4fec 0dc0
00000330: 7565 003e b2e9 84bf f8bb 79bf 4dd1 cbbf
00000340: bed6 49bf 2a7c c7bf 8256 92bf ccb7 9cbf
00000350: c739 00c0 309c 343f 143b 9dbf be31 27bf
00000360: 7151 89be de10 8abf 2323 56bf 743a 50be
00000370: 65b6 61bf 8278 44bf 42e2 86bf 8305 9bbf
00000380: 2481 91bf f3de 96bf fbdf 91bf 810e 0abf
00000390: dc55 83bf 3aac cebf 1c5e 5cbf 27ee 113f
000003a0: cc02 5d3f 7e04 39bf 2de3 68be baf6 cfbf
000003b0: 28ed adbf c8cf 04bd 528f 7cbf 1c8c 56bf
000003c0: 702b 44bf f9c0 92bf a580 35be e0e4 8bbf
000003d0: 6bd1 c7bf 0eaf 4ebf 7325 3fbf d431 30be
000003e0: d2a3 84bd 5719 d4bf 6bb3 83be 9e11 fdbe
000003f0: 1584 f6bf 22eb cabf 3a35 25bf 1ec5 81bf
-0.80837005 -1.0503234 -0.2910469 -1.2631391 -1.2121155 -0.8884863 -0.84361726 -1.2699761
-1.526206 -1.3633441 0.8587004 -1.5975183 -0.1812301 -0.87049997 -1.4867382 -0.93306327
-2.1129365 -0.5443139 -1.8196545 -0.98268646 -1.6343681 1.035286 -1.0321885 0.21265481
-1.0108868 -1.239437 -0.9025576 -1.4403425 -1.1327164 -0.91193557 -1.442156 -1.1856625
-1.9037412 -1.3970954 -0.8744041 0.19580922 -1.0048654 -1.6692636 -1.719522 -1.3148792
-1.0157344 -1.7421485 -1.2441528 -1.1931878 -0.6520803 -1.2274327 -1.5377439 -1.1668583
-1.7148024 -1.1455848 -1.0568535 -0.8314543 -2.2743764 -1.2125683 -1.875097 -1.528869
0.8044707 -1.0062388 -2.0463772 -0.99141014 -0.40560558 1.0067344 -0.8553617 -0.5662552
-0.56496704 -1.0450681 0.22667298 -0.7399032 -0.571341 -0.97382444 -1.1971195 -0.7013049
-0.69260126 -0.53237474 -0.40169528 -0.9765641 -1.8269926 -0.9529963 -0.7566772 -1.6475176
-1.5210683 -1.034026 -1.1562177 -0.5985135 -0.16995995 -1.6388657 -1.0995378 -1.5750797
0.8109224 -0.72810084 -0.118829615 -0.10136313 -1.7600254 -1.3771064 -0.36008966 -0.96120787
-0.5265246 -0.7483752 -1.7835903 0.04010966 -1.1257815 -0.34627405 -0.9878212 -1.7341496
-0.5695323 -1.2725168 -1.3870684 -0.14558695 -1.1444894 -1.4392986 -0.744752 -0.88633066
-0.5376152 -1.4573385 -0.19639151 -0.39314336 0.10446364 -2.1281974 -0.62198097 -1.0665025
-0.82968116 0.21230663 -1.19285 -1.2604401 -1.3413416 0.767582 -0.20592064 -1.5135208
-0.83315325 -0.50586194 -1.4981097 -1.3428113 0.2771985 -1.6155384 -0.060052708 -2.3167987
-1.2606515 -1.1613904 -0.9134126 -0.47342 -1.3041972 -0.62177044 -0.58278126 1.061729
-0.8846311 -0.12370702 -2.0090625 -1.6112514 -0.43586358 -0.4500517 -1.9364586 -1.6098009
-0.9113279 -0.7263719 -1.0904675 -0.8320036 -0.42404336 -1.1213188 0.3057222 0.40353814
-1.1883397 -1.4918506 -1.1814386 -1.7797129 -0.324442 -1.2690308 -1.081992 -1.687843
-0.84909713 -0.82962865 -0.56450987 -0.28613254 -1.7997514 -0.27936283 -0.80492795 -0.3313742
-1.3429924 -0.7617609 -1.0038842 0.011265719 -0.50769365 -0.74002033 -1.4959834 -0.83629483
0.3951479 -0.20222157 -1.6483576 -0.4176395 -1.2564621 -1.7394379 -0.09278141 -1.3570857
-0.1634969 0.60921353 0.112387136 -1.0503749 -0.4327218 0.29070455 -1.5577161 -1.3381315
-0.30100447 -0.75029385 -1.2218477 -2.2175481 0.12538703 -1.0383818 -0.9755244 -1.5923249
-0.78843296 -1.5584767 -1.143265 -1.224359 -2.0035264 0.70550823 -1.2283654 -0.65310276
-0.26819947 -1.0786397 -0.83647364 -0.20334798 -0.88168937 -0.7674638 -1.0537798 -1.2111057
-1.1367536 -1.1786789 -1.1396478 -0.5392838 -1.0260577 -1.6146309 -0.860811 0.57004017
0.8633239 -0.7227248 -0.2274291 -1.624717 -1.3587999 -0.03242472 -0.9865619 -0.8380754
-0.7662878 -1.146514 -0.17724855 -1.0929222 -1.5610784 -0.8073586 -0.7466652 -0.17206508
-0.06476559 -1.6570233 -0.25722823 -0.49427503 -1.9259058 -1.5853007 -0.6453434 -1.013828

l2.weight f4 [300, 400]
00000000: ba8f ca3e efa5 82bf 5950 95bc 413f 7b3e
00000010: 4bc5 9a3f 03a8 ffbe f710 d93d 2ae1 8dbf
00000020: 178a bfbe 1198 f93d 69a7 e03d b06b 823d
00000030: 6010 2a3f ca32 ddbe e497 47bf 4b1a 3fbe
00000040: 46d3 343e efc4 d03f 8f4e debe 5b2d e73e
00000050: fac2 39be 044d 19bc 3a4b 0c3f 1e79 bdbe
00000060: 09cb 47be f8df cbbc 0ab5 bd3e 1d5c 40be
00000070: f827 1abe 8a3a a8ba db22 1cbe e85a b4be
00000080: 70a4 383e 4cb8 2ebf 8ca5 a8be 4315 d0be
00000090: 3826 babd 415e 41c0 4456 29bf 14a4 08bf
000000a0: 7090 6abf 1a4d 2bbf ff82 003e eddd 793f
000000b0: 0a61 e53e 2434 b4be 01c3 b0be 7adb bfbc
000000c0: 724a 8e3e 082a 29bf 2e24 963f f3fd e2bf
000000d0: 39bd 9fbe e40e ffbe 661a 70be 43b8 2cbf
000000e0: ab57 8b3f 869b 8b3f 6db3 72be bbe3 9dbf
000000f0: c3a4 20bd 99e9 37bf 6680 36bf 23bd 2bbf
00000100: 9103 0fbf c241 59be 8974 54bf ae36 babe
00000110: b966 e0be 2de9 2a3f 1c19 8ebd 7bc7 b3be
00000120: bd03 9fbf ade9 a4be f99d bd3f 183a 61bf
00000130: eaef 743f 0de3 2bbd 0759 613e 3f13 243e
00000140: ba76 66be de00 1f3b 0656 a3bd febe 223e
00000150: 2d51 7fbf cf5c 133f ddc0 1ebf e2a3 c13f
00000160: ce22 9dbe 9150 df3e 5b88 f43e 0ecf 2b3e
00000170: 1b52 c3be 1179 bfbe c453 babe 245b 7bbf
00000180: c4f7 84bf 4a8b 853f 3a12 e73d 1206 ac3f
00000190: 69e4 513f edf0 8d3f d63a 06bf ed73 1dbe
000001a0: dcdb 95be 821e 993d 0ea4 7cbf 5413 503e
000001b0: f799 0abf 3d6f 093d 0fd9 993e 4709 14bf
000001c0: 0be0 7c3f 8d5b 023f 8b81 0fc0 3bfb 74bf
000001d0: 744e 343f 2eba 6cbf 166b f33f e601 babe
000001e0: 036f c23d 87b1 9bbc 7465 663f 9fb7 903e
000001f0: 813e babe ec12 eebd 3ab4 023f 5632 c3be
00000200: f5b2 033d fa43 2f3e ba81 66bf 384b ff3d
00000210: 6847 16be 9467 183e dba9 40bf 7f31 a9bd
00000220: f177 5cbf 2a70 24bf 1f57 723f 2178 923e
00000230: a042 c53e 5fa6 38be 3052 35bf 4d44 163e
00000240: c342 723d dfd6 94bf 08c6 48bf 9918 dfbe
00000250: db8d 15bb 811a bb3e 394c 11be 1cd1 0cbf
00000260: 13b4 01bf e503 9cbf da54 64bf beb9 fa3e
00000270: e34f 9dbe b513 20bd c43e c3be 3a97 e33e
00000280: 1ac9 c43e 5bca ebbe a819 01bf abb5 8ebe
00000290: 428d 303f 7a51 cabf 3c0e 92bf bf86 4dbf
000002a0: 1f48 dcbe 2063 5ebf 7428 2abe 0121 173e
000002b0: ffe8 0abe 77f6 ea3e 5ee2 72bf b3cc 053f
000002c0: ce19 26bd 7225 dcbe ba04 453e 5015 533f
000002d0: 93a6 7f3f 11f8 6a3e 06bb 813c 8d56 62bd
000002e0: cd16 033f d207 b7bf 05cf 463f b6ef b23e
000002f0: 910b 213f ab26 b83e 067b 003d 251c e0be
00000300: 3dc7 cc3e 77cb d73e 63c4 08bf 4c9c 0ebf
00000310: 9e8a 6a3e 950b ecbe 3307 833e 23c9 56be
00000320: 0fa5 55bd 00d9 433e 5d0c bf3e 9f13 303f
00000330: 5889 70be 6195 65bf 2a3a 713f 1bab 27bf
00000340: fcff a73f 0474 03bf fc41 86bf 6333 d5be
00000350: 5f0f 40bf 1649 e1bd 5a35 60bf 3660 73be
00000360: 01f6 5abe 7054 10bf 3574 65bd fbaa 843e
00000370: b7c1 583c 3146 bebd 9c8a 1fbf 93ae f33d
00000380: 22cd 493f aac7 5f3f 688b 293f 2276 723b
00000390: d307 3abf 7ff2 ecbc 9a93 b93e affd d23d
000003a0: cf45 613d a334 d83c 56d7 60bf 44c1 33bf
000003b0: bc98 07be cedb 503f 68f5 1e3e b080 3cbe
000003c0: 8bdb 063d 8e81 513f e341 2bbe bc15 d1be
000003d0: c4bf 97be 2a8a 873e d955 053f 284e 893f
000003e0: 7d1b a7be 2b9f 153f ecd3 213f a8c1 803f
000003f0: 78ba 053e d86e 24bf 6c6a d1be e5c9 043f
0.3956278 -1.0206889 -0.01822679 0.24535848 1.2091459 -0.4993287 0.10598939 -1.108434
-0.37410042 0.121872075 0.10969431 0.06368196 0.66431236 -0.4320281 -0.7796614 -0.18662374
0.1765872 1.6310099 -0.4341931 0.4515179 -0.18140784 -0.009356741 0.54802287 -0.37006468
-0.19511046 -0.02488707 0.37052184 -0.18785138 -0.1505431 -0.0012834829 -0.15247671 -0.35225606
0.18031478 -0.68249965 -0.32938802 -0.4064122 -0.09089321 -3.0213778 -0.66147256 -0.53375363
-0.91626644 -0.6691452 0.12549971 0.97604257 0.44800597 -0.3519603 -0.34523776 -0.023420084
0.27791172 -0.6607976 1.1729791 -1.7733749 -0.31199053 -0.49816048 -0.2344757 -0.6746866
1.0886129 1.0906837 -0.23701258 -1.2335123 -0.03921963 -0.71840817 -0.7128967 -0.67085475
-0.55864817 -0.21216491 -0.8299032 -0.36369842 -0.4382837 0.6676205 -0.06938383 -0.3511313
-1.2423016 -0.3220953 1.4813834 -0.8797927 0.9567858 -0.04196458 0.22006617 0.16022967
-0.22506228 0.0024261991 -0.07975392 0.1589317 -0.9973324 0.5756349 -0.62013036 1.5128138
-0.30690616 0.43616155 0.4776028 0.16778204 -0.3814858 -0.37397054 -0.36392033 -0.98185945
-1.0388112 1.0433133 0.11282773 1.3439353 0.8198915 1.108915 -0.52433527 -0.15376253
-0.29269302 0.07476522 -0.9868783 0.20319873 -0.5414118 0.03355335 0.30048415 -0.57826656
0.9877936 0.50920945 -2.2422817 -0.9569585 0.7043221 -0.9247159 1.9017055 -0.36329573
0.0949383 -0.01900555 0.89998555 0.28265092 -0.36375812 -0.11624703 0.51056254 -0.3812434
0.03215309 0.17115775 -0.900417 0.12465519 -0.14675677 0.14883262 -0.7525918 -0.08261394
-0.86120516 -0.6423365 0.94664186 0.28607276 0.38527393 -0.18032216 -0.70828533 0.14674492
0.0591457 -1.1628073 -0.7842717 -0.43573454 -0.0022820148 0.36543658 -0.14189233 -0.55006576
-0.50665396 -1.2188689 -0.89191973 0.48969835 -0.3072501 -0.039081294 -0.38133824 0.44451314
0.38434678 -0.46052822 -0.50429773 -0.27872977 0.6896554 -1.5806115 -1.1410594 -0.8028373
-0.43023774 -0.8687 -0.16616994 0.14758684 -0.13565443 0.45891163 -0.9487666 0.5226547
-0.040551953 -0.42997319 0.19240084 0.82454395 0.9986355 0.22946192 0.01583625 -0.055258323
0.51206666 -1.4299262 0.77659637 0.3494851 0.62908274 0.35967 0.031367324 -0.43771473
0.39995757 0.4214742 -0.5342466 -0.5570724 0.22904441 -0.46102586 0.2559143 -0.20975165
-0.052159365 0.19125748 0.3731412 0.6877994 -0.23489892 -0.8968106 0.94229376 -0.6549546
1.3124995 -0.513489 -1.0488887 -0.41640767 -0.75023454 -0.11000268 -0.8758141 -0.2376717
-0.21382906 -0.5637884 -0.056019027 0.25911698 0.013229779 -0.09290732 -0.62320876 0.11898532
0.7882863 0.8741404 0.6622834 0.0036996682 -0.7266819 -0.028924225 0.36245424 0.103022926
0.054998215 0.026392287 -0.87828577 -0.70216775 -0.13241857 0.81585395 0.15523303 -0.18408465
0.032924216 0.8183831 -0.16724353 -0.40836895 -0.29638493 0.26472598 0.5208412 1.0726976
-0.3263816 0.58445996 0.6321399 1.0059099 0.13059413 -0.64231634 -0.40901506 0.51870567

l2.bias f4 [300]
00000000: daec a93d 9e42 00bf f065 4abf 89b1 ab3c
00000010: 66ba acbd a6be 98bf d030 5d3e a6ca 82bd
00000020: ede8 263d ce0f aebb a1e8 d13d 8e5d 95bc
00000030: 9b4f c9bd e384 b23e 6e9d 2cbf 968b 24bf
00000040: 9676 b1bc 7a05 bbbf 497c a6be a8c2 c1bd
00000050: ff7d 1f3f ac14 733f 45da 8cbf 8263 c5bc
00000060: 5420 3c3e bd43 88bf 05fb 2ebd da6e f1be
00000070: d577 563f a62b 8ebe 80da 13bf 0782 b7bc
00000080: 1439 43bc ebef 36bf 8f75 213f 459f 6fbd
00000090: 390a 70be e0e3 80be 7e54 f6bd 08e1 9e3e
000000a0: 619a 023e dc80 36ba 9410 acbd 22e4 8abd
000000b0: 7131 6f3f 1adb b1bd 6816 24bc 163a 2ebf
000000c0: 16d6 323d 22e8 a1bd cc83 56bf b380 e4bc
000000d0: 620f 1cbe cb05 4bbc c688 7cbd 6c66 efbe
000000e0: a292 d4bc fc5e cf3e d30c 7abf 8a5b 25bc
000000f0: 1271 bbbc a51b 93bf a99e e5bd ad25 c8bd
00000100: 5243 8cbe 69e2 c9be 7c7c cebe 7afa ec3c
00000110: ff4b 09bd b696 a13c 7c45 c7be d8d5 51bd
00000120: 8ddb 37bc d9fe 54be 0e2e 22bf f089 38be
00000130: 99c0 a4be d56e 56bf 0f77 36bd 6673 59be
00000140: c59a 2fbe 9e3e 8ebe 90d2 89be d118 0dbf
00000150: 4546 9ebe afda d23d 0284 a0be 0ad3 97bd
00000160: 03da ffbd f5bb 87bd b94d 9abe 9432 b4bd
00000170: 06ef 69bf 1eef 12bd 525d 89bd 2dc3 46bf
00000180: df24 f2bb b49f 31bf ff5d 093f 8d32 72bf
00000190: 3258 9dbc 6f42 48bd 6453 eebe 49e8 8bbc
000001a0: b958 25bf 3c1a f9be 8294 48bd a4c3 afbf
000001b0: 6d84 93bf b421 12bf ec04 73bd 6f64 02bf
000001c0: b5a1 22bf 16a5 27bf ac25 bd3d f808 b8bd
000001d0: e589 95bc 6ec8 4b3e 0de5 dd3d 507f 26be
000001e0: ec5e 6cbf 3e7b e4bb 7de7 c0bd d1f4 95bf
000001f0: aba8 00bf f250 75bf 3ab0 64bd cb82 10bf
00000200: 148d 50bf f0d1 833c 5b11 2abf cb99 3abe
00000210: 0295 2e3e 7c6f f03d 4ec5 62be 281c 0c3c
00000220: 6fdd 56bf 8611 52bd cbd3 08bf 5eb1 abbf
00000230: cde0 abbf 7a2c a5bf 4c25 b3be 8c6c 8bbe
00000240: e8fd 63be aef7 6d3c 1b95 e7bd 56e2 e73d
00000250: 2fb6 90bd df78 c3bd 6a36 e1be ae63 5fbf
00000260: 5125 9dbe 0b53 28be 1764 8cbd 71ff 11bd
00000270: c70b 2c3e 4d9a d7be e85c 22bb 9346 54bd
00000280: b1c5 acbf 1fe1 d0bd a06d 2abf 0b96 fcbd
00000290: 880b 17bf 0881 40be aea5 99be 232d ed3b
000002a0: ea08 5bbf 3296 78bf 7fff 09bf 78e0 ab3e
000002b0: 9e31 793c 25d4 5abd c856 f9bc c9b6 69bd
000002c0: 80b9 a0bd 4186 9cbf 4234 5bbf 00a5 673e
000002d0: e42b 3abf 6890 84bf 8807 60bf a4f7 dabd
000002e0: f292 59bf f4b3 b2bd e9ff 24bd 057c a9be
000002f0: ef5d d4bd 374e 44be 5497 58bd 08a6 a5be
00000300: 8b24 dc3d ad09 20bd 5185 89bd ec2a 63bf
00000310: 4c04 89bc 4910 84bd da7e c9be de0f 8fbe
00000320: d44d 82be 69cd 9dbe db35 b1be 29fb 04be
00000330: 89f7 00bf 779b 9b3e f05c 34bf 9a99 5abf
00000340: 68e3 34bf 642c b2bf ffc7 eebc b462 9ebb
00000350: f89e c5bb 4423 f4bc f5d6 b4bd 85a4 a5bd
00000360: e637 1dbf 3d98 a8be 3969 c2bc 24b8 53bf
00000370: 1741 4cbe 1732 03bd 0b23 9dbe 54eb a3bd
00000380: 454f 35bd 49ee 97bd 7b24 57bf a905 19bf
00000390: f234 13be 768f 95be 05c8 eabc 9467 03bd
000003a0: ecef 11bf 7a61 e13e 665f 1ebd bd73 dcbd
000003b0: 7109 e5bc 8273 40bc cbd9 e0be e017 54bc
000003c0: 6219 2bbf b25a 9dbe 949b 03be 8c2b 32bf
000003d0: 0a3a 65bd f530 31bf 78ec 55bf 4089 c4bd
000003e0: 4786 713f 909d bebc 01de 26bd 2192 023e
000003f0: 3c98 c7be 96e2 9fbd fc07 71bf 0836 e2bd
0.08297129 -0.5010165 -0.79061794 0.020958679 -0.0843399 -1.1933181 0.21600652 -0.06386308
0.04074948 -0.0053119427 0.102494486 -0.018233087 -0.09829637 0.3486701 -0.6742772 -0.6427549
-0.021662991 -1.4611046 -0.32516697 -0.09460956 0.6230163 0.9495342 -1.100411 -0.0240953
0.18371707 -1.0645672 -0.04271986 -0.47154886 0.837766 -0.27767676 -0.5775528 -0.022400869
-0.011915464 -0.71459836 0.63070005 -0.0585015 -0.234414 -0.25173855 -0.12027834 0.3103106
0.12754203 -0.00069619506 -0.084015995 -0.06781794 0.93434817 -0.086843684 -0.010015108 -0.6805738
0.0436612 -0.07905604 -0.83794856 -0.0278934 -0.15240243 -0.012391518 -0.061653875 -0.4675783
-0.025948826 0.40502155 -0.9767582 -0.010092625 -0.022881065 -1.1492811 -0.11211903 -0.09772811
-0.2739511 -0.3943055 -0.4032935 0.02892803 -0.03351974 0.019725185 -0.389202 -0.051229328
-0.011221779 -0.20800342 -0.63351524 -0.18021369 -0.3217819 -0.83762866 -0.044547137 -0.21235427
-0.17148884 -0.27782148 -0.2691846 -0.5511599 -0.30912986 0.10295617 -0.31350714 -0.074132994
-0.12492754 -0.06627647 -0.30137423 -0.087987095 -0.91380346 -0.03587257 -0.067072526 -0.77641565
-0.0073896493 -0.6938431 0.5365905 -0.94608384 -0.019207094 -0.04889148 -0.46547997 -0.017078536
-0.64588505 -0.48652828 -0.048969753 -1.373158 -1.1524788 -0.57082677 -0.059330866 -0.509345
-0.63527995 -0.65486276 0.09235701 -0.08986086 -0.01825423 0.19900677 0.108347036 -0.16259503
-0.9233234 -0.0069726994 -0.09419153 -1.1715337 -0.50257367 -0.9582664 -0.055832125 -0.56449574
-0.8146527 0.016091317 -0.6643273 -0.1822273 0.1704903 0.11740014 -0.22145578 0.008551635
-0.8393163 -0.051286243 -0.5344817 -1.3413503 -1.3427979 -1.2904198 -0.34989393 -0.27231252
-0.22264826 0.0145243835 -0.113077365 0.11322467 -0.07065999 -0.09544539 -0.43986827 -0.87261474
-0.30692533 -0.16437928 -0.06855028 -0.035644 0.16801368 -0.4210991 -0.0024774615 -0.051825117
-1.3497831 -0.101991884 -0.66573524 -0.12333306 -0.5900197 -0.18799222 -0.30009216 0.0072380467
-0.85560477 -0.9710418 -0.5390548 0.33569694 0.015209584 -0.053424973 -0.030436888 -0.057059083
-0.07847881 -1.2228471 -0.85626614 0.22621536 -0.7272322 -1.0356569 -0.8751149 -0.10691765
-0.84989846 -0.087257296 -0.040283117 -0.33102432 -0.10369479 -0.19170462 -0.052878693 -0.32353234
0.107491575 -0.039071728 -0.06714881 -0.8873737 -0.016725682 -0.06448419 -0.39354593 -0.27941793
-0.25450003 -0.30820778 -0.346114 -0.12986435 -0.5037771 0.30392048 -0.7045431 -0.8539063
-0.70659494 -1.3919797 -0.0291481 -0.0048335437 -0.0060309134 -0.029801972 -0.08830062 -0.0808802
-0.6141342 -0.3292865 -0.023731815 -0.8270285 -0.19946705 -0.03203019 -0.30690798 -0.0800387
-0.04426505 -0.07418496 -0.8404004 -0.5977426 -0.14375666 -0.29211015 -0.02865983 -0.0320812
-0.57006717 0.4401968 -0.038665198 -0.10764263 -0.027958604 -0.011746289 -0.43916163 -0.012945145
-0.66835606 -0.30733258 -0.12852317 -0.695977 -0.055963553 -0.6921533 -0.8356395 -0.09596491
0.94345516 -0.023268491 -0.040739063 0.12751056 -0.38983333 -0.0780689 -0.9415281 -0.11045462

l3.weight f4 [4, 300]
00000000: 50ce 76bd 9bc3 50bf 6bc1 1fbe cb26 98bc
00000010: c661 243d 7780 c0bf 0baf 16be ab60 01bd
00000020: 882c 16bf 75c3 523e 8b13 43bf 75b7 313b
00000030: 3212 57bd 206f 413e aa6f 2dbf b573 b7bf
00000040: 73a2 10be cb78 11bf bf33 cabf e411 efbc
00000050: 51aa 02bf c80f eabe 4f26 cbbe ba18 5bbc
00000060: 6fc4 1c3f d578 b1be ef27 073b 2c56 543f
00000070: 4d03 893e 35be a3be 9827 06be 3c02 b5bc
00000080: 312e 45bd 6446 f73d 6535 7abf 4a39 e63c
00000090: 9c81 71be e779 9fbe a403 7dbb 31c8 d1be
000000a0: c072 57bf 79b3 ff3c 3af5 82bc 5928 053d
000000b0: a37a fdbd db85 a9bc cad7 a9bb b7dd 813f
000000c0: 7e16 3abf 78de d93e 154c 38be 1fef 403d
000000d0: ea73 b63c aa85 1f3b f5e1 d5bb 1f9d 3d3e
000000e0: e196 123d 944a c43e f76a b4be c7aa 843a
000000f0: 1c1c d73c c19c 1f3f 7d4f b2bb 4499 e2bc
00000100: 8010 1340 f64c bbbe 334d 10bf de4b e23e
00000110: 6748 563d 2728 15bd 9931 14c0 5cce c7bb
00000120: 7850 60bc ab73 c93e 6b1f 8dbf 8f64 253f
00000130: 41b4 083e 25d7 ce3f 993f c3bc 023d 21bf
00000140: 369d bb3e 4563 fcbe 4652 9cbf b9de 073f
00000150: 4006 5cbf 554a 08bf 5f82 253e b1a1 86bc
00000160: 2730 f0be b118 7cbd 1cd3 583e f16c 193c
00000170: 9491 c7bf 1a5e 32bc 4f15 203d f162 843f
00000180: 28b6 6fbc aaba 4b3e 64ab 903e 500b f83e
00000190: 745e db3c 0d9f 05bd 79c3 2bbe d6a9 5dbe
000001a0: 30f5 083f 6814 1b3f 0ce4 523d ecc8 383f
000001b0: 839b ccbf 95b2 a0bf 658e e13b 7d8f 3a3e
000001c0: a8b6 853f 6275 1b3f afd2 19c0 5505 8f3c
000001d0: ce06 0fbd a381 b6bf 1545 783f 94a2 c5bc
000001e0: ba7a 8b3f bfd6 403b ba3a a1bc 6504 e83e
000001f0: 78d0 b0be 586c ce3e cacf 043f c017 a3be
00000200: c8f6 4ebd 9552 fdbe 1b2f d93e 744c 50bf
00000210: d602 ce3e 376b 823f 2fa2 edbd ffd7 bbbb
00000220: 0e2b ff3e fbb1 a73a d944 1bbf d034 ef3d
00000230: a34f 8bbf bf77 fd3e f028 a93f c52d 03c0
00000240: 7981 323f 9370 593f d2f3 963f 9053 00bf
00000250: dcaf 493d 4381 bb3c 8a9b e83d 05ca b93e
00000260: 90a5 173f f54f 283f b7d5 313b b5ad c33c
00000270: c53b b9be 3cc7 9cbf b525 50bc dc6b ad3c
00000280: 35e4 7f3e cb7c 08bd 6f7e 97be 22ce 853d
00000290: 083e 4fbf 9baa 28bf 2992 2e3f 4495 4d3c
000002a0: bb85 593e 418a 2fbe 6d93 10be 35c2 b43d
000002b0: 0b87 46ba f91d e03a 8195 db3c b868 703c
000002c0: ed9c f83a dbbf b0be 544e cc3d a14d 8d3f
000002d0: 3eab bcbd 0eae 0d3f bcfe 5abe 75d2 1dbd
000002e0: 1024 223f 3e52 283d 6e16 1c3d 3537 6dba
000002f0: 7441 eb3e 4829 07be ec36 8abc e70a b8be
00000300: 7747 f83e 64b0 aa3c 580b 01bd a02f 103f
00000310: 6d7d 863b 5888 bb3d 28b8 b2bd 3a2f c23e
00000320: af32 73bf 6f42 d33e f091 e0ba 2123 6ebc
00000330: ef6d 833e 8438 323f 5427 423f cfbe 4dbf
00000340: bb92 ef3e c565 913c e14e 743b 6080 cc3b
00000350: d3c0 8ebe da50 36bd fdb8 153d dda0 8e3c
00000360: 9c73 2ac0 7e8f 283f ee3c 5f3c 4bae e63e
00000370: 4070 9cbf fcf2 4c3d 36b8 4cbf 75c5 3b3c
00000380: f075 cd3b 775d c23b ebf5 bfbe bf59 98bf
00000390: 3af1 733d 7b52 8e3f 04b8 4fbd 4b0a ca3c
000003a0: 73c3 8d3e f45d eabe d3a9 073d 2c8a b6bc
000003b0: f10d b2bc 332a f83e 4024 45be 8e2e 3fbe
000003c0: 597e 06bf 71cd 9c3e 9ba6 be3c 5e2b 0bbe
000003d0: 2fe8 613c 41aa 15be 8db6 ad3e e24b 233d
000003e0: db17 8fbf 6af5 fcbc d641 7dbb f1e1 03c0
000003f0: f721 04bf ef05 cabf dd94 e1be 885d da3b
-0.06025535 -0.8154847 -0.15601127 -0.018573185 0.040132307 -1.5039204 -0.14715211 -0.03158633
-0.586617 0.20582373 -0.76201695 0.0027117406 -0.052507587 0.18890047 -0.6774851 -1.4332186
-0.1412447 -0.5682494 -1.5797042 -0.029183336 -0.5104113 -0.45715165 -0.39677665 -0.0133725945
0.61237234 -0.346625 0.0020623168 0.8294399 0.2676033 -0.31981054 -0.13101041 -0.022095792
-0.048139755 0.12073973 -0.97737724 0.02810349 -0.23584598 -0.31147692 -0.0038606906 -0.40973046
-0.8415947 0.031213509 -0.015986074 0.03250918 -0.12376907 -0.02069371 -0.0051831948 1.0145787
-0.7269057 0.42552543 -0.17997773 0.047103044 0.022272069 0.0024341145 -0.0065271803 0.18516968
0.03578842 0.3833815 -0.35237858 0.0010121696 0.02625852 0.6234856 -0.0054416046 -0.027660973
2.297882 -0.36582154 -0.56367797 0.44198507 0.052315142 -0.036415245 -2.3155272 -0.006097598
-0.01369106 0.3934606 -1.1025213 0.64606565 0.13350011 1.6159407 -0.023834037 -0.62983716
0.3664338 -0.49294487 -1.2212608 0.5307422 -0.85947037 -0.5323842 0.16163014 -0.016434522
-0.46911737 -0.061546985 0.21174282 0.009364353 -1.5591302 -0.010886693 0.03908282 1.0342695
-0.014630832 0.19895425 0.2825576 0.4844613 0.026778437 -0.032622386 -0.16773786 -0.21646819
0.53499126 0.6057801 0.051487014 0.7218158 -1.5984958 -1.2554499 0.00688343 0.18218799
1.0446367 0.60725987 -2.403484 0.017458597 -0.0349186 -1.4258312 0.9698041 -0.024125375
1.0896828 0.0029424874 -0.019681323 0.45315853 -0.3453405 0.40317035 0.5187956 -0.31854057
-0.050528318 -0.49477068 0.4241875 -0.8136666 0.4023654 1.0188969 -0.116032 -0.005732536
0.49837536 0.0012794131 -0.6065193 0.11679995 -1.0883678 0.49505422 1.3215618 -2.0496686
0.6972881 0.849374 1.1793158 -0.50127506 0.04923998 0.022888785 0.11357792 0.3628694
0.59237003 0.65747005 0.002713544 0.02388654 -0.36178413 -1.2248302 -0.012704303 0.021169595
0.24989398 -0.033322137 -0.2958865 0.06533457 -0.8095403 -0.65885323 0.6819177 0.012547795
0.2124242 -0.17142583 -0.14118738 0.088261046 -0.00075732236 0.0017098776 0.026804687 0.014673404
0.0018967666 -0.34521374 0.099758774 1.1039315 -0.09212349 0.5534371 -0.21386236 -0.038530786
0.63336277 0.041094057 0.038107328 -0.0009049059 0.45948374 -0.13199341 -0.016871892 -0.35945818
0.48492023 0.020836063 -0.03150496 0.5632267 0.0041043074 0.09156865 -0.08726531 0.37926656
-0.9499921 0.41261622 -0.0017133337 -0.014534743 0.2566981 0.69617486 0.7584126 -0.80369276
0.46791634 0.017748723 0.003727846 0.0062408894 -0.27881488 -0.0445107 0.03655337 0.01741069
-2.6633062 0.6584395 0.013625367 0.4505485 -1.2221756 0.050036415 -0.79968584 0.011460652
0.0062701628 0.005931552 -0.37492308 -1.1902388 0.059556223 1.1118921 -0.0507126 0.024663111
0.27688178 -0.45774806 0.03312094 -0.022282682 -0.021735163 0.48469695 -0.1925211 -0.18670103
-0.5253654 0.3062549 0.023272803 -0.13590762 0.013788267 -0.14615728 0.33928338 0.03986729
-1.1179155 -0.030878741 -0.0038643978 -2.0606654 -0.51614326 -1.5783061 -0.44058886 0.006663982

l3.bias f4 [4]
00000000: b528 9b3e 0376 4a3e c366 f4be 9cf4 913e
0.30304495 0.1977158 -0.4773465 0.28506935
