TD3/saves/TDstrong_actor.pth (torch, 518693 bytes, 6 tensors)

l1.weight f4 [400, 18]
0.9584453 0.8619014 -0.3732828 0.19990666 0.4170313 0.189882 -1.1362451 -1.6274787
-0.6269315 0.35342586 -0.26283714 -0.29903767 -0.523296 -1.3825504 0.040132135 0.31835532
0.5077661 -0.6466357 0.78645504 -0.136909 1.3848534 -0.7430845 -0.44804916 -0.20196082
-0.61180484 -0.27451622 0.30846244 0.7463787 -0.06534431 0.09356907 0.35198268 0.36461118
0.33413324 0.050813425 0.21042193 -1.0151993 1.2203634 0.98870814 -0.12699501 0.317651
0.2686441 -0.20797594 -0.4460182 -0.5640185 0.22366714 -0.0068370746 0.16723478 -0.13163169
-0.06435072 -1.4996059 -0.19018453 -0.117996395 1.5352229 -0.64001787 1.8797791 1.0374947
0.24736278 0.2901005 -0.028544037 0.37649634 -0.54092324 1.076769 0.9727711 0.38442928
-0.2693592 -0.5448483 1.679486 -1.2298925 -0.13040282 -0.12121726 -0.72024524 -0.7942515
1.0584459 0.75108075 -0.87644976 0.21142694 -0.33217326 -0.24070448 -0.5664404 0.074867934
-0.9258645 -0.4398597 -0.041245755 0.22796454 0.9368282 -0.3007318 -0.19845726 0.1668501
-0.2800454 -1.0595251 1.3011119 0.31846842 -0.32344165 0.06401211 -0.26617917 0.40759033
-0.8266937 -0.10171827 -1.7694483 -0.3197963 -0.110621534 1.2659354 -0.49086657 -0.769405
-0.008558058 -0.4089174 -0.32777426 0.33760628 0.41036645 -1.1851001 -0.05919638 -0.18693157
-0.3697063 0.5342399 -0.13648203 -0.7829617 -0.7931696 -0.54429245 0.38305044 -0.506786
0.46577695 0.25258407 -0.010676536 0.13854824 -0.41603476 -0.7170897 -0.20357294 -0.8124731
-1.5930835 -0.13525136 -0.16612834 -0.5539045 -0.19149762 0.96091425 0.08009549 -0.21343322
0.52032673 0.82313 0.6736192 0.8901207 0.18993191 0.4645403 0.9832451 -1.4179301
0.2588719 -0.4721803 0.35954845 -0.57842106 0.36031827 0.44385043 -0.8809686 0.32331792
1.4137542 -0.58402497 0.32600164 -0.07993742 0.9839047 -1.0614872 0.27343705 -0.41699314
-0.6716317 -0.45308128 -0.8076612 -0.30816653 -1.0869232 0.15656504 0.11250724 0.29850355
-0.46018547 -0.45630237 1.3206643 -0.46443084 0.93206954 -0.1537854 -0.19661373 -0.09098509
0.15679838 0.114598095 -1.0151887 -1.4243963 0.8800523 -0.05106511 0.086367294 0.093515724
0.35535082 -0.51689184 -1.2497537 -0.30123088 0.62604636 -0.09274631 -0.32285523 -0.13942356
0.56894505 0.022255838 -0.11371835 -0.08835864 0.7309134 -1.0437939 1.3304443 -0.91845363
-0.158488 -0.28470674 -0.02252523 -0.34532565 -1.1965647 -0.5205877 1.3934361 -0.20326397
0.33493724 0.5994518 1.7685311 0.71071815 0.35648522 0.15979667 -0.06385087 -1.0387489
1.0166446 -0.7750808 -0.22158684 0.07131602 -0.39475453 0.058964357 -0.6773113 2.6131637
-0.95559204 0.33096102 -0.78557783 0.29038537 0.1560605 0.7044281 0.32209224 0.22821382
-0.31139535 0.43668523 1.9399843 0.09963077 0.8902936 0.056253135 -0.08511789 -0.17658898
-0.5311815 0.1506657 -1.9185067 -0.5478039 0.16127479 0.08973904 0.8199218 -0.5843788
-0.094643734 0.08481103 0.8326264 -0.80747044 1.4795752 -0.3588437 -0.93985814 -0.23388477
00000000: ac5c 753f 92a5 5c3f ec1e bfbe 55b4 4c3e
00000010: 2085 d53e 6d70 423e 7b70 91bf 3951 d0bf
00000020: 957e 20bf 3cf4 b43e 9792 86be 771b 99be
00000030: baf6 05bf 69f7 b0bf 9861 243d 78ff a23e
00000040: f6fc 013f eb89 25bf 1e55 493f df31 0cbe
00000050: e042 b13f c93a 3ebf b366 e5be d1ce 4ebe
00000060: 3e9f 1cbf 648d 8cbe caee 9d3e ad12 3f3f
00000070: 3dd3 85bd 24a1 bf3d 1337 b43e 51ae ba3e
00000080: 8313 ab3e bd21 503d d978 573e 0df2 81bf
00000090: de34 9c3f fa1b 7d3f fb0a 02be 27a3 a23e
000000a0: b88b 893e a5f7 54be 7f5c e4be 8463 10bf
000000b0: 0009 653e 8a09 e0bb 983f 2b3e 75ca 06be
000000c0: 4fca 83bd 16f3 bfbf bcbf 42be 18a8 f1bd
000000d0: 2f82 c43f 36d8 23bf 9a9c f03f a0cc 843f
000000e0: ab4c 7d3e 0e88 943e 2fd5 e9bc 21c4 c03e
000000f0: f279 0abf 91d3 893f 8707 793f ead3 c43e
00000100: 73e9 89be 2e7b 0bbf 66f9 d63f 1e6d 9dbf
00000110: 5188 05be c140 f8bd fe61 38bf 1154 4bbf
00000120: 287b 873f d446 403f 035f 60bf 4e80 583e
00000130: 9d12 aabe 3c7b 76be 3d02 11bf 5c54 993d
00000140: 7505 6dbf 4a35 e1be 4ff1 28bd 896f 693e
00000150: f9d3 6f3f 85f9 99be 6138 4bbe c1da 2a3e
00000160: 1c62 8fbe 859e 87bf d68a a63f 4b0e a33e
00000170: 259a a5be c818 833d a348 88be aeaf d03e
00000180: 33a2 53bf ab51 d0bd 487d e2bf 57bc a3be
00000190: 8b8d e2bd 2c0a a23f dd52 fbbe baf7 44bf
000001a0: 1937 0cbc 9f5d d1be 07d2 a7be bbda ac3e
000001b0: 8d1b d23e 5cb1 97bf e777 72bd fd6a 3fbe
000001c0: 254a bdbe f2c3 083f f2c1 0bbe 2e70 48bf
000001d0: 2a0d 4bbf c056 0bbf 301f c43e babc 01bf
000001e0: 517a ee3e b352 813e a3ec 2ebc 97df 0d3e
000001f0: 8202 d5be 3193 37bf 6d75 50be 3dfe 4fbf
00000200: 29ea cbbf 557f 0abe 8c1d 2abe afcc 0dbf
00000210: f417 44be 7afe 753f 1b09 a43d 3d8e 5abe
00000220: 2234 053f a6b8 523f 4f72 2c3f f3de 633f
00000230: 837d 423e 3ad8 ed3e f3b5 7b3f bc7e b5bf
00000240: dc8a 843e 9ec1 f1be bc16 b83e 6713 14bf
00000250: a37b b83e 5d40 e33e 2887 61bf ed89 a53e
00000260: e6f5 b43f a982 15bf b0e9 a63e 3bb6 a3bd
00000270: 2ee1 7b3f d0de 87bf f1ff 8b3e 2080 d5be
00000280: 0ef0 2bbf 45fa e7be e2c2 4ebf 01c8 9dbe
00000290: 4d20 8bbf 9652 203e 326a e63d 75d5 983e
000002a0: 6e9d ebbe 77a0 e9be 870b a93f e1c9 edbe
000002b0: 1c9c 6e3f eb79 1dbe 1c55 49be 6456 babd
000002c0: c18f 203e 68b2 ea3d b4f1 81bf 9e52 b6bf
000002d0: 1c4b 613f a629 51bd 56e1 b03d 2c85 bf3d
000002e0: 8bf0 b53e 0653 04bf eef7 9fbf ef3a 9abe
000002f0: 9344 203f c7f1 bdbd 484d a5be 0dc5 0ebe
00000300: 62a6 113f e051 b63c 2be5 e8bd 60f5 b4bd
00000310: 241d 3b3f 0a9b 85bf 004c aa3f c71f 6bbf
00000320: ae4a 22be 15c5 91be d586 b8bc 86ce b0be
00000330: 0829 99bf 3c45 05bf 1d5c b23f 6e24 50be
00000340: e57c ab3e ac75 193f 3a5f e23f a0f1 353f
00000350: 3b85 b63e bda1 233e 3fc4 82bd b9f5 84bf
00000360: 6921 823f b26b 46bf a9e7 62be 220e 923d
00000370: 441d cabe 9c84 713d 4664 2dbf 133e 2740
00000380: aea1 74bf b973 a93e a11b 49bf 64ad 943e
00000390: 53ce 1f3e 6655 343f 46e9 a43e e2b0 693e
000003a0: 366f 9fbe 3595 df3e 6851 f83f 380b cc3d
000003b0: 48ea 633f b069 663d 4a52 aebd bed3 34be
000003c0: 83fb 07bf 1c48 1a3e a191 f5bf e03c 0cbf
000003d0: 3825 253e 1ac9 b73d 65e6 513f d999 15bf
000003e0: 93d4 c1bd 68b1 ad3d 0127 553f 62b6 4ebf
000003f0: b862 bd3f 5dba b7be 8b9a 70bf 7d7f 6fbe

l1.bias f4 [400]
-0.9278017 -1.609119 -1.9017951 -1.0674373 -1.6768191 -1.2323653 -1.2859602 0.22754583
-1.2388731 -0.48158163 -1.8117883 -0.5480123 -1.6469258 -1.0487846 -1.2501065 -0.8866794
-0.10999376 -1.3763628 0.106342584 -0.11025665 -1.5719498 -1.7864516 -0.9195736 -1.1794045
-0.35405844 -1.1729378 -0.5070769 -1.3076642 -0.67896163 -0.7982977 0.13126145 -0.7853613
-0.6846624 -0.71924144 -0.8963933 -1.3053291 -0.84662366 -0.6147039 -0.76469797 -0.49765858
-0.549764 -0.7723611 -0.7763367 -0.5572371 -1.1260424 0.47968367 -0.39991215 0.054826945
-1.2622529 -1.021124 -0.8233924 -1.5384878 -0.80850923 -0.18751825 -0.53570724 -1.2390134
-1.1825035 -0.4015273 -1.1109926 -1.2777073 -1.3208063 -0.72322565 -0.3190809 -0.61224914
0.56516665 -1.5377307 -0.5232433 0.8324035 -0.8521556 -0.78946364 -1.1390866 -0.9218189
-1.2881963 -1.7555877 -0.9802422 -0.42085817 -1.0084355 -1.450333 -1.0817538 -0.8206409
1.5486653 -0.15916136 -0.46428913 -1.530325 -1.0769002 -1.4279718 -0.18272358 -0.96762633
-1.7505132 -0.40601626 -0.8966186 -0.45591015 -1.5626854 -1.1292307 0.36936522 -0.43601424
-1.4826381 -1.2148001 -0.7915144 -1.1708324 -1.4472214 0.22614703 -0.6754161 -0.71474737
-0.19678947 -0.9518301 -1.4374839 -1.0990515 -0.94137514 -1.1164055 -1.0506064 -1.4742923
0.17523341 -0.887177 -1.1530071 -0.3518501 -0.47632763 -1.4011668 -0.96630466 -1.2296888
-0.69124895 -0.38278344 -0.9780986 -0.42884937 -1.1659493 -1.5869526 -0.6788268 -1.4066014
-1.1726986 -0.902578 -1.653254 0.9863231 -1.0530651 -1.3271011 -0.97832423 -1.3214251
-0.15025826 -0.34043342 -0.9621949 -1.9788733 -0.9442482 -1.400843 -0.5902065 -0.7183962
0.2670349 -0.26093817 -0.88462216 -0.88504386 -0.99019396 -1.2306837 -1.117651 -1.3252804
-1.0483685 -0.64730644 -0.6736443 -0.9473639 -1.0050865 -0.36162955 -0.66689694 -1.6936353
-0.26835576 -0.90377134 -0.51773715 -0.74747086 -1.517711 -1.3439375 -0.14179845 -0.09733038
-1.2717073 -1.75423 -1.3321232 -0.8464993 -1.41867 -0.50546 -1.0211229 -1.3311626
-1.2034882 -1.239553 -0.38342324 -1.3456618 -0.6865519 -1.3477608 1.9336851 0.46949506
-0.7973786 -1.1650064 -0.56099814 -0.7690003 -1.0752778 -0.017810006 0.11843186 -1.018827
-1.1727977 -1.1018273 -0.468672 -0.6150435 -0.09962162 -1.7081934 -0.49909464 -1.0285807
-0.6020936 -0.89913553 -1.1156785 -0.60297126 -0.62994766 0.21034181 -1.0407583 -1.0769521
-1.2635634 -1.5526967 -0.5639123 -0.2268659 -1.3598378 -0.9536982 -0.44395146 -0.7145887
-0.54560786 -0.7108932 -1.1892098 -0.8084399 -1.3524084 -0.8070703 -0.2132176 -1.4002848
-1.0235727 -0.8136228 -0.5206543 -0.6611493 -0.76862144 -0.91300863 -1.541767 -1.0017813
-1.1753064 -1.6813273 -1.2620306 -0.17324804 -0.7159238 -1.2109946 -0.94402856 -1.5157468
-0.76520437 -0.56342894 -0.7580882 -0.47125384 -0.68908167 0.11603847 -1.2713807 -1.3262625
-1.5796692 -1.760528 -1.1740923 -0.20312306 -0.63120914 -1.1693987 -0.5342565 -1.0108551
00000000: 6a84 6dbf 9df7 cdbf 066e f3bf c9a1 88bf
00000010: 02a2 d6bf 25be 9dbf 589a a4bf c601 693e
00000020: 6593 9ebf de91 f6be aee8 e7bf 894a 0cbf
00000030: 77ce d2bf 933e 86bf 7d03 a0bf 6cfd 62bf
00000040: 6944 e1bd a82c b0bf 24ca d93d 3dce e1bd
00000050: a735 c9bf 72aa e4bf 2d69 6bbf baf6 96bf
00000060: 2647 b5be d322 96bf cbcf 01bf 8a61 a7bf
00000070: 6ed0 2dbf 3d5d 4cbf 6769 063e 700d 49bf
00000080: 0946 2fbf 3520 38bf 087a 65bf 0615 a7bf
00000090: 54bc 58bf 3c5d 1dbf 3fc3 43bf 1bcd febe
000000a0: 55bd 0cbf 75b9 45bf 01be 46bf 17a7 0ebf
000000b0: 2822 90bf 1999 f53e 49c1 ccbe 3892 603d
000000c0: 8191 a1bf 31b4 82bf d8c9 52bf 2bed c4bf
000000d0: 76fa 4ebf c904 40be 1c24 09bf fe97 9ebf
000000e0: 465c 97bf fc94 cdbe 0135 8ebf ea8b a3bf
000000f0: 2e10 a9bf 5125 39bf 925e a3be 5cbc 1cbf
00000100: c3ae 103f 5cd4 c4bf 46f3 05bf 6518 553f
00000110: df26 5abf 4a1a 4abf 97cd 91bf 53fc 6bbf
00000120: 9ee3 a4bf 19b7 e0bf 27f1 7abf b97a d7be
00000130: 6a14 81bf 83a4 b9bf e976 8abf 8615 52bf
00000140: aa3a c63f 32fb 22be 4eb7 edbe b1e1 c3bf
00000150: ded7 89bf c8c7 b6bf e41b 3bbe 5cb6 77bf
00000160: d110 e0bf 5de1 cfbe cc88 65bf 0e6d e9be
00000170: 1306 c8bf a28a 90bf 701d bd3e 423d dfbe
00000180: 16c7 bdbf 927e 9bbf b0a0 4abf d6dd 95bf
00000190: 8d3e b9bf 1693 673e 12e8 2cbf aff9 36bf
000001a0: 2e83 49be 23ab 73bf 79ff b7bf b8ad 8cbf
000001b0: f6fd 70bf 60e6 8ebf 457a 86bf 9cb5 bcbf
000001c0: 6370 333e 081e 63bf bd95 93bf b225 b4be
000001d0: 37e1 f3be 6f59 b3bf be5f 77bf 7166 9dbf
000001e0: b1f5 30bf 31fc c3be ab64 7abf 2592 dbbe
000001f0: d43d 95bf 4321 cbbf 98c7 2dbf 840b b4bf
00000200: fd1a 96bf 5a0f 67bf d49d d3bf ac7f 7c3f
00000210: d6ca 86bf 73de a9bf 7573 7abf 7524 a9bf
00000220: 4ddd 19be 4a4d aebe 6852 76bf b84b fdbf
00000230: 40ba 71bf d34e b3bf c617 17bf d0e8 37bf
00000240: ccb8 883e b099 85be 9976 62bf 3c92 62bf
00000250: 5a7d 7dbf 0b87 9dbf 300f 8fbf caa2 a9bf
00000260: f030 86bf e0b5 25bf f473 2cbf 7186 72bf
00000270: ada6 80bf 8227 b9be c2b9 2abf 0bc9 d8bf
00000280: ed65 89be 8f5d 67bf 6c8a 04bf 405a 3fbf
00000290: 5b44 c2bf 2506 acbf 9d33 11be 2655 c7bd
000002a0: 4ec7 a2bf 9c8a e0bf 0383 aabf 2eb4 58bf
000002b0: fb96 b5bf d465 01bf 28b4 82bf 8963 aabf
000002c0: e70b 9abf aca9 9ebf 0d50 c4be a53e acbf
000002d0: dec1 2fbf 6d83 acbf fe82 f73f a861 f03e
000002e0: 0121 4cbf ee1e 95bf 939d 0fbf 34dd 44bf
000002f0: b4a2 89bf 4ae6 91bc 678c f23d ec68 82bf
00000300: 3c1e 96bf ad08 8dbf c7f5 efbe 7e73 1dbf
00000310: 6b06 ccbd 15a6 dabf 5589 ffbe 88a8 83bf
00000320: ce22 1abf bf2d 66bf 8ece 8ebf 535c 1abf
00000330: 4044 21bf d863 573e 9137 85bf 91d9 89bf
00000340: 72bc a1bf c4be c6bf 8e5c 10bf 894f 68be
00000350: 2a0f aebf 9125 74bf 9b4d e3be 49ef 36bf
00000360: f5ac 0bbf 19fd 35bf 0738 98bf ebf5 4ebf
00000370: b81b adbf 299c 4ebf b755 5abe 883c b3bf
00000380: 6e04 83bf 9549 50bf 9a49 05bf 1541 29bf
00000390: 60c4 44bf efba 69bf 9f58 c5bf 5f3a 80bf
000003a0: 7170 96bf bc35 d7bf 388a a1bf ef67 31be
000003b0: c846 37bf df01 9bbf dbab 71bf fe03 c2bf
000003c0: 6fe4 43bf e13c 10bf 1112 42bf 2f48 f1be
000003d0: a867 30bf 94a5 ed3d 9abc a2bf f8c2 a9bf
000003e0: 9a32 cabf fb58 e1bf a848 96bf 7eff 4fbe
000003f0: ec96 21bf dbae 95bf 09c5 08bf b363 81bf

l2.weight f4 [300, 400]
-0.2053723 -0.34878543 0.16336071 0.3401365 -0.905949 0.14570901 -0.16708058 -1.1150914
0.006615777 -0.782143 0.20084599 -0.18437487 0.18659347 -0.13368587 0.5088998 0.20493302
-0.7236849 0.6606483 0.89635473 -0.1645512 -0.31190807 0.066160575 -0.024197217 -0.8536986
0.5184587 0.12180693 -0.5580001 -0.20921122 -1.3019255 0.4649512 -0.8833345 0.09626061
-0.30935666 -0.8266549 -0.30355424 -0.09930277 0.30211335 -0.2386229 -0.58420646 0.23853059
-0.5848507 -0.03702438 0.042885914 -0.058387835 0.43750143 -1.0378526 0.08884486 0.22586644
0.037213285 -1.1113031 -0.6756362 0.5521679 0.15583926 0.013087503 0.2957025 -0.7154723
-0.7551699 -0.53419095 -0.5485881 -0.11093285 0.25324148 -0.3326338 -0.5370808 -0.13252562
-0.31507897 -0.2618739 -0.17373715 -0.8191699 0.40099418 -0.12745914 -0.46882755 0.21222985
-0.38890666 0.20126317 0.28243515 -0.080899864 -0.90561444 -0.041742828 -0.2517523 0.07230188
-1.1791191 0.16973 -0.030425735 -0.28069374 -0.11265209 -0.07301291 -0.5276617 -0.25853944
-0.20133254 -0.15717144 -0.048165288 -0.72340506 0.10095159 -0.48493907 -0.19149967 0.43212214
-0.09375379 0.20530604 -0.01977193 -0.37392998 0.394451 -0.9798701 -0.7050846 -0.5416106
-0.8162832 -0.31768483 -0.7928694 0.27382287 -0.19175914 0.12827261 0.65077627 0.9473907
0.2671036 -0.2226068 -0.5236712 -0.14711137 -0.37333688 0.28408527 -0.5628751 0.22388302
-0.40322325 -0.117010415 0.23070292 -0.014674468 0.077756755 -0.11066318 -0.10654251 -0.51845604
-0.256658 0.043823685 0.26417267 -0.25334978 -0.58069885 0.11996146 -0.24092448 -0.041970223
-0.72695583 -0.019975772 0.20791401 -0.048498936 0.24144077 0.056475125 -0.18545224 -0.45882195
-0.27973136 0.33140042 0.07687001 -0.18175039 0.29855305 -0.2853197 -0.07123051 -0.66414547
-0.22017746 -0.23968172 0.2394309 0.73032486 0.43823615 -0.09289878 -0.46753177 0.5743576
-0.32162172 0.023858672 -0.23039295 -0.81282073 0.09103557 -0.47045982 0.63202804 -0.6907102
-0.47320268 0.051694132 0.26457557 -0.12772381 -0.09848825 -0.02423257 -0.44659021 0.20386584
-0.50146455 -0.1544246 -0.7741812 -0.3948141 -0.21164721 -0.4768626 -1.3250293 0.08398262
-0.3790001 0.24589129 -0.033124745 -0.32634443 -0.2983249 -1.515355 0.297024 -0.14897035
-0.09358378 -0.6985442 -0.13621163 -0.49668208 -0.017005824 0.7487502 0.0018781817 -0.05437311
-0.25658634 0.21936159 -0.30269444 0.12855077 -0.4070954 0.2207313 -0.06806102 0.18072781
-0.23539527 0.66301656 -0.015635472 0.52912176 -0.30442443 -0.07987769 0.19649908 0.5518831
0.09113642 -1.0113152 -0.10569255 -0.075973995 -0.27475032 -0.5400615 0.098471284 0.12469435
-0.77755815 -0.23690285 -0.15639208 -0.4528043 -0.072706334 -0.11713525 0.073859096 0.3544335
0.19636083 -0.35063204 -0.09770897 -0.19634688 -0.107358 -0.02709145 -0.28805283 -0.37691137
0.2412296 0.31820795 0.25167575 -0.09990272 -0.901619 0.56054205 -0.098083846 -0.19897857
0.15894867 0.72718954 -0.048191685 -0.49707717 -0.6211025 -0.8491973 -0.41966826 -0.7153237
00000000: 1e4d 52be 0194 b2be 0848 273e 5f26 ae3e
00000010: 46ec 67bf be34 153e 2c17 2bbe 51bb 8ebf
00000020: 29c9 d83b 863a 48bf 92aa 4d3e c4cc 3cbe
00000030: 5c12 3f3e f3e4 08be 4247 023f f6d9 513e
00000040: 6a43 39bf 3f20 293f 8177 653f 1c80 28be
00000050: 6ab2 9fbe 327f 873d 3e39 c6bc fe8b 5abf
00000060: b6b9 043f e975 f93d 18d9 0ebf 773b 56be
00000070: 7fa5 a6bf 150e ee3e 3622 62bf 4824 c53d
00000080: ff63 9ebe a89f 53bf 766b 9bbe 405f cbbd
00000090: 9aae 9a3e 9059 74be 8e8e 15bf 5d41 743e
000000a0: c7b8 15bf e0a6 17bd 24a9 2f3d 1528 6fbd
000000b0: 3000 e03e 5bd8 84bf 4bf4 b53d 8849 673e
000000c0: f56c 183d 2e3f 8ebf 7ef6 2cbf e05a 0d3f
000000d0: 5494 1f3e f76c 563c 5166 973e 3129 37bf
000000e0: d152 41bf bdc0 08bf 4570 0cbf c330 e3bd
000000f0: dea8 813e fa4e aabe 217e 09bf ccb4 07be
00000100: 0852 a1be 5614 86be 27e8 31be 1eb5 51bf
00000110: 1c4f cd3e a684 02be 2a0a f0be c852 593e
00000120: c61e c7be ef17 4e3e 579b 903e d4ae a5bd
00000130: 59d6 67bf 87fa 2abd ade5 80be 0213 943d
00000140: 60ed 96bf b3cd 2d3e 643f f9bc 17b7 8fbe
00000150: 24b6 e6bd cb87 95bd d614 07bf 485f 84be
00000160: 1e2a 4ebe 8df1 20be f748 45bd 1331 39bf
00000170: b5bf ce3d ef49 f8be 7d18 44be 1d3f dd3e
00000180: fd01 c0bd bf3b 523e bef8 a1bc c073 bfbe
00000190: 7bf5 c93e c4d8 7abf 6d80 34bf fea6 0abf
000001a0: f0f7 50bf 96a7 a2be 7df9 4abf 8332 8c3e
000001b0: 825c 44be e559 033e 4699 263f 3288 723f
000001c0: cec1 883e 09f3 63be 510f 06bf 5da4 16be
000001d0: 0326 bfbe a073 913e 9518 10bf 9741 653e
000001e0: 4773 cebe 28a3 efbd 633d 6c3e 2e6d 70bc
000001f0: ef3e 9f3d 61a3 e2bd f632 dabd 89b9 04bf
00000200: ad68 83be 7780 333d a441 873e 10b7 81be
00000210: aea8 14bf 5bae f53d e8b4 76be f8e8 2bbd
00000220: c719 3abf 3ba4 a3bc 69e7 543e d2a6 46bd
00000230: 403c 773e 7652 673d 31e7 3dbe b6ea eabe
00000240: f338 8fbe 51ad a93e 066e 9d3d c61c 3abe
00000250: f2db 983e 6c15 92be 4de1 91bd 7005 2abf
00000260: 3376 61be 206f 75be 602d 753e 92f6 3a3f
00000270: 7d60 e03e b741 bebd 5360 efbe 1a09 133f
00000280: 9aab a4be 4373 c33c 21ec 6bbe 0515 50bf
00000290: db70 ba3d 1ce0 f0be 97cc 213f 62d2 30bf
000002a0: 9f47 f2be 3abd 533d 7376 873e 08ca 02be
000002b0: 35b4 c9bd 6283 c6bc 79a7 e4be 35c2 503e
000002c0: fb5f 00bf 7b21 1ebe bd30 46bf 1325 cabe
000002d0: 0cba 58be 5627 f4be 8f9a a9bf 14ff ab3d
000002e0: 4d0c c2be edca 7b3e d0ad 07bd 9e16 a7be
000002f0: 0bbe 98be 27f7 c1bf 8813 983e af8b 18be
00000300: daa8 bfbd cbd3 32bf 107b 0bbe 1d4d febe
00000310: cc4f 8bbc 18ae 3f3f 522d f63a 57b6 5ebd
00000320: 495f 83be 53a0 603e c4fa 9abe d0a2 033e
00000330: cf6e d0be 6307 623e 9363 8bbd b610 393e
00000340: 750b 71be 74bb 293f f615 80bc 8674 073f
00000350: 85dd 9bbe ea96 a3bd 0e37 493e 3648 0d3f
00000360: bba5 ba3d c772 81bf 5675 d8bd 4198 9bbd
00000370: 13ac 8cbe 7841 0abf 50ab c93d c05f ff3d
00000380: 0d0e 47bf a996 72be 3f25 20be f7d5 e7be
00000390: 0fe7 94bd 9be4 efbd 7043 973d 4f78 b53e
000003a0: d012 493e 0b86 b3be a41b c8bd 280f 49be
000003b0: 83de dbbd e3ee ddbc a97b 93be 87fa c0be
000003c0: e404 773e 27ec a23e a5db 803e cc99 ccbd
000003d0: 81d0 66bf af7f 0f3f 2fe0 c8bd 0ac1 4bbe
000003e0: 71c3 223e 1829 3a3f a564 45bd e680 febe
000003f0: 9300 1fbf ff64 59bf c2de d6be 741f 37bf

l2.bias f4 [300]
-0.33774954 0.3782024 -0.08847363 -0.055390686 -0.35631055 -0.2201338 -0.7634243 -0.065108426
-0.52195174 -0.063712046 -0.09917635 -0.07067894 0.072067596 -0.07547165 -0.027332604 -0.062240485
-0.23460697 0.25690392 -0.12592028 -0.068915546 -0.26038682 -0.1005827 -0.07592052 -0.78865826
-0.2539898 -0.040494837 -0.8927075 -0.049646243 -0.035970096 -0.23648226 0.15799952 -0.06372015
-0.38399193 -0.17810269 -0.06546238 -0.07873977 -0.06255519 -0.12503564 0.06323788 -0.45520583
-0.8983405 -0.41118395 -0.1302262 -0.51360095 0.0036492462 -0.65550584 -0.52631015 -0.064509876
-0.10569011 -0.06382142 -0.06856274 -0.12805426 0.008221417 0.116654426 0.049515963 -0.21228272
-0.13587336 -0.09048314 -0.68041867 -0.22460283 -0.45562056 -0.31053025 -0.004170525 -0.034034163
0.36634046 -0.02597455 0.07747461 -0.14070177 -0.39492244 -0.55395573 -0.25474113 -0.09666512
-0.14088798 -0.47417897 -0.06168586 -0.025988124 -0.09660036 -1.0939684 -0.074134275 -0.08659807
-0.52884674 -0.7549993 -0.048293464 -0.35421535 -0.16162384 -0.28051415 -0.06394666 -0.023351371
-0.44847146 -0.26965076 -0.062774256 0.24497738 -0.38374507 -0.08776887 0.16507156 -0.08591912
-0.29181093 -0.14774004 -0.35217357 0.1506619 -0.2086534 -0.31206217 -0.12912098 -0.41821906
-0.08378081 -0.23613742 -0.040556446 -0.34075528 -0.03718509 -1.1489178 -0.92777634 -0.10786631
-0.041408636 -0.47926947 -1.4813643 -0.15965216 -0.5344144 -0.049280025 -0.11269341 -0.7167736
-0.32975692 -0.094406 -0.16411613 -0.3902018 -0.036613803 0.23557451 -0.14639246 -0.388889
-0.60021526 -0.10010651 0.43244818 -0.05528415 -0.8501523 -0.10458205 0.2597937 -0.227612
0.06675403 -1.0208565 -0.34986475 -0.24313341 -0.30333334 0.0011322054 -0.34656683 -0.49564853
-0.10665501 -0.0535221 -0.003866861 -0.68682754 -0.11432155 -1.0309569 -0.029122414 -0.1830515
-0.07628979 -0.5921667 -0.087751314 -0.5566486 -0.09848742 -0.066165306 -0.5027366 -0.07897662
-0.6184493 -0.11910474 -0.08054261 -0.2714793 -0.12808913 -0.45794678 -0.038364332 -0.104132645
-0.4316712 -0.8771819 -0.8815589 -0.19910784 -0.36646014 -0.018102946 -0.09296664 -0.41718718
-0.2880275 -0.0777417 -0.119614854 -0.29883525 -0.6511983 -0.46229294 -0.1062875 -0.32164794
-0.9055334 -0.059418414 0.5486899 -0.25276074 -0.12058243 -0.027150843 -0.47863084 -0.88571763
-0.36767736 -0.04237838 -0.13699986 -0.021557897 -0.4096853 -1.0234575 -0.47443637 -1.1419103
-0.20506313 -0.055370525 -0.051975336 -0.16235997 -0.03354806 -0.735621 -0.06873731 -0.06791333
-1.1080393 -0.08673901 -0.38966566 -0.08061568 -0.107393265 0.0126148835 -0.103111744 -0.06055356
-0.06640167 -1.0058047 -0.22094887 -0.86996216 -0.024795637 -0.9611628 0.085594036 -1.089004
0.1600706 -0.12971392 -0.65792876 -0.02635164 0.0018225423 -0.87733734 -0.055666316 -0.1811933
-0.25339654 -0.07880832 -0.014157961 -0.08211063 -0.46408832 -0.5342348 -0.018825117 -0.74124604
-0.034233306 -0.11329866 -0.11256124 -0.036140665 -0.50499266 -0.9821233 -0.3048268 0.031397533
-0.11389585 -0.3042132 -0.85752004 -0.10691642 -0.63514733 -0.7817219 -0.025935033 -0.03389797
00000000: 82ed acbe bfa3 c13e aa31 b5bd 58e1 62bd
00000010: 566e b6be c16a 61be c66f 43bf 9157 85bd
00000020: a19e 05bf 767b 82bd f81c cbbd 1fc0 90bd
00000030: 2d98 933d e190 9abd a0e8 dfbc e1ef 7ebd
00000040: cf3c 70be e988 833e 3ff1 00be 9823 8dbd
00000050: 6c51 85be 4dfe cdbd 387c 9bbd 82e5 49bf
00000060: f30a 82be eadd 25bd 7b88 64bf dc59 4bbd
00000070: 6155 13bd 6828 72be a0ca 213e b67f 82bd
00000080: 979a c4be 8d60 36be 2411 86bd 5142 a1bd
00000090: ef1c 80bd 5809 00be dd82 813d bd10 e9be
000000a0: a5f9 65bf b486 d2be 045a 05be 5a7b 03bf
000000b0: 3128 6f3b 3bcf 27bf 43bc 06bf c11d 84bd
000000c0: 0e74 d8bd ceb4 82bd 9f6a 8cbd a820 03be
000000d0: 1fb3 063c 84e8 ee3d 40d1 4a3d a460 59be
000000e0: 6322 0bbe 394f b9bd eb2f 2ebf 49fe 65be
000000f0: 1947 e9be d2fd 9ebe e6a8 88bb 6867 0bbd
00000100: fa90 bb3e 94c8 d4bc 02ab 9e3d 2014 10be
00000110: 4633 cabe 0bd0 0dbf 6e6d 82be 5df8 c5bd
00000120: f044 10be 96c7 f2be 50aa 7cbd 0ce5 d4bc
00000130: 69d6 c5bd 2807 8cbf b6d3 97bd 545a b1bd
00000140: 8062 07bf a247 41bf 5ecf 45bd b75b b5be
00000150: b880 25be 8d9f 8fbe 77f6 82bd 604b bfbc
00000160: 0d9e e5be aa0f 8abe ca8f 80bd 5adb 7a3e
00000170: 3c7a c4be 2ac0 b3bd 8508 293e 5df6 afbd
00000180: 3e68 95be 2a49 17be 1850 b4be 1d47 1a3e
00000190: 3da9 55be 9dc6 9fbe 4a38 04be cf20 d6be
000001a0: 4695 abbd 02ce 71be 841e 26bd 7a77 aebe
000001b0: 654f 18bd bd0f 93bf c082 6dbf 03e9 dcbd
000001c0: 1a9c 29bd cf62 f5be 589d bdbf db7b 23be
000001d0: 62cf 08bf dad9 49bd cdcb e6bd 7a7e 37bf
000001e0: e6d5 a8be ef57 c1bd 0f0e 28be 88c8 c7be
000001f0: 5bf8 15bd 723a 713e e8e7 15be 761c c7be
00000200: b5a7 19bf a404 cdbd d969 dd3e a271 62bd
00000210: 95a3 59bf 1d2f d6bd ae03 853e 1f13 69be
00000220: 56b6 883d 6dab 82bf 7921 b3be f7f7 78be
00000230: 824e 9bbe 8266 943a 3571 b1be a5c5 fdbe
00000240: f16d dabd fd39 5bbd 2a6b 7dbb eed3 2fbf
00000250: 6b21 eabd 65f6 83bf 2192 eebc da71 3bbe
00000260: d23d 9cbd 3d98 17bf f6b6 b3bd 8680 0ebf
00000270: c6b3 c9bd ad81 87bd 59b3 00bf 7fbe a1bd
00000280: b152 1ebf 30ed f3bd 86f3 a4bd 56ff 8abe
00000290: cc29 03be 0078 eabe eb23 1dbd 7f43 d5bd
000002a0: 0204 ddbe fe8e 60bf d8ad 61bf ede2 4bbe
000002b0: aaa0 bbbe a14c 94bc 4b65 bebd 8f99 d5be
000002c0: 5778 93be 0a37 9fbd a2f8 f4bd ef00 99be
000002d0: efb4 26bf a9b1 ecbe 43ad d9bd 0aaf a4be
000002e0: 09d1 67bf b960 73bd f176 0c3f db69 81be
000002f0: ecf3 f6bd 726b debc 1a0f f5be 64be 62bf
00000300: 3540 bcbe f494 2dbd b149 0cbe 309a b0bc
00000310: 46c2 d1be a800 83bf 53e9 f2be 1e2a 92bf
00000320: 12fc 51be 34cc 62bd 17e4 54bd b141 26be
00000330: b169 09bd a851 3cbf 26c6 8cbd 2516 8bbd
00000340: 3bd4 8dbf 39a4 b1bd 4282 c7be d519 a5bd
00000350: 00f1 dbbd a8ae 4e3c 402c d3bd 0207 78bd
00000360: 99fd 87bd 35be 80bf 6c40 62be d7b5 5ebf
00000370: 3820 cbbc c40e 76bf ed4b af3d 7c64 8bbf
00000380: 8ce9 233e bad3 04be 056e 28bf 65df d7bc
00000390: 5fe2 ee3a 2e99 60bf 5d02 64bd bd8a 39be
000003a0: 31bd 81be 4266 a1bd cbf6 67bc 9e29 a8bd
000003b0: fc9c edbe 9dc3 08bf 2237 9abc 4dc2 3dbf
000003c0: 3938 0cbd 2109 e8bd 8286 e6bd 3c08 14bd
000003d0: 3347 01bf 6f6c 7bbf 4212 9cbe b39a 003d
000003e0: 3a42 e9bd d5c1 9bbe 6f86 5bbf fff6 dabd
000003f0: 0499 22bf ed1e 48bf b575 d4bc 99d8 0abd

l3.weight f4 [4, 300]
-0.6367431 -0.5029299 -0.018363878 -0.009079665 0.07994674 -0.52264667 -0.54768556 -0.03469068
-0.13667037 0.00028497036 0.011100902 -0.009169048 -0.23344795 0.009234082 -0.020084266 -0.0049932427
-0.26628906 -0.21321748 -0.15459387 0.046714954 -0.10850819 0.0050265146 -0.08027357 -0.44101083
0.08251532 -0.0007084133 0.34022915 -0.067819454 0.02890653 -0.10556796 -0.21474424 -0.003687155
0.50908744 -0.3162813 0.025302751 -0.018295819 0.02883582 0.005172758 -0.261485 0.21133405
-0.20538786 0.0933532 -0.015610133 -0.3128218 0.029123247 0.10602387 0.38403478 -0.02491018
0.00083369936 -0.078626454 0.7023138 -0.005989985 0.089654654 0.0070996387 -0.10794757 -0.30257785
0.005714983 -0.009990205 -0.4436224 0.04194415 -0.36290604 0.33489954 0.031467263 0.0383414
-0.24350229 -0.25473797 0.3940935 -0.0019360863 -0.49773145 0.50364554 0.08572223 0.008847445
-0.08748846 -0.42847642 0.031314828 0.018457165 -0.00034227822 1.0820882 0.020730963 0.0040203463
0.017529825 -0.29599637 -0.022651942 0.18768667 -0.51712006 0.13055366 -0.0028564648 0.0033060976
0.77183706 0.44181448 0.019240454 -0.0729439 0.18619779 0.014811673 -0.73634434 0.021732751
0.2895603 -0.23200922 -0.6676746 0.6723893 0.67171216 -0.34893057 -0.12430232 -0.2795254
0.004920805 0.48826703 0.027039634 0.04695834 0.017452424 0.6983966 -0.028372273 0.00037255665
-0.026876751 -0.05093613 -0.14989807 0.028285421 -0.38803577 0.15683882 -0.0078827245 -0.32631937
-0.08953333 0.017661214 0.2827963 0.44652316 0.04715608 0.398462 -0.27864683 -0.58465976
-0.112199716 -0.050061956 -0.7596328 0.0108583495 0.2437957 0.14284174 -0.14952992 0.18886821
0.104936585 0.034991104 0.5769727 -0.6875052 -0.24173127 -0.0035435867 0.6112509 0.003644026
-0.04547135 -0.018417481 0.054269176 0.056477603 0.048494574 0.79842955 0.03808775 -0.5434168
0.15263 -0.5505839 -0.016297081 0.31000784 -0.034307715 0.43323582 0.7900627 -0.0016620879
0.0098905545 -0.5297188 -0.33477452 -0.029956609 -0.01015333 -0.65917295 -0.026206272 -0.0314929
0.13979651 0.15520096 -0.74951977 -0.2623191 -0.779198 0.033632938 -0.026273757 -0.24947342
0.21413505 0.036252484 0.68588775 -0.10057356 -0.10118314 -0.1078854 0.025644964 -0.030939497
0.13595393 0.039909236 -0.24940188 -0.18081918 -0.014285343 0.031739324 -0.39293775 -0.29509202
0.00042236 -0.11943709 -0.15981917 0.07231851 -0.23154804 0.62992305 -0.3389002 -0.33271727
-0.060825553 0.0317928 0.029734578 -0.3757969 0.0870696 0.41262895 -0.0021317073 0.03292779
-0.70253253 0.27045113 -0.24551664 0.0018090312 0.06674513 -0.108980305 -0.004741521 0.045181423
-0.11364438 0.2030602 0.0251201 -0.08869616 0.0542234 -0.087584935 -0.27913737 0.43442312
-0.17037003 -0.0040753107 0.027263349 -0.05196891 -0.40707532 0.06654975 -0.015295043 -0.09216253
0.16364816 0.1110185 0.041126333 -0.029277345 0.027855895 0.38146216 -0.0135431085 0.062200338
0.06402772 -0.06494131 -0.018284408 0.01577229 -0.14617321 0.05386856 -0.3936079 0.25453556
-0.42224875 0.623439 -0.57005477 0.026009291 0.26595074 -0.6592518 0.034201298 -0.0012003842
00000000: 9901 23bf 04c0 00bf d86f 96bc e0c2 14bc
00000010: 1ebb a33d 2ccc 05bf 1f35 0cbf d117 0ebd
00000020: 51f3 0bbe 1368 9539 8fe0 353c c639 16bc
00000030: fb0c 6fbe 8c4a 173c c287 a4bc 5b9e a3bb
00000040: 0a57 88be af55 5abe db4d 1ebe 2e58 3f3d
00000050: 8b39 debd 76b5 a43b 7866 a4bd 2ccc e1be
00000060: cbfd a83d d0b4 39ba 8432 ae3e ede4 8abd
00000070: 63cd ec3c 0434 d8bd eae5 5bbe 32a4 71bb
00000080: 8e53 023f 9fef a1be b747 cf3c 1de1 95bc
00000090: 1939 ec3c 3d80 a93b 5de1 85be f467 583e
000000a0: 3251 52be f62f bf3d a5c1 7fbc 2e2a a0be
000000b0: e093 ee3c 0b23 d93d 35a0 c43e 6f10 ccbc
000000c0: 9e8c 5a3a e806 a1bd d6ca 333f a347 c4bb
000000d0: dc9c b73d 16a4 e83b 9e13 ddbd 7ceb 9abe
000000e0: c144 bb3b f5ad 23bc 7a22 e3be a1cd 2b3d
000000f0: d2ce b9be f477 ab3e d1e3 003d df0b 1d3d
00000100: aa58 79be 046d 82be a0c6 c93e 47c4 fdba
00000110: a8d6 febe eaee 003f 238f af3d e0f4 103c
00000120: 262d b3bd 4361 dbbe fa43 003d 7b33 973c
00000130: ce73 b3b9 de81 8a3f fbd3 a93c 1cbd 833b
00000140: b59a 8f3c d68c 97be 9190 b9bc ef30 403e
00000150: fb61 04bf dcaf 053e 8733 3bbb 1dab 583b
00000160: 1d97 453f 8235 e23e 289e 9d3c 9d63 95bd
00000170: a2aa 3e3e a9ac 723c 1081 3cbf e208 b23c
00000180: 3f41 943e d393 6dbe b9ec 2abf b521 2c3f
00000190: 54f5 2b3f 07a7 b2be 3792 febd f41d 8fbe
000001a0: b43e a13b 23fe f93e 3982 dd3c 6357 403d
000001b0: 63f8 8e3c 1fca 323f f86c e8bc b553 c339
000001c0: a22c dcbc 67a2 50bd e17e 19be d4b6 e73c
000001d0: a0ac c6be 5b9a 203e 8b26 01bc 5513 a7be
000001e0: 405d b7bd 40ae 903c adca 903e af9e e43e
000001f0: bc26 413d 3603 cc3e ccaa 8ebe 43ac 15bf
00000200: f7c8 e5bd c40d 4dbd 4c77 42bf 38e7 313c
00000210: 94a5 793e 1b45 123e 5f1e 19be ab66 413e
00000220: fee8 d63d d552 0f3d 7cb4 133f 5700 30bf
00000230: 6788 77be 853b 68bb f07a 1c3f 9cd0 6e3b
00000240: 2b40 3abd 42e0 96bc 5b49 5e3d 0f55 673d
00000250: 3fa2 463d e165 4c3f e701 1c3d 5d1d 0bbf
00000260: 0a4b 1c3e 11f3 0cbf 7581 85bc 59b9 9e3e
00000270: 3f86 0cbd 16d1 dd3e 8d41 4a3f 6ada d9ba
00000280: fe0b 223c a79b 07bf 9167 abbe 9067 f5bc
00000290: 275a 26bc 8fbf 28bf 89ae d6bc b3fe 00bd
000002a0: d126 0f3e 00ed 1e3e 87e0 3fbf b04e 86be
000002b0: 8579 47bf b1c2 093d 103c d7bc f675 7fbe
000002c0: 3846 5b3e 7c7d 143d 5796 2f3f 83f9 cdbd
000002d0: 1b39 cfbd 05f3 dcbd 6315 d23c d474 fdbc
000002e0: 8237 0b3e de77 233d 3563 7fbe aa28 39be
000002f0: 120d 6abc 1801 023d 232f c9be 4d16 97be
00000300: 3370 dd39 6f9b f4bd a3a7 23be ba1b 943d
00000310: ee1a 6dbe a342 213f 5484 adbe eb59 aabe
00000320: 3724 79bd 2b39 023d ee95 f33c 7468 c0be
00000330: 8c51 b23d 1a44 d33e 1db4 0bbb 4adf 063d
00000340: 2cd9 33bf 9278 8a3e b768 7bbe 041d ed3a
00000350: acb1 883d 1131 dfbd c35e 9bbb 2810 393d
00000360: 62be e8bd 03ef 4f3e abc8 cd3c 55a6 b5bd
00000370: 5b19 5e3d bb5f b3bd 18eb 8ebe b56c de3e
00000380: 7b75 2ebe 2f8a 85bb 6357 df3c 5add 54bd
00000390: 2d6c d0be 3c4b 883d 0f98 7abc b5bf bcbd
000003a0: 6293 273e ab5d e33d 1674 283d 0bd7 efbc
000003b0: 0c32 e43c 024f c33e eae3 5dbc c8c5 7e3d
000003c0: f720 833d f3ff 84bd 2fc9 95bc e434 813c
000003d0: 6eae 15be 47a5 5c3d fa86 c9be 7c52 823e
000003e0: fd30 d8be b399 1f3f 1cef 11bf 7011 d53c
000003f0: b22a 883e bac4 28bf a916 0c3d 3656 9dba

l3.bias f4 [4]
0.008409429 -0.632821 0.0040472457 0.06723149
00000000: b4c7 093c 8f00 22bf c29e 843b aab0 893d
