TD3/saves/TDweak_actor.pth (torch, 518693 bytes, 6 tensors)

l1.weight f4 [400, 18]
0	0x3e8b96aa	0.27263385
1	0x3ebec576	0.37260026
2	0xbea6b09e	-0.32556623
3	0xbd4dfdf2	-0.05029101
4	0x3d8065cf	0.062694184
5	0xbd098fa0	-0.033584237
6	0xbf018f15	-0.5060895
7	0xbf6157f0	-0.88024807
8	0x3f2f9a66	0.6859497
9	0x3e9eaecd	0.30992737
10	0xbef9b5d7	-0.48771545
11	0xbead5e68	-0.3386109
12	0xbe732419	-0.23744239
13	0xbf7f7588	-0.99788713
14	0x3e4c87fd	0.1997375
15	0x3db898b6	0.09013502
16	0xbec689c2	-0.38776976
17	0x3ecf63bb	0.40505776
18	0xbe3c9cf7	-0.18419252
19	0x3dc89008	0.09793097
20	0xba4d1914	-0.00078238663
21	0xbd9dfd55	-0.07714335
22	0xbe98f1b7	-0.29871914
23	0x3c46fa21	0.012144596
24	0xbea76ed6	-0.3270175
25	0xbeef854e	-0.4678139
26	0x3efef37f	0.49795148
27	0xbe2ccc67	-0.16874848
28	0xbe1bdab8	-0.15220153
29	0xbe8516c4	-0.2599393
30	0xbd30458e	-0.043035083
31	0xbea509f3	-0.32234153
32	0x3dbbe4c3	0.09174492
33	0x3db10edf	0.086454146
34	0xbf137bcb	-0.5761077
35	0xbeee6aaf	-0.46565768
36	0x3e808492	0.25101143
37	0x3f148c1c	0.5802629
38	0x3f612ddf	0.8796062
39	0xbca0ebf9	-0.01964377
40	0x3d81a1fc	0.06329724
41	0xbe16699d	-0.14688726
42	0x3e344a80	0.17606544
43	0xbf710015	-0.9414075
44	0xbeac8abd	-0.336996
45	0xbed808e4	-0.42194283
46	0x3ee49aa0	0.4464922
47	0xbc3e3265	-0.011608695
48	0x3ebcc317	0.36867592
49	0xbf653f50	-0.8954973
50	0xbdbd9ed4	-0.0925881
51	0xbd324864	-0.04352607
52	0x3ea0a429	0.31375244
53	0xbcbf1cbf	-0.023329137
54	0x3f5ea63b	0.869724
55	0x3e39de66	0.18151245
56	0x3e039c05	0.12852485
57	0xbe45dd92	-0.19322804
58	0xbe94b8b6	-0.29047173
59	0x3dcd63cb	0.100287996
60	0xbda8ae1c	-0.08236334
61	0x3d9c2327	0.07623892
62	0x3f0a6c0a	0.54071105
63	0xbb0ad6cf	-0.0021185165
64	0x3e99bb8d	0.30025902
65	0xbf62ed54	-0.88643384
66	0x3f18c965	0.59682304
67	0xbdad1228	-0.08450729
68	0x3c72808a	0.014801154
69	0x3d7d6e4f	0.061872777
70	0xbe334c36	-0.17509541
71	0x3e5d4680	0.21608925
72	0x3eae7192	0.34071022
73	0x3f5b6f33	0.8571655
74	0x3eb16b3f	0.34652135
75	0x3ebdbf45	0.3705999
76	0xbe26d533	-0.16292267
77	0xbd319583	-0.043355476
78	0x3d4b4f76	0.049636327
79	0xbe8fbed1	-0.2807527
80	0xbccca428	-0.02498062
81	0x3e7cc30a	0.24683776
82	0xbe610c8b	-0.21977441
83	0xbdc0d8dd	-0.094163634
84	0x3f0614de	0.5237559
85	0xbda1921b	-0.078891955
86	0xbd71542c	-0.058918163
87	0x3e1fb812	0.15597561
88	0xbe76d03c	-0.24102873
89	0xbf3335b4	-0.7000382
90	0x3f204a0a	0.62612975
91	0x3d9fb6de	0.07798551
92	0x3ec07ddf	0.37596032
93	0x3e9b8fc9	0.30383137
94	0x3dbb57cf	0.091476075
95	0xbe3c2fc0	-0.1837759
96	0xbe9eefa1	-0.31042197
97	0x3e776d79	0.24162854
98	0xbe3f4e4a	-0.18682209
99	0x3c36c20b	0.011154662
100	0xbda06f4e	-0.0783373
101	0x3eef7a44	0.4677297
102	0x3e9d2324	0.30690873
103	0xbef806eb	-0.48442778
104	0x3d993366	0.074805066
105	0x3e4a4f20	0.19756746
106	0xbe123a2d	-0.14280005
107	0x3e7f207c	0.24914736
108	0xbdfc2877	-0.123124056
109	0xbf557e6c	-0.8339603
110	0x3e8ae247	0.2712576
111	0xbe7992ac	-0.24372357
112	0xbe25169d	-0.16121908
113	0x3e8d57ea	0.27606136
114	0x3e0cd15b	0.13751738
115	0xbe0ce4e0	-0.13759184
116	0x3e5b2272	0.21399859
117	0xbe7163c9	-0.23573221
118	0xbd6c0113	-0.057618212
119	0x3e0d18de	0.13779017
120	0x3f2946b1	0.6612349
121	0x3f18563a	0.5950657
122	0xbd6275a1	-0.05528796
123	0xbd124cbc	-0.03571771
124	0xbf182b4f	-0.59441084
125	0xbeac0427	-0.33596918
126	0xbea3238d	-0.3186306
127	0x3e31ff53	0.17382555
128	0xbf4ddb5b	-0.80412835
129	0xbe77f923	-0.24216132
130	0xbea47810	-0.3212285
131	0xbd8a21f2	-0.06744756
132	0xbea7b59b	-0.3275574
133	0x3edbe9bb	0.4295176
134	0x3ef4f938	0.4784639
135	0xbdd96679	-0.10615248
136	0x3e9abcaa	0.30222064
137	0x3f2070d0	0.6267214
138	0x3d94d0e6	0.07266407
139	0x3f3e43b9	0.74322087
140	0x3d759565	0.059956927
141	0x3eae0d83	0.33994684
142	0x3f8cc5c5	1.0997854
143	0xbf38aa4f	-0.7213487
144	0x3c919f44	0.01777614
145	0x3c3610b3	0.01111238
146	0x3d6c702e	0.05772417
147	0x3d20c7fa	0.039253213
148	0x3d7b0d0f	0.06129175
149	0x3e4337a5	0.19064195
150	0xbf22789a	-0.63465273
151	0xbf35f2f4	-0.7107384
152	0x3f42dc4b	0.7611739
153	0x3e09f1df	0.13471173
154	0x3df2c286	0.11853509
155	0xbe96fb26	-0.29488486
156	0x3f263de1	0.6493817
157	0xbf785be7	-0.9701523
158	0xbdb496e7	-0.08817845
159	0xbeb911d3	-0.3614641
160	0xbc0da1e6	-0.008644557
161	0x3e33fde2	0.17577317
162	0xbe8c9e22	-0.27464396
163	0x3ea53572	0.32267338
164	0xbf2d1bf5	-0.67620784
165	0xbdb9df38	-0.09075779
166	0xbe75d9ac	-0.24008816
167	0x3c96be06	0.018401157
168	0xbe823270	-0.25429106
169	0xbe126797	-0.14297329
170	0xbe8a0ffc	-0.2696532
171	0xbda330b9	-0.079682775
172	0x3f4dccf2	0.80390847
173	0xbe4e9b73	-0.20176487
174	0xbe978c88	-0.29599404
175	0xbe8d87f4	-0.27642787
176	0xbdc9fac2	-0.098622814
177	0x3dbfacd1	0.09359134
178	0x3ed60069	0.41797188
179	0xbeed88a0	-0.463933
180	0x3e1eb693	0.15499334
181	0xbe1d291d	-0.15347715
182	0xbde55f45	-0.11199812
183	0x3d05ffde	0.032714717
184	0x3f1c6e27	0.6110558
185	0xbaa72791	-0.001275288
186	0xbeddc10a	-0.4331134
187	0xbf2154a9	-0.63019806
188	0xbef02e6a	-0.4691041
189	0x3e5780ff	0.21045302
190	0x3ed4ad5c	0.41538513
191	0x3da8349e	0.08213161
192	0x3d94162a	0.0723079
193	0x3e5d12b3	0.21589164
194	0x3cd8d6f5	0.026469687
195	0x3d511846	0.05104854
196	0x3dd2daae	0.10295616
197	0xbe4a0ed7	-0.19732223
198	0x3d86d6b9	0.06583924
199	0xbf0b00ee	-0.54298294
200	0x3ec095cc	0.37614286
201	0x3eb2ab0d	0.34896126
202	0xbcf3d232	-0.029763315
203	0xbd99d0e5	-0.075105466
204	0xbef47e62	-0.47752672
205	0x3f0f74ad	0.5603741
206	0x3f57e434	0.84332585
207	0xbea9c3e0	-0.33157253
208	0x3e0487b8	0.12942398
209	0x3f19a180	0.60012054
210	0x3ee5a8ce	0.4485535
211	0x3ee2975e	0.4425611
212	0x3e957f2b	0.29198584
213	0xbd9a3d90	-0.07531273
214	0x3f17938f	0.5920953
215	0x3d1a33f3	0.0376472
216	0x3e4c53c8	0.19953835
217	0xbf683087	-0.90699047
218	0x3e25e7d7	0.16201721
219	0xbe47657b	-0.19472305
220	0xbd28aa26	-0.04117789
221	0xbc80ecd6	-0.015737932
222	0x3d3deef4	0.04637046
223	0x3f3e1fe2	0.742674
224	0xbf7f6d60	-0.9977627
225	0x3bb9fffe	0.0056762686
226	0xbf3cfb7e	-0.73821247
227	0xbee398e4	-0.44452584
228	0x3e87b073	0.26501808
229	0x3f3e6e71	0.7438727
230	0xbdf1e53e	-0.118113026
231	0x3e8383f6	0.25686616
232	0xbd07832b	-0.033084076
233	0x3e92aabd	0.28645888
234	0x3f12a6ab	0.57285565
235	0xbecda954	-0.4016825
236	0xbd266a14	-0.040628508
237	0xbe957a3e	-0.29194826
238	0x3e471d0c	0.19444674
239	0x3e4b774b	0.19869725
240	0x3cbc5d76	0.022993784
241	0x3eb039ea	0.34419185
242	0xbf30f089	-0.6911703
243	0xbddbd497	-0.10733908
244	0x3eb529fa	0.35383588
245	0x3cbaad68	0.022787765
246	0x3ec3485c	0.38141143
247	0xbf40a733	-0.75255126
248	0xbd72420d	-0.059145022
249	0xbdbb36a9	-0.09141285
250	0x3ea30ddd	0.31846514
251	0xbd195fad	-0.03744476
252	0x3f1c82f6	0.6113733
253	0xbed284c6	-0.41116923
254	0xbf55dd6a	-0.83540976
255	0x3dd56d99	0.10421295

l1.bias f4 [400]
0	0xbdc8c500	-0.098032
1	0xbf3a02c5	-0.72660476
2	0xbeab051b	-0.33402333
3	0xbe8b7769	-0.2723954
4	0xbecb7448	-0.39737153
5	0xbf3d66b8	-0.7398486
6	0xbee88b20	-0.45418644
7	0x3ec9d56f	0.3942065
8	0xbf10a109	-0.5649572
9	0xbeb674fb	-0.35636124
10	0xbf34ba69	-0.7059694
11	0x3cafe1e1	0.021470012
12	0xbee76f53	-0.4520212
13	0xbe505abe	-0.20347115
14	0xbf08d782	-0.5345384
15	0xbef9faee	-0.48824257
16	0xbe832305	-0.25612655
17	0xbf08666e	-0.53281295
18	0x3ee8f5e6	0.45500106
19	0x3dd0291f	0.10164093
20	0xbf4e9050	-0.80688953
21	0xbf694f4c	-0.9113662
22	0xbe5770ea	-0.21039167
23	0xbee6af80	-0.4505577
24	0x3d3a1fde	0.045440547
25	0xbed28cb2	-0.41122967
26	0x3d3b1644	0.04567553
27	0xbf1f7494	-0.6228726
28	0xbd35bd29	-0.04436985
29	0xbe370b99	-0.17875518
30	0x3e4c9a24	0.19980675
31	0xbe146f98	-0.14495695
32	0xbe3aa996	-0.18228754
33	0xbe995774	-0.29949534
34	0xbe2c84b6	-0.168475
35	0xbf1cffd2	-0.6132785
36	0xbe34aa73	-0.17643146
37	0xbf146d6c	-0.57979465
38	0xbb6dc87b	-0.0036282826
39	0xbd07afb9	-0.033126567
40	0xbeeb37e0	-0.45941067
41	0xbdce047a	-0.100594476
42	0x3e641fe2	0.22277787
43	0xbe80e815	-0.25177065
44	0xbcc29475	-0.02375243
45	0x3ed8626c	0.4226259
46	0xbeb5c8e3	-0.35504827
47	0xbc489fb0	-0.012245104
48	0xbdffd610	-0.12492001
49	0xbf54cdd5	-0.83126575
50	0xbe13a62e	-0.14418861
51	0xbf258a4d	-0.64664155
52	0x3d52773f	0.051383253
53	0x3ebe3b85	0.37154785
54	0xbe3ca4e8	-0.18422282
55	0xbe7ab33f	-0.2448244
56	0xbed5bfd0	-0.41747904
57	0xbf085a3a	-0.53262675
58	0xbed72ae1	-0.42024902
59	0xbf3eae0f	-0.7448434
60	0xbf0d5a92	-0.55216324
61	0xbeef35ca	-0.46720725
62	0xbedf5462	-0.43619066
63	0xbe392a50	-0.18082547
64	0xbdfa2d28	-0.12215644
65	0xbf37533a	-0.7161137
66	0x3f26bf8b	0.6513602
67	0x3e54ec72	0.20793322
68	0xbf0a7ad7	-0.5409369
69	0xbdd57020	-0.10421777
70	0xbf2c5789	-0.6732107
71	0xbf11ab90	-0.5690241
72	0xbe485040	-0.19561863
73	0xbf1cbdf1	-0.6122733
74	0x3e814422	0.25247294
75	0xbe5ea3f7	-0.21742235
76	0xbeac0ed1	-0.33605054
77	0xbf201473	-0.62531203
78	0xbe8a9475	-0.2706639
79	0xbe77343f	-0.24141024
80	0x3ecd1709	0.40056637
81	0xbb48374c	-0.0030550538
82	0xbe338475	-0.17530997
83	0xbf303103	-0.68824786
84	0xbf3669c1	-0.7125512
85	0xbf0eca6c	-0.5577762
86	0xbeae4639	-0.3403795
87	0xbebafbf9	-0.36520365
88	0xbe47619d	-0.1947083
89	0x3e67004f	0.22558711
90	0xbf4ecd55	-0.8078206
91	0x3d857e1b	0.06518193
92	0xbef6be1f	-0.48191926
93	0xbec33f70	-0.38134336
94	0x3e2c8b35	0.16849978
95	0x3cc59e04	0.0241232
96	0xbde16126	-0.11004858
97	0xbefeb85f	-0.4975004
98	0xbec9a17d	-0.39381018
99	0x3e0c6c06	0.13713083
100	0xbeadc906	-0.3394243
101	0x3e989c3a	0.2980669
102	0xbe73658c	-0.23769206
103	0xbe51aad5	-0.20475323
104	0xbe155ac1	-0.14585401
105	0xbe44172b	-0.19149463
106	0xbe85a72e	-0.2610411
107	0xbf5c75c5	-0.861172
108	0xbf0fabf2	-0.5612174
109	0xbeff5962	-0.4987288
110	0xbe1fefe4	-0.15618855
111	0xbf547721	-0.82994276
112	0x3e64ff35	0.22362979
113	0xbf03b695	-0.51450473
114	0xbed7e757	-0.42168686
115	0x3d942da0	0.07235265
116	0xbe6d51bf	-0.23175715
117	0xbf210930	-0.62904644
118	0xbe710ea9	-0.23540749
119	0xbf0f4138	-0.5595889
120	0xbefa6124	-0.48902237
121	0xbee5fb53	-0.44918308
122	0xbf05b790	-0.5223322
123	0xbe8dfb58	-0.27730823
124	0xbec328a5	-0.38116947
125	0xbf10f9a5	-0.5663093
126	0xbcfe45b0	-0.031039089
127	0xbedeffa9	-0.43554428
128	0xbee8a4dd	-0.4543828
129	0xbe490238	-0.19629753
130	0xbeeade5a	-0.45872766
131	0x3f1489ae	0.5802258
132	0xbe409eb5	-0.18810542
133	0xbe9830c4	-0.29724705
134	0xbe17fb74	-0.14842016
135	0xbf0ff3ba	-0.5623127
136	0xbe2164fe	-0.15761182
137	0xbe385887	-0.1800252
138	0xbe1cb89b	-0.15304796
139	0xbf2e6505	-0.68122894
140	0x3d662cad	0.05619495
141	0xbeebb8d0	-0.46039438
142	0xbd94b7c7	-0.07261615
143	0xbee9d596	-0.45670766
144	0x3e67e808	0.22647107
145	0xbea4f535	-0.32218328
146	0xbe2dda81	-0.16977884
147	0xbf2a0c4d	-0.6642502
148	0xbe91ce18	-0.2847755
149	0xbf15e092	-0.5854579
150	0xbf350cc0	-0.7072258
151	0xbeac9877	-0.3371007
152	0xbe7cafa1	-0.24676372
153	0xbe675062	-0.22589257
154	0xbf0e60a3	-0.55616206
155	0xbf1026a0	-0.5630894
156	0xbf2758c9	-0.6536985
157	0xbe76789b	-0.24069445
158	0xbe816f46	-0.25280207
159	0xbeffe2ef	-0.49977824
160	0xbe1e7384	-0.15473753
161	0x3dc1234e	0.09430562
162	0xbe04abc6	-0.12956151
163	0x3e9b38dc	0.30316818
164	0xbf2bf288	-0.6716695
165	0xbf031268	-0.5119996
166	0xbc9e1388	-0.019296423
167	0xbe593976	-0.21213326
168	0xbe8ee6ec	-0.27910554
169	0xbf3357b9	-0.7005573
170	0xbf1b779b	-0.6072938
171	0xbe4044bc	-0.1877622
172	0xbf2d9d61	-0.67818266
173	0xbda33a16	-0.079700634
174	0xbf001e8a	-0.500466
175	0xbf07bf1b	-0.5302598
176	0xbeb28f14	-0.34874785
177	0xbf2139af	-0.62978643
178	0x3d5df11a	0.05418501
179	0xbd4ec27f	-0.050478455
180	0xbe34584b	-0.17611806
181	0xbf4fd786	-0.8118824
182	0x3ecbc2ab	0.39796957
183	0x3e717809	0.23580946
184	0xbcf22476	-0.029558402
185	0xbf16c729	-0.58897644
186	0xbeb51c4a	-0.35373145
187	0xbf0a4fd6	-0.5402807
188	0x3bd07d1a	0.0063625695
189	0xbeb38c99	-0.35068205
190	0x3f200326	0.62504804
191	0xbe8e0f52	-0.27746063
192	0xbf24c7ef	-0.64367574
193	0xbf3308a9	-0.6993509
194	0xbef1fefb	-0.47264847
195	0xbe9b056a	-0.30277568
196	0x3e56bb5c	0.2096991
197	0xbf1c5e1a	-0.6108109
198	0xbe14c8f9	-0.1452979
199	0xbf25f675	-0.6482919
200	0xbedb3ad4	-0.4281832
201	0xbdc0242a	-0.09381898
202	0x3dd783f4	0.10523215
203	0xbebf9f10	-0.37426043
204	0x3d98df39	0.07464451
205	0x3eba4510	0.36380816
206	0xbf2146e0	-0.6299877
207	0xbe87621a	-0.26442033
208	0xbf25ba4c	-0.6473739
209	0xbe91c0fd	-0.2846755
210	0xbeda1efe	-0.4260177
211	0xbe42307c	-0.18963808
212	0xbec50936	-0.3848359
213	0xbea90eb2	-0.33019024
214	0xbd21f3b9	-0.039539073
215	0xbf1404fb	-0.578201
216	0xbc367768	-0.011136867
217	0xbdade3fc	-0.0849075
218	0xbe55ad5a	-0.2086691
219	0xbece2d1e	-0.40268797
220	0xbf0c76d9	-0.5486885
221	0xbec6cd1b	-0.38828358
222	0xbd8b9cd7	-0.06817024
223	0xbd0db051	-0.034591977
224	0xbe09d3eb	-0.13459747
225	0xbe3abd1b	-0.182362
226	0xbe23c93f	-0.15994738
227	0xbe9b1be5	-0.3029472
228	0xbe6f74ac	-0.2338435
229	0xbe0cfad2	-0.13767555
230	0xbf04a419	-0.51812893
231	0xbe65e653	-0.22451143
232	0xbe74fdcf	-0.23924945
233	0xbf1b6536	-0.6070131
234	0xbf3ae92a	-0.7301203
235	0x3e723f5b	0.2365698
236	0xbe3f0366	-0.1865364
237	0xbf34fdee	-0.70699966
238	0xbe75c404	-0.24000555
239	0xbf148bdc	-0.5802591
240	0xbe1cff2d	-0.15331717
241	0xbebf3e8f	-0.37352416
242	0xbf31dd7f	-0.694786
243	0xbf070f6a	-0.52757895
244	0x3b322059	0.0027179925
245	0xbe13c3f6	-0.14430222
246	0xbef46d5f	-0.47739694
247	0xbf0e8019	-0.5566421
248	0xbf101895	-0.5628751
249	0xbf6ed92a	-0.93300116
250	0xbed810af	-0.4220023
251	0xbe2bc579	-0.16774549
252	0xbe206ba3	-0.1566606
253	0xbf2a6c9b	-0.6657197
254	0xbefc9970	-0.49335814
255	0xbe7d2770	-0.24722075

l2.weight f4 [300, 400]
0	0xbe9fca98	-0.31209254
1	0xbe4dfd55	-0.2011617
2	0x3e68f7d5	0.2275079
3	0x3d7221d7	0.059114303
4	0xbf10a38c	-0.5649955
5	0x3ebad75e	0.36492437
6	0x3e8ece1d	0.27891627
7	0xbeeca7d1	-0.46221784
8	0x3e0cd3eb	0.13752715
9	0xbdcb3caf	-0.09923684
10	0x3c881983	0.016613727
11	0xbd31e508	-0.04343131
12	0x3e290a28	0.1650778
13	0x3aabd69b	0.0013110222
14	0x3e8d84be	0.27640337
15	0xbd2780e2	-0.040894397
16	0xbeefff86	-0.46874636
17	0x3ed867a1	0.42266563
18	0x3f48ee18	0.784883
19	0x3db24f80	0.0870657
20	0x3ce3b83d	0.027797813
21	0xbe6a382b	-0.22872989
22	0xbeb35311	-0.35024312
23	0xbec18760	-0.37798595
24	0x3f0caa66	0.5494751
25	0x3eca6316	0.39528722
26	0x3db820a5	0.089906015
27	0x3c65fd50	0.014037445
28	0xbf828332	-1.0196288
29	0x3e5b95ce	0.21443865
30	0xbf3bab8b	-0.7330863
31	0x3e2b4136	0.16724095
32	0xbd47d3b0	-0.048785865
33	0xbe8a7ce4	-0.2704841
34	0xbe881782	-0.26580435
35	0x3d539fac	0.051665947
36	0x3e6e1827	0.23251401
37	0xbdacba90	-0.084340215
38	0xbed498aa	-0.41522723
39	0x3e8d182d	0.27557507
40	0xbdafcd3f	-0.085840695
41	0xbdefa695	-0.11701695
42	0x3e302b83	0.17204098
43	0xbe14e9f9	-0.14542378
44	0x3e9d92d8	0.30776095
45	0xbea24f7c	-0.31701267
46	0xbddbd574	-0.10734072
47	0x3e07f0c5	0.1327544
48	0x3dd0c7aa	0.10194333
49	0xbe8512c4	-0.2599088
50	0xbec2493c	-0.37946498
51	0x3f38f449	0.7224775
52	0x3ead07bf	0.33794972
53	0x3e699e41	0.22814275
54	0x3dad5388	0.08463198
55	0xbeb8279f	-0.35967728
56	0xbf03d914	-0.5150311
57	0xbed4a2c1	-0.4153042
58	0xbe37abe3	-0.17936663
59	0x3caf7405	0.021417627
60	0x3b23fbd8	0.0025021937
61	0xbe3ebdca	-0.18627086
62	0xbea9248b	-0.33035693
63	0xbd482517	-0.048863497
64	0xbe5e2241	-0.21692754
65	0xbd59559d	-0.053060163
66	0xbaf44f64	-0.0018639383
67	0xbea89cd2	-0.32932144
68	0x3e09e8d1	0.13467719
69	0xbda136e0	-0.07871795
70	0xbf380941	-0.7188912
71	0x3e729ec3	0.23693375
72	0xbeaa9159	-0.33314016
73	0x3e7e2e8d	0.24822445
74	0x3f15aeaf	0.5846967
75	0x3e006598	0.12538755
76	0xbf029810	-0.5101328
77	0xbddfadf8	-0.10921854
78	0xbeb77097	-0.35828087
79	0x3cfcf442	0.03087819
80	0xbeed1514	-0.46305144
81	0x3d06982f	0.032859977
82	0x3e8d64af	0.27615878
83	0xbea31fae	-0.31860107
84	0xbda628ca	-0.08113249
85	0x3c866fd5	0.016410748
86	0xbe252e20	-0.16130877
87	0xbe2c784b	-0.16842763
88	0xbdbf087f	-0.093277924
89	0xbe095c34	-0.13414079
90	0xbe9d9a57	-0.30781814
91	0xbf1f887b	-0.6231763
92	0x3e5697e4	0.20956379
93	0xbe2c610f	-0.168339
94	0xbe4b5a88	-0.19858754
95	0xbd22fff0	-0.039794862
96	0x3d18b18d	0.0372787
97	0x3eb0bfe2	0.34521395
98	0x3e195fd5	0.14977963
99	0xbe02b326	-0.12763652
100	0xbd8330f3	-0.06405821
101	0xbf0d98f5	-0.5531152
102	0xbe5d4be7	-0.21610986
103	0xbe8f9881	-0.2804604
104	0xbef6adb1	-0.4817939
105	0x3c914d13	0.017736947
106	0xbe502493	-0.20326452
107	0x3e714378	0.23560894
108	0xbe4d9c57	-0.2007917
109	0xbc93375f	-0.017970739
110	0x3eef1c99	0.46701506
111	0x3e8c63e6	0.27419966
112	0x3ea25d11	0.3171163
113	0x3e6c44f0	0.23073173
114	0xbe5e1422	-0.21687368
115	0x3e4ac123	0.19800238
116	0xbdcc6869	-0.09980852
117	0x3ddbf2e4	0.10739687
118	0xbf1e70e1	-0.6189099
119	0x3decf1b9	0.115695424
120	0xbe95fcae	-0.29294342
121	0x3e0e9e4e	0.13927576
122	0x3bdb87ce	0.006699539
123	0x3e2ea891	0.1705649
124	0x3dba52a1	0.090977915
125	0xbdf82192	-0.12115778
126	0xbe0f7eda	-0.14013234
127	0x3c507a57	0.012724481
128	0xbe124f3c	-0.14288038
129	0x3e89ca3b	0.26912102
130	0x3dcff431	0.10153998
131	0x3cfb5ee7	0.030684901
132	0xbeb0cdef	-0.34532115
133	0x3d3fd724	0.046836033
134	0xbd14cb31	-0.03632659
135	0xbeae904e	-0.3409447
136	0xbecf9e7f	-0.4055061
137	0x3eba8027	0.36425897
138	0x3ed3f00a	0.41394073
139	0xbe2c8216	-0.16846499
140	0xbdca14e1	-0.098672636
141	0xbe63a794	-0.22231895
142	0x3ec734c5	0.38907447
143	0xbe29cd42	-0.16582206
144	0xbd293491	-0.041309897
145	0x3d80ec24	0.0629504
146	0xbd755db2	-0.059903808
147	0xbe3a6237	-0.18201528
148	0x3eb46180	0.35230637
149	0xbea74cd2	-0.32675797
150	0x3e3b42f2	0.18287256
151	0xbe93e90e	-0.28888744
152	0xbe8f2eb7	-0.27965328
153	0x3d642952	0.05570347
154	0x3e02a05d	0.12756486
155	0x3e7fe338	0.24989021
156	0x3e73e4cf	0.23817752
157	0x3e14809c	0.14502186
158	0xbe8286f1	-0.25493577
159	0x3e2ad02b	0.16680972
160	0xbd1c8db6	-0.038221084
161	0x3e53733c	0.20649427
162	0xba2bb6eb	-0.0006550389
163	0xbeabb7fc	-0.33538806
164	0x3dc4d912	0.096117154
165	0xbe826c38	-0.2547319
166	0x3e6eb9ea	0.23313108
167	0xbeb6fd0e	-0.3573994
168	0xbee2fde6	-0.44334334
169	0xbd77eb05	-0.060526866
170	0x3e6d491b	0.23172419
171	0x3e603367	0.21894608
172	0x3d4fdcc1	0.050747637
173	0xbe52c301	-0.205822
174	0xbe8c4743	-0.27398118
175	0x3e6b527a	0.22980681
176	0xbeddec78	-0.43344474
177	0xbeb7f308	-0.35927606
178	0xbec1315e	-0.37732977
179	0xbe2be5c0	-0.16786861
180	0xbeda5bf5	-0.42648283
181	0x3d0924ff	0.033482548
182	0xbf032609	-0.5122991
183	0x3e5a900b	0.2134401
184	0x3dde9938	0.10869068
185	0x3d76edbf	0.060285326
186	0x3eaa7896	0.33295125
187	0xba460506	-0.0007553849
188	0xbe2c2fcd	-0.1681511
189	0xbf82c4ab	-1.0216268
190	0xbd6f1aec	-0.058375284
191	0xbd293667	-0.041311648
192	0x3e93607d	0.28784552
193	0xbe378e12	-0.1792529
194	0x3df581dc	0.11987659
195	0xbebd1a4c	-0.36934125
196	0x3e404f5b	0.18780272
197	0x3ebda5fa	0.37040693
198	0xbe90595c	-0.28193176
199	0xbed8a263	-0.4231139
200	0xbdbd4d87	-0.09243303
201	0xbe269f9e	-0.16271827
202	0xbd29a471	-0.04141659
203	0x3e1f2775	0.15542395
204	0xbe100454	-0.14064151
205	0x3e297874	0.16549855
206	0xbd5f7882	-0.054558285
207	0x3de7a1f6	0.113101885
208	0xbe0a4e79	-0.13506497
209	0x3eb8f3d5	0.3612353
210	0xbddb0104	-0.10693553
211	0x3ea51f38	0.3225038
212	0xbdaf848c	-0.08570203
213	0xbc731595	-0.0148366885
214	0x3e0cc2b1	0.13746144
215	0x3e3fcdd8	0.18730867
216	0x3cd8b52c	0.026453577
217	0xbf379bf7	-0.7172236
218	0xbd9eead9	-0.077596374
219	0x3c9b9c6f	0.018995492
220	0xbe9090e1	-0.28235534
221	0xbe5b16f5	-0.21395476
222	0x3d8459be	0.064624295
223	0x3ee67760	0.4501295
224	0xbee824a2	-0.4534045
225	0xbec52ade	-0.38509268
226	0xbe2a3072	-0.16620043
227	0xbec25a7a	-0.37959653
228	0x3d61c95e	0.05512368
229	0xbe23bfd8	-0.15991151
230	0x3e376be5	0.17912252
231	0xbe74bd46	-0.23900327
232	0xbd0b8858	-0.034065574
233	0x3d206b95	0.0391651
234	0x3e920035	0.28515783
235	0x3e8d1051	0.2755151
236	0x3df6b200	0.120456696
237	0xbe01af69	-0.1266457
238	0x3cc69e91	0.024245532
239	0xbe076ace	-0.13224337
240	0x3de9ac62	0.114098325
241	0xbd8dfc71	-0.06932915
242	0x3e328e27	0.1743704
243	0xbde3be0e	-0.111202344
244	0xbf30e893	-0.6910488
245	0x3ea95c92	0.33078438
246	0x3e2c387f	0.16818427
247	0xbeed9d58	-0.46409106
248	0x3d345382	0.04402495
249	0x3ee86943	0.45392808
250	0xbf0fb4c3	-0.56135195
251	0xbf2e60d9	-0.6811653
252	0xbeab394f	-0.3344216
253	0xbeac6ffc	-0.33679187
254	0xbeadb51d	-0.3392724
255	0xbd4c0b28	-0.049815327

l2.bias f4 [300]
0	0xbe519596	-0.20467219
1	0x3e3b04e3	0.18263583
2	0xbdb531aa	-0.08847363
3	0xbcd71388	-0.02625443
4	0xbdf41b87	-0.11919313
5	0xbe0bc784	-0.13650328
6	0x3c6f9e9e	0.01462522
7	0xbc9dd335	-0.01926575
8	0xbeb5c2ef	-0.35500285
9	0xbd0588ea	-0.032601275
10	0xbdcb1cf8	-0.09917635
11	0xbd21863a	-0.03943465
12	0x3e44924e	0.19196436
13	0xbd9a90e1	-0.07547165
14	0xbcdfe8a0	-0.027332604
15	0xbd7eefe1	-0.062240485
16	0xbeb82c7d	-0.35971442
17	0xbcfb4e46	-0.030676972
18	0xbdc135ca	-0.094340876
19	0xbd8d2398	-0.068915546
20	0xbe2b2e89	-0.1671697
21	0xbdcdfe4d	-0.1005827
22	0x3e0e3cd6	0.13890395
23	0xbebe977a	-0.37224942
24	0xbe215520	-0.15755129
25	0xbd25ddea	-0.040494837
26	0xbe25d6a7	-0.16195165
27	0xbd4b59dc	-0.049646243
28	0xbd135561	-0.035970096
29	0xbe51df3f	-0.20495318
30	0xbdb2f91e	-0.087389216
31	0xbd04608b	-0.032318633
32	0xbd3261d2	-0.04355032
33	0xbc1d778a	-0.00961102
34	0xbd861124	-0.06546238
35	0xbd861f9c	-0.06548998
36	0xbd801cef	-0.06255519
37	0xbdbf3acb	-0.09337386
38	0x3d308fb7	0.043105807
39	0xbe9f61cb	-0.31129298
40	0xbe9d52b4	-0.3072716
41	0xbe764065	-0.24048002
42	0xbe055a04	-0.1302262
43	0xbe2d4887	-0.16922198
44	0x3b6f2831	0.0036492462
45	0xbe66b9e8	-0.22531855
46	0xbe0fa362	-0.1402717
47	0xbd841dc1	-0.064509876
48	0xbdd8740e	-0.10569011
49	0xbd82b4ce	-0.06382142
50	0xbddd3c3d	-0.10802505
51	0xbdc55e87	-0.0963717
52	0xbe98fbab	-0.29879507
53	0x3deee884	0.116654426
54	0xbe7ea4c9	-0.24867548
55	0x3da428dd	0.080156066
56	0xbd8be182	-0.068301216
57	0xbdb94f39	-0.09048314
58	0x3e6698f6	0.22519287
59	0xbe030653	-0.12795381
60	0xbd8bfcf3	-0.068353556
61	0xbd3bc4ed	-0.0458421
62	0xbb837d55	-0.0040127435
63	0xbb42d4b1	-0.0029728825
64	0x3d2b6a83	0.041849624
65	0xbdca7ffc	-0.09887692
66	0xbd8f7d5a	-0.07006331
67	0xbe101420	-0.14070177
68	0x3d4c8a92	0.04993684
69	0xbebb26c6	-0.3655302
70	0xbe826d6e	-0.25474113
71	0xbdc5f85d	-0.09666512
72	0xbe1044f0	-0.14088798
73	0xbe5c4180	-0.21509361
74	0xbd14758c	-0.036244914
75	0xbcd4e50c	-0.025988124
76	0xbdc5d669	-0.09660036
77	0xbf12fb15	-0.5741437
78	0xbd97d3b6	-0.074134275
79	0xbdb15a54	-0.08659807
80	0xbe9ab7f2	-0.30218464
81	0xbe051479	-0.12996091
82	0xbc8a387b	-0.016872635
83	0x3cd50311	0.026002439
84	0xbda8f0bb	-0.08249041
85	0xbea56419	-0.3230293
86	0xbd82f677	-0.06394666
87	0xbcbf4b60	-0.023351371
88	0xbe4040b3	-0.18774681
89	0xbdd9d41f	-0.10636162
90	0xbd808fca	-0.062774256
91	0x3dbc0ebe	0.09182499
92	0xbecacd13	-0.39609584
93	0xbdb3c02a	-0.08776887
94	0xbc8e1c1b	-0.017347386
95	0xbdaff65d	-0.08591912
96	0xbddc0ed8	-0.10745019
97	0xbe0813fe	-0.13288876
98	0xbde1d945	-0.11027769
99	0x3e42d77f	0.19027518
100	0x3e41723f	0.18891238
101	0xbe26922a	-0.16266695
102	0xbc8a77ba	-0.016902793
103	0xbea4b570	-0.32169676
104	0xbd55a2aa	-0.05215708
105	0xbd105933	-0.035241317
106	0xbd261e84	-0.040556446
107	0xbe893a51	-0.26802304
108	0xbd184f65	-0.03718509
109	0xbd6a7321	-0.0572387
110	0x3d89b809	0.06724555
111	0xbddce903	-0.10786631
112	0xbd299c1a	-0.041408636
113	0xbe64bf8e	-0.22338697
114	0xbe5e0434	-0.21681291
115	0xbe03016e	-0.12793514
116	0xbf016a9d	-0.50553304
117	0xbe587081	-0.21136667
118	0xbde6cbcd	-0.11269341
119	0xbe5b5059	-0.21417369
120	0xbe358820	-0.17727709
121	0xbdc157ef	-0.094406
122	0xbe19aa85	-0.15006454
123	0x3e0e6034	0.13903886
124	0x3cf104f2	0.029421303
125	0xbcab8a36	-0.020939928
126	0xbd829a19	-0.06377048
127	0xbe860627	-0.2617657
128	0x3cad958b	0.021189472
129	0xbdcd04a4	-0.10010651
130	0xbe3f5eae	-0.18688461
131	0xbd6271a2	-0.05528415
132	0xbdf83284	-0.1211901
133	0xbe89f738	-0.26946425
134	0x3e9dc4ee	0.30814308
135	0xbe28d003	-0.164856
136	0x3e0b088e	0.13577482
137	0xbf3582b4	-0.7090256
138	0xbeac1352	-0.3360849
139	0xbd8125c3	-0.063060306
140	0xbe5b6b31	-0.21427609
141	0x3a946682	0.0011322054
142	0x3dd329d1	0.1031071
143	0xbe7cd296	-0.24689707
144	0xbd2fa34f	-0.042880353
145	0xbd5b39fd	-0.0535221
146	0xbb7d6b2a	-0.003866861
147	0x3d19c3e3	0.037540328
148	0xbda9503a	-0.08267255
149	0xbeea7e8d	-0.45799676
150	0xbcb24884	-0.021763094
151	0xbdc151b1	-0.094394095
152	0xbd9c3dd2	-0.07628979
153	0x3e3ff77f	0.18746756
154	0xbdb3b6f6	-0.087751314
155	0x3e4b3b2f	0.19846795
156	0xbdc9b3c6	-0.09848742
157	0x3df8ca2c	0.12147936
158	0xbe6ebd3b	-0.23314373
159	0xbda1be7f	-0.07897662
160	0xbd8c6aa4	-0.068562776
161	0xbdb24d36	-0.08706133
162	0xbdf6935e	-0.12039827
163	0xbd5ce990	-0.05393368
164	0xbddc61b7	-0.10760825
165	0xbe88c732	-0.26714474
166	0xbd1d23eb	-0.038364332
167	0xbdd5437f	-0.104132645
168	0xbe9c3cf4	-0.30515254
169	0x3d1a0d9e	0.037610643
170	0xbe79fcc6	-0.24412832
171	0xbd9d60b9	-0.07684464
172	0xbd6326eb	-0.055457037
173	0xbc944ca1	-0.018102946
174	0xbd7b49e3	-0.06134976
175	0xbe546104	-0.20740134
176	0xbea1d734	-0.316095
177	0xbd9f370a	-0.0777417
178	0x3dc615df	0.0967214
179	0xbe598b9e	-0.21244666
180	0x3d1bba28	0.03801933
181	0xbe1c0225	-0.15235193
182	0xbdd9ad43	-0.1062875
183	0xbe0f0997	-0.13968502
184	0x3e6ca750	0.231107
185	0xbd7360b9	-0.059418414
186	0xbd7b1809	-0.06130222
187	0x3d872122	0.065981165
188	0xbdf6f3ec	-0.12058243
189	0xbcde6b72	-0.027150843
190	0xbdf41ad8	-0.119191825
191	0xbe67c1ff	-0.22632597
192	0xbd9bb883	-0.07603552
193	0xbd2d94f4	-0.04237838
194	0xbe0c49b1	-0.13699986
195	0xbcb09a30	-0.021557897
196	0xbe808499	-0.25101164
197	0xbef79a61	-0.4835997
198	0xbe807de1	-0.25096038
199	0xbef67b2a	-0.48140842
200	0xbe51fc12	-0.20506313
201	0xbd62cc34	-0.055370525
202	0xbd54e417	-0.051975336
203	0x3c971e22	0.018446986
204	0xbd0969b1	-0.03354806
205	0xbe77eb17	-0.24210773
206	0xbd8cc626	-0.06873731
207	0xbd8b1625	-0.06791333
208	0xbd9d127f	-0.076695435
209	0x3ea94e00	0.33067322
210	0xbea9a7cd	-0.33135834
211	0xbdb8c586	-0.090220496
212	0xbddbf100	-0.107393265
213	0xbd91f0c4	-0.071260005
214	0xbdd32c40	-0.103111744
215	0xbd780702	-0.06055356
216	0xbe6c07a9	-0.23049797
217	0xbed85d60	-0.4225874
218	0xbddaa449	-0.10675866
219	0xbe1fbbea	-0.15599027
220	0x3cbe758d	0.023249412
221	0xbeb97004	-0.36218274
222	0x3ec46378	0.3835714
223	0xbe6dd882	-0.23227122
224	0x3e71a87e	0.23599431
225	0xbddaadfa	-0.10677715
226	0xbe114bef	-0.14189123
227	0x3a73e732	0.0009304165
228	0xbeaae037	-0.33374187
229	0xbec2615b	-0.379649
230	0xbd64025d	-0.055666316
231	0xbe398abd	-0.1811933
232	0xbd8dd90e	-0.069261655
233	0xbe9bf0ca	-0.30457145
234	0xbc67f6cb	-0.014157961
235	0xbda8299e	-0.08211063
236	0xbe26ff40	-0.16308308
237	0xbe9a9905	-0.3019487
238	0xbc0c4052	-0.008560257
239	0xbd355fea	-0.044280924
240	0xbd0c3839	-0.034233306
241	0xbdfec90d	-0.12440691
242	0x3dcd26c0	0.100171566
243	0xbba56f34	-0.005048657
244	0xbd63c3fd	-0.05560683
245	0xbe8befa3	-0.27331266
246	0xbe7dc9d8	-0.24784029
247	0x3dcf579d	0.10124133
248	0x3cefed75	0.029288033
249	0xbdd7d631	-0.10538901
250	0x3dc5c7fd	0.09657285
251	0xbddaf6ff	-0.10691642
252	0xbedf9cd5	-0.4367434
253	0xbe1cbb09	-0.15305723
254	0xbcd475b5	-0.025935033
255	0xbbda5495	-0.006662915

l3.weight f4 [4, 300]
0	0xbe227cc8	-0.15867913
1	0xbebff45c	-0.3749112
2	0xbc966fd8	-0.018363878
3	0x3ca32afa	0.019917954
4	0xbe2220f9	-0.1583289
5	0xbe9fb54a	-0.31193
6	0xbe528d00	-0.205616
7	0x3b440554	0.0029910402
8	0x3e97dd64	0.29661095
9	0x391b993c	0.00014839036
10	0x3c35e08f	0.011100902
11	0xbc298c59	-0.010348403
12	0xbd94db9e	-0.07268451
13	0x3c174a8c	0.009234082
14	0xbca487c2	-0.020084266
15	0xbba39e5b	-0.0049932427
16	0xbdb7cf30	-0.08975065
17	0xbb50bda5	-0.0031851318
18	0x3dd5871e	0.10426162
19	0x3d3f582e	0.046714954
20	0xbcde4b0a	-0.02713539
21	0x3ba4b576	0.0050265146
22	0xbe91e442	-0.2849446
23	0xbed21415	-0.41030946
24	0x3de6865f	0.11256098
25	0xba39b4d0	-0.0007084133
26	0x3e25fb52	0.16209152
27	0xbd8ae4ed	-0.067819454
28	0x3ceccd63	0.02890653
29	0xbdd83425	-0.10556821
30	0x3d47a049	0.048736844
31	0xbba8008f	-0.0051270197
32	0xbec4d679	-0.3844488
33	0x3c804587	0.015658153
34	0x3ccf47b7	0.025302751
35	0x3c52e972	0.0128730405
36	0x3cec3919	0.02883582
37	0x3d16d45d	0.03682362
38	0xbe9cc21f	-0.30616853
39	0x3e19ab42	0.15006736
40	0xbd953fd7	-0.07287567
41	0xbe86a9c4	-0.26301396
42	0xbc7fc1a5	-0.015610133
43	0x3dfc904e	0.123322114
44	0x3cee93e0	0.029123247
45	0xbe2bca82	-0.1677647
46	0xbdaa073d	-0.08302162
47	0xbccc106f	-0.02491018
48	0x3a5a8c9e	0.00083369936
49	0xbda106e8	-0.078626454
50	0x3edca5b0	0.4309516
51	0xbbc447a3	-0.005989985
52	0x3d9fb331	0.0779785
53	0x3be8a416	0.0070996387
54	0x3c72534b	0.014790366
55	0x3dc21b0a	0.094778135
56	0xbca1a568	-0.019732192
57	0xbc23adf5	-0.009990205
58	0xbe9549a4	-0.29157746
59	0xbda6281b	-0.08113118
60	0xbe6f1741	-0.23348714
61	0xbc7f1b7b	-0.015570517
62	0x3d00e3d1	0.031467263
63	0x3d1d0bdf	0.0383414
64	0x3d5182b6	0.051150046
65	0xbeaa0967	-0.33210298
66	0x3ddd0837	0.107925825
67	0xbafdc447	-0.0019360863
68	0x3d41ac62	0.047283538
69	0x3f130a03	0.5743715
70	0x3daf8f23	0.08572223
71	0x3c10f4e0	0.008847445
72	0xbdb32d26	-0.08748846
73	0x3e9d9683	0.30778894
74	0x3c9400d6	0.018066805
75	0x3c97337b	0.018457165
76	0xb9b373ce	-0.00034227822
77	0x3ea54a9a	0.3228348
78	0x3ca9d3fb	0.020730963
79	0x3b83bd1c	0.0040203463
80	0x3d14d1ed	0.036333013
81	0x3e4ac420	0.19801378
82	0x3c129474	0.008946527
83	0xbe7dbe61	-0.24779655
84	0xbe029b34	-0.12754518
85	0xbd06341a	-0.03276453
86	0xbb3b3387	-0.0028564648
87	0x3b58ab1d	0.0033060976
88	0xbbc37c0c	-0.0059657153
89	0x3e5d9d9f	0.21642159
90	0x3c9d9e28	0.019240454
91	0x3e13e797	0.14443813
92	0x3dadb4dc	0.08481762
93	0x3c72aca9	0.014811673
94	0x3def4e7b	0.11684891
95	0x3cb208e2	0.021732751
96	0x3e3e9c4f	0.18614314
97	0xbe63786c	-0.22213906
98	0x3e2a77f4	0.16647321
99	0x3e546849	0.20742907
100	0xbcea2863	-0.028583711
101	0xbf2ce35b	-0.67534417
102	0xbe5e1959	-0.21689357
103	0xbe7c8345	-0.2465945
104	0x3cf33090	0.029686242
105	0x3e862144	0.26197255
106	0x3cdd8239	0.027039634
107	0x3d853446	0.06504111
108	0x3c8ef863	0.017452424
109	0xbe30ae2f	-0.17253946
110	0x3d0efa43	0.034906637
111	0x39c353b5	0.00037255665
112	0xbcdc2ca2	-0.026876751
113	0x3d9e13e6	0.07718639
114	0x3e1d4ea2	0.15362027
115	0xbb4517d6	-0.0030074022
116	0xbf14af70	-0.58080196
117	0x3e6f71ff	0.2338333
118	0xbc01268b	-0.0078827245
119	0xbe198d39	-0.14995278
120	0xbe6f749f	-0.23384331
121	0x3c90ae40	0.017661214
122	0x3db05505	0.08609966
123	0x3dd173e0	0.102271795
124	0x3dd8e205	0.10589985
125	0x3e178b74	0.14799291
126	0xbeb04d33	-0.34433898
127	0x3e3a55df	0.1819682
128	0x3e0899e7	0.13339959
129	0xbd4d0dc4	-0.050061956
130	0xbebbad5f	-0.3665571
131	0x3c31e738	0.0108583495
132	0xbe7d8830	-0.24758983
133	0x3d12e33e	0.035861246
134	0xbe852cf4	-0.2601086
135	0x3e30ce10	0.17266107
136	0x3ee4eb38	0.44710708
137	0xbdbe2dd4	-0.09286085
138	0x3eed4450	0.4634118
139	0x3d2f8cea	0.042858995
140	0xbe64b8d8	-0.22336137
141	0xbb683b85	-0.0035435867
142	0x3ded256d	0.11579404
143	0xbcbfe6de	-0.023425516
144	0x3becc9dd	0.0072262124
145	0xbc96e042	-0.018417481
146	0x3d5e495b	0.054269176
147	0x3e9b9c5d	0.30392733
148	0x3d46a23f	0.048494574
149	0x3c75c72e	0.015001101
150	0x3d1915bd	0.037374247
151	0xbe804538	-0.2505281
152	0x3e1c4b0a	0.15263
153	0xbcfdf4db	-0.031000545
154	0xbc858175	-0.016297081
155	0x3e42d277	0.19025598
156	0xbd0c863f	-0.034307715
157	0x3d883c26	0.066520974
158	0x3daf17f7	0.08549493
159	0xbad9da6a	-0.0016620879
160	0x3e2906b9	0.1650647
161	0xbf091156	-0.5354208
162	0x3e459b5d	0.19297548
163	0x3e28ef4b	0.16497533
164	0x3cff7682	0.031184439
165	0xbee09b8e	-0.4386868
166	0xbcd6ae89	-0.026206272
167	0xbd00feb3	-0.0314929
168	0x3d831994	0.06401363
169	0xbc356b8f	-0.011073007
170	0xbe95f0a7	-0.29285166
171	0x3e21b637	0.15792166
172	0x3bf1e347	0.00738183
173	0x3d09c2b1	0.033632938
174	0xbd629ff8	-0.05532834
175	0xbe3534e4	-0.17695957
176	0x3f118706	0.56846654
177	0x3d147d7c	0.036252484
178	0x3ebcf294	0.36903822
179	0x3da46ce0	0.08028579
180	0xbd852168	-0.06500512
181	0x3d9cb12f	0.076509826
182	0x3cd21563	0.025644964
183	0x3d693116	0.056931578
184	0x3e84dde2	0.25950533
185	0x3d2377de	0.039909236
186	0x3d7f3edc	0.062315807
187	0xbefefb7f	-0.4980125
188	0xbc6a0d12	-0.014285343
189	0x3d020118	0.031739324
190	0x3c290e4d	0.010318351
191	0xbeebca7e	-0.46052927
192	0xbdaa7847	-0.08323722
193	0xbdf49b6f	-0.11943709
194	0xbe23a7a3	-0.15981917
195	0x3d941bba	0.07231851
196	0x3d81628c	0.063176244
197	0x3e35d2b7	0.17756163
198	0xbf03f031	-0.5153838
199	0xbe9a7de9	-0.30174187
200	0xbd792437	-0.060825553
201	0x3d02392b	0.0317928
202	0x3cf395ee	0.029734578
203	0xbf213a48	-0.62979555
204	0x3db2518c	0.0870696
205	0x3f0a4ba2	0.54021657
206	0xbb0bb41d	-0.0021317073
207	0x3d06df4a	0.03292779
208	0xbe26b9a0	-0.16281748
209	0x3d42c977	0.047555413
210	0x3e24c656	0.16091284
211	0x3e1126e7	0.14174996
212	0x3d88b1ac	0.06674513
213	0xbe8b4d35	-0.27207342
214	0xbb9b5ec3	-0.004741521
215	0x3d391028	0.045181423
216	0x3e240cc6	0.16020498
217	0x3e4d2f76	0.20037636
218	0x3d76f151	0.06028873
219	0xbd825231	-0.06363333
220	0x3dc4d972	0.09611787
221	0xbe3b9c20	-0.18321276
222	0xbdb1f6a9	-0.08689625
223	0x3cbbd46c	0.02292844
224	0x3c37e188	0.011223204
225	0x3bf94e69	0.007608224
226	0xbccb015d	-0.024780924
227	0xbd1a51c5	-0.037675638
228	0xbe8aad28	-0.27085233
229	0x3e231dab	0.15929286
230	0xbc7a980f	-0.015295043
231	0xbdbcbfb5	-0.09216253
232	0x3cf8c4ac	0.030367218
233	0x3e3676f8	0.1781882
234	0x3d287416	0.041126333
235	0xbcefd70b	-0.029277345
236	0x3e6b29f6	0.22965226
237	0x3ed96eed	0.42467442
238	0xbc56c226	-0.013107812
239	0x3e7ff54e	0.2499592
240	0x3d8320f7	0.06402772
241	0xbe54cec9	-0.20782007
242	0x3ccc210c	0.024918102
243	0x3c8134e4	0.01577229
244	0xbed27289	-0.41103008
245	0xbce1c1d1	-0.02755824
246	0xbef790e7	-0.4835274
247	0x3e869fc6	0.26293772
248	0x3d3d68c5	0.046242494
249	0x3e9978da	0.29975015
250	0xbec13ec7	-0.37743208
251	0x3cd51170	0.026009291
252	0xb94ea640	-0.00019707624
253	0x3d13cbf0	0.03608316
254	0x3d0c16a9	0.034201298
255	0xbc61cb98	-0.013781451

l3.bias f4 [4]
0	0x3d9115a4	0.07084206
1	0xbd96b46d	-0.07358632
2	0x3d975e8f	0.073910825
3	0xbea1804a	-0.3154319
