TD3/saves/traininghall_actor.pth (torch, 518693 bytes, 6 tensors)

l1.weight f4 [400, 18]
000000 35 1f 44 3f 62 f9 84 bf 7d 4a c5 bd 99 11 ba 3e
       0.7661012 -1.0388606 -0.09633348 0.3634155
000010 dc 81 65 3e 37 68 5d be 34 e6 8a bf 39 21 e3 3e
       0.22412819 -0.21621786 -1.0851502 0.44361284
000020 fa 65 e3 be b4 4b 6d 3e 42 56 db 3e 6e 5b c3 bb
       -0.4441374 0.2317341 0.42839247 -0.005961827
000030 ff 96 cb bc fa 12 7d bf 9d 5d ae 3e 0b 31 21 be
       -0.024852274 -0.9885708 0.34055796 -0.15741365
000040 38 38 4c be 00 88 d5 be 42 15 b3 3c d3 19 18 3f
       -0.19943321 -0.41705322 0.021860722 0.59414405
000050 85 eb 30 bf 95 2c 01 bf b7 b4 5c 3e dc 49 73 bd
       -0.69109374 -0.5045865 0.21553312 -0.05939661
000060 89 4e eb be c5 40 d8 bf 72 af 59 3e 71 35 4a bf
       -0.45958355 -1.6894766 0.21258333 -0.78987795
000070 f0 90 83 3f 21 4e 77 bf 22 f7 2b 3f 87 5a 78 bf
       1.0278606 -0.9660359 0.6717397 -0.97013134
000080 dc 78 df 3d 0e f0 5d 3e 33 be 11 bf f9 41 fc 3e
       0.10911724 0.21673605 -0.56930846 0.49269083
000090 ac 2c 93 3f 2b 5c 28 3f af 10 ca bf 0e 44 80 bd
       1.1498008 0.6576564 -1.5786341 -0.062629804
0000a0 b3 6a 37 3f e5 d5 98 bd 96 34 41 bf 40 27 51 3e
       0.71647185 -0.07462672 -0.75470865 0.20425129
0000b0 25 a2 aa bf e1 cc 47 3d 58 3c 80 bf df 3a 4c bf
       -1.3330733 0.048779372 -1.0018415 -0.7977733
0000c0 29 5a 17 3f b6 3f 53 3f ab 82 a4 bd 47 02 30 be
       0.5912195 0.8251909 -0.080327354 -0.17188369
0000d0 25 8d 23 bf 80 5c cb be d1 1a b9 3f a2 58 77 3f
       -0.63887244 -0.3971901 1.4461309 0.9661962
0000e0 b0 09 a9 3f 83 5c dc 3e 68 eb 02 3f af fc 3b bf
       1.3206081 0.4303933 0.5114045 -0.7343244
0000f0 f5 c2 6f bf 57 33 80 bf 6e 90 a6 be f4 bb 60 bf
       -0.93656856 -1.0015668 -0.32532066 -0.87786794
000100 41 fd d9 3e ab d3 bb 3e af 00 f7 be 7f 31 82 3f
       0.4257603 0.36684927 -0.4824271 1.0171355
000110 9f 73 8b 3d f6 08 ca bd 7b 70 a9 be 5d 23 1b bf
       0.06809162 -0.098649904 -0.33093628 -0.60600835
000120 35 dd dd be cc 87 23 40 9b ab eb 3d d4 2d ce 3c
       -0.4333283 2.5551634 0.115073405 0.025168337
000130 99 d2 7a 3e fc 2f c0 be 1b 91 12 3c 14 fa b3 3f
       0.24494399 -0.3753661 0.008945729 1.4060693
000140 59 78 de bd 76 c7 b5 3e 29 cf 0b 3e 87 39 2b bd
       -0.10862798 0.3550374 0.13653244 -0.04180291
000150 1e 66 bb 3f 85 c8 aa 3e 67 38 34 bd 40 cf b1 be
       1.4640539 0.3335611 -0.043999102 -0.34728432
000160 ba 71 25 bd 82 60 5f bf bd 44 66 bf 50 6a 1b bf
       -0.04039166 -0.87256634 -0.89948636 -0.60709095
000170 ad 2b 55 3f 24 ec 12 bf bf 99 f6 3e 21 d9 7d 3f
       0.8326977 -0.5739157 0.48164174 0.9915944
000180 c5 3b e8 be 51 5b a6 bf 50 e2 5d 3e 53 d8 61 bf
       -0.453581 -1.2996618 0.21668363 -0.8822071
000190 32 b6 2c be 6b 74 a2 3e 51 28 52 bf 55 38 7b 3e
       -0.16866377 0.31729445 -0.8209277 0.24533208
0001a0 64 f6 93 3d f0 1a 39 3e f0 8f 5f 3d 15 ff 32 3f
       0.0722473 0.18076682 0.05458063 0.69920474
0001b0 ba 73 ad 3f a1 ea 1d 3f 41 c7 c5 3d f5 5b cb be
       1.3550942 0.6168614 0.09657145 -0.39718595
0001c0 e1 65 11 3e 2e 47 b7 be 69 81 10 bf af ec 06 3f
       0.1419902 -0.35796493 -0.56447464 0.527049
0001d0 c6 8a d7 be 96 75 26 bf 29 d0 ba be 26 07 37 3e
       -0.42098063 -0.6502317 -0.3648694 0.1787382
0001e0 a6 47 c3 3f d2 47 94 be 8d 11 9e 3e 60 e9 4e 3e
       1.525624 -0.28961045 0.30872765 0.20206213
0001f0 e3 54 81 be 61 aa 20 3e c9 9a cc 3e f3 20 8b be
       -0.25260076 0.15689994 0.39961842 -0.27173576
000200 74 e6 2b 3f 72 ac 00 bf 4c 2b 11 bf 0c 50 d8 3d
       0.6714852 -0.5026313 -0.5670669 0.10562143
000210 9d 9f 01 c0 7d d3 40 3f 8a d9 83 3e 0a 7d ba be
       -2.025367 0.75322706 0.25751907 -0.36423522
000220 45 58 0d 3e 4f e5 27 3f 2c 09 2c be 62 1f e6 be
       0.13803203 0.6558427 -0.16800374 -0.44945818
000230 43 ec a3 3e b3 cf 26 3e c5 78 f0 be 9a e1 ff 3e
       0.3201619 0.16290168 -0.4696714 0.49976808
000240 8a a3 f8 3e 4c ad 2b 3f a6 c9 95 bf ea 3b c7 bd
       0.4856227 0.67061305 -1.1702163 -0.097282246
000250 3a 4d 04 3e 05 ce 1b bf f2 56 a4 bf 0e 32 cc bb
       0.12920085 -0.60861236 -1.2839034 -0.006231553
000260 ab c2 f1 be 66 fa 5c 3f f4 a5 cf 3e 0e 43 97 be
       -0.47218832 0.8631958 0.405563 -0.29543346
000270 a8 92 a6 bf aa 66 80 bf 21 a7 17 be 60 6d 54 be
       -1.3013506 -1.003133 -0.14809848 -0.20744848
000280 59 06 f1 be bb 80 51 bf 25 0d ee be 10 d9 03 40
       -0.47075155 -0.8183705 -0.46494403 2.0601234
000290 04 5d e9 3f a5 85 2d 3f 68 c0 87 be aa 48 ac 3e
       1.8231511 0.6778205 -0.26513982 0.33649188
0002a0 1f 52 b5 3f 16 1b d8 3f ee 1c 46 3e 1e a2 77 3e
       1.4165686 1.6883266 0.19346973 0.24182937
0002b0 af 01 45 be a7 0d b2 bd 79 ac 39 bf 63 57 00 c0
       -0.19238923 -0.0869401 -0.725288 -2.0053337
0002c0 26 86 27 bf e4 6f 61 bd 9f 2b a0 bf b2 4f d9 3d
       -0.6543907 -0.055038348 -1.2513312 0.10610904
0002d0 cd a1 c7 3d df ff f8 bf 35 fb 8a 3e 2a b7 8c bf
       0.09747658 -1.9453086 0.2714478 -1.0993397
0002e0 2b 19 1a 3d 90 d1 db be f9 16 f3 be ee 9d 5c 3f
       0.03762166 -0.4293332 -0.47478464 0.8617848
0002f0 36 d3 02 3f 7e 63 98 be 13 0e ba be ad 39 92 be
       0.5110353 -0.29763407 -0.36338863 -0.28559628
000300 30 83 2e 3f 3d b6 cd 3f 8f 1b 32 be 4f 73 ca 3e
       0.68168926 1.607124 -0.17393325 0.39541098
000310 4e 2d 6e 3f 3e 70 8c 3e 2d 2c bb 3f 65 66 96 bf
       0.9303788 0.27429384 1.4622856 -1.1749998
000320 e6 eb 95 bf 27 aa 49 bf bc 69 1f bf 66 b0 ac be
       -1.1712615 -0.78775257 -0.6227071 -0.3372833
000330 e1 80 59 bf 10 c0 8e bf f2 3d 47 3f ff 67 a3 be
       -0.8496228 -1.1152363 0.77828896 -0.3191528
000340 76 f0 c3 be c8 91 57 be 56 30 41 3e a4 f7 09 bf
       -0.38269395 -0.21051705 0.18866095 -0.53893495
000350 a9 4a d9 3c fa e0 de be 3b a7 3e bf f5 05 a2 be
       0.026524859 -0.43531018 -0.74473923 -0.3164517
000360 63 b6 8a be 0b 69 43 c0 2c dc ce bf 0b 17 4d 3e
       -0.27092275 -3.0532863 -1.6160941 0.20028321
000370 45 96 e7 be d2 a3 7f bd 92 48 02 3f 4f e5 2d 3f
       -0.45231834 -0.06241209 0.50891984 0.6792802
000380 66 e1 78 bf 4e cb b8 3e 1d 85 cf be 85 cf aa 3e
       -0.9721893 0.3609261 -0.40531245 0.3336145
000390 63 b1 50 3d 53 29 22 40 73 0a b6 bd c3 b3 9e 3e
       0.05095042 2.5337722 -0.08888712 0.30996522
0003a0 72 c3 fa be af fc e2 3e e2 8a 92 3f fb a4 db 3e
       -0.48977238 0.44333407 1.1448634 0.42899308
0003b0 c0 c0 8b bf db fc 7f be a2 63 fe 3d 07 70 6e 3e
       -1.0918198 -0.249988 0.12421347 0.23284923
0003c0 a0 c2 5b bf 4c 8d 52 3c 00 7d d6 be 22 62 06 3e
       -0.8584385 0.012851071 -0.41892242 0.13123372
0003d0 26 73 ab be 13 c7 b4 3e ea 11 3c 3f 1d 2b 4d bf
       -0.3348629 0.35308132 0.73464835 -0.8014391
0003e0 8e f7 d2 3c 23 86 e8 3c 3a b6 1b 3f df 46 62 bf
       0.025752809 0.028384274 0.6082493 -0.8838939
0003f0 35 72 9b bd e7 4b 05 bc e1 cc 1a 3f 48 35 1d 3d
       -0.07590143 -0.008135772 0.6046887 0.03838089

l1.bias f4 [400]
000000 c7 df 72 bf 83 d9 09 bf 45 bd 75 bf ee ef 1e bf
       -0.9487271 -0.5384752 -0.9599193 -0.62084854
000010 4e 2d 2e be 8e 18 58 be cd 59 94 bd 91 9d 23 bf
       -0.1700947 -0.21103117 -0.07243691 -0.639123
000020 a9 98 1c bf 86 c6 82 3f 0a b1 3d be 19 99 84 bf
       -0.6117044 1.0216835 -0.18524566 -1.0359222
000030 2a b5 ff 3e 9a eb a2 bf f2 cb 5b bf d2 d5 82 bf
       0.49942905 -1.272815 -0.8585807 -1.0221503
000040 fc 92 77 bf 10 6f f8 be bd 61 a3 3d f0 66 5c bf
       -0.96708655 -0.48522234 0.079776265 -0.8609457
000050 10 d1 e2 bf b4 b9 23 bf 5e 82 32 bf e7 37 e2 be
       -1.7720051 -0.63955235 -0.69730175 -0.44183275
000060 fe eb 93 bf 02 9a bb bf 34 d0 99 bf e4 07 6f bf
       -1.1556394 -1.4656374 -1.2016664 -0.93371415
000070 55 ac 36 3f 52 7d 4c bf f4 3c 33 3e da 10 ee 3e
       0.7135671 -0.79878724 0.1750372 0.46497232
000080 05 6b 7f bf a3 de 82 bf 32 c6 70 bf 01 bf ef be
       -0.99772674 -1.0224193 -0.9405242 -0.46825412
000090 a8 bf 39 bf 63 58 61 bf 9b 99 63 bf d0 44 9c bf
       -0.7255807 -0.8802549 -0.8890626 -1.22085
0000a0 6c cc 35 bf 5a 9e 3f bf b0 fc 88 bd 58 d0 8d bf
       -0.7101505 -0.74851 -0.06688821 -1.1079206
0000b0 a4 83 81 3f 78 10 6f bf c9 67 88 bf 2d 0e 3d bf
       1.0118299 -0.93384504 -1.0656673 -0.73849756
0000c0 53 4c 1f bf 34 0e 83 bf 29 d3 00 bf 83 fa 4d bf
       -0.62225837 -1.023871 -0.50322205 -0.80460376
0000d0 36 6d a0 bf 55 06 95 bf 66 46 40 bf 9a f4 96 bf
       -1.2533329 -1.1642557 -0.7510742 -1.1793396
0000e0 6c 3e 83 bf 46 e8 0c bf 1e e4 5a bf cb f0 28 3e
       -1.0253425 -0.5504192 -0.8550433 0.16498105
0000f0 b7 25 a6 bf 64 9a 12 be 78 89 81 3e e7 a1 e3 be
       -1.298026 -0.14316708 0.25300193 -0.4445946
000100 6c 62 82 bc 2f 51 d2 3e 4d 5e a6 bf 04 33 27 bd
       -0.015916072 0.41077563 -1.2997528 -0.040820137
000110 e1 cf d4 be 77 b4 1e bf e7 e6 96 bf 03 5b 13 bf
       -0.4156485 -0.6199412 -1.1789216 -0.5756075
000120 32 60 b5 be 73 8c 83 bf 6e d1 6b bf 41 68 6c bf
       -0.35424954 -1.0277237 -0.9211644 -0.9234658
000130 88 4a c1 bf 4e 82 de bf e9 a9 03 bf e9 77 79 bf
       -1.510087 -1.7383516 -0.5143114 -0.97448593
000140 05 c2 b4 bf ce 91 a9 bf 1e 20 21 bf 7d ac b7 bd
       -1.412171 -1.3247621 -0.6293963 -0.089684464
000150 03 99 0b bf 07 cd 96 bf c1 47 c4 bf cd 7c 74 bf
       -0.5453035 -1.1781319 -1.5334398 -0.9550293
000160 5c 0a 27 bf b0 14 64 3f 84 a9 a6 bf c8 e2 72 bf
       -0.6525018 0.89094067 -1.3020482 -0.9487729
000170 59 4e 39 bf 86 cd 0b bf 64 7a 1b bf d8 44 c8 be
       -0.72385174 -0.5461048 -0.6073363 -0.39115024
000180 46 11 3b bf 31 44 c1 be 43 95 2b bf fd 76 55 bf
       -0.7307323 -0.37747338 -0.6702463 -0.83384687
000190 6e b7 11 3f 91 ad 9d bf e2 f5 96 bf 92 4f 88 bf
       0.56920516 -1.2318593 -1.1793787 -1.0649283
0001a0 37 f1 94 bf cc bd a4 bf 2b 7d b2 bf e6 56 1e be
       -1.1636113 -1.2870421 -1.3944448 -0.15462837
0001b0 e8 4f da bf e9 9e ee be 6e 3d 0e bf 16 45 43 bf
       -1.7055635 -0.46605614 -0.55562484 -0.7627729
0001c0 3e 84 8d bf 53 e5 36 bf 48 4f cb bf 80 d7 76 bf
       -1.1055982 -0.7144367 -1.588357 -0.96422577
0001d0 61 76 4d bf 04 e6 9f 3e ae f5 c6 be 60 b0 93 bf
       -0.80258757 0.31230175 -0.38859314 -1.15382
0001e0 c4 2c 4a bf 3d ca bb bd 4b f7 60 bf 17 50 96 bf
       -0.78974557 -0.09169433 -0.8787734 -1.1743191
0001f0 88 1a 47 bf 9a ee 9b 3f 86 8c 4a bf 1c 7f 02 bf
       -0.7777486 1.218219 -0.7912067 -0.50975204
000200 e5 df 44 bf fd 7a a2 bf e2 cc 1c bf c5 7e 10 bf
       -0.76904136 -1.2693783 -0.61250126 -0.56443435
000210 59 a2 c5 be f8 83 7e bf e7 f7 c4 bf 1e 1b 15 3e
       -0.38600424 -0.9942012 -1.5388154 0.14561126
000220 06 99 25 bf 28 77 82 bf 98 7b 43 bf c5 8c 20 bf
       -0.6468662 -1.0192614 -0.76360464 -0.627148
000230 bc cd 3c bf d4 0e 98 bf 22 0d 62 bf fb 98 28 bf
       -0.73751426 -1.1879525 -0.8830129 -0.6585843
000240 ed 66 0a bf 17 78 88 bf ad aa 33 bf 85 fe 2d bf
       -0.540633 -1.0661649 -0.70182306 -0.6796649
000250 83 0e 26 bf b8 4c f3 be 9a 76 bc bf 6c 3f a1 bf
       -0.64865893 -0.4751947 -1.4723694 -1.259748
000260 c5 52 c3 be a4 57 8d bf 66 38 2b bf 6b 25 8d bf
       -0.38149086 -1.1042371 -0.6688293 -1.1027044
000270 58 e0 8f bf 59 2d 83 bf 4b 5a 68 bf 20 f9 83 bd
       -1.1240339 -1.0248214 -0.90762776 -0.06444001
000280 7e c7 4d bf 6e 6e 93 bf 48 b6 8b bf 6f 32 f0 be
       -0.80382526 -1.1518075 -1.0915003 -0.46913478
000290 42 76 0f bf 43 0f 1d bf 9b cf 2d bf d6 d1 82 bf
       -0.5603982 -0.6135141 -0.67894906 -1.0220287
0002a0 27 bb 8f bf bb b1 59 3e c5 eb 2c 3e 89 e3 b0 bf
       -1.1228989 0.21259205 0.16886814 -1.3819438
0002b0 48 71 87 bf 92 77 53 be c3 c7 87 bf db 36 25 bf
       -1.0581446 -0.20651081 -1.0607837 -0.6453683
0002c0 a2 40 8f bf 3c 8d 93 bf 5f 50 48 bf 89 3c 9d bf
       -1.1191599 -1.1527476 -0.78247637 -1.2284099
0002d0 83 5c 6f be 1c 61 4f bf 12 bb 16 bf 47 94 71 bf
       -0.23375134 -0.8100755 -0.58879197 -0.9436688
0002e0 72 fb e3 be 61 fe 45 bf 81 3a a0 bf fa 87 bd bf
       -0.44527775 -0.77341276 -1.2517854 -1.4807122
0002f0 72 70 c7 bf f3 20 a1 bf d3 ab 1c bf f6 18 62 bf
       -1.558119 -1.258818 -0.6119968 -0.8831934
000300 05 aa 0e 3b e3 38 26 be 9b 2a d2 3e 31 d5 7a bf
       0.002176882 -0.16232638 0.4104813 -0.97981554
000310 cf 2e 70 bf 4c b2 2d bf 2b 92 e8 bd 79 43 54 bf
       -0.93821424 -0.67850184 -0.11356004 -0.82915455
000320 0d f2 23 3f 0f 37 50 bf 04 f5 c4 bf 54 ac 4b bf
       0.64041215 -0.8133401 -1.5387273 -0.79559827
000330 0f e6 32 bf d2 5c 7b bf d1 46 e2 be 98 4a a5 bf
       -0.6988229 -0.9818851 -0.44194654 -1.2913389
000340 d6 dc 74 bf a9 f6 de bf 1c b2 c4 bf 3f ef c0 bf
       -0.9564947 -1.7419025 -1.5366855 -1.5073012
000350 18 3d a0 bf 1a b5 a6 bf 10 64 94 bf d3 27 bb be
       -1.2518644 -1.3024018 -1.1593037 -0.3655382
000360 43 df 2b be 13 b7 12 bf 8d 38 f9 be 91 61 12 bc
       -0.16784386 -0.573106 -0.48675957 -0.008934394
000370 25 9d 82 bf c9 7f b1 bf 22 a4 a3 bf f6 4e 9b bf
       -1.0204207 -1.3867122 -1.2784464 -1.2133472
000380 c7 c3 91 be 09 d6 85 3e 2e ee 34 bf 98 2e 0f be
       -0.2846968 0.26139858 -0.70675933 -0.13982618
000390 c8 ce 32 bf de 7b 6e bf e7 8e a0 bf e7 b1 d6 bf
       -0.69846773 -0.93157756 -1.254361 -1.6773041
0003a0 27 33 06 bf 5b da a7 be 01 92 6e bf 93 9e 0d bf
       -0.524218 -0.3278378 -0.93191534 -0.5532009
0003b0 c5 07 1e bf d5 39 9d bf 84 c3 73 bf 63 f1 ad be
       -0.61730605 -1.2283274 -0.9522021 -0.33973226
0003c0 bc 69 b5 bf 8c 48 a6 bf 70 c3 6a bf cd 4c c3 be
       -1.4172893 -1.299089 -0.91704464 -0.38144532
0003d0 cb f5 74 bf d4 33 5c bf 2f 7a 90 bf d6 37 a6 bf
       -0.9568755 -0.86016583 -1.1287287 -1.298579
0003e0 32 21 c6 bf bb 79 95 be 35 38 7e bf b3 10 bf bf
       -1.547888 -0.29194435 -0.99304515 -1.4926971
0003f0 62 5f 8c bf 8e f2 82 3e c8 88 b7 3f 3a ba c0 bf
       -1.0966609 0.2557568 1.4338617 -1.5056832

l2.weight f4 [300, 400]
000000 83 01 90 bc 5b a9 4f bc 51 0c 4e 3c e2 48 b5 3a
       -0.017578846 -0.012674655 0.012576179 0.0013830925
000010 46 49 3b bd aa c1 f6 3c da 3d d8 bc aa 1f 78 3c
       -0.045724176 0.030121643 -0.02639668 0.015144268
000020 cc be bb b9 64 99 a4 bb 7d f9 27 bd bc 43 4f bd
       -0.00035809574 -0.0050231684 -0.041009415 -0.050601706
000030 6e 59 11 bc 1c eb 62 bd d8 cd cf bc d0 5d 0c 3c
       -0.008871419 -0.0554 -0.025366709 0.0085672885
000040 e9 e4 95 3b 00 26 5a bd 53 cc 0e 3c 2b 18 e3 bc
       0.0045744074 -0.053258896 0.008715707 -0.027721485
000050 1f 7b 55 bc a6 5a 5e 3c 64 e7 83 3b 15 06 72 bc
       -0.013029843 0.013571417 0.0040253866 -0.014771958
000060 cf ab a3 3b 85 46 46 bc 29 10 08 bd 07 53 ed bc
       0.0049948464 -0.012101774 -0.033218537 -0.028970255
000070 fd 1d 39 3d 96 16 ec 3c e6 7e 42 bd 0d 48 9c 3c
       0.045194615 0.028819364 -0.0474843 0.019077325
000080 86 21 ba bb 42 39 58 bd e8 fd 57 3b ce 7d 50 bd
       -0.005680266 -0.05278898 0.0032957736 -0.050901227
000090 9f 28 d2 bc c1 1a 32 bd fe e5 fe bc ca e1 5f bd
       -0.025654135 -0.043482546 -0.031115528 -0.05465869
0000a0 09 50 0a bd dc 13 23 bd ec bb 8f bc 3c 4c 12 bd
       -0.033767734 -0.03981386 -0.017545663 -0.035717234
0000b0 f7 4f ba bc 0d 8e 04 3d d9 ac 5e 3c e6 c8 70 3a
       -0.022743208 0.032362033 0.013591015 0.00091852096
0000c0 27 f8 39 bd 66 f1 52 bc fe c9 c9 bc 39 26 33 3d
       -0.045402672 -0.012874937 -0.02463245 0.043737624
0000d0 67 ca 25 3b 22 83 96 bd ef c0 cf bc 09 94 0d bc
       0.0025297643 -0.0734923 -0.025360553 -0.008641251
0000e0 14 64 dd bc 48 44 ff 3b b4 62 8a ba 5e f2 b1 3c
       -0.02702526 0.007790122 -0.001055798 0.021722015
0000f0 50 24 6f bd 43 31 fd bb 79 a5 c8 3c 7a 66 8c 3d
       -0.05838424 -0.0077268197 0.024492966 0.06855483
000100 12 0f 0d bd 51 2c 5a 3c b9 9c 1c bd a3 71 3b bd
       -0.0344382 0.01331623 -0.0382354 -0.04576267
000110 55 36 0c bd 83 c9 52 bd 13 59 de bb c5 c9 65 ba
       -0.034231503 -0.051461708 -0.006785521 -0.0008765723
000120 1b 59 30 bd 59 2f 60 bd e7 96 82 3c fb 6f ec bc
       -0.043053728 -0.054732654 0.015941096 -0.02886199
000130 7a 2e ac 3b dd b5 f3 bc 5f f1 f1 bc 33 43 47 3c
       0.005254564 -0.029749805 -0.02953404 0.012162018
000140 bd 75 97 bd bd a8 4b bd f7 09 28 bc 29 87 93 bc
       -0.07395504 -0.04972147 -0.010256282 -0.018008785
000150 05 f6 55 bd 22 a6 22 bd 76 a1 a1 bd 62 63 08 bd
       -0.052236576 -0.039709218 -0.07892124 -0.033297904
000160 21 14 24 3b 84 bf 59 bd e4 9a 57 3c 27 13 fa bc
       0.0025036412 -0.05316116 0.013159487 -0.03052671
000170 69 74 81 bc 97 00 5d bc 6d fb 87 bd 54 81 87 bd
       -0.015802579 -0.01348891 -0.066397525 -0.06616464
000180 82 0a 03 bd d7 ed 5d 3b 51 c9 a9 bd 94 f6 98 bd
       -0.031992443 0.0033863687 -0.08290351 -0.07468906
000190 b3 79 c6 3c fb 38 1b bc 16 2d 23 3d 6d c2 ef bc
       0.024227953 -0.009474034 0.03983792 -0.029267514
0001a0 39 a9 3f bd 15 02 d9 3c 02 e3 56 bd 7d c2 4a bd
       -0.046792243 0.02649025 -0.052462585 -0.049501885
0001b0 d4 ec 87 bd 3a b7 de bc e4 78 d1 bc e8 2a 11 bd
       -0.06636968 -0.027186979 -0.02557034 -0.03544131
0001c0 89 ed 05 bd 75 12 85 3c 2c 4b 48 bc 89 9f 5d bd
       -0.032697234 0.016244153 -0.012224954 -0.054107223
0001d0 c6 30 50 bd d2 a7 57 bb 84 29 ed bc 07 c0 11 bd
       -0.050827764 -0.0032906425 -0.02895046 -0.035583522
0001e0 81 c9 49 bd 0b 2a 4a bc 67 d2 15 3c ce 44 53 bc
       -0.049264435 -0.012339125 0.009144402 -0.012894822
0001f0 29 49 8d bd e7 46 60 bc 17 4a 88 3c 58 cd f5 bc
       -0.0689872 -0.013688779 0.016636891 -0.030005142
000200 86 6d 19 bd 02 1c 0f 3c ad 5e 37 ba e8 c1 47 bd
       -0.037457965 0.008734705 -0.0006995004 -0.048768908
000210 86 d1 2a bd 9c 64 82 bd 3f 2b e2 3c 32 cf a6 bd
       -0.041703723 -0.06366846 0.027608512 -0.08144988
000220 55 62 3a bd 5b fe 78 3c ed 29 3d bd 1a f1 67 3c
       -0.045503933 0.015197362 -0.04618256 0.014156604
000230 80 8f 97 bc 5b ea 8c bc 7c aa 83 bd 4a 8b 10 3d
       -0.018501043 -0.017201593 -0.06429002 0.035289086
000240 69 0b 26 bc 01 5d cb bc d5 e5 e8 3c 1a cc 1a bd
       -0.010134556 -0.024824621 0.028429905 -0.037792303
000250 eb 03 7e bc 85 e3 9b bc 22 4f bd 3c ea 3d 7e bd
       -0.015503864 -0.019029388 0.023109023 -0.062070765
000260 90 1c 31 bd ad 79 8f bc 9e f8 15 3c 0d e1 13 bd
       -0.04324013 -0.017514074 0.009153513 -0.036103297
000270 90 69 22 bd 35 b2 4b bd 0b 1a 93 bc 78 1e 0c 3d
       -0.039651453 -0.0497305 -0.017956754 0.034208745
000280 bb 24 9d bc 5a d4 1f 3d 50 a2 c6 bc 65 a4 a0 b9
       -0.019182554 0.039020874 -0.024247319 -0.00030640062
000290 8c 1c ad bc 9a 48 84 bd a6 23 2a bd 7b fa 3e bd
       -0.021131776 -0.0645916 -0.041537903 -0.046625596
0002a0 c0 78 7f 3c cd 68 19 bd f9 57 f7 bb fa 12 ad bd
       0.015592754 -0.03745346 -0.007548329 -0.08450885
0002b0 be 46 15 bc ed 38 a7 3c 9b 72 a2 bb c6 da b3 bc
       -0.0091111045 0.020412887 -0.0049575097 -0.021954905
0002c0 6b b5 bb 3a d8 0b 6f 3b c7 19 15 3d 9d 1f ba ba
       0.0014321035 0.0036475565 0.036401536 -0.0014200095
0002d0 ce f5 ee bc 37 e7 97 bd 47 cb ff 3c bf cb e1 3c
       -0.029169943 -0.074171476 0.03122486 0.027562974
0002e0 46 55 9e bc 3a f3 cc 3c 10 bf 14 bd e9 b3 94 bb
       -0.01932777 0.025018323 -0.036315024 -0.0045380485
0002f0 d7 3a 9c 3b c3 34 7c 3c 14 2f 81 3d 25 64 95 3c
       0.0047677564 0.015393439 0.063078076 0.01823623
000300 46 56 e4 3b 07 52 f2 3c 20 9a 8a 3c 1a 7d f8 3a
       0.0069682924 0.02958013 0.016919196 0.0018958182
000310 cc 72 e4 3a 55 60 57 bd fd fa ab bc 22 92 8b bc
       0.0017429232 -0.052582104 -0.020993704 -0.017037455
000320 85 15 c5 bc 44 2f f7 bc 85 a2 ed bc 1e 60 30 3b
       -0.024058113 -0.030173905 -0.02900816 0.002691276
000330 34 be 57 bc e1 61 22 bd 2b bd 5c bd 45 56 97 3d
       -0.013167907 -0.039644126 -0.053891342 0.073895015
000340 ee 0f 9f bd 44 5e 39 bd 05 68 9c bc 32 a2 93 bd
       -0.0776671 -0.045255914 -0.01909257 -0.07208671
000350 19 df 0f 3d ce e0 26 3d a4 14 ff 3c c5 bf a4 bd
       0.035124872 0.040741734 0.031137772 -0.0804439
000360 bb 8d 7a bd 39 bc 63 3c e1 e6 11 3b bc 6e 8f bd
       -0.06117032 0.013899856 0.0022262859 -0.07003543
000370 fc f9 32 3a 69 ed 13 3c 7f b5 89 bd bb d4 b7 ba
       0.00068274117 0.009028771 -0.06724071 -0.0014025191
000380 b7 b5 5b bd de 88 b5 3b eb 2b 17 bc 78 92 98 bb
       -0.053640094 0.0055399975 -0.009226779 -0.0046561323
000390 92 ba 8f bc 94 f4 0a 3d 86 a3 8f bd ed 31 41 bd
       -0.017545018 0.033924654 -0.070136115 -0.047166754
0003a0 7f 48 64 bc 07 08 4d bd 80 1d 8e bd 0d e8 a4 bc
       -0.0139333 -0.050056484 -0.069392204 -0.020130182
0003b0 59 5c 17 bd 40 bd 1c 3d 38 dc 1e 3d a0 51 dc 3c
       -0.036953304 0.03826642 0.038784236 0.02689439
0003c0 bb 7a 31 bd 25 f5 18 bd dd af 92 bc a8 0e 3a bd
       -0.043329936 -0.037343163 -0.017906124 -0.045424134
0003d0 05 83 1c bd cb a0 22 3d b1 28 9e bb d1 66 02 3c
       -0.038210887 0.039704125 -0.004826628 0.007959084
0003e0 09 8c a8 bc 44 4a 58 bc 98 68 3f bd 4b 13 36 bd
       -0.020574586 -0.0132013 -0.046730608 -0.044451993
0003f0 2a 48 b2 bc 85 05 5f bd d7 c4 36 bd ea a0 1c 3d
       -0.021762926 -0.054448623 -0.044621315 0.038239397

l2.bias f4 [300]
000000 be d2 ce bc 08 6c 03 bf 58 92 85 be 84 98 ef be
       -0.025246974 -0.5133672 -0.26088214 -0.46796048
000010 51 ab 9f bd 9f bc 52 be a9 b8 a6 be 01 65 4e be
       -0.07796348 -0.20579766 -0.3256276 -0.20155717
000020 b0 32 b6 be 04 76 b9 be 42 f1 ce bc ef f9 30 3c
       -0.35585546 -0.3622285 -0.025261525 0.010801776
000030 33 54 e2 bc 6e 14 b2 3e b8 f6 59 bd de b5 49 bf
       -0.02762804 0.34781212 -0.053213805 -0.7879313
000040 d3 ab 93 be e5 68 a3 be b6 eb af 39 f4 43 4f bf
       -0.2884203 -0.31915966 0.0003355422 -0.80963063
000050 ac 2f 59 bf 8a c9 0e be ca c0 dd be 52 96 ce bb
       -0.84838367 -0.13944069 -0.4331115 -0.0063045407
000060 54 86 9d bd 65 dd 1c bf b1 d5 85 bc 8f 04 2b 3c
       -0.07691637 -0.6127532 -0.016337248 0.010438099
000070 6f df 06 3f 8d b3 c5 3e 17 b7 e8 be 71 f6 8d 3c
       0.5268468 0.3861355 -0.45452186 0.017329426
000080 91 e8 e7 be 6c 6c 38 3f 29 81 0f bf 46 8f 2c bf
       -0.45294622 0.7204044 -0.5605646 -0.6740612
000090 d2 b9 1b 3e 41 e9 98 be 09 c7 60 bd e1 db 33 be
       0.15207604 -0.2986546 -0.054877315 -0.17564346
0000a0 2f f9 14 bf c7 46 d1 be 23 e5 1d be 1d 23 37 3e
       -0.58192724 -0.4087431 -0.1541944 0.17884488
0000b0 c4 63 d2 bc 55 d1 d4 bd 21 cb ac be 95 e0 2c 3d
       -0.025682338 -0.103914894 -0.33748725 0.042206366
0000c0 34 13 88 bc 15 31 0b bf a1 7b 18 bf ec 7b 2a bf
       -0.01661072 -0.5437177 -0.5956364 -0.6659534
0000d0 bf e6 ac be c3 44 47 bf 43 73 b6 3e 39 25 de be
       -0.33769795 -0.778393 0.35634813 -0.43387774
0000e0 db 3e af be d4 99 0e bf 6d e6 fc be 00 aa 42 be
       -0.34227642 -0.55703473 -0.4939455 -0.19010162
0000f0 5d 55 4c bf 74 72 0f bf 8e b8 fc be cf ea 0d bf
       -0.79817754 -0.56034017 -0.49359554 -0.55436414
000100 a7 4c 03 be 3c b6 38 bf 09 2a 85 bd d3 32 6f 3c
       -0.1282221 -0.7215307 -0.06502158 0.01459952
000110 b1 11 09 bf b8 a1 e8 bd bd 7a 01 3e d4 7d b0 be
       -0.5354262 -0.113589704 0.12644477 -0.34471
000120 ea f4 90 bd 23 b7 0a bf 30 d5 12 bf b4 be 01 bf
       -0.07077964 -0.54185694 -0.5735655 -0.50681615
000130 84 27 19 bf 34 5a a6 bd 1d 95 9c 3e c6 0b d5 be
       -0.5982592 -0.08122674 0.30582514 -0.41610545
000140 81 d7 2b 3d d2 82 da bc 33 44 77 bd f2 d0 0a bf
       0.041953567 -0.026673708 -0.060367774 -0.54225075
000150 f3 95 31 be 34 b7 ac bd 44 83 d9 bd 25 ed e8 be
       -0.17342357 -0.08433381 -0.1062074 -0.45493427
000160 75 1b 5b bf b3 28 fc bc 7d ca 9b be d1 1b 10 bf
       -0.8558877 -0.030781126 -0.30427924 -0.56292444
000170 39 17 33 bf 79 22 9c 3e c4 8a a5 bd eb af 92 3d
       -0.6995731 0.3049505 -0.08083108 0.0716246
000180 bc 55 ed be db 3e 9e be 8c 25 92 bd 66 d8 6b 3e
       -0.46354473 -0.3090733 -0.07136068 0.23031768
000190 b0 31 3a bf c2 25 ec be e8 af 05 3e 67 bc 9f bd
       -0.7273207 -0.46122557 0.13055384 -0.07799607
0001a0 35 5c 54 bd be a6 0c be 31 7c 10 bf c9 ef 1b 3f
       -0.051845748 -0.13735482 -0.564395 0.6091276
0001b0 b0 1d c0 be 1f aa 31 bd 92 35 29 be c7 28 29 be
       -0.3752265 -0.04337513 -0.16524342 -0.16519462
0001c0 68 0b 18 bf 51 0d 89 bf c5 e2 22 be 01 f2 74 bd
       -0.59392405 -1.0707189 -0.15906818 -0.059801105
0001d0 1b 60 10 bf 28 89 1b be 81 88 f9 3c 46 ab e3 3d
       -0.56396645 -0.1518904 0.030460598 0.11116652
0001e0 8f 80 22 bf fc d5 05 3c da 94 fc 3e a5 1c 59 bd
       -0.63477415 0.008168694 0.49332315 -0.053005833
0001f0 f0 dd 36 3e ea cb 4b bd f2 9b 34 bf a4 8f 4f be
       0.178581 -0.049755014 -0.70550454 -0.20269638
000200 07 a8 5b bf 3a b6 7c bd 81 5c 0a be ed 83 06 bd
       -0.85803264 -0.061697222 -0.1351185 -0.032840658
000210 3b 64 29 bf 1b dd 0c bf da b5 6a bd ed 82 dd bb
       -0.66168565 -0.5502488 -0.057302333 -0.0067599923
000220 4e 35 f9 be cf 8b 18 bd a0 66 2c bf 87 c0 10 bf
       -0.4867348 -0.037242707 -0.67344093 -0.56543773
000230 4e d5 2d bf fa c7 67 bf 0b 39 05 3f 5f e3 cb 3b
       -0.679036 -0.90539515 0.52040166 0.006222173
000240 3a 66 cc bd da ce 73 be ff 7b 2a bf af 6e 22 bf
       -0.09980436 -0.23809376 -0.66595453 -0.6345014
000250 00 4c e1 3e 00 db 04 bf c1 2b 2a bf f7 a5 9d bc
       0.44003296 -0.5189667 -0.66473013 -0.019244177
000260 83 e0 b2 be e7 8b de bd 88 88 99 bd 80 ec 5c be
       -0.34936914 -0.10866528 -0.074967444 -0.21574593
000270 79 6a 0e bf 92 71 be 3e ca 38 4e bd 94 8a 38 bf
       -0.55631214 0.37196022 -0.050347127 -0.72086453
000280 c8 ff 37 bf 2c 7e 45 3e c8 ce b7 be ce 4d 64 3e
       -0.71874666 0.19286412 -0.3589995 0.22295305
000290 93 39 5d bf e8 5e e3 bc 25 a7 b3 be a3 51 d3 bb
       -0.86415976 -0.027755216 -0.3508846 -0.006448941
0002a0 41 d7 0d bf 1f b5 06 bf 55 a4 68 be d6 1d 28 bf
       -0.55406576 -0.5262012 -0.22718938 -0.65670526
0002b0 6c 6c 9f 3e c8 ea 4d bf cc 47 ac be 97 65 7b bd
       0.31137407 -0.8043637 -0.33648527 -0.06137618
0002c0 9e f5 0e bf 0d 24 aa be 9b 19 ca be 8a ec a1 be
       -0.5584353 -0.3323063 -0.3947266 -0.31625777
0002d0 d1 58 e9 3d f0 4e 16 3e 43 df 20 bf 0c 00 03 bf
       0.113938935 0.1467855 -0.6284067 -0.51171947
0002e0 fd e7 15 bf 45 5c aa be 83 4b f2 be 4b 75 2c bd
       -0.5855711 -0.3327352 -0.47323236 -0.042104047
0002f0 63 2e 12 be 38 30 fb bc 9d 26 78 3d 4e 43 9b 3c
       -0.14275508 -0.03066264 0.0605837 0.018952992
000300 23 ae 08 3f c5 68 f1 be 19 d1 a1 bd c9 ac c5 be
       0.5339071 -0.47150245 -0.0790121 -0.38608387
000310 00 44 08 bf e5 51 03 bf 7a 17 1d 3f 96 13 0f 3b
       -0.5322876 -0.51296836 0.6136395 0.0021831742
000320 96 4c eb be 7e 9b dc bc d7 9d 5e bf 22 67 1c bf
       -0.45956868 -0.026929613 -0.86959594 -0.6109487
000330 d5 e2 a1 bd 43 07 95 bd d3 b4 a6 3d 4f 82 4d bf
       -0.07904593 -0.07276776 0.08139958 -0.8027696
000340 c4 05 55 bd 55 70 19 be 13 7d 0d bf 13 a4 ca be
       -0.05200745 -0.14984258 -0.55268973 -0.39578304
000350 2a 1c ce be ac a0 cd be f0 b2 40 bf db 85 c3 be
       -0.40255862 -0.40161645 -0.75273037 -0.3818806
000360 40 36 d7 be c7 a3 e3 be 4d ed bd ba 85 ea 98 bd
       -0.42033577 -0.4446089 -0.0014490277 -0.07466606
000370 b4 e2 25 bf 5f 65 09 3e 05 3e 97 be ec 9e 0d bf
       -0.64799047 0.13417576 -0.29539505 -0.5532062
000380 77 8a 16 bd cd 4b 91 bd 48 49 4c be 50 d6 8d bd
       -0.036753144 -0.07094536 -0.1994983 -0.069256425
000390 96 b7 b5 be 42 3b 98 3c 63 63 cf 3d f9 59 0b bf
       -0.35491627 0.018582944 0.101263784 -0.5443416
0003a0 16 c6 84 be 7f ea 07 bf be 48 16 bf 41 54 8d bd
       -0.25932378 -0.5309219 -0.58704746 -0.06900836
0003b0 89 32 86 bc 68 32 d1 be 4f 22 19 bf 02 64 11 be
       -0.016381519 -0.4085877 -0.59817976 -0.14198306
0003c0 f7 a0 d6 be 85 d3 98 3b e8 08 5f bf d9 f1 9e 3e
       -0.4191968 0.004663887 -0.87122965 0.3104389
0003d0 a9 78 ac 3e 69 00 1d be bc 9d 4c 3c 60 e7 a7 bd
       0.33685806 -0.15332188 0.012488779 -0.08198428
0003e0 4b e0 eb be 62 6f de bc 88 9b 2f bd e2 8e 99 be
       -0.4606956 -0.02715272 -0.042872936 -0.29991823
0003f0 64 00 96 be 49 1d 10 bf 5f f8 26 bf 40 dc 34 bf
       -0.29297173 -0.56294686 -0.65222734 -0.70648575

l3.weight f4 [4, 300]
000000 a8 dc 8a 3b 77 65 80 bf de ea 32 be 31 70 93 be
       0.00423773 -1.0030965 -0.17472407 -0.28796533
000010 3b 1c 35 3d 98 be f3 3c 39 25 0a 3e ca 81 94 3e
       0.044216376 0.029753968 0.13490762 0.2900527
000020 98 cf 3d bf 03 ca 00 be 2e b2 0a bd 34 d5 80 3d
       -0.7414489 -0.12577061 -0.03386133 0.06290665
000030 c1 e4 43 bd 77 02 79 3f f0 7f 25 bd 24 cb 84 3e
       -0.04782558 0.97269386 -0.040405214 0.25936234
000040 72 95 95 3e 3e 7b ec bc 7a d5 d4 3c ac fa 0e be
       0.2921558 -0.02886736 0.0259807 -0.13962811
000050 7d 95 1d bd 22 06 16 3b ec 4a 84 3e 47 04 91 3b
       -0.03847264 0.002289184 0.2583841 0.0044255587
000060 f7 50 25 bc 40 27 0b 3d b7 e6 db 3b 9a f4 2f 3d
       -0.010090104 0.03397298 0.006710853 0.04295788
000070 6c a7 8b 3e 3e 5a dd 3f 20 ef a8 3d d8 9f a5 bc
       0.2727617 1.7293165 0.082487345 -0.020217821
000080 bf 88 ed 3e e5 8a a4 bf 5d d4 08 bf dc 38 bb 3e
       0.4639339 -1.2854887 -0.5344904 0.36566818
000090 82 bd 1a be e8 2b 25 3d bc 4c 06 bd de 24 b4 be
       -0.15111354 0.040325075 -0.032788023 -0.35184377
0000a0 36 65 62 bf a7 54 7c be a0 fc 25 bf f7 b1 90 3f
       -0.88435686 -0.24641667 -0.648386 1.130431
0000b0 cc 9b 18 3f d3 b2 9f 3d 25 13 c8 be 4f 9d a8 3e
       0.5961273 0.0779778 -0.39077106 0.32932517
0000c0 91 be 0a 3d ac 98 81 3d 36 e5 93 be 33 26 26 bf
       0.033873145 0.06327948 -0.28885812 -0.6490204
0000d0 79 43 ca be 1b 04 af 3d 2e 06 fc bb e0 ef 41 bd
       -0.39504603 0.08545705 -0.0076911664 -0.047347903
0000e0 83 95 a7 3f 4d 2c 1e bd 60 5b f9 be 83 95 31 3d
       1.3092502 -0.038616467 -0.48702526 0.043355476
0000f0 4f e5 31 3f 56 20 e2 3e 3d 09 39 3e 4c f7 1f 3f
       0.6949052 0.44165295 0.1806993 0.6248672
000100 3a 62 01 3d 2b e0 d3 3e 5e c8 04 bd 6a 8d 36 ba
       0.031587817 0.41381964 -0.032417648 -0.00069638214
000110 da 6a cf 3c 37 b2 6a 3f 7a f6 e2 be 1b b6 18 be
       0.025319505 0.91678184 -0.44328672 -0.14913218
000120 95 d2 61 bd ee 2d 95 3f 74 a4 15 3f 0a 2f 05 3f
       -0.055132467 1.1654642 0.5845406 0.520249
000130 84 8a 15 3f 25 9e e6 bc c0 7e 72 bf fd 9c ac 3f
       0.58414483 -0.028151581 -0.94724655 1.3485409
000140 26 12 82 3e 33 37 9f bc 9d 28 11 3d bc 45 5c 3e
       0.2540447 -0.0194355 0.035439122 0.21510977
000150 fc 08 b3 bf c7 73 3a bc f6 08 71 bf 5c 06 e1 be
       -1.3987117 -0.0113801425 -0.941543 -0.43950164
000160 81 cd 88 3e 83 25 e1 bc 26 2b ba 3e f2 ea 86 be
       0.26719287 -0.027483707 0.36361045 -0.26351124
000170 80 a0 74 bf e3 7b 4f bf 61 0d 75 3c b2 f9 6b be
       -0.95557404 -0.8104841 0.014956803 -0.2304447
000180 26 ab 7e be e7 6c c5 be 65 0e 56 bd 79 4f 14 bf
       -0.24869975 -0.38559648 -0.05225982 -0.57933766
000190 7a 8d 67 3e ee 29 81 be ec 27 94 3f 63 37 a8 3c
       0.22612563 -0.25227302 1.1574683 0.020534223
0001a0 ca 2e 80 b9 ef 88 d9 3d 5a d4 a6 3e 3f 5c 36 bf
       -0.00024448923 0.10621821 0.32583886 -0.71234506
0001b0 4f 68 82 be e2 9c 08 3d 3e bc 4a 3d c3 b0 b6 be
       -0.25470206 0.03335274 0.049495928 -0.35681733
0001c0 89 f6 d1 3d 5e 94 92 be 7c 38 dc 3e c9 12 48 3d
       0.10252101 -0.2862882 0.43011844 0.04884604
0001d0 11 5b 4a be da 00 e7 be 49 2a 52 bf 47 f3 d5 be
       -0.19761302 -0.45117837 -0.8209577 -0.41787168
0001e0 96 08 a5 3e 48 9a c4 bc 14 17 1b bf be 0f 5f bb
       0.32233113 -0.023999348 -0.6058209 -0.0034036483
0001f0 6d 7e 64 3e dc 7a 85 3b bc e6 91 be 1b 20 f2 bc
       0.22313853 0.004073484 -0.2849635 -0.029556325
000200 cd f1 59 3e eb d8 18 bd 18 27 d0 3e 4e 1a 19 bd
       0.21283646 -0.037316244 0.40654826 -0.0373786
000210 ab 38 d7 bf af dd 2e 3f 2e b7 1f bf bc 55 7e 3b
       -1.6814169 0.6830701 -0.62388885 0.0038808426
000220 c8 3e 6f 3e ba eb d4 39 df d9 f1 bd 09 65 5e 3f
       0.23363793 0.0004061142 -0.11809134 0.8687292
000230 57 4c 84 3e d1 a8 a0 3d 14 d4 77 bf 4f d2 eb bc
       0.25839493 0.07844699 -0.9680798 -0.028786806
000240 4e e9 96 bf 09 69 b0 be 27 2c 3d 3d 38 45 e0 3d
       -1.1789949 -0.34455135 0.046184685 0.109507024
000250 ce 3b 8c 3f 16 48 9f 3d 49 80 84 be 65 d7 ad 3f
       1.0955751 0.07777421 -0.25879124 1.3581358
000260 9e 7c 83 be 6d 37 92 bc 15 30 98 3a 07 7d b3 3e
       -0.25681013 -0.017848695 0.0011611009 0.35056326
000270 3e 0b c0 be f4 9c 92 be ed 32 e9 3e ed c5 08 bd
       -0.37508577 -0.2863537 0.45546666 -0.03339188
000280 c6 ad 82 3d 90 58 61 3f 7a f4 c8 be 2b 17 51 bf
       0.06380801 0.8802576 -0.3924902 -0.81675977
000290 bf 24 15 bf c8 12 19 3d ba 39 8e bd fe c1 d5 3c
       -0.58259195 0.037371427 -0.06944604 0.02609348
0002a0 17 36 04 3e 2d a6 92 bf 8c 88 1a bd 18 20 86 3e
       0.12911259 -1.1456963 -0.037727877 0.2619636
0002b0 57 e0 cb 3f 39 d9 9d 3e 10 09 63 be 9f 4a e0 bb
       1.5927838 0.3082979 -0.22171426 -0.006844833
0002c0 cf 8b ad 3e 02 45 dc be 44 f0 95 bf cd 30 32 3f
       0.33895728 -0.430214 -1.1713948 0.69605714
0002d0 20 65 55 3e 62 9f d3 3e 08 02 de be 91 6a a8 3c
       0.20839357 0.41332537 -0.43360925 0.020558627
0002e0 7b 12 47 3e d1 91 89 be 99 93 80 3e 10 b9 0a be
       0.19440643 -0.26869062 0.25112608 -0.13547158
0002f0 3e ef 22 3f 6d 74 d4 bd 8d e9 78 3f cd e4 c1 bc
       0.63646305 -0.10373769 0.9723137 -0.023668671
000300 9f 64 71 be 50 85 cf bd 5f 51 1d bd 56 3b c0 3e
       -0.2357354 -0.10132849 -0.03840768 0.3754527
000310 a4 14 72 3f f5 a8 4c 3f e7 f8 c8 bf 7a 11 11 3f
       0.94562745 0.7994531 -1.5700959 0.5666729
000320 be 23 9a 3e 74 ba 12 bd 2e 21 1d bf 71 8f 13 3f
       0.30105394 -0.035822347 -0.61378753 0.5764075
000330 3b 35 00 3b 3f ec f1 bc 49 d2 0d bf 8e 2c a9 3d
       0.0019562978 -0.029531596 -0.55398995 0.08260451
000340 9e 4c e8 3c 26 29 5d be 05 94 91 bc 81 cc 87 3f
       0.028356846 -0.21597728 -0.017770777 1.0609285
000350 e8 a5 e3 3d 9a b3 cd bd 0a a4 a8 3e 26 7c 0b 3f
       0.111156285 -0.10044022 0.32937652 0.5448631
000360 b7 56 21 bf 4d 79 6b 3e e9 cc fe 3b fa ff a1 3c
       -0.6302294 0.22995491 0.007775892 0.01977538
000370 d4 d6 8d bf 9e 6a b9 be c0 0b 0d 3f 3a 0d e2 3c
       -1.1081185 -0.36214155 0.55096054 0.027594198
000380 65 6a 99 3b 6c 37 81 bc 38 c4 b8 bd b6 91 14 bf
       0.0046818727 -0.015773498 -0.09021801 -0.5803484
000390 71 47 9c bd 0b 8e 26 bf 44 58 5c bf 98 ec c5 3e
       -0.07630814 -0.6506049 -0.8607218 0.3865707
0003a0 45 34 f0 3e d9 3f 97 3e ec 60 04 be 53 9e 23 bd
       0.46914878 0.295409 -0.12927598 -0.03994591
0003b0 e0 6e 09 bd 67 b1 e7 3e b7 ca 88 bf 0a 85 17 3e
       -0.033553004 0.45252535 -1.0686864 0.14796844
0003c0 2a 0d 2c bf 57 c1 89 bc 0d fa 72 bf 36 37 66 be
       -0.67207587 -0.016815824 -0.949128 -0.22481999
0003d0 c3 56 81 3e 72 46 14 be f4 79 98 bc be d8 8b 3b
       0.25261506 -0.14479998 -0.01861284 0.004267781
0003e0 dc 37 be be 8a 23 a3 bc 01 09 b8 bb ad 3b 8d bf
       -0.37151992 -0.019914407 -0.0056163077 -1.1033837
0003f0 84 ed cf be 08 f0 90 3c f1 6d 99 be 89 2d 82 be
       -0.40610898 0.01769258 -0.2996669 -0.25425366

l3.bias f4 [4]
000000 d6 94 2c 3f af 6d 4e bd 52 2e 7b 3d 7d 76 e1 3d
       0.67414606 -0.05039757 0.06132347 0.11008928
